models/film_gpu_95d4.model (torch, 183901 bytes, 78 tensors)

conv1.weight f4 [8, 2, 5, 5]
000000 99 56 f1 3d 2e c8 20 3e da 7d c5 bd ac 74 9e 3d
       0.11784095 0.15701362 -0.09643145 0.07737097
000010 3d 4a e7 3d 54 40 62 bd 98 d9 be 3d 8f d8 7c 3d
       0.11293457 -0.05523713 0.093188465 0.061729964
000020 08 93 22 be d7 ac cb bd 7b d2 5b be 8c 10 d8 be
       -0.158764 -0.09945076 -0.2146701 -0.42200124
000030 82 af 94 be af 43 94 be 36 e4 91 be 06 fe 23 3b
       -0.29040152 -0.28957888 -0.28494424 0.0025023236
000040 45 83 cf 3b 94 60 d9 bc 4e 3f 13 bc 7d df 8a 3d
       0.006332787 -0.02653531 -0.008987261 0.06780908
000050 ad 80 89 3e b1 de 63 3d e6 e0 70 3e d5 ef 71 3e
       0.26855984 0.055632297 0.23523292 0.23626645
000060 f6 91 3c 3e 2a ac 00 3e 38 df 6b 3d 9c a5 fc 3c
       0.18415055 0.12565675 0.057585925 0.030840687
000070 a0 77 fd 3d 43 62 23 3e 9b 2d c8 3d 34 a0 cd bc
       0.12376332 0.15955453 0.097743236 -0.025100805
000080 d6 80 07 bd 7b b6 87 bd 7c c1 d4 bd 47 c1 f0 bc
       -0.033081852 -0.06626602 -0.10388467 -0.029389037
000090 41 5a 91 be dc 33 85 be cb 77 b4 be f7 58 bb be
       -0.2838917 -0.26016128 -0.35247645 -0.36591312
0000a0 71 10 f3 3d 94 75 cd bb 23 4a 9c 3d f6 48 af bd
       0.1186837 -0.00627012 0.07631328 -0.08558838
0000b0 de 76 b5 bc ef b9 84 3e e1 44 96 3e 61 2b 41 3d
       -0.022151407 0.25923106 0.29349425 0.04716051
0000c0 28 d0 54 3e e4 12 fd 3c b6 b1 fb 3c 9f 57 2a 3e
       0.2078253 0.030892797 0.030724388 0.16634987
0000d0 a5 fb d6 3d 8f d3 95 bd 39 3c aa bd 1c 35 2a 3d
       0.10497216 -0.07315742 -0.08312268 0.041554555
0000e0 44 e9 78 3e 41 5f 4c 3e ac 10 d1 3d 9b 0b 61 3e
       0.24307734 0.19958211 0.10208258 0.21977083
0000f0 b1 77 03 be 68 89 0c bd a2 96 89 3c 81 6a 4e 3c
       -0.12838627 -0.03431073 0.01679546 0.012598635
000100 65 27 17 bd fa e8 f9 bd 90 89 60 bd 07 db d0 be
       -0.036902804 -0.1220264 -0.05481869 -0.40792105
000110 68 20 bc be be a1 50 be 1e 1f b1 be b8 74 7f be
       -0.36743474 -0.203742 -0.34594053 -0.24946868
000120 7c 1f db be de 5c b0 be 2a 39 ac be 8c ad af 3b
       -0.42797458 -0.34445852 -0.33637363 0.0053612646
000130 ee 5f 3a 3e 1e b8 b7 3c 69 9f 04 be b3 a7 2b bd
       0.18200657 0.022426661 -0.12951435 -0.041907977
000140 b3 a5 49 bd a8 31 bf 3e f3 f2 8e 3e 00 f3 a9 3e
       -0.04923029 0.37342572 0.2791973 0.33193207
000150 fe 29 82 3e 26 01 40 be 43 85 a9 3c 00 36 f5 3c
       0.25422662 -0.18750438 0.020693427 0.029932976
000160 03 d6 0e 3d 0a 7a 62 be 91 e0 b0 be c2 77 33 be
       0.034872066 -0.22116867 -0.3454633 -0.17526153
000170 48 02 72 be 4a d0 de be 8e 9f 51 be c4 b5 c2 be
       -0.23633683 -0.43518287 -0.20471022 -0.380293
000180 88 4c 82 be 99 ca 02 bf 19 b3 ad be 4f 35 6b be
       -0.25449014 -0.5109039 -0.33925703 -0.22969554
000190 7d b6 01 be e5 80 41 3e 46 2a d7 3e 44 ae c3 3e
       -0.1266727 0.18896826 0.4202444 0.38218892
0001a0 f6 63 12 bd f3 ea 05 bd 48 12 8c 3e 05 23 bb 3e
       -0.03573986 -0.03269477 0.27357697 0.36550155
0001b0 84 c7 f7 3e 1b b8 b2 bd b6 a6 6f 3d ea 23 85 3e
       0.48394406 -0.087265216 0.058508597 0.26003963
0001c0 b9 8e dd 3e 61 d0 b8 3e 1f 9c d5 bd 97 97 66 bc
       0.4327295 0.3609648 -0.10430168 -0.014074228
0001d0 64 62 5d bd ba b6 b3 bd 5c da fc 3d 3a 71 80 be
       -0.05404891 -0.08775087 0.12346336 -0.25086385
0001e0 68 93 ca bc e4 91 a5 bd 4b 5b 43 3d 28 88 0e 3e
       -0.024728492 -0.08084467 0.047694486 0.13919127
0001f0 e1 c8 c5 3d b2 01 fe bb 91 d1 a5 3e 9c ae 86 3e
       0.09657455 -0.007751667 0.3238645 0.2630509
000200 93 f5 a8 3e 32 22 df 3d 8b 4b ac bd 8c f2 bd 3e
       0.32999858 0.10895194 -0.08412846 0.3709911
000210 ae 5d c3 3e 3c 84 fa 3e 4d d1 b7 bd 64 8a bd 3d
       0.3815741 0.48929012 -0.08975468 0.092549115
000220 e5 31 d4 3d 75 11 99 3e b3 b9 0b 3e 7b 0c 8e bd
       0.10361079 0.2989613 0.13645057 -0.06935974
000230 c7 95 21 3c 8b 45 08 be 11 7a 7b 3d 0e 4f e7 bd
       0.00986237 -0.13307779 0.06139571 -0.11294375
000240 3f 3b e8 bd 8c 77 0d be d3 6a 40 bc cf d3 8c 3d
       -0.11339425 -0.13815135 -0.011744219 0.06876337
000250 7e fa 17 3e b9 e9 3b 3d 4e 2d 35 be f8 e3 89 bc
       0.14841649 0.045877192 -0.17693064 -0.016832337
000260 b9 f3 ba 3e dd cb cb 3e d6 d6 df 3e 8c ff 29 be
       0.3651407 0.39803973 0.43718594 -0.1660139
000270 fb ea 33 be 40 3d aa bc 32 74 5f 3e 1b f7 1b 3d
       -0.17570107 -0.02078116 0.21821669 0.038077455
000280 d4 e8 9c 3c 43 81 26 bd 71 ec 4e 3e 31 2c 0e 3e
       0.01915399 -0.040650617 0.20207383 0.13884045
000290 07 2e 91 3d ed 61 07 be 0e 74 1e be de 62 01 3d
       0.07088857 -0.1322095 -0.15473959 0.031588428
0002a0 af 84 15 be 98 21 66 be 2f e5 20 bc 7c a8 18 be
       -0.14601396 -0.22473752 -0.009820267 -0.14908022
0002b0 a9 94 ab be fa 53 86 be 90 e4 aa bd 51 d8 ab bd
       -0.33511856 -0.26235944 -0.08344376 -0.083908685
0002c0 b1 d6 3c 3d f5 19 89 3e 91 36 da 3e f7 9d a3 3e
       0.046103183 0.26777616 0.42619756 0.31956455
0002d0 de 50 e0 bd c1 50 02 be 7d f1 76 3d e1 2b 27 3e
       -0.10952924 -0.12726118 0.060288895 0.16325332
0002e0 f0 75 35 3e 40 7b 19 be 6e af 90 3b e3 ce 2e 3e
       0.17720771 -0.14988422 0.004415444 0.17071109
0002f0 6a 86 99 3e 91 d7 4a 3e b1 c4 bf 3c bf 4b 1e bd
       0.29985362 0.19808795 0.02340922 -0.038646456
000300 4c 7f 3b bc ab 7f 40 39 6e f3 0a bc 3d 9b cc bc
       -0.011443924 0.00018358107 -0.00848089 -0.024976367
000310 ab 10 b4 bb 82 1a b5 be b8 32 25 be 9f e6 1d be
       -0.005495151 -0.35371786 -0.16132629 -0.15420006
000320 e7 64 a6 be 07 4e 55 be 48 6c 69 be 30 94 e5 be
       -0.32498857 -0.20830546 -0.22795212 -0.4483962
000330 d5 54 97 be cc 36 6c bd b7 ac 68 bd 39 24 8c be
       -0.2955691 -0.057669446 -0.05680534 -0.27371386
000340 e5 30 eb bc d7 87 b3 bd e1 e4 47 3d 94 80 10 bd
       -0.028709838 -0.08766144 0.04880226 -0.03527887
000350 e4 84 16 3e 09 e6 1b 3e ac f7 38 3e 67 45 5a 3e
       0.14699131 0.1522447 0.1806323 0.21315537
000360 50 1d e5 3d b9 0c 65 3e e0 19 85 3e 2b de cb 3e
       0.111872315 0.22368135 0.25996304 0.39817938
000370 48 72 73 ba 58 57 fa 3c 35 e4 73 be 4b 7c 8f bd
       -0.00092867436 0.030559227 -0.23817523 -0.07006129
000380 6f 57 16 3e 2a 92 b0 be 67 7e 7a be 91 a5 91 be
       0.14681791 -0.34486514 -0.24462281 -0.2844663
000390 a8 7e a2 be 4e bd a4 be 76 db f2 bd 18 7d e1 bd
       -0.31737256 -0.32175678 -0.11858265 -0.11010188
0003a0 75 ff ad be d7 16 8d bd 37 17 b0 bd 58 ae 0c 3e
       -0.3398396 -0.06889122 -0.08598178 0.13738382
0003b0 7e 23 80 3d 1f 10 7a bc 95 dc 89 3e ee a2 69 3e
       0.062567696 -0.015262633 0.26926103 0.22816059
0003c0 42 39 10 3e 19 5c 83 3e e2 dd 6c 3e f8 1c b9 3d
       0.14084342 0.25656202 0.23131517 0.090387285
0003d0 a8 ef b5 3e 79 ca 19 be 4f 4b 4d 3d 03 60 94 bd
       0.35534406 -0.15018643 0.050120648 -0.07244875
0003e0 33 ca bb 3d c9 b2 3c 3d ea a3 61 3d 16 24 f1 3e
       0.09169426 0.04606894 0.05508796 0.47097844
0003f0 55 3a c2 3e fe 45 c6 3e 8b 80 01 3e 9d 7a a3 3d
       0.3793513 0.38725275 0.12646692 0.07982371

conv1.bias f4 [8]
000000 a5 b8 de be 02 a4 0d be 1c ce 1f be 40 a1 00 be
       -0.43500248 -0.13832095 -0.15605968 -0.12561512
000010 1a 43 1b be 48 0e 1b be 8b a9 42 3e 14 74 14 3e
       -0.15162316 -0.15142167 0.19009988 0.14497405

bn1.weight f4 [8]
000000 dd 88 94 3f 28 cd 80 3f 8f c2 58 3f 77 3c 3d 3f
       1.1604267 1.0062609 0.8467187 0.7392039
000010 7e 11 c8 3f e9 c7 76 3f f5 f6 44 3f b5 a3 42 3f
       1.5630338 0.9639879 0.76939327 0.7603105

bn1.bias f4 [8]
000000 d1 e5 d7 3d 34 6a 7b 3e 77 d1 10 3e d7 84 85 3e
       0.10541881 0.24552232 0.14142404 0.2607791
000010 51 47 5a bd 27 47 ec 3c 3c 87 7c 3e c7 40 ec 3b
       -0.05329067 0.028842522 0.24660963 0.0072098705

bn1.running_mean f4 [8]
000000 d8 2a 67 3e bc dc ba 3f 01 ad ee 3f df 6a 21 3f
       0.22574937 1.4598613 1.8646547 0.630537
000010 54 20 0a 3f 01 bc 1d 3f 2e a3 6e 3f 7b cb 92 3f
       0.5395558 0.61614996 0.9321774 1.1468347

bn1.running_var f4 [8]
000000 99 6e 9a 3e c2 ff 8e 40 ec 62 0b 41 0a 5c a3 3f
       0.30162504 4.4687204 8.711651 1.2762463
000010 25 04 82 3f d1 79 8e 3f 15 bd 00 40 00 f9 10 40
       1.0157515 1.1130925 2.0115407 2.2651978

conv2.weight f4 [32, 8, 5, 5]
000000 c7 0d 06 be 94 c2 38 be b8 b6 0e be 1c 30 08 be
       -0.13091193 -0.18042976 -0.13936889 -0.13299602
000010 37 ea 65 be 0d 0f 5d 3a be a0 df 3d f0 6d e2 3d
       -0.22452627 0.00084327237 0.10919331 0.11056125
000020 dc 1b c6 3d af 4d be 3d ad 5d 8f 3c 03 4f 0a 3d
       0.096732825 0.09292161 0.017500723 0.033766758
000030 b9 bf 1d bb 7b ac 17 3d 0d d1 0e 3e 81 bd 07 bd
       -0.0024070574 0.037029725 0.13946934 -0.03313971
000040 94 bf 45 3d cf 3e 8c 3c 6c 5d 8f 3d 9c cd 19 3e
       0.048278406 0.017119793 0.07000241 0.1501984
000050 c1 9b 92 bd e8 bf 71 39 e8 f6 95 3d 6a 73 01 3d
       -0.07158614 0.00023055042 0.07322484 0.031604208
000060 0f 59 c9 3d 5a 49 a0 be 6b aa e0 bd fa 07 a5 be
       0.0983144 -0.31305963 -0.10970005 -0.32232648
000070 39 9d 60 be a4 e4 c1 be 46 81 49 be 5c 11 d6 bd
       -0.21934976 -0.3786975 -0.1967822 -0.1045253
000080 82 fa a5 be 22 d8 0c be c0 52 8d be 4a 2c 75 be
       -0.32417685 -0.13754323 -0.27602196 -0.23942676
000090 78 7e 93 3c d3 08 9f be 32 5b ce bd b7 73 32 be
       0.018004641 -0.3106142 -0.10075988 -0.17426954
0000a0 71 0a 86 bd 8b 25 b3 bc 42 fc 08 bd 72 79 c3 3d
       -0.0654496 -0.021868488 -0.033443697 0.09544648
0000b0 6d fe 79 3d 2e 66 8a 3d 55 79 65 3d a2 00 0d 3d
       0.061033655 0.067577705 0.056023914 0.03442443
0000c0 85 0a dd 3d bf fd 78 3c 53 08 d1 be 48 a6 74 be
       0.10793022 0.0151972165 -0.40826663 -0.23891556
0000d0 01 89 f0 be ff 86 a7 be a3 1b 55 be 96 78 1a be
       -0.46979526 -0.3272018 -0.20811324 -0.15085062
0000e0 69 96 4f 3d d1 80 21 be 35 38 e1 bc f1 c8 f7 3c
       0.05068055 -0.15771796 -0.027492622 0.030247184
0000f0 77 64 ce bd 2a 1e a5 bd c0 20 f4 bd 73 52 b7 bd
       -0.10077756 -0.08062394 -0.11920309 -0.08951273
000100 3b 29 6c bd aa 4d dd bd 77 fd ff bc 88 18 d7 bd
       -0.057656508 -0.10805829 -0.031248791 -0.10502726
000110 ed 84 6b 3b 99 34 36 3d ea d6 37 3d c0 55 b4 bd
       0.0035937384 0.044483755 0.044882692 -0.08805418
000120 66 3f b7 3b 77 c2 c2 3d 5b be 41 3e 3b bc 1a bd
       0.0055922745 0.095097475 0.18920271 -0.037777167
000130 4f a3 f8 3d 04 74 4e be de c5 c1 bd d4 01 11 be
       0.12140524 -0.20161444 -0.09461568 -0.14160854
000140 f9 92 81 3c a6 f0 2e 3e a8 1e 1f be 7a 97 3d 3d
       0.015817152 0.17083988 -0.15539038 0.046287037
000150 73 33 11 be ed ad be bd bc d5 6b 3c 95 78 21 be
       -0.14179783 -0.093105175 0.01439422 -0.15768655
000160 08 ab 2c bd 6a 37 53 be f4 0b 0a bd 84 d8 3f 3e
       -0.042155296 -0.20626608 -0.033702806 0.18734938
000170 4b 4c 52 bd 5f 5a 6a 3e ad 2d c4 bd 14 06 85 3c
       -0.05134229 0.22886036 -0.095790245 0.01623825
000180 a9 22 3a bd d8 c7 dd 3d 66 c6 fc bd e6 6e 0d be
       -0.04544321 0.10829133 -0.12342529 -0.13811836
000190 59 3f 9f 3e 06 c5 fe 3d ca 43 68 3e 36 3d a6 3d
       0.31103018 0.12439923 0.2268211 0.08117144
0001a0 62 3b 7b 3e 9c 5f 75 bd 58 b1 44 bd 3c c9 b2 bd
       0.24534371 -0.059905633 -0.04802069 -0.08729789
0001b0 12 e0 d0 bd 71 93 3d be be 65 d4 3d e4 3d fc 3a
       -0.10198988 -0.18513276 0.10370968 0.0019244519
0001c0 8b c4 09 3e 6a 1a 14 3e 79 19 48 3d 0b 6d 81 3e
       0.13453881 0.14463201 0.048852418 0.25278506
0001d0 97 ca 51 3e 28 1e 8c 3e 15 0f 77 3e 0e a4 72 3e
       0.20487438 0.27366757 0.24126847 0.23695394
0001e0 ba 02 25 3e ea 11 7f 3e ee de 19 3e 09 88 4c 3e
       0.16114321 0.24909177 0.15026447 0.19973768
0001f0 8d 40 04 3d 00 de 8b be 5f 25 0c be 1a 99 99 be
       0.032288123 -0.2731781 -0.13686131 -0.2999962
000200 83 98 8c be 93 c8 91 be b7 ba 6b bc 51 e4 72 3e
       -0.27460107 -0.28473338 -0.014387778 0.23719908
000210 6c f9 72 3e 57 bc 01 3e c1 07 ae 3c c2 62 5a 3d
       0.2372796 0.12669502 0.021243932 0.05331684
000220 82 87 f9 3d 29 2b a5 3d 1e 7d a8 3d e2 d8 37 3e
       0.12184049 0.08064873 0.08226989 0.17953828
000230 fa 28 40 be b1 24 f3 3b 48 c9 25 be 1b 18 c4 bd
       -0.18765631 0.0074201454 -0.16190064 -0.0957491
000240 0f 3f fc bd 02 75 46 bc 79 f8 af 3d 20 8e 37 3d
       -0.12316715 -0.012112858 0.08592314 0.044813275
000250 1d 1f 64 3e 9c b0 60 3e cb 2b 09 be 6a 6a a9 bd
       0.22277494 0.21942371 -0.13395612 -0.0827225
000260 ad b0 c1 bd a5 9e ff bd 99 dd 65 be 3c 3c 67 be
       -0.09457526 -0.12481431 -0.22447814 -0.22581571
000270 18 fc 8c be 6b aa 8f be 07 dc ba be fb 3c 8c be
       -0.27536082 -0.28059706 -0.36495993 -0.27390274
000280 fb 3c b8 bd dd 25 cd bc dc 04 4c be 54 bf c6 bd
       -0.08996006 -0.025042469 -0.19923729 -0.09704462
000290 00 6c d2 bd 9f 6d 6e be ce 73 1f bd a0 06 4e bd
       -0.102745056 -0.23284005 -0.0389288 -0.050299287
0002a0 01 2a cc bd d1 f8 a1 bd 5c 2c b0 bd e2 7c 0d 3c
       -0.09968949 -0.07908786 -0.08602211 0.008635731
0002b0 44 8e af bd e1 82 d6 bd 2a 37 a3 bd f6 e7 2f be
       -0.08572057 -0.10474182 -0.07969506 -0.1717833
0002c0 23 c4 8f bd 2c 90 38 be 14 f6 e9 bd 66 fc fb bd
       -0.07019832 -0.18023747 -0.11423889 -0.123040006
0002d0 46 3d 10 be 7c 67 5a be 58 3e 08 be a9 0c 24 be
       -0.14085874 -0.21328539 -0.13305032 -0.16020454
0002e0 e5 e6 97 bd 00 5d 1d 3c 67 0f 5b bd ce a3 0d be
       -0.074170865 0.009604692 -0.053481486 -0.13832018
0002f0 86 2c 03 be 11 6b 1d be d0 95 7c bc a8 fd 0c be
       -0.12809953 -0.15372874 -0.015416577 -0.13768637
000300 96 ac c4 bd b7 4d 4b be f4 f6 2b be 95 1c 0a be
       -0.09603231 -0.19853865 -0.16793424 -0.13487466
000310 d3 3d 5d be 13 e4 38 be 6a 11 2f be 3d 0e 3b be
       -0.21605615 -0.18055753 -0.17096487 -0.1826715
000320 dd a9 af 3e e4 6c 65 3e a6 52 a2 3e 0c 4d 67 3e
       0.34309283 0.2240482 0.3170368 0.22587985
000330 49 36 8f 3e c1 ee 86 bd da a1 4b be 2f 74 8f be
       0.27971104 -0.065885074 -0.1988596 -0.2801833
000340 c1 f6 ab be 7e 72 83 be 1e bc aa 3d 13 e0 b3 3d
       -0.33586696 -0.25673288 0.08336662 0.08782973
000350 1d d9 16 3e 4d b9 fb 3d 0f dc 37 3e de f1 e0 bd
       0.1473126 0.12291203 0.1795504 -0.109836325
000360 bd e9 95 be 84 57 3a be 0e 4b 1e be 1e 1f 54 be
       -0.2927989 -0.18197447 -0.15458319 -0.20714995
000370 2b c4 95 bd 1d 55 6c be 6d a2 be be 65 e1 a2 be
       -0.07312807 -0.23079343 -0.37233296 -0.31812587
000380 a9 94 89 be 00 c5 5e ba 5f f6 32 bd 69 60 94 bd
       -0.2687123 -0.0008497983 -0.04369199 -0.07244951
000390 89 be cf bd 20 91 08 bc 49 cf 9d 3d 5e 63 91 bd
       -0.101437636 -0.008335382 0.07705552 -0.07099031
0003a0 9b e9 1b 3e ea 5e ae 3d 66 7c e9 3d fc 8e 48 bc
       0.15225832 0.08514197 0.1140068 -0.012241121
0003b0 80 35 d7 bd 1f 1d cd 3d 99 4c c9 bc b0 ba 27 bd
       -0.10508251 0.1001532 -0.024572657 -0.040949523
0003c0 57 03 54 bd 05 b8 bc bd e9 4e c6 bd 0f a5 49 be
       -0.051760998 -0.092147864 -0.0968302 -0.19691871
0003d0 d1 92 c0 bd 5d f6 27 3e dc 26 dc 3d 62 6a aa 3d
       -0.09403003 0.16402574 0.10749599 0.08321072
0003e0 37 cb 51 3e 7d 5e ac 3d 1b e2 78 3c de 29 d9 bc
       0.20487677 0.0841646 0.0151906265 -0.026509222
0003f0 bb 64 da 3d 8d 51 b9 bc fd 1a 37 3e b1 0e 1a 3b
       0.10663744 -0.022621894 0.17881389 0.0023507292

conv2.bias f4 [32]
000000 4f 5a 5f be 95 f8 85 be 91 82 07 be 45 eb 4a 3e
       -0.21811794 -0.26166216 -0.13233401 0.1981631
000010 2f 9c 8c 3e 41 18 de 3d e2 90 d6 3d f0 c0 01 be
       0.2746291 0.1084447 0.10476853 -0.12671256
000020 f9 ec d2 be 90 92 97 bd db 9a e1 3d 66 af 07 be
       -0.4119642 -0.074010015 0.110158645 -0.13250503
000030 87 5f f5 bd 79 6e 62 be e9 42 ca bd 50 af 65 be
       -0.11981111 -0.22112454 -0.09876043 -0.22430158
000040 77 91 86 3e 2c c6 b8 bd 8a 30 e8 3d 87 c0 ba be
       0.26282856 -0.09022173 0.11337383 -0.36475012
000050 15 66 b2 be 5b bb 1c 3e 92 e3 e9 3c ab c8 10 be
       -0.34843507 0.15305845 0.028550897 -0.14139049
000060 4a 07 3d be 9e a5 03 be 16 5d e4 3d 32 75 31 bd
       -0.18459812 -0.12856147 0.11150567 -0.043324657
000070 ea b1 ce bd 03 75 44 be 33 81 87 bd 6b 21 36 be
       -0.10092528 -0.19185261 -0.0661644 -0.17786185

bn2.weight f4 [32]
000000 5f a3 7b 3f ad eb 9b 3f 59 a1 87 3f b4 1e 89 3f
       0.9829616 1.2181298 1.0596114 1.0712495
000010 ae 07 9a 3f 80 e8 82 3f 86 d5 57 3f 24 28 86 3f
       1.2033594 1.0227203 0.84310186 1.0481
000020 6f e0 56 3f e9 95 95 3f 3c a5 83 3f 2f e5 9f 3f
       0.8393621 1.1686374 1.02848 1.2491816
000030 5b 2e 5b 3f 3e c8 5b 3f 27 dd 15 3f 20 47 92 3f
       0.8561761 0.8585242 0.58540577 1.1427956
000040 b9 ac 9a 3f 7c 82 8f 3f 71 98 9d 3f 46 1f 7b 3f
       1.2083961 1.1211696 1.2312146 0.98094594
000050 0f df 92 3f 12 f1 95 3f ce 04 98 3f fd 94 38 3f
       1.1474322 1.1714194 1.1876466 0.7210234
000060 36 30 88 3f ae bc 6d 3f de 02 85 3f 76 00 38 3f
       1.0639713 0.9286603 1.03915 0.71875703
000070 75 de a3 3f b4 cd 89 3f 67 10 5c 3f 73 18 77 3f
       1.2802263 1.0765901 0.8596253 0.9652168

bn2.bias f4 [32]
000000 95 5b 12 bc b2 68 f6 bd 24 09 46 be 4f 54 9a bc
       -0.008932968 -0.12031688 -0.19339424 -0.01883903
000010 4b 98 a0 bc 82 00 5b ba 46 42 3b be 6c 98 27 3b
       -0.019603869 -0.00083542627 -0.18287 0.0025573028
000020 3a 35 8b 3d 82 c8 30 3e f2 f5 23 be 46 93 8a be
       0.067972615 0.17263988 -0.1601179 -0.27065486
000030 17 8e a1 bd e1 75 ba 3c 89 40 10 bd a1 7a 71 3d
       -0.078884296 0.022761287 -0.035217796 0.05895484
000040 c1 8e ba bc 0e 94 5e 3b cc 41 72 bd 79 42 5e 3e
       -0.022773148 0.003396276 -0.05914478 0.21705045
000050 59 27 ed 3c 22 5c 04 bd 88 49 7b be d0 3f ae 3d
       0.028949426 -0.032314427 -0.24539769 0.08508265
000060 d2 53 89 bd 19 60 0f 3e 23 c2 05 bc 2e 43 e2 bc
       -0.067054406 0.14001502 -0.008163962 -0.027619924
000070 25 e5 90 3c 45 e8 b5 bb 10 24 d9 3a 76 08 9b bd
       0.01768739 -0.0055513703 0.0016566534 -0.07569973

bn2.running_mean f4 [32]
000000 6c 37 53 3f a5 33 10 40 49 42 94 3f 41 f3 b0 3f
       0.8250644 2.2531521 1.1582729 1.3824235
000010 4e b9 16 40 47 94 05 40 39 e2 21 40 a1 9d f8 3f
       2.35506 2.0871751 2.5294325 1.9423105
000020 57 50 84 3f fe d5 f8 3f c9 90 c8 3f d9 78 17 40
       1.0337018 1.9440305 1.5669185 2.366751
000030 8d 97 5e 40 56 99 db 3f f2 60 28 40 5e 45 13 40
       3.478 1.715617 2.630917 2.3011088
000040 37 1d fd 3f 4c 05 c1 3f f3 a4 b8 3f 7f 74 db 3f
       1.9774541 1.5079741 1.4425339 1.7144927
000050 fc cc f4 3f 35 3d c3 3f 30 93 26 40 5b 0a ee 3f
       1.9125056 1.5253054 2.6027336 1.859691
000060 0f ac 6a 3f 98 26 03 40 4d d5 3c 40 59 23 b9 3f
       0.9166879 2.0492306 2.9505188 1.4463912
000070 7f a2 fc 3f 4e 3c 26 40 44 3c 1c 40 12 79 0b 40
       1.973709 2.5974307 2.4411783 2.1792645

bn2.running_var f4 [32]
000000 26 76 aa 40 26 cf 80 41 c1 02 5c 40 3e 78 a2 40
       5.3269224 16.101147 3.437668 5.077178
000010 fa f5 2a 41 c0 d8 10 41 e4 0e 15 41 08 8c fd 40
       10.685053 9.0529175 9.316135 7.9233437
000020 89 76 75 40 d7 62 6d 41 28 33 8c 41 d1 eb eb 40
       3.8353598 14.836631 17.524979 7.372536
000030 7e 92 b5 41 a1 b9 90 41 5c 56 88 41 a0 f6 2f 41
       22.69653 18.09064 17.042168 10.997711
000040 4f 8c 44 41 bc dd 3a 41 8c dd 5d 41 4c af 64 41
       12.284255 11.679134 13.866589 14.292797
000050 24 27 57 41 cd 82 88 40 c8 0f 01 41 1d 61 2e 41
       13.447056 4.265967 8.066353 10.898709
000060 fb 36 ed 40 8b d2 6b 41 ad 53 3f 41 db 25 8f 40
       7.4129615 14.738902 11.957929 4.473371
000070 4e 0d 12 41 7d 17 75 41 a0 ab 42 41 00 97 ee 40
       9.128248 15.318234 12.166901 7.4559326

conv3.weight f4 [32, 32, 5, 5]
000000 2e bd 8c 3e a2 6e 40 3e cb f3 94 3d 93 5c a2 3d
       0.27488083 0.18792203 0.07273062 0.079278134
000010 93 67 b3 3d 26 2e 03 be d3 0f ed bd 38 53 f4 bd
       0.087599896 -0.12810573 -0.11575284 -0.11929935
000020 a5 c4 4b be e6 02 55 bd 32 cb ec 3d e0 99 0e 3e
       -0.19899233 -0.052004717 0.11562194 0.13925886
000030 15 a3 5f 3e 62 f3 0f 3e 40 32 86 3e 3d ab 53 3e
       0.21839555 0.14057687 0.26210213 0.20670791
000040 93 a6 f5 3d 01 0f 23 3e 14 7f 6a 3e b3 9d 7f 3e
       0.11994662 0.15923692 0.22900039 0.24962501
000050 d9 77 22 3e 6d ca e7 bb 16 63 d7 bc 35 24 03 3d
       0.15866031 -0.0070736916 -0.026292365 0.03201695
000060 17 ad da 3d dc e4 3a bd 2f e9 f0 3c 46 5b 62 bd
       0.106775455 -0.045628414 0.029408066 -0.055262826
000070 a1 df 79 bd 03 24 4f bd b9 67 12 3e 17 54 ca bb
       -0.061004285 -0.050571453 0.1429738 -0.006174575
000080 23 59 0a bd 83 5a 27 be c4 50 40 be be 28 3a be
       -0.033776414 -0.16343121 -0.1878081 -0.18179604
000090 f8 08 43 be c6 ce 53 be 0c 13 97 be 84 8d 87 be
       -0.1904639 -0.20684347 -0.2950672 -0.26475155
0000a0 f7 6b 6c bc eb 7f f1 bb 4a 82 eb 3d 34 6f 8c 3d
       -0.014430038 -0.0073699853 0.1149946 0.06857148
0000b0 55 e6 a8 3d 63 af 9f bd 9f 03 0f be 08 ca d1 ba
       0.08247057 -0.07797124 -0.13966225 -0.0016005645
0000c0 ec ad dc bd 64 79 36 3d 75 4c cc 3d 71 cf 1d 3c
       -0.107753605 0.04454936 0.099755205 0.009631977
0000d0 eb dc 0e 3e 1e 99 b8 3d 2f 4b f7 3c 4b e3 e4 3c
       0.13951461 0.0901358 0.030187218 0.027940413
0000e0 6e 75 9d be a6 ef d6 bd 74 a7 12 be cc 77 37 bd
       -0.30753654 -0.10494928 -0.14321691 -0.04479198
0000f0 79 19 0e be 8b 7d 39 be 97 84 33 be 7a 9f 27 be
       -0.13876905 -0.18114297 -0.17531048 -0.16369429
000100 82 32 0f be 6e ac c2 bd d8 f4 2b be 34 f1 3f be
       -0.13984111 -0.095055446 -0.16792619 -0.18744355
000110 c3 de 59 be 0e 5a 0f be f1 a9 21 be ce bb 0f be
       -0.21276383 -0.13999197 -0.15787484 -0.14036486
000120 16 78 c0 bd f7 98 30 be 4c 32 0a be 1a 2c 9b 3e
       -0.093979046 -0.17245851 -0.13495749 0.30307084
000130 88 60 06 3e d3 20 71 bd 97 0c 04 3d d3 58 24 3e
       0.13122761 -0.058869194 0.03223857 0.16049509
000140 ae f0 04 3d 84 9c 9e bc a6 a7 eb 3b c2 e2 77 bd
       0.032456093 -0.019361742 0.007191616 -0.060518987
000150 05 e1 50 be 23 11 97 3d 84 a5 bc bd d8 8b 7a bd
       -0.20398338 0.073763154 -0.09211257 -0.06116852
000160 de 22 c1 bd d1 54 8a bd 99 0b 7f 3d d3 3b 7f be
       -0.094304785 -0.06754459 0.06226692 -0.24925165
000170 f6 90 46 be 7c 6c b7 bd 7a da 84 bd 9d 8b 57 3d
       -0.19391236 -0.089562386 -0.064869836 0.05262338
000180 51 5a b8 3d fb 93 aa 3d 9e e5 0b 3d 46 a1 84 3e
       0.090016015 0.08329006 0.034154527 0.25904292
000190 3e c7 21 bd 6c 81 8c be 70 1e 78 be 4a 50 60 be
       -0.039496653 -0.2744249 -0.24230361 -0.21905628
0001a0 22 ba 53 be 90 31 1b be 9f d7 00 be ac 53 18 be
       -0.20676473 -0.15155625 -0.12582253 -0.14875668
0001b0 05 3a cc bd 6c 94 6d be f0 c7 16 be f4 36 5e be
       -0.09972004 -0.2320115 -0.14724708 -0.2170065
0001c0 0e 9f 7d be fc 4a 66 be 02 cf 5f be 46 fb 9d bd
       -0.24767706 -0.22489542 -0.21856311 -0.07713942
0001d0 5d 0d c1 bd ca ca 20 be 53 d2 a3 bd 9c 85 23 be
       -0.09426377 -0.15702358 -0.079991005 -0.15968937
0001e0 86 dd 46 bd d6 d3 86 bc 8b ed d0 be 4b 53 0b bd
       -0.048551105 -0.016458433 -0.4080623 -0.03401498
0001f0 ac d0 5c be 02 da 1f 3e 2d c8 28 3e 32 7a 9d 3e
       -0.21563977 0.15610507 0.16482611 0.3075729
000200 ed fe a7 3e 0b dd 6d 3e 52 b2 02 3e 7a 44 9e 3d
       0.3281168 0.23228852 0.12763336 0.077279046
000210 14 3f b0 3d b0 4a 9b 3d 37 03 cc 3d 70 c3 6f 3d
       0.08605781 0.07582605 0.09961551 0.058535993
000220 8d ac 68 3d aa 96 b8 3d f2 38 96 3d 0a 40 34 3d
       0.056805182 0.09013112 0.0733508 0.044006385
000230 ef f4 61 be 62 cc 44 be 1d 5a 4b be 47 df 1b be
       -0.22066091 -0.19218591 -0.19858594 -0.15221892
000240 bb ee 56 be 43 c4 9a 3d 9e 2d 87 3d c0 3a 5d 3d
       -0.20989506 0.07556965 0.06600498 0.054011106
000250 ff 55 44 3d c9 4a 8a 3d 44 54 6d 3c cc 82 e0 bc
       0.047933575 0.067525454 0.0144854225 -0.027406119
000260 45 2c 02 bd 8d 89 14 bc 87 89 27 bd 9c 5c 6a bd
       -0.0317805 -0.009065998 -0.04090264 -0.057217225
000270 31 1d fb bc 43 6f c5 bd f1 ee e4 bd 51 cb 52 be
       -0.030653568 -0.09640362 -0.11178387 -0.20585372
000280 a0 3d b0 bd 62 59 1a be 9e c4 38 be 51 fe 77 be
       -0.08605504 -0.1507316 -0.18043754 -0.24218108
000290 7e 04 1a be 8b 85 60 be 39 2e 61 be cd a9 a7 be
       -0.15040776 -0.21925943 -0.21990289 -0.32746735
0002a0 79 54 6d be 3d ee 33 be 49 a1 0c be a0 1d 59 be
       -0.23176755 -0.1757135 -0.137334 -0.21202707
0002b0 90 cb 96 be 98 70 af be 54 c9 58 be b2 56 64 bd
       -0.2945218 -0.3426559 -0.2117055 -0.05574674
0002c0 62 fc 47 bd 0b 4d ad 3d b5 2c 3d 3e 6e c9 c3 3d
       -0.048824675 0.084619604 0.18474086 0.09559904
0002d0 83 7d 2d bd 2f 44 b3 bd 6c ff 90 bd 9b dd 9a 3d
       -0.042356025 -0.08753239 -0.07079968 0.07561799
0002e0 f8 b0 5d 3d 6a ea 2f 3e 38 52 4a 3e 31 cc 96 be
       0.05412385 0.17179266 0.19757926 -0.2945266
0002f0 6f 00 c4 bd 09 e3 4a bd 0d 73 e7 bd 7d e3 a7 bd
       -0.09570395 -0.049532924 -0.11301241 -0.08197687
000300 b3 ce ce bd 45 63 02 be 9e af 1d be 0e 41 5f be
       -0.100980185 -0.12733181 -0.15399024 -0.2180216
000310 d4 07 0b be 6d 40 53 be 81 37 f2 bd 47 4a ba be
       -0.13577205 -0.20630045 -0.11826993 -0.36384794
000320 75 37 25 3d 12 8e 6c 3e 7d 8a f7 3c 65 4a ed 3c
       0.04033609 0.2310107 0.030217404 0.028966138
000330 09 d6 00 3e 24 c9 23 3c d1 92 bb 3e 34 b8 12 3d
       0.12581648 0.009996686 0.3663545 0.0358202
000340 5b 31 f1 3d b4 0f 77 ba ef ea 04 3e 3d ee 07 3e
       0.11776992 -0.0009424642 0.12980245 0.13274474
000350 fc 73 17 3e cd 36 ba bd ac c1 33 be 98 46 90 3d
       0.14790338 -0.09092484 -0.17554349 0.07044715
000360 cc 1e 17 3e 80 b7 2a 3d ba 8f 0d 3e df 7c e6 bd
       0.14757842 0.041678905 0.13824359 -0.11254286
000370 e2 f5 05 3e 3c 86 07 3e e4 f3 3d 3e 98 4c 85 3d
       0.13082078 0.132348 0.18550068 0.0650875
000380 8b f4 f6 3d 8c 85 93 3e c9 cd ad 3e 90 50 95 3e
       0.120583616 0.28812826 0.33946064 0.29163027
000390 81 ac c0 3e 1a 58 9c 3e 60 f6 8d 3e b4 01 84 bb
       0.3763161 0.30535966 0.27727032 -0.0040285233
0003a0 17 1f 81 bd 1f 75 92 3c 07 ca 80 bb 20 88 25 3b
       -0.06304758 0.017878113 -0.0039303335 0.0025258139
0003b0 8e 4e 04 3d b5 96 f8 bc 87 a0 6f bd b7 52 41 bd
       0.032301478 -0.0303453 -0.0585027 -0.047198024
0003c0 77 e4 2f 3d 5a 96 85 bd fc 9c 14 bd 28 79 00 bd
       0.04294249 -0.06522818 -0.036282524 -0.031365544
0003d0 75 fa ca 3c 11 6b 30 3e 55 bf 1e 3e e5 1c 52 3e
       0.02477763 0.17228343 0.15502675 0.20518835
0003e0 78 36 70 3e 56 64 0e 3e 4b ed 32 3e 7e 24 3f 3e
       0.23458278 0.13905463 0.17473333 0.18666264
0003f0 5b 30 b0 3d 7d 43 35 3e 3b 07 5a 3e 5f a7 65 3d
       0.08602973 0.17701526 0.2129182 0.05606782

conv3.bias f4 [32]
000000 b5 de d7 3c a3 75 7a 3e 65 e8 05 3e e0 ae 1d be
       0.026351312 0.24458937 0.13076933 -0.15398741
000010 83 fb 86 be 1e df b0 3c 48 5d f0 bd 0f 94 5a 3e
       -0.26363763 0.021590766 -0.11736542 0.21345542
000020 39 32 02 be 70 df c2 3c b5 f5 d6 3c 7b 65 99 be
       -0.12714471 0.023788184 0.02624021 -0.29960236
000030 23 59 0c bf 31 59 15 bd 20 f5 b5 bd 00 dd 1a bc
       -0.5482351 -0.036462013 -0.088846445 -0.009452105
000040 e8 55 be 3e b8 3f a8 3e a0 1e d8 bd 69 4d b3 3d
       0.37174916 0.32861114 -0.10552716 0.08754999
000050 ab 05 c6 3d 6b a4 7d 3d ff 1e e6 3d e2 39 56 3e
       0.0966905 0.06192438 0.11236381 0.20920518
000060 87 40 04 be 65 5c 03 3e f0 fd 42 3f 05 d2 86 3e
       -0.1291524 0.12828214 0.7616873 0.26332107
000070 e5 32 98 3e 26 b2 92 3e 4a 12 d9 bd f6 92 2a 3e
       0.2972633 0.2865154 -0.105991915 0.16657624

bn3.weight f4 [32]
000000 27 ea 9b 3f 36 54 94 3f 8c 5e b8 3f 9a ab a7 3f
       1.2180833 1.1588199 1.4403853 1.3099244
000010 40 9f 9a 3f 6d e6 83 3f d8 08 83 3f ad 7c a7 3f
       1.2079849 1.0304695 1.0237074 1.3084923
000020 d7 ea 61 3f 2c 48 87 3f 0e d4 a5 3f 36 4a 6d 3f
       0.8824896 1.05689 1.2955339 0.9269136
000030 dd 78 9b 3f f5 4d a3 3f 73 e5 3c 3f 55 66 87 3f
       1.214626 1.2758166 0.7378761 1.0578104
000040 09 bf a1 3f c4 ea 70 3f 4c ed 5b 3f 9e c3 80 3f
       1.2636424 0.94108224 0.8590896 1.0059698
000050 74 0d 86 3f 80 3c 89 3f b4 5c 64 3f cb 00 a7 3f
       1.0472856 1.0721588 0.89203954 1.3047117
000060 5b 4a 94 3f cc e5 1c 3f 1d 86 86 3f c3 c5 81 3f
       1.1585191 0.6128814 1.0509678 1.0138477
000070 c7 a3 32 3f 10 89 37 3f 66 3b 41 3f 20 51 52 3f
       0.69781154 0.71693516 0.7548126 0.82155037

bn3.bias f4 [32]
000000 5b 49 87 bd 7c 63 6c 3d 38 a4 00 bd fa 9b 40 3c
       -0.06605788 0.057712063 -0.03140661 0.011755938
000010 02 94 f7 bc 80 69 13 be 50 22 96 bd 50 70 d7 bc
       -0.030221943 -0.14395714 -0.07330763 -0.026298672
000020 8e f5 04 3e 09 d8 7e 3d 75 34 39 3e c3 e0 1e 3e
       0.12984297 0.062217746 0.18086417 0.15515427
000030 51 43 a5 3d b3 25 88 bd 57 25 0e 3e 43 57 31 3d
       0.0806948 -0.066478156 0.13881432 0.04329611
000040 c6 1b bf bc 38 7c 67 3c 7e 7f 8b be 02 f0 94 bd
       -0.023328673 0.014128737 -0.27245706 -0.0727234
000050 dc 72 3a bd cc 7c f3 3d 27 e2 4a 3e 86 0a d7 bb
       -0.045519695 0.118890375 0.19812833 -0.006562534
000060 69 be 32 be 31 54 e4 3d c5 a0 89 be f7 4d 98 be
       -0.17455448 0.11148871 -0.2688047 -0.29746982
000070 be 30 ab be 2e ed ce bd 27 02 25 be aa 5f 07 3f
       -0.33435625 -0.10103832 -0.16114102 0.52880347

bn3.running_mean f4 [32]
000000 fc b3 f0 40 85 b8 f5 40 31 9a 10 41 d6 76 c3 40
       7.5219707 7.6787744 9.037644 6.1082563
000010 ee 3d 0d 41 06 ce 07 41 45 27 21 41 7e 82 17 41
       8.82762 8.487799 10.072087 9.469358
000020 ee 96 17 41 08 5d 04 41 89 02 e7 40 84 0b f3 40
       9.474348 8.272713 7.2190595 7.5951557
000030 95 b4 d4 40 3f 80 e5 40 91 74 e4 40 c5 d6 08 41
       6.6470437 7.171905 7.1392293 8.552434
000040 94 37 e8 40 bb 92 ba 40 7c 77 ba 40 6d 33 0a 41
       7.2567844 5.8304114 5.8270855 8.637555
000050 0d a1 f4 40 cf 16 de 40 c7 5c b7 40 99 e9 e5 40
       7.6446595 6.9402843 5.7300754 7.1847653
000060 44 b0 c0 40 25 4c ec 40 c3 52 28 41 85 38 0c 41
       6.021517 7.384295 10.5202055 8.763799
000070 a0 20 f0 40 f9 00 04 41 79 7f c9 40 e3 f7 4a 41
       7.5039825 8.250237 6.2968106 12.685519

bn3.running_var f4 [32]
000000 45 1c fa 42 90 c8 f1 42 64 25 12 43 88 41 ef 42
       125.055214 120.89172 146.14606 119.62799
000010 66 3b 43 43 cb f9 5e 43 57 11 91 43 16 e5 20 43
       195.23203 222.97575 290.13547 160.89487
000020 e2 ac 7d 43 b2 c5 1e 43 d1 66 d9 42 02 5a 6b 43
       253.67532 158.77225 108.70081 235.3516
000030 f8 15 4d 43 63 98 e2 42 18 19 97 42 4e 2b 4d 43
       205.08582 113.29763 75.54901 205.16916
000040 10 02 a3 42 53 b0 8f 42 81 71 a3 42 8b 3b 5f 43
       81.50403 71.84438 81.72169 223.23259
000050 5f 4d 37 43 ee 71 ba 42 cc 5f 62 42 ff 38 ae 42
       183.30223 93.22252 56.59355 87.11132
000060 15 f2 c4 42 bc 2b ab 42 5c 57 28 43 45 e1 19 43
       98.47282 85.58542 168.34125 153.87996
000070 33 3b 01 43 fa 3a 37 43 94 58 b5 42 cf ae 93 43
       129.23125 183.23038 90.673004 295.3657

cnn.0.weight f4 [8, 2, 5, 5]
000000 99 56 f1 3d 2e c8 20 3e da 7d c5 bd ac 74 9e 3d
       0.11784095 0.15701362 -0.09643145 0.07737097
000010 3d 4a e7 3d 54 40 62 bd 98 d9 be 3d 8f d8 7c 3d
       0.11293457 -0.05523713 0.093188465 0.061729964
000020 08 93 22 be d7 ac cb bd 7b d2 5b be 8c 10 d8 be
       -0.158764 -0.09945076 -0.2146701 -0.42200124
000030 82 af 94 be af 43 94 be 36 e4 91 be 06 fe 23 3b
       -0.29040152 -0.28957888 -0.28494424 0.0025023236
000040 45 83 cf 3b 94 60 d9 bc 4e 3f 13 bc 7d df 8a 3d
       0.006332787 -0.02653531 -0.008987261 0.06780908
000050 ad 80 89 3e b1 de 63 3d e6 e0 70 3e d5 ef 71 3e
       0.26855984 0.055632297 0.23523292 0.23626645
000060 f6 91 3c 3e 2a ac 00 3e 38 df 6b 3d 9c a5 fc 3c
       0.18415055 0.12565675 0.057585925 0.030840687
000070 a0 77 fd 3d 43 62 23 3e 9b 2d c8 3d 34 a0 cd bc
       0.12376332 0.15955453 0.097743236 -0.025100805
000080 d6 80 07 bd 7b b6 87 bd 7c c1 d4 bd 47 c1 f0 bc
       -0.033081852 -0.06626602 -0.10388467 -0.029389037
000090 41 5a 91 be dc 33 85 be cb 77 b4 be f7 58 bb be
       -0.2838917 -0.26016128 -0.35247645 -0.36591312
0000a0 71 10 f3 3d 94 75 cd bb 23 4a 9c 3d f6 48 af bd
       0.1186837 -0.00627012 0.07631328 -0.08558838
0000b0 de 76 b5 bc ef b9 84 3e e1 44 96 3e 61 2b 41 3d
       -0.022151407 0.25923106 0.29349425 0.04716051
0000c0 28 d0 54 3e e4 12 fd 3c b6 b1 fb 3c 9f 57 2a 3e
       0.2078253 0.030892797 0.030724388 0.16634987
0000d0 a5 fb d6 3d 8f d3 95 bd 39 3c aa bd 1c 35 2a 3d
       0.10497216 -0.07315742 -0.08312268 0.041554555
0000e0 44 e9 78 3e 41 5f 4c 3e ac 10 d1 3d 9b 0b 61 3e
       0.24307734 0.19958211 0.10208258 0.21977083
0000f0 b1 77 03 be 68 89 0c bd a2 96 89 3c 81 6a 4e 3c
       -0.12838627 -0.03431073 0.01679546 0.012598635
000100 65 27 17 bd fa e8 f9 bd 90 89 60 bd 07 db d0 be
       -0.036902804 -0.1220264 -0.05481869 -0.40792105
000110 68 20 bc be be a1 50 be 1e 1f b1 be b8 74 7f be
       -0.36743474 -0.203742 -0.34594053 -0.24946868
000120 7c 1f db be de 5c b0 be 2a 39 ac be 8c ad af 3b
       -0.42797458 -0.34445852 -0.33637363 0.0053612646
000130 ee 5f 3a 3e 1e b8 b7 3c 69 9f 04 be b3 a7 2b bd
       0.18200657 0.022426661 -0.12951435 -0.041907977
000140 b3 a5 49 bd a8 31 bf 3e f3 f2 8e 3e 00 f3 a9 3e
       -0.04923029 0.37342572 0.2791973 0.33193207
000150 fe 29 82 3e 26 01 40 be 43 85 a9 3c 00 36 f5 3c
       0.25422662 -0.18750438 0.020693427 0.029932976
000160 03 d6 0e 3d 0a 7a 62 be 91 e0 b0 be c2 77 33 be
       0.034872066 -0.22116867 -0.3454633 -0.17526153
000170 48 02 72 be 4a d0 de be 8e 9f 51 be c4 b5 c2 be
       -0.23633683 -0.43518287 -0.20471022 -0.380293
000180 88 4c 82 be 99 ca 02 bf 19 b3 ad be 4f 35 6b be
       -0.25449014 -0.5109039 -0.33925703 -0.22969554
000190 7d b6 01 be e5 80 41 3e 46 2a d7 3e 44 ae c3 3e
       -0.1266727 0.18896826 0.4202444 0.38218892
0001a0 f6 63 12 bd f3 ea 05 bd 48 12 8c 3e 05 23 bb 3e
       -0.03573986 -0.03269477 0.27357697 0.36550155
0001b0 84 c7 f7 3e 1b b8 b2 bd b6 a6 6f 3d ea 23 85 3e
       0.48394406 -0.087265216 0.058508597 0.26003963
0001c0 b9 8e dd 3e 61 d0 b8 3e 1f 9c d5 bd 97 97 66 bc
       0.4327295 0.3609648 -0.10430168 -0.014074228
0001d0 64 62 5d bd ba b6 b3 bd 5c da fc 3d 3a 71 80 be
       -0.05404891 -0.08775087 0.12346336 -0.25086385
0001e0 68 93 ca bc e4 91 a5 bd 4b 5b 43 3d 28 88 0e 3e
       -0.024728492 -0.08084467 0.047694486 0.13919127
0001f0 e1 c8 c5 3d b2 01 fe bb 91 d1 a5 3e 9c ae 86 3e
       0.09657455 -0.007751667 0.3238645 0.2630509
000200 93 f5 a8 3e 32 22 df 3d 8b 4b ac bd 8c f2 bd 3e
       0.32999858 0.10895194 -0.08412846 0.3709911
000210 ae 5d c3 3e 3c 84 fa 3e 4d d1 b7 bd 64 8a bd 3d
       0.3815741 0.48929012 -0.08975468 0.092549115
000220 e5 31 d4 3d 75 11 99 3e b3 b9 0b 3e 7b 0c 8e bd
       0.10361079 0.2989613 0.13645057 -0.06935974
000230 c7 95 21 3c 8b 45 08 be 11 7a 7b 3d 0e 4f e7 bd
       0.00986237 -0.13307779 0.06139571 -0.11294375
000240 3f 3b e8 bd 8c 77 0d be d3 6a 40 bc cf d3 8c 3d
       -0.11339425 -0.13815135 -0.011744219 0.06876337
000250 7e fa 17 3e b9 e9 3b 3d 4e 2d 35 be f8 e3 89 bc
       0.14841649 0.045877192 -0.17693064 -0.016832337
000260 b9 f3 ba 3e dd cb cb 3e d6 d6 df 3e 8c ff 29 be
       0.3651407 0.39803973 0.43718594 -0.1660139
000270 fb ea 33 be 40 3d aa bc 32 74 5f 3e 1b f7 1b 3d
       -0.17570107 -0.02078116 0.21821669 0.038077455
000280 d4 e8 9c 3c 43 81 26 bd 71 ec 4e 3e 31 2c 0e 3e
       0.01915399 -0.040650617 0.20207383 0.13884045
000290 07 2e 91 3d ed 61 07 be 0e 74 1e be de 62 01 3d
       0.07088857 -0.1322095 -0.15473959 0.031588428
0002a0 af 84 15 be 98 21 66 be 2f e5 20 bc 7c a8 18 be
       -0.14601396 -0.22473752 -0.009820267 -0.14908022
0002b0 a9 94 ab be fa 53 86 be 90 e4 aa bd 51 d8 ab bd
       -0.33511856 -0.26235944 -0.08344376 -0.083908685
0002c0 b1 d6 3c 3d f5 19 89 3e 91 36 da 3e f7 9d a3 3e
       0.046103183 0.26777616 0.42619756 0.31956455
0002d0 de 50 e0 bd c1 50 02 be 7d f1 76 3d e1 2b 27 3e
       -0.10952924 -0.12726118 0.060288895 0.16325332
0002e0 f0 75 35 3e 40 7b 19 be 6e af 90 3b e3 ce 2e 3e
       0.17720771 -0.14988422 0.004415444 0.17071109
0002f0 6a 86 99 3e 91 d7 4a 3e b1 c4 bf 3c bf 4b 1e bd
       0.29985362 0.19808795 0.02340922 -0.038646456
000300 4c 7f 3b bc ab 7f 40 39 6e f3 0a bc 3d 9b cc bc
       -0.011443924 0.00018358107 -0.00848089 -0.024976367
000310 ab 10 b4 bb 82 1a b5 be b8 32 25 be 9f e6 1d be
       -0.005495151 -0.35371786 -0.16132629 -0.15420006
000320 e7 64 a6 be 07 4e 55 be 48 6c 69 be 30 94 e5 be
       -0.32498857 -0.20830546 -0.22795212 -0.4483962
000330 d5 54 97 be cc 36 6c bd b7 ac 68 bd 39 24 8c be
       -0.2955691 -0.057669446 -0.05680534 -0.27371386
000340 e5 30 eb bc d7 87 b3 bd e1 e4 47 3d 94 80 10 bd
       -0.028709838 -0.08766144 0.04880226 -0.03527887
000350 e4 84 16 3e 09 e6 1b 3e ac f7 38 3e 67 45 5a 3e
       0.14699131 0.1522447 0.1806323 0.21315537
000360 50 1d e5 3d b9 0c 65 3e e0 19 85 3e 2b de cb 3e
       0.111872315 0.22368135 0.25996304 0.39817938
000370 48 72 73 ba 58 57 fa 3c 35 e4 73 be 4b 7c 8f bd
       -0.00092867436 0.030559227 -0.23817523 -0.07006129
000380 6f 57 16 3e 2a 92 b0 be 67 7e 7a be 91 a5 91 be
       0.14681791 -0.34486514 -0.24462281 -0.2844663
000390 a8 7e a2 be 4e bd a4 be 76 db f2 bd 18 7d e1 bd
       -0.31737256 -0.32175678 -0.11858265 -0.11010188
0003a0 75 ff ad be d7 16 8d bd 37 17 b0 bd 58 ae 0c 3e
       -0.3398396 -0.06889122 -0.08598178 0.13738382
0003b0 7e 23 80 3d 1f 10 7a bc 95 dc 89 3e ee a2 69 3e
       0.062567696 -0.015262633 0.26926103 0.22816059
0003c0 42 39 10 3e 19 5c 83 3e e2 dd 6c 3e f8 1c b9 3d
       0.14084342 0.25656202 0.23131517 0.090387285
0003d0 a8 ef b5 3e 79 ca 19 be 4f 4b 4d 3d 03 60 94 bd
       0.35534406 -0.15018643 0.050120648 -0.07244875
0003e0 33 ca bb 3d c9 b2 3c 3d ea a3 61 3d 16 24 f1 3e
       0.09169426 0.04606894 0.05508796 0.47097844
0003f0 55 3a c2 3e fe 45 c6 3e 8b 80 01 3e 9d 7a a3 3d
       0.3793513 0.38725275 0.12646692 0.07982371

cnn.0.bias f4 [8]
000000 a5 b8 de be 02 a4 0d be 1c ce 1f be 40 a1 00 be
       -0.43500248 -0.13832095 -0.15605968 -0.12561512
000010 1a 43 1b be 48 0e 1b be 8b a9 42 3e 14 74 14 3e
       -0.15162316 -0.15142167 0.19009988 0.14497405

cnn.2.weight f4 [8]
000000 dd 88 94 3f 28 cd 80 3f 8f c2 58 3f 77 3c 3d 3f
       1.1604267 1.0062609 0.8467187 0.7392039
000010 7e 11 c8 3f e9 c7 76 3f f5 f6 44 3f b5 a3 42 3f
       1.5630338 0.9639879 0.76939327 0.7603105

cnn.2.bias f4 [8]
000000 d1 e5 d7 3d 34 6a 7b 3e 77 d1 10 3e d7 84 85 3e
       0.10541881 0.24552232 0.14142404 0.2607791
000010 51 47 5a bd 27 47 ec 3c 3c 87 7c 3e c7 40 ec 3b
       -0.05329067 0.028842522 0.24660963 0.0072098705

cnn.2.running_mean f4 [8]
000000 d8 2a 67 3e bc dc ba 3f 01 ad ee 3f df 6a 21 3f
       0.22574937 1.4598613 1.8646547 0.630537
000010 54 20 0a 3f 01 bc 1d 3f 2e a3 6e 3f 7b cb 92 3f
       0.5395558 0.61614996 0.9321774 1.1468347

cnn.2.running_var f4 [8]
000000 99 6e 9a 3e c2 ff 8e 40 ec 62 0b 41 0a 5c a3 3f
       0.30162504 4.4687204 8.711651 1.2762463
000010 25 04 82 3f d1 79 8e 3f 15 bd 00 40 00 f9 10 40
       1.0157515 1.1130925 2.0115407 2.2651978

cnn.3.weight f4 [32, 8, 5, 5]
000000 c7 0d 06 be 94 c2 38 be b8 b6 0e be 1c 30 08 be
       -0.13091193 -0.18042976 -0.13936889 -0.13299602
000010 37 ea 65 be 0d 0f 5d 3a be a0 df 3d f0 6d e2 3d
       -0.22452627 0.00084327237 0.10919331 0.11056125
000020 dc 1b c6 3d af 4d be 3d ad 5d 8f 3c 03 4f 0a 3d
       0.096732825 0.09292161 0.017500723 0.033766758
000030 b9 bf 1d bb 7b ac 17 3d 0d d1 0e 3e 81 bd 07 bd
       -0.0024070574 0.037029725 0.13946934 -0.03313971
000040 94 bf 45 3d cf 3e 8c 3c 6c 5d 8f 3d 9c cd 19 3e
       0.048278406 0.017119793 0.07000241 0.1501984
000050 c1 9b 92 bd e8 bf 71 39 e8 f6 95 3d 6a 73 01 3d
       -0.07158614 0.00023055042 0.07322484 0.031604208
000060 0f 59 c9 3d 5a 49 a0 be 6b aa e0 bd fa 07 a5 be
       0.0983144 -0.31305963 -0.10970005 -0.32232648
000070 39 9d 60 be a4 e4 c1 be 46 81 49 be 5c 11 d6 bd
       -0.21934976 -0.3786975 -0.1967822 -0.1045253
000080 82 fa a5 be 22 d8 0c be c0 52 8d be 4a 2c 75 be
       -0.32417685 -0.13754323 -0.27602196 -0.23942676
000090 78 7e 93 3c d3 08 9f be 32 5b ce bd b7 73 32 be
       0.018004641 -0.3106142 -0.10075988 -0.17426954
0000a0 71 0a 86 bd 8b 25 b3 bc 42 fc 08 bd 72 79 c3 3d
       -0.0654496 -0.021868488 -0.033443697 0.09544648
0000b0 6d fe 79 3d 2e 66 8a 3d 55 79 65 3d a2 00 0d 3d
       0.061033655 0.067577705 0.056023914 0.03442443
0000c0 85 0a dd 3d bf fd 78 3c 53 08 d1 be 48 a6 74 be
       0.10793022 0.0151972165 -0.40826663 -0.23891556
0000d0 01 89 f0 be ff 86 a7 be a3 1b 55 be 96 78 1a be
       -0.46979526 -0.3272018 -0.20811324 -0.15085062
0000e0 69 96 4f 3d d1 80 21 be 35 38 e1 bc f1 c8 f7 3c
       0.05068055 -0.15771796 -0.027492622 0.030247184
0000f0 77 64 ce bd 2a 1e a5 bd c0 20 f4 bd 73 52 b7 bd
       -0.10077756 -0.08062394 -0.11920309 -0.08951273
000100 3b 29 6c bd aa 4d dd bd 77 fd ff bc 88 18 d7 bd
       -0.057656508 -0.10805829 -0.031248791 -0.10502726
000110 ed 84 6b 3b 99 34 36 3d ea d6 37 3d c0 55 b4 bd
       0.0035937384 0.044483755 0.044882692 -0.08805418
000120 66 3f b7 3b 77 c2 c2 3d 5b be 41 3e 3b bc 1a bd
       0.0055922745 0.095097475 0.18920271 -0.037777167
000130 4f a3 f8 3d 04 74 4e be de c5 c1 bd d4 01 11 be
       0.12140524 -0.20161444 -0.09461568 -0.14160854
000140 f9 92 81 3c a6 f0 2e 3e a8 1e 1f be 7a 97 3d 3d
       0.015817152 0.17083988 -0.15539038 0.046287037
000150 73 33 11 be ed ad be bd bc d5 6b 3c 95 78 21 be
       -0.14179783 -0.093105175 0.01439422 -0.15768655
000160 08 ab 2c bd 6a 37 53 be f4 0b 0a bd 84 d8 3f 3e
       -0.042155296 -0.20626608 -0.033702806 0.18734938
000170 4b 4c 52 bd 5f 5a 6a 3e ad 2d c4 bd 14 06 85 3c
       -0.05134229 0.22886036 -0.095790245 0.01623825
000180 a9 22 3a bd d8 c7 dd 3d 66 c6 fc bd e6 6e 0d be
       -0.04544321 0.10829133 -0.12342529 -0.13811836
000190 59 3f 9f 3e 06 c5 fe 3d ca 43 68 3e 36 3d a6 3d
       0.31103018 0.12439923 0.2268211 0.08117144
0001a0 62 3b 7b 3e 9c 5f 75 bd 58 b1 44 bd 3c c9 b2 bd
       0.24534371 -0.059905633 -0.04802069 -0.08729789
0001b0 12 e0 d0 bd 71 93 3d be be 65 d4 3d e4 3d fc 3a
       -0.10198988 -0.18513276 0.10370968 0.0019244519
0001c0 8b c4 09 3e 6a 1a 14 3e 79 19 48 3d 0b 6d 81 3e
       0.13453881 0.14463201 0.048852418 0.25278506
0001d0 97 ca 51 3e 28 1e 8c 3e 15 0f 77 3e 0e a4 72 3e
       0.20487438 0.27366757 0.24126847 0.23695394
0001e0 ba 02 25 3e ea 11 7f 3e ee de 19 3e 09 88 4c 3e
       0.16114321 0.24909177 0.15026447 0.19973768
0001f0 8d 40 04 3d 00 de 8b be 5f 25 0c be 1a 99 99 be
       0.032288123 -0.2731781 -0.13686131 -0.2999962
000200 83 98 8c be 93 c8 91 be b7 ba 6b bc 51 e4 72 3e
       -0.27460107 -0.28473338 -0.014387778 0.23719908
000210 6c f9 72 3e 57 bc 01 3e c1 07 ae 3c c2 62 5a 3d
       0.2372796 0.12669502 0.021243932 0.05331684
000220 82 87 f9 3d 29 2b a5 3d 1e 7d a8 3d e2 d8 37 3e
       0.12184049 0.08064873 0.08226989 0.17953828
000230 fa 28 40 be b1 24 f3 3b 48 c9 25 be 1b 18 c4 bd
       -0.18765631 0.0074201454 -0.16190064 -0.0957491
000240 0f 3f fc bd 02 75 46 bc 79 f8 af 3d 20 8e 37 3d
       -0.12316715 -0.012112858 0.08592314 0.044813275
000250 1d 1f 64 3e 9c b0 60 3e cb 2b 09 be 6a 6a a9 bd
       0.22277494 0.21942371 -0.13395612 -0.0827225
000260 ad b0 c1 bd a5 9e ff bd 99 dd 65 be 3c 3c 67 be
       -0.09457526 -0.12481431 -0.22447814 -0.22581571
000270 18 fc 8c be 6b aa 8f be 07 dc ba be fb 3c 8c be
       -0.27536082 -0.28059706 -0.36495993 -0.27390274
000280 fb 3c b8 bd dd 25 cd bc dc 04 4c be 54 bf c6 bd
       -0.08996006 -0.025042469 -0.19923729 -0.09704462
000290 00 6c d2 bd 9f 6d 6e be ce 73 1f bd a0 06 4e bd
       -0.102745056 -0.23284005 -0.0389288 -0.050299287
0002a0 01 2a cc bd d1 f8 a1 bd 5c 2c b0 bd e2 7c 0d 3c
       -0.09968949 -0.07908786 -0.08602211 0.008635731
0002b0 44 8e af bd e1 82 d6 bd 2a 37 a3 bd f6 e7 2f be
       -0.08572057 -0.10474182 -0.07969506 -0.1717833
0002c0 23 c4 8f bd 2c 90 38 be 14 f6 e9 bd 66 fc fb bd
       -0.07019832 -0.18023747 -0.11423889 -0.123040006
0002d0 46 3d 10 be 7c 67 5a be 58 3e 08 be a9 0c 24 be
       -0.14085874 -0.21328539 -0.13305032 -0.16020454
0002e0 e5 e6 97 bd 00 5d 1d 3c 67 0f 5b bd ce a3 0d be
       -0.074170865 0.009604692 -0.053481486 -0.13832018
0002f0 86 2c 03 be 11 6b 1d be d0 95 7c bc a8 fd 0c be
       -0.12809953 -0.15372874 -0.015416577 -0.13768637
000300 96 ac c4 bd b7 4d 4b be f4 f6 2b be 95 1c 0a be
       -0.09603231 -0.19853865 -0.16793424 -0.13487466
000310 d3 3d 5d be 13 e4 38 be 6a 11 2f be 3d 0e 3b be
       -0.21605615 -0.18055753 -0.17096487 -0.1826715
000320 dd a9 af 3e e4 6c 65 3e a6 52 a2 3e 0c 4d 67 3e
       0.34309283 0.2240482 0.3170368 0.22587985
000330 49 36 8f 3e c1 ee 86 bd da a1 4b be 2f 74 8f be
       0.27971104 -0.065885074 -0.1988596 -0.2801833
000340 c1 f6 ab be 7e 72 83 be 1e bc aa 3d 13 e0 b3 3d
       -0.33586696 -0.25673288 0.08336662 0.08782973
000350 1d d9 16 3e 4d b9 fb 3d 0f dc 37 3e de f1 e0 bd
       0.1473126 0.12291203 0.1795504 -0.109836325
000360 bd e9 95 be 84 57 3a be 0e 4b 1e be 1e 1f 54 be
       -0.2927989 -0.18197447 -0.15458319 -0.20714995
000370 2b c4 95 bd 1d 55 6c be 6d a2 be be 65 e1 a2 be
       -0.07312807 -0.23079343 -0.37233296 -0.31812587
000380 a9 94 89 be 00 c5 5e ba 5f f6 32 bd 69 60 94 bd
       -0.2687123 -0.0008497983 -0.04369199 -0.07244951
000390 89 be cf bd 20 91 08 bc 49 cf 9d 3d 5e 63 91 bd
       -0.101437636 -0.008335382 0.07705552 -0.07099031
0003a0 9b e9 1b 3e ea 5e ae 3d 66 7c e9 3d fc 8e 48 bc
       0.15225832 0.08514197 0.1140068 -0.012241121
0003b0 80 35 d7 bd 1f 1d cd 3d 99 4c c9 bc b0 ba 27 bd
       -0.10508251 0.1001532 -0.024572657 -0.040949523
0003c0 57 03 54 bd 05 b8 bc bd e9 4e c6 bd 0f a5 49 be
       -0.051760998 -0.092147864 -0.0968302 -0.19691871
0003d0 d1 92 c0 bd 5d f6 27 3e dc 26 dc 3d 62 6a aa 3d
       -0.09403003 0.16402574 0.10749599 0.08321072
0003e0 37 cb 51 3e 7d 5e ac 3d 1b e2 78 3c de 29 d9 bc
       0.20487677 0.0841646 0.0151906265 -0.026509222
0003f0 bb 64 da 3d 8d 51 b9 bc fd 1a 37 3e b1 0e 1a 3b
       0.10663744 -0.022621894 0.17881389 0.0023507292

cnn.3.bias f4 [32]
000000 4f 5a 5f be 95 f8 85 be 91 82 07 be 45 eb 4a 3e
       -0.21811794 -0.26166216 -0.13233401 0.1981631
000010 2f 9c 8c 3e 41 18 de 3d e2 90 d6 3d f0 c0 01 be
       0.2746291 0.1084447 0.10476853 -0.12671256
000020 f9 ec d2 be 90 92 97 bd db 9a e1 3d 66 af 07 be
       -0.4119642 -0.074010015 0.110158645 -0.13250503
000030 87 5f f5 bd 79 6e 62 be e9 42 ca bd 50 af 65 be
       -0.11981111 -0.22112454 -0.09876043 -0.22430158
000040 77 91 86 3e 2c c6 b8 bd 8a 30 e8 3d 87 c0 ba be
       0.26282856 -0.09022173 0.11337383 -0.36475012
000050 15 66 b2 be 5b bb 1c 3e 92 e3 e9 3c ab c8 10 be
       -0.34843507 0.15305845 0.028550897 -0.14139049
000060 4a 07 3d be 9e a5 03 be 16 5d e4 3d 32 75 31 bd
       -0.18459812 -0.12856147 0.11150567 -0.043324657
000070 ea b1 ce bd 03 75 44 be 33 81 87 bd 6b 21 36 be
       -0.10092528 -0.19185261 -0.0661644 -0.17786185

cnn.5.weight f4 [32]
000000 5f a3 7b 3f ad eb 9b 3f 59 a1 87 3f b4 1e 89 3f
       0.9829616 1.2181298 1.0596114 1.0712495
000010 ae 07 9a 3f 80 e8 82 3f 86 d5 57 3f 24 28 86 3f
       1.2033594 1.0227203 0.84310186 1.0481
000020 6f e0 56 3f e9 95 95 3f 3c a5 83 3f 2f e5 9f 3f
       0.8393621 1.1686374 1.02848 1.2491816
000030 5b 2e 5b 3f 3e c8 5b 3f 27 dd 15 3f 20 47 92 3f
       0.8561761 0.8585242 0.58540577 1.1427956
000040 b9 ac 9a 3f 7c 82 8f 3f 71 98 9d 3f 46 1f 7b 3f
       1.2083961 1.1211696 1.2312146 0.98094594
000050 0f df 92 3f 12 f1 95 3f ce 04 98 3f fd 94 38 3f
       1.1474322 1.1714194 1.1876466 0.7210234
000060 36 30 88 3f ae bc 6d 3f de 02 85 3f 76 00 38 3f
       1.0639713 0.9286603 1.03915 0.71875703
000070 75 de a3 3f b4 cd 89 3f 67 10 5c 3f 73 18 77 3f
       1.2802263 1.0765901 0.8596253 0.9652168

cnn.5.bias f4 [32]
000000 95 5b 12 bc b2 68 f6 bd 24 09 46 be 4f 54 9a bc
       -0.008932968 -0.12031688 -0.19339424 -0.01883903
000010 4b 98 a0 bc 82 00 5b ba 46 42 3b be 6c 98 27 3b
       -0.019603869 -0.00083542627 -0.18287 0.0025573028
000020 3a 35 8b 3d 82 c8 30 3e f2 f5 23 be 46 93 8a be
       0.067972615 0.17263988 -0.1601179 -0.27065486
000030 17 8e a1 bd e1 75 ba 3c 89 40 10 bd a1 7a 71 3d
       -0.078884296 0.022761287 -0.035217796 0.05895484
000040 c1 8e ba bc 0e 94 5e 3b cc 41 72 bd 79 42 5e 3e
       -0.022773148 0.003396276 -0.05914478 0.21705045
000050 59 27 ed 3c 22 5c 04 bd 88 49 7b be d0 3f ae 3d
       0.028949426 -0.032314427 -0.24539769 0.08508265
000060 d2 53 89 bd 19 60 0f 3e 23 c2 05 bc 2e 43 e2 bc
       -0.067054406 0.14001502 -0.008163962 -0.027619924
000070 25 e5 90 3c 45 e8 b5 bb 10 24 d9 3a 76 08 9b bd
       0.01768739 -0.0055513703 0.0016566534 -0.07569973

cnn.5.running_mean f4 [32]
000000 6c 37 53 3f a5 33 10 40 49 42 94 3f 41 f3 b0 3f
       0.8250644 2.2531521 1.1582729 1.3824235
000010 4e b9 16 40 47 94 05 40 39 e2 21 40 a1 9d f8 3f
       2.35506 2.0871751 2.5294325 1.9423105
000020 57 50 84 3f fe d5 f8 3f c9 90 c8 3f d9 78 17 40
       1.0337018 1.9440305 1.5669185 2.366751
000030 8d 97 5e 40 56 99 db 3f f2 60 28 40 5e 45 13 40
       3.478 1.715617 2.630917 2.3011088
000040 37 1d fd 3f 4c 05 c1 3f f3 a4 b8 3f 7f 74 db 3f
       1.9774541 1.5079741 1.4425339 1.7144927
000050 fc cc f4 3f 35 3d c3 3f 30 93 26 40 5b 0a ee 3f
       1.9125056 1.5253054 2.6027336 1.859691
000060 0f ac 6a 3f 98 26 03 40 4d d5 3c 40 59 23 b9 3f
       0.9166879 2.0492306 2.9505188 1.4463912
000070 7f a2 fc 3f 4e 3c 26 40 44 3c 1c 40 12 79 0b 40
       1.973709 2.5974307 2.4411783 2.1792645

cnn.5.running_var f4 [32]
000000 26 76 aa 40 26 cf 80 41 c1 02 5c 40 3e 78 a2 40
       5.3269224 16.101147 3.437668 5.077178
000010 fa f5 2a 41 c0 d8 10 41 e4 0e 15 41 08 8c fd 40
       10.685053 9.0529175 9.316135 7.9233437
000020 89 76 75 40 d7 62 6d 41 28 33 8c 41 d1 eb eb 40
       3.8353598 14.836631 17.524979 7.372536
000030 7e 92 b5 41 a1 b9 90 41 5c 56 88 41 a0 f6 2f 41
       22.69653 18.09064 17.042168 10.997711
000040 4f 8c 44 41 bc dd 3a 41 8c dd 5d 41 4c af 64 41
       12.284255 11.679134 13.866589 14.292797
000050 24 27 57 41 cd 82 88 40 c8 0f 01 41 1d 61 2e 41
       13.447056 4.265967 8.066353 10.898709
000060 fb 36 ed 40 8b d2 6b 41 ad 53 3f 41 db 25 8f 40
       7.4129615 14.738902 11.957929 4.473371
000070 4e 0d 12 41 7d 17 75 41 a0 ab 42 41 00 97 ee 40
       9.128248 15.318234 12.166901 7.4559326
