models/film_gpu_96d3.model (torch, 183901 bytes, 78 tensors)

conv1.weight f4 [8, 2, 5, 5]
000000 9a d9 51 be 89 8d e3 bd 7e 2f 75 bc 01 d1 a0 be
       -0.20493165 -0.1111098 -0.014964936 -0.31409457
000010 78 8d 55 be ed 9f d7 bd 81 93 01 be fe be 07 be
       -0.20854747 -0.1052855 -0.12653925 -0.13256451
000020 6b a7 1b be 2b 7e 1d 3d aa e1 34 3e cd dc 1f 3d
       -0.15200584 0.0384504 0.17664209 0.03902893
000030 e6 e1 3d 3e 63 79 ce 3c 47 a3 15 3e 0c ea 2b bd
       0.18543205 0.025204366 0.14613067 -0.04197125
000040 45 f9 3c 3e e9 ff 1a bc 93 35 a9 3d f2 41 7f 3d
       0.18454464 -0.009460428 0.082621716 0.06231875
000050 1a 9d b9 bd d5 97 c0 bd 81 63 98 bd fa 70 90 3d
       -0.09063168 -0.0940396 -0.07440854 0.070527986
000060 22 6c d0 3d db 44 a3 be 92 8b 38 be 11 83 34 3b
       0.10176875 -0.3188847 -0.18021992 0.0027543942
000070 36 63 f2 bd 00 77 59 be 09 04 b3 bd fd 3f 79 3d
       -0.11835329 -0.21236801 -0.08741004 0.06085204
000080 85 56 08 3e 1f 3e d1 bd 73 fa 10 be 1f 69 55 3e
       0.13314255 -0.10216927 -0.14158039 0.20840882
000090 05 05 34 3e 8f 1f df bb 2d 6e cc 3d 4e b2 08 3e
       0.1758004 -0.006809182 0.09981952 0.13349268
0000a0 99 f4 53 3d b6 cb 14 3d a9 c9 16 3d c1 42 92 3d
       0.05174694 0.036327086 0.03681341 0.071416385
0000b0 fe 60 13 3c 6e b9 05 3e e3 a8 c4 3d f7 66 2c 3e
       0.008995293 0.13059017 0.09602525 0.16836153
0000c0 83 b9 c6 bd 78 b1 1f 3e d5 4e 2a 3a f7 11 7d 3e
       -0.09703352 0.15595043 0.0006496732 0.24713884
0000d0 53 50 21 3d 1e e2 b5 3d 91 a1 93 bd f4 8f ba bd
       0.039383244 0.08881019 -0.07208551 -0.09109488
0000e0 bb a4 58 3e 8b d8 22 3e 67 35 0e be 46 a2 92 3d
       0.2115659 0.15902917 -0.13887559 0.071598575
0000f0 60 0d 92 bd 8f 03 d9 bc ae 90 b8 bd ed 53 0d 3d
       -0.07131457 -0.026490955 -0.090119705 0.034503866
000100 6f 68 32 bd 4f 59 5a 3c 30 5c 6a bd d9 90 98 3b
       -0.043556627 0.013326957 -0.057216823 0.004655939
000110 1f 38 08 be 4d b0 d2 3d 4d 58 7f be b9 4c 80 bd
       -0.13302658 0.10287533 -0.24936028 -0.06264634
000120 67 06 00 be 6c 6a 82 bd 93 48 c2 3d 68 58 9c 3d
       -0.12502442 -0.063679546 0.09486499 0.0763405
000130 8a dd 27 3b f8 98 b4 3d 85 43 41 be b7 d9 96 3d
       0.0025614225 0.08818239 -0.18873413 0.073657446
000140 9d f8 bb 3d b1 91 7e bb ff 19 cb 3d d5 ed ab 3d
       0.091782786 -0.0038844163 0.09917068 0.08394972
000150 82 cc 19 3e 45 1b a9 bc 69 d6 7a bd 22 05 3c be
       0.1501942 -0.020642886 -0.061239634 -0.18361333
000160 6a ce b6 bc 37 82 80 bd ab 5c 64 bd cd 6c 2c bd
       -0.022315223 -0.062748365 -0.055752438 -0.042095948
000170 82 b1 7a 3c 15 8a 0f be 48 57 4b bd ec 1b 9e be
       0.01530111 -0.14017518 -0.049643785 -0.30880678
000180 70 48 5c be 68 7e 71 bd 0e cb cf bd 7a 6a ea bb
       -0.21512008 -0.05895844 -0.101461515 -0.0071538063
000190 e6 99 7e bd e8 ea 15 3e 7c 66 c0 3d 8a b3 23 bd
       -0.062158488 0.14640391 0.09394547 -0.039966144
0001a0 fb ab 2c 3e de dd cd bd db 82 16 bd 18 c6 52 3d
       0.1686248 -0.100520834 -0.036745887 0.05145845
0001b0 cc 05 d2 bd 4a 70 d3 bc f5 f1 7e be f9 3e 3b be
       -0.10255012 -0.02581038 -0.24896987 -0.18285741
0001c0 a9 08 1b be 6a 35 48 be fe 10 7f bd b0 61 2b bd
       -0.15140022 -0.19551626 -0.062272064 -0.04184121
0001d0 52 bf 07 3e 32 8f 22 3d 79 55 5e 3d 2e ba ee bd
       0.13256577 0.039687343 0.05428073 -0.11656605
0001e0 f8 06 97 3c bb a7 9e 3a 54 c7 bd 3d de 7a 2b 3e
       0.01843594 0.0012104431 0.092665344 0.16746089
0001f0 ed 61 5f 3d 6f ef 63 3d b8 1d 22 3d d9 f0 b1 3d
       0.05453675 0.055648264 0.039579123 0.08688516
000200 54 27 22 3e 76 72 26 3c fa 70 1d 3d 92 cb 2c 3e
       0.15835315 0.010159126 0.03843782 0.16874531
000210 d1 6b 59 3c 35 5f ce 3d 59 17 9b 3d f5 dc 2d be
       0.013270334 0.10076753 0.075728126 -0.1697882
000220 3c 02 a1 bd 31 9c 56 be 0b 05 ac bc 65 39 d9 bd
       -0.07861754 -0.2095802 -0.020998498 -0.1060665
000230 4c 31 9c 3b 71 c1 bb bd 56 79 07 3d 2f e1 35 3c
       0.004766619 -0.091677554 0.0330747 0.011101051
000240 d5 6f 13 be 6e e9 fa 3d 6b 80 1e 3e 55 94 f8 3c
       -0.1439813 0.122515544 0.15478675 0.030344168
000250 d3 6d 28 3e f8 4d be 3d 46 89 0a 3e 87 e5 19 b8
       0.16448145 0.09292215 0.13528928 -3.6691807e-05
000260 18 3c 98 3d 48 9a 84 bb f0 21 2b bd d3 b1 96 3d
       0.07433337 -0.004046712 -0.041780412 0.07358136
000270 5a 0b c9 3c 84 82 e0 3d f8 1a 07 be 3e de 83 3d
       0.024541546 0.10962394 -0.13193882 0.06438874
000280 8c c3 1c be 19 2f 2a be ab 1c 50 bd 67 48 61 be
       -0.1530897 -0.16619529 -0.05080859 -0.22000276
000290 0f 13 4d bd cc 63 37 bd 6e 51 87 bd 5d 8d 15 be
       -0.050067004 -0.044772908 -0.06607328 -0.14604707
0002a0 7b 88 84 be b7 ad 8c bd de f6 b0 bc 62 70 0d be
       -0.25885376 -0.06869071 -0.02160209 -0.13812402
0002b0 aa e6 f5 bd d8 2e 04 be ee f4 11 bd 6a ba 54 3e
       -0.12006886 -0.12908494 -0.035633974 0.20774236
0002c0 0c c0 10 bd d1 30 ca 3d ef 6e a4 bd 66 3c e9 bc
       -0.0353394 0.09872592 -0.080289714 -0.028471183
0002d0 b9 d8 09 be cc e1 c4 bd 3d 99 e3 bc 22 95 17 be
       -0.1346158 -0.0961338 -0.02778303 -0.14802983
0002e0 f1 94 05 bc 13 fc 3b be 27 e7 37 be 02 d1 9c 3d
       -0.008153186 -0.18357877 -0.17959271 0.076570526
0002f0 24 d1 b0 bd d2 3d da 3c ca 99 96 bd 45 4e 2f be
       -0.086336404 0.026640806 -0.07353552 -0.17119701
000300 82 8a f9 3c cf 0f 56 be 85 fb 09 be 25 7d ad bd
       0.030461553 -0.20904468 -0.13474853 -0.08471135
000310 c1 79 de bd b6 6f 2f 3d e2 88 33 be 4b 4a 86 bc
       -0.108630665 0.042831145 -0.17532685 -0.016392848
000320 57 bc c0 3c 6e 51 0a 3d 54 98 d4 bd fb 28 7d bd
       0.023527307 0.033769064 -0.10380617 -0.06180666
000330 18 0b ee bc 39 fd 85 bd b0 ac 29 3e 1c 17 69 bd
       -0.029058024 -0.06542439 0.16569781 -0.056906804
000340 a7 12 59 3c cb e0 e5 bd 4d 5b 1f 3e 3c 90 e0 3d
       0.013249076 -0.112245165 0.15562172 0.109650105
000350 15 0b 74 3d ce 98 df bc 56 00 19 be 4f 2d 68 bd
       0.05958088 -0.027294543 -0.14941534 -0.056683835
000360 f0 c9 fa 3d 40 b5 52 3c c5 2a 51 3e d8 cd 06 bd
       0.12245548 0.012860596 0.20426472 -0.03291115
000370 cc 85 d9 3d fa 10 61 3d 29 b3 b0 3c 36 29 43 3c
       0.10621223 0.05494783 0.021569805 0.011911681
000380 ab 69 f1 3d 8b f9 db bd c4 8b a9 3d e3 44 35 3d
       0.11787733 -0.10740956 0.08278611 0.04425515
000390 21 4c ab 3d 1a d6 02 3d b4 f0 9f 3d cf 77 63 3e
       0.0836413 0.031942464 0.07809582 0.22213672
0003a0 85 a5 e3 3d 0d de 10 3e 7c 3b d9 3d aa c9 1e 3e
       0.11115555 0.14147206 0.10607049 0.15506616
0003b0 ee 5a 6e 3e 82 9a cc bb cb 9f 9b 3d e4 b7 f4 bc
       0.23276874 -0.0062440047 0.075988375 -0.029872842
0003c0 f5 fe 34 3c 19 c4 a1 3e 64 d0 b2 3d 2a 61 7d 3e
       0.011047115 0.31594923 0.087311536 0.24744096
0003d0 35 13 03 3e fe db 79 bd 91 3e fb 3c be 28 64 3d
       0.12800296 -0.061000817 0.030669482 0.055702917
0003e0 f3 1f c7 3d 3d 2d 8a 3d a9 82 52 be 41 ce 45 be
       0.09722891 0.0674691 -0.20557655 -0.19316961
0003f0 77 d3 e3 bb 7e a6 46 be ce 0e 04 be 4a 8d 1c bd
       -0.006952699 -0.19399449 -0.12896273 -0.03822068

conv1.bias f4 [8]
000000 46 41 9b bd 64 f5 31 bd 65 b1 1f be 61 50 93 3d
       -0.07580809 -0.043446913 -0.15595014 0.071930654
000010 7c 0e d6 bd 2e e9 48 be cd 49 36 3e 5f 90 c5 3d
       -0.104519814 -0.19620201 0.1780159 0.09646677

bn1.weight f4 [8]
000000 16 dd 79 3f 52 f0 48 3f 5e 46 74 3f 62 dc 2c 3f
       0.97602975 0.784917 0.9541987 0.6752378
000010 b8 b8 73 3f 4e 68 93 3f 0a fe 93 3f 29 c2 5b 3f
       0.95203733 1.1516206 1.1561902 0.8584314

bn1.bias f4 [8]
000000 5c ae 59 3c 46 2f 14 3e 55 72 20 3d 22 50 bc 3d
       0.013286199 0.14471158 0.039171536 0.091949716
000010 54 bb f3 bd b7 10 c8 bd 9b 55 d6 bd 19 8b bc bb
       -0.119009644 -0.09768813 -0.10465547 -0.0057538864

bn1.running_mean f4 [8]
000000 73 a5 7e 3e ac 72 c5 3e ce 02 0c 3e 5f e0 82 3f
       0.24867801 0.3856405 0.13672945 1.0224723
000010 b4 1e 5f 3f 94 68 c8 3e 0d 3e cc 3e 65 ae 15 3f
       0.87156224 0.39142287 0.3989109 0.5846923

bn1.running_var f4 [8]
000000 8c 73 95 3e 8e 5d a0 3e 59 38 b5 3d 9c e2 01 40
       0.29189718 0.31321377 0.08848638 2.0294561
000010 d3 a5 f9 3f 71 4c ce 3e d5 ef 95 3e ae 0e 1f 3f
       1.950373 0.40292695 0.2928454 0.62131774

conv2.weight f4 [32, 8, 5, 5]
000000 ee e0 12 bc c9 77 3c bd 7a d2 be bd 47 41 22 be
       -0.00896476 -0.046012674 -0.09317489 -0.15845214
000010 29 ee 5f bd b1 6b 13 be d9 c2 19 be 77 23 10 be
       -0.054670487 -0.1439655 -0.15015735 -0.14076029
000020 a1 51 17 be 18 ce f7 bd 42 11 e9 bd 9d 10 ec bc
       -0.14777233 -0.12099856 -0.11380245 -0.028816516
000030 9b b0 c8 bd 5d 44 21 bd d2 50 02 bd 5b 3e 77 bd
       -0.0979931 -0.039371837 -0.031815358 -0.0603622
000040 a6 03 ae bd 0e 90 1d bb 57 3d 1e bd fd df 9a bd
       -0.0849679 -0.0024042162 -0.038632717 -0.075622536
000050 20 c5 df 3d d2 af 99 3d 86 b8 e1 3c 5b 0c 88 3d
       0.109262705 0.07504238 0.027553808 0.066429816
000060 d7 29 81 3d 52 f6 6a bc 60 bf 00 bd 73 0f 90 bc
       0.063068084 -0.014340954 -0.03143251 -0.017585492
000070 15 b5 09 bd f1 0b 91 3c 1f 8d 51 3d 0b 7b bc 3b
       -0.03361996 0.01770589 0.051159974 0.0057519726
000080 72 22 04 3e 5a 2e aa 3d 67 5b a8 3d 13 8d 82 bd
       0.12903765 0.08309622 0.082205586 -0.06374564
000090 d4 4f bd 3d 54 a1 23 3e 05 20 a8 3d b2 33 8f 3c
       0.09243742 0.1597951 0.08209232 0.017480705
0000a0 3f 29 86 bd b0 6c 40 3b 1b 77 9a 3c f6 cd bf 3d
       -0.06550836 0.0029361658 0.018855622 0.09365456
0000b0 15 a6 9a bc 88 18 37 be d0 1d 10 be 79 ab e3 3b
       -0.018878022 -0.17880452 -0.14073873 0.0069479314
0000c0 c1 05 48 3c 12 14 14 bd cd 3d ef bd c9 66 63 3c
       0.012208403 -0.036151953 -0.116817094 0.013879486
0000d0 fe 4e c1 bd 0e 73 f4 bd 54 29 e4 bd 65 74 33 bc
       -0.09438895 -0.119360074 -0.11140695 -0.010953044
0000e0 67 5a ad bd fe 8e d0 bd f8 36 02 bd 81 7d f7 bd
       -0.084645085 -0.101835236 -0.031790704 -0.12084485
0000f0 82 cf c3 bd df 5d 53 bd 78 8a f8 bd 3c 13 4b 3c
       -0.09561063 -0.051603194 -0.12135786 0.012394723
000100 f6 f3 c6 3c cb aa 00 bc 85 aa ea 3c 36 3f c0 bd
       0.024286252 -0.00785322 0.028645763 -0.093870565
000110 7c 42 f9 3d bc 88 af 3d 0a 97 5e 3d 2f b5 dd 3d
       0.12170884 0.08571002 0.05434326 0.10825574
000120 0b 11 d8 bc a6 e7 02 3d ff d3 8d 3d a6 68 4c bd
       -0.026375314 0.0319592 0.06925201 -0.049904488
000130 f7 d8 0d bd 22 07 d3 bd cd 2f 9d bd a3 1d ed bc
       -0.034630742 -0.10304095 -0.07675133 -0.028944796
000140 4b be 17 bd d8 c6 ad bd 99 28 2d 3b a0 10 88 bd
       -0.037046712 -0.08485192 0.0026421903 -0.06643796
000150 15 a1 22 3c 82 af 89 ba e9 ae 5b 3d 2b a8 74 bd
       0.0099261 -0.0010504576 0.053633604 -0.05973069
000160 98 17 e2 bc cb b3 b3 3c f1 59 f9 3c a8 aa 5f 3d
       -0.027599141 0.021936318 0.030438395 0.05460611
000170 65 8d 20 bc ef 47 db 3d 94 d9 a3 3c 02 c9 2b 3d
       -0.009799336 0.107070796 0.02000121 0.041939743
000180 fe 58 c8 3c eb 78 9c 3d 20 e9 77 3d cf 71 90 bc
       0.024456497 0.07640251 0.06052506 -0.017632393
000190 ea 32 33 b9 4c 29 6b 3d 7b 56 42 3e 4f 7d 38 3d
       -0.00017089737 0.05741243 0.18978302 0.04504138
0001a0 57 e3 ad 3d 35 74 7f bd d4 57 b0 3c 9a 35 ef bc
       0.08490627 -0.062366683 0.021526255 -0.029200364
0001b0 cd 29 a7 3d f0 34 b3 bc 35 70 61 3c 1c 2b 5f 3c
       0.0816227 -0.021875829 0.013759662 0.013621118
0001c0 da a3 64 bd 2f 3a 46 bc f8 29 27 be db 9a a6 bd
       -0.055820324 -0.012098833 -0.16324604 -0.08135005
0001d0 61 89 39 bd e9 a9 bd bd bb b8 9d bd a5 10 c6 bd
       -0.04529703 -0.092609234 -0.0770125 -0.096711434
0001e0 97 c6 cd bd 8f e4 43 be 5a 32 44 be f4 cc 27 be
       -0.10047644 -0.19130157 -0.19159833 -0.16386777
0001f0 a0 42 50 be d8 5b 72 bd c3 de 12 be 50 c0 4f bd
       -0.20337915 -0.05916962 -0.1434279 -0.050720513
000200 8a c0 5c bd a7 4c 79 bd cf b4 82 bd 1c 0a 36 be
       -0.053894557 -0.060864117 -0.06382143 -0.17777294
000210 a6 91 18 be 85 9b 8a be 36 2f bc bd e4 99 3b bd
       -0.1489931 -0.27071777 -0.09188692 -0.04580106
000220 77 82 41 be 7b 66 f6 bd f5 b4 c2 bd 49 e4 8b bd
       -0.18897425 -0.12031265 -0.09507171 -0.06830651
000230 57 6f fb bd 10 fd 67 be a4 7c 0f 3d c8 7a 7d bd
       -0.12277096 -0.2265513 0.035030976 -0.06188467
000240 cd a9 30 bc 01 4c 97 bc c9 3a b7 3d e9 e7 bb 3d
       -0.010782671 -0.018468859 0.08946759 0.09175093
000250 bb ba 8f bc 9b df 34 3e 3b 54 0d be e1 d3 67 be
       -0.017545095 0.17663424 -0.13801663 -0.22639419
000260 1f c0 33 be a3 5f ee bd 68 b6 b0 bd 6e 8f 28 3e
       -0.17553757 -0.11639335 -0.08628541 0.16460964
000270 cd 40 3f 3e 72 d0 8c 3e 7b f8 02 3e bd cf 5f 3e
       0.18677063 0.2750278 0.127901 0.2185659
000280 65 dd 88 3d 9d 70 14 3d 37 b7 ba 3d f6 14 14 3e
       0.06682853 0.03624021 0.09116977 0.14461121
000290 78 1f ae 3d 06 9d 46 bc ad 73 1a 3c fb 40 78 3d
       0.08502096 -0.012122398 0.009426993 0.060608845
0002a0 c9 86 16 bd 59 7d 60 bd d0 f3 fa bc 93 22 64 bd
       -0.036749635 -0.05480704 -0.030633837 -0.055697035
0002b0 c2 86 fe 3b ef 71 97 bc 1a b3 de bd 41 a2 24 3d
       0.007767529 -0.018486945 -0.10874005 0.0401938
0002c0 df b7 ac bd 06 bd a1 bc 1d 6e 2a bd 58 de ed bc
       -0.08433508 -0.019743454 -0.04160892 -0.029036686
0002d0 53 ea 82 bd bf 9d f0 bd 76 84 a1 bd c4 c9 20 3d
       -0.0639235 -0.11748838 -0.07886593 0.03925492
0002e0 24 69 fb bc 26 33 48 3d 7d cf 83 bd 04 f9 94 bc
       -0.030689783 0.048876904 -0.064360596 -0.018185146
0002f0 58 83 1a bb 5b 63 2d 3d d6 61 46 3b a0 8d c0 3d
       -0.0023576822 0.04233108 0.0030270717 0.09402013
000300 35 6b f0 3d 7d a2 c7 3c 8d f7 25 3d d6 da 04 3d
       0.11739198 0.024369473 0.040519286 0.03243526
000310 a6 e8 a5 3d d4 76 a9 bc f3 fa 9a 3d eb 4d 43 3d
       0.08101015 -0.020686544 0.07567396 0.04768173
000320 07 55 51 bd 1c b8 89 bd 18 a2 81 3d 86 da 86 3d
       -0.05110648 -0.06724569 0.06329745 0.06584649
000330 44 9c 8e 3b 2f bf bd bd 9e 69 d4 bd a2 3e 59 be
       0.0043521244 -0.09264981 -0.103717074 -0.21215299
000340 69 22 88 bd 3f 28 47 be 20 3d 9e bd c6 c2 a8 bb
       -0.06647188 -0.19448946 -0.077265024 -0.005150172
000350 e6 d0 c7 bd d8 8c 35 bd 04 3b 28 bd 6b e0 93 ba
       -0.09756641 -0.044323772 -0.041071907 -0.0011282092
000360 cc 20 8f bd 52 ef 0f bd 8b a7 7f bd 91 8d c0 bd
       -0.069886774 -0.035140343 -0.06241564 -0.09402002
000370 4e ce 25 bc ed 26 eb bd ca 7f b0 bd 8e d5 d6 bd
       -0.010119988 -0.11482034 -0.08618124 -0.10489951
000380 c8 5d 1a be 3f d6 f0 bd 06 26 ae bd ba e6 a2 bd
       -0.15074837 -0.11759614 -0.08503346 -0.07954164
000390 6f 80 e9 bc 59 56 0a be 0a 47 d0 3c 38 6c 03 be
       -0.028503625 -0.13509502 0.025424499 -0.12834251
0003a0 0d 54 af bd 91 51 a1 bd aa 65 1f be 32 4a 04 be
       -0.08560953 -0.07876886 -0.15566126 -0.12918928
0003b0 2d 7b dd bd 76 45 02 be f2 80 28 bc d9 0b 95 bd
       -0.108145095 -0.1272181 -0.010284649 -0.072776504
0003c0 2e 74 41 bd bc e9 1e bd 46 eb 1e bc 13 bc 33 3d
       -0.04722994 -0.038797125 -0.009699648 0.043880533
0003d0 7a 54 b0 bd 11 f0 1d bd 0e 24 80 3d 58 78 c2 bc
       -0.086098626 -0.038559023 0.06256877 -0.023739025
0003e0 1a 48 19 bd 8e 5a 9d 3c 21 10 7e bd 76 f9 06 be
       -0.037422277 0.019208219 -0.0620271 -0.131811
0003f0 97 5b 10 be a2 ed 61 bd ba 17 3a be b3 d9 81 bd
       -0.14097439 -0.055158265 -0.18173113 -0.06340351

conv2.bias f4 [32]
000000 d0 d7 17 3d a4 0b be 3d 7b 1d d0 bd 02 4f 2c be
       0.03707105 0.09279564 -0.10161873 -0.16827014
000010 9f 6e 46 be 3a 42 6d be a0 10 ba bd be 31 0c be
       -0.19378136 -0.23169795 -0.09085202 -0.1369085
000020 8e 34 be bd b1 1c 12 bc 37 ac 87 be 1e 11 be 3d
       -0.09287368 -0.008917973 -0.26498577 0.092806086
000030 44 12 58 be 9b 2f 17 3e 11 52 51 3d a4 0b b3 bd
       -0.21100718 0.14764254 0.051103655 -0.08742455
000040 7f ca d7 bb 6b 69 0d 3c 13 98 31 be 27 81 2c be
       -0.0065854187 0.008631091 -0.17343168 -0.16846143
000050 e2 4a 99 bd 65 bb d0 3d 2e 3f b8 bd e9 4e a7 bc
       -0.07484986 0.10191993 -0.089964256 -0.02042337
000060 18 a1 50 bd 30 69 1d be aa 48 0d be e9 64 97 bd
       -0.05093488 -0.15372157 -0.1379725 -0.07392294
000070 c0 6c 32 3c be 0a 87 3c 9b 79 79 bd c8 bc 98 3d
       0.010890186 0.016484614 -0.060906988 0.07457882

bn2.weight f4 [32]
000000 6a 0f 89 3f 30 05 83 3f f8 58 9e 3f 17 ca 6f 3f
       1.0707829 1.0235958 1.2370901 0.9366774
000010 23 b8 5d 3f 7e 9f 86 3f 84 5d 70 3f c5 8a 7a 3f
       0.86609095 1.0517423 0.93892694 0.97867996
000020 0d 66 82 3f 92 35 6f 3f ac 96 6c 3f e6 0c 81 3f
       1.0187393 0.93441117 0.9241741 1.0082061
000030 1c fd 7c 3f 27 19 62 3f 24 ce 8f 3f c1 57 8f 3f
       0.98823714 0.8831963 1.1234784 1.1198655
000040 e4 f7 78 3f 1a 0d 45 3f 93 58 54 3f f0 9b 7b 3f
       0.9725325 0.76973116 0.82947654 0.98284817
000050 2a bc 80 3f 16 0c 86 3f 68 35 93 3f fb 40 6d 3f
       1.0057423 1.0472438 1.1500673 0.9267728
000060 e6 86 58 3f 2d 4c 6f 3f 91 4f 5c 3f a5 83 80 3f
       0.8458084 0.9347561 0.8605891 1.0040175
000070 1b a5 7c 3f a3 fa 83 3f 7d 69 60 3f 75 a0 76 3f
       0.9868943 1.0310863 0.8766096 0.9633859

bn2.bias f4 [32]
000000 cd 6c 7f bd c1 1c 04 bd f9 04 e3 3d 2b e4 26 3e
       -0.06235962 -0.032253984 0.11084933 0.16297977
000010 f5 69 0c 3e 2e ac f5 3c d7 0a 96 bc c5 04 e2 bc
       0.13712294 0.029989328 -0.018315716 -0.027590165
000020 16 e7 45 3e 03 f6 0e bb 6b 91 ca bc 52 4b a8 3c
       0.19326434 -0.0021814115 -0.024727544 0.020543728
000030 81 7c 83 3e 6a 2b 26 3e 34 34 fd 3d 31 80 03 3e
       0.25680926 0.16227499 0.123634726 0.1284187
000040 eb fe 62 3c ce 59 04 be 69 af f4 3d 86 8b dd bd
       0.0138547225 -0.12924883 0.11947519 -0.108176276
000050 5f d1 88 bc 37 60 d7 bd 9a a8 cc 3d f8 22 b5 bc
       -0.016701398 -0.105163984 0.09993096 -0.022111401
000060 d2 e8 5f 3d 6e cb 08 3d 15 25 22 3e c8 d2 05 3e
       0.054665394 0.03339713 0.15834458 0.13068688
000070 85 64 ee 3c 7e 92 e5 bc 40 d3 88 bd 25 ce c1 3d
       0.029100666 -0.028023954 -0.06680918 0.09463147

bn2.running_mean f4 [32]
000000 fb 7c ac 3f 0f f7 cc 3f 8f 65 1f 3f c2 a5 97 3f
       1.3475641 1.6012896 0.6226434 1.184746
000010 58 eb 80 3f 80 d9 23 3f 9c c7 f5 3f 8c 41 70 3f
       1.0071821 0.64003754 1.9201541 0.93850017
000020 ca 1c fb 3e 7d bf e8 3f 61 6b 5c 3f 08 c8 b8 3f
       0.49045402 1.8183438 0.8610135 1.4436045
000030 aa 80 a8 3f 89 28 bb 3f 70 83 9a 3f 84 a8 b4 3f
       1.3164265 1.4621745 1.2071362 1.4113927
000040 6b b5 bf 3f 53 11 7a 3f aa eb 94 3f a6 75 9e 3f
       1.4977239 0.97682685 1.1634419 1.2379653
000050 20 45 f7 3f fb 76 a2 3f ab e9 81 3f 43 db d5 3f
       1.931797 1.269256 1.0149435 1.6707538
000060 7d 65 d6 3f c9 f3 b3 3f 30 9b 7a 3f 50 34 c5 3f
       1.6749722 1.4058772 0.9789305 1.540659
000070 f2 a9 e4 3f 1d e4 9b 3f 3a 78 e6 3f f2 e5 cd 3f
       1.7864363 1.217899 1.800544 1.6085799

bn2.running_var f4 [32]
000000 a2 a6 2e 40 14 58 42 40 6c 65 c8 3f bd 56 ba 40
       2.7289205 3.0366259 1.5655951 5.823088
000010 eb 3a 99 40 b1 37 09 40 bb fc 6a 41 e3 95 af 3f
       4.788442 2.1440241 14.686702 1.3717617
000020 19 c8 e8 3f a3 c4 61 40 83 fa 26 40 72 73 23 40
       1.8186065 3.5276268 2.60904 2.5539212
000030 93 ea e4 40 d7 aa 3c 40 1d 72 12 40 c9 fd 4c 40
       7.1536345 2.9479272 2.288215 3.2029898
000040 d4 70 2b 41 86 46 fa 3f ce 32 ad 40 c2 fe ee 3f
       10.715046 1.9552772 5.4124517 1.8671496
000050 a1 53 3b 41 62 b6 0f 40 ee 84 7a 40 97 5d 5d 40
       11.707917 2.2455068 3.9143634 3.4588373
000060 8c e8 3e 41 7e 73 7d 40 d1 e7 a2 40 7f 05 b9 40
       11.931774 3.960174 5.090798 5.781921
000070 7c 09 5f 40 8d 9e 10 40 5a fc 50 41 79 a5 37 41
       3.4849539 2.2596772 13.061609 11.477899

conv3.weight f4 [32, 32, 5, 5]
000000 4d 77 5f ba 1a b5 26 bd 98 f0 2e bd dc 8c 96 bc
       -0.0008524552 -0.040700056 -0.042709917 -0.018377714
000010 87 4b cd 3b 3b 76 ab bd 57 bd 62 bd c2 f9 03 bd
       0.006265107 -0.0837216 -0.05535635 -0.03222061
000020 9c ec 07 3e ae 8d 83 3d cf d1 87 3d 45 9d 03 3d
       0.13273853 0.06423508 0.06631815 0.032132406
000030 ac 9c 07 3e e6 da e1 3d 27 75 ba 3d 58 1c be 3c
       0.1324336 0.1102808 0.09104376 0.023206875
000040 11 95 4d 3c fa 7a d5 3b c4 81 3d 3d 70 8a 09 bd
       0.012547747 0.006514904 0.046266332 -0.03357929
000050 5a 49 78 bd 69 de 1e be ef ce 1b be 6a a4 27 be
       -0.06061683 -0.1551453 -0.15215658 -0.16371313
000060 23 90 92 bd d7 c6 94 3d 6b 60 d9 3d 87 ac dd 3d
       -0.07156398 0.07264488 0.106140934 0.108239226
000070 b8 61 04 3e dc 0b 6d 3c 4c 2a c4 39 51 85 90 bd
       0.12927902 0.0144681595 0.00037415547 -0.07056678
000080 54 3a a1 3d d8 07 1e 3e 8a 31 fe 3d 87 0c 5a bd
       0.07872453 0.1543268 0.124117926 -0.053234603
000090 52 b1 bf bc 45 fd 41 3b 57 ac 3d 3d 9e d4 f3 3c
       -0.023399983 0.0029600423 0.046306934 0.02976447
0000a0 b0 45 ef bd 7c a3 34 be bf f5 06 be cb 93 3f be
       -0.11683214 -0.1764049 -0.13179682 -0.18708722
0000b0 f6 a3 f7 bd 12 37 30 bd 32 f1 8e bd e2 67 17 be
       -0.1209182 -0.04302127 -0.06979598 -0.14785722
0000c0 04 74 0a be 46 1c 25 be 3f cb 3d 3d 2d a4 ef 3c
       -0.13520819 -0.16124067 0.04633641 0.02925309
0000d0 ea 21 b5 3d 94 9d 33 3d f1 e2 c4 bb 38 db a7 bc
       0.08844359 0.04385145 -0.006008499 -0.020490274
0000e0 09 d6 72 bd ad 22 21 3d d8 67 20 3d 03 3e 26 3e
       -0.05928615 0.03933971 0.039161533 0.16234593
0000f0 8c 97 dd 3d 3a 97 8a 3c a8 3f 46 3d 7c 54 0b 3d
       0.10819921 0.016917814 0.04840055 0.034016117
000100 61 81 9c 3d bf 6b a9 bd ab ad 1f bd 46 50 ba bd
       0.076418646 -0.08272504 -0.038983982 -0.09097342
000110 37 a1 0c be 24 c4 ee bd 1d 22 91 3e db e0 3d 3e
       -0.13733374 -0.116585046 0.2834634 0.18542807
000120 20 e8 34 3e d9 69 34 3e 7c 01 24 3e f8 d0 bb 3d
       0.17666674 0.17618503 0.16016191 0.09170717
000130 18 00 e1 3d 99 6f 0f 3d af 9e 05 3c 81 f3 de 3c
       0.10986346 0.035018537 0.008155509 0.027215721
000140 36 9c 0f 3d 29 65 03 bd 11 c2 e2 3a 05 b2 e1 3d
       0.035061084 -0.032078896 0.0017300268 0.11020283
000150 1a 03 eb 3d 63 c5 25 3c ee 56 0d bb 1b 25 48 3d
       0.11475201 0.010117861 -0.0021566707 0.04886351
000160 73 7a dc bc f5 18 94 bc f0 8b da 3b af 97 8a 3c
       -0.026913857 -0.018078307 0.006669514 0.016918031
000170 65 95 74 3c 73 7f 44 3d ea fa 4b bc 75 8c 72 3d
       0.014928197 0.047973108 -0.012449959 0.05921598
000180 f0 20 26 3d 6d b3 a5 3c 46 16 85 3d ae d2 a3 3d
       0.040558755 0.020227158 0.06498389 0.07999168
000190 4c 5d 82 3d c2 69 a8 3d 73 e2 38 3d fe 43 7f 3d
       0.06365451 0.08223297 0.045137834 0.0623207
0001a0 a2 58 b3 3d f7 8f 9e 3d 5b 6b 3a 3d a7 0d 36 bd
       0.0875714 0.07742303 0.04551254 -0.044446614
0001b0 18 2c 95 bd db e1 b7 bd 4c 1a 96 bd 5d cd b6 bd
       -0.07283801 -0.089786254 -0.073292345 -0.08925889
0001c0 7a da 28 be 39 4b aa bd f6 19 58 be 35 76 ee 3d
       -0.16489592 -0.08315129 -0.21103653 0.1164364
0001d0 0d 1b 81 3d 36 49 0f 3d 9c fd 35 3d 14 b6 38 3d
       0.06303988 0.03498193 0.044431314 0.04509552
0001e0 51 f4 11 3e 60 ab 27 3d 77 06 ac 3d 6a 39 4f 3c
       0.14253356 0.04093492 0.083996706 0.012647966
0001f0 10 7b 32 3d 9e 06 4e 3e dd c6 01 3e 7c 0b d8 3d
       0.043574393 0.20119712 0.12673517 0.105490655
000200 73 8a 56 3e e9 5f 41 3e 18 e0 24 3e 52 b7 8f 3d
       0.20951252 0.18884243 0.1610111 0.070173874
000210 e4 85 42 3c 23 8d 30 3e 43 80 6a 3e df e7 8a bc
       0.011872742 0.1724134 0.2290049 -0.016956268
000220 11 44 f0 bc 2a 98 23 bd ed 69 65 3d 56 20 94 bb
       -0.029329332 -0.039940037 0.05600922 -0.0045204563
000230 58 3a 49 bd fd c8 a7 3c 10 4c 12 bd f3 85 82 3b
       -0.049127907 0.02048158 -0.03571707 0.003983253
000240 2b 3b 05 3d 7f 5d f2 bd 93 9d 89 be 74 80 38 be
       0.03252713 -0.11834239 -0.26878032 -0.18017751
000250 68 8a b3 bd e5 47 2a bd 76 2a b1 bc 3c f7 9d bd
       -0.08766633 -0.04157247 -0.021626692 -0.07713172
000260 53 06 06 be 54 07 29 be 23 02 09 be 15 e9 50 bd
       -0.1308835 -0.16506702 -0.13379721 -0.051003534
000270 5e 4b f9 bd 67 ae 56 be 7a 2c 29 be 2c 15 0e be
       -0.12172578 -0.20964967 -0.16520873 -0.13875264
000280 2c f9 b4 bd e0 2c d8 bd dd 75 e1 bd 6f 76 f1 bd
       -0.08836588 -0.10555434 -0.11008809 -0.117901675
000290 4e e7 98 bd f9 f9 84 bd 57 eb 99 bc f6 47 41 bd
       -0.07465993 -0.06492991 -0.018788977 -0.047187768
0002a0 12 63 48 bc 55 05 95 bc 29 e6 ca 3c c2 5a 2e bd
       -0.012230651 -0.01819102 0.024767952 -0.042567022
0002b0 7e 44 20 bd 60 12 3c bd 43 22 b3 bd 5d ba 82 bd
       -0.03912782 -0.04591596 -0.08746769 -0.06383202
0002c0 f9 6a 69 bd 70 54 a6 bd 78 fe 95 bd 31 e8 2e be
       -0.056986783 -0.08121574 -0.07323927 -0.17080761
0002d0 89 41 b2 3a 40 15 30 bd bc dc 05 be 24 70 1c be
       0.0013599853 -0.042989016 -0.13072485 -0.15277153
0002e0 55 c2 0d be 88 7e 89 bd d4 9a 56 bd 06 67 28 be
       -0.13843663 -0.06713587 -0.05239375 -0.1644555
0002f0 d0 dd 70 be 22 a3 25 be 35 b6 65 3d 2b 22 c3 bb
       -0.23522115 -0.16175511 0.05608197 -0.005955001
000300 f2 15 38 3c 8f 76 52 bb 6f b0 b8 3c 2d f2 56 3d
       0.011235701 -0.0032114123 0.022545068 0.05247705
000310 6d 7f 3f 3d 74 47 9f 3d 77 be 00 3c 51 e2 ce bb
       0.046752382 0.077773005 0.00785791 -0.0063136
000320 50 98 4b 3e b4 e7 3b 3e 3a d5 05 3e cd 9f 12 3e
       0.19882321 0.18350106 0.1306962 0.14318772
000330 50 35 46 3e 71 b5 9d 3d 94 9f d1 3c 0f a2 13 3d
       0.19356275 0.07700623 0.025588788 0.036043223
000340 e8 aa 29 3d 42 66 09 3e 87 06 0c 3e 92 b3 32 3e
       0.041422755 0.13417915 0.13674365 0.17451313
000350 62 e0 26 3d bb ac 85 3d 5d b7 19 3d 44 20 37 bc
       0.040741332 0.06527086 0.037528384 -0.011177126
000360 ab 73 eb ba f3 47 f6 bd 4f a6 8c bd d1 7d cc bd
       -0.0017963549 -0.12025442 -0.06867658 -0.09984935
000370 d0 24 13 3e 30 9b 99 3d 2b 65 53 3d ed 7f a1 3d
       0.14369512 0.07500303 0.051610153 0.07885728
000380 03 25 b9 3d df 95 9f 3c 53 27 37 3d a1 66 cf bc
       0.090402626 0.019480644 0.044715237 -0.025317492
000390 f9 99 e2 bc 7f b3 96 be 8b 3a 5b be f1 62 c4 3c
       -0.02766131 -0.2943382 -0.21409051 0.02397296
0003a0 72 08 02 be c2 48 90 bc 52 a6 37 be af 82 1b bd
       -0.12698534 -0.017612819 -0.1793454 -0.037966426
0003b0 e9 17 69 3d b6 7f a6 3b 68 29 67 3d 4f 13 9d bd
       0.056907568 0.0050811423 0.056435972 -0.076696984
0003c0 e1 88 34 bd 67 63 87 bd 42 a4 86 bd b3 6f 31 bd
       -0.04407585 -0.06610756 -0.065742984 -0.043319415
0003d0 2b 93 3f bd ec 99 a0 3d 3d aa d8 bc 3f 1a 84 bd
       -0.04677121 0.07841858 -0.026448363 -0.064503185
0003e0 5c 05 2b bd 27 96 5e bd 55 d8 2c bb c5 45 86 3c
       -0.041753158 -0.054342415 -0.002637406 0.01639069
0003f0 e5 91 e2 bd 8c d3 29 bd 1d f1 d4 bd a3 8b 45 3d
       -0.110629834 -0.041461512 -0.10397551 0.04822887

conv3.bias f4 [32]
000000 94 d8 d1 3d 90 e1 b7 3d 4b 25 27 3b 3a f8 01 bd
       0.10246387 0.089785695 0.0025504406 -0.031730868
000010 d8 b5 10 3d c5 85 93 bd aa 23 6b 3d f2 4b 0f bd
       0.03532967 -0.07203249 0.05740706 -0.034984536
000020 36 7e 68 3e 9a 7c bb bd 9b 3a 56 3e 20 7a 0c bd
       0.22704396 -0.09154625 0.20920794 -0.034296155
000030 f5 4f 8b 3c f4 7e af bd 4c 96 cf bd 39 90 19 3d
       0.0170059 -0.08569136 -0.10136089 0.037491057
000040 66 c0 d1 bd 63 a1 74 3d 63 fb 4a be a4 eb fe bd
       -0.10241775 0.059724223 -0.19822459 -0.12447289
000050 5a 2d e8 bc 38 f7 3e 3d b9 f1 a2 3d 2f 61 74 3d
       -0.028341938 0.046622485 0.07956261 0.059662994
000060 1e 6f d0 3c e4 14 cf 3d 2d 96 22 bd 8b b4 35 be
       0.02544361 0.101114064 -0.039694 -0.17744653
000070 17 8e ed 3b b1 0d 25 3d 60 d4 b9 3d 25 1c c2 3d
       0.0072496044 0.04029626 0.090737104 0.094780244

bn3.weight f4 [32]
000000 26 5b a9 3f 53 ba 60 3f 27 27 66 3f 97 2a ce 3f
       1.3230941 0.8778431 0.8990349 1.6106747
000010 70 ee 64 3f 14 e8 7d 3f 0f 47 7f 3f 56 c5 6c 3f
       0.89426327 0.9918225 0.997178 0.9248861
000020 55 64 98 3f 17 6a 8f 3f 1c 68 9a 3f b0 ec 95 3f
       1.1905619 1.1204251 1.2063022 1.1712856
000030 a3 7c b2 3f 59 b6 a1 3f 19 9b 99 3f 1c d6 85 3f
       1.3944286 1.2633773 1.2000457 1.0455966
000040 76 75 8a 3f 38 70 8f 3f 85 4b 93 3f ea 51 9e 3f
       1.0817096 1.1206121 1.1507422 1.2368748
000050 4f 53 81 3f c9 f0 67 3f 9d 4d 5e 3f 0e d0 7b 3f
       1.0103549 0.90601784 0.8683718 0.9836434
000060 f1 d2 9b 3f 89 1e 88 3f 22 8d 8a 3f 43 98 88 3f
       1.2173749 1.0634319 1.082432 1.0671467
000070 26 9a 69 3f 12 95 8f 3f 45 30 67 3f 8a 9e 86 3f
       0.91250837 1.1217368 0.9030803 1.0517132

bn3.bias f4 [32]
000000 32 31 cd 3c 78 12 50 bd a3 70 1f be 54 e5 2a bd
       0.025047872 -0.050798863 -0.15570311 -0.04172261
000010 8e 0f 2a bd 34 e4 00 be 71 d0 f3 bd a0 d5 71 bd
       -0.04151874 -0.12587053 -0.119049914 -0.05904162
000020 a0 fd 51 3e 7a fa 14 3c 0a 57 a7 3d c3 68 c9 3c
       0.20506907 0.009092921 0.08170898 0.024586087
000030 37 79 db bc 6b 3b 57 3e 98 ea a6 3d 9c 50 ba bd
       -0.026791198 0.2101876 0.08150214 -0.09097406
000040 32 97 1e 3e 64 aa da 3d 74 eb 5f bd 09 8c 04 be
       0.15487364 0.10677031 -0.054667905 -0.12944044
000050 75 3d 23 be f5 f7 f1 bd b3 51 03 be 7e cf 62 bd
       -0.15941413 -0.11814872 -0.12824135 -0.05537366
000060 bc 13 29 bd af da 45 3c 0b 3c c1 bd dc 97 72 3d
       -0.041278586 0.012076064 -0.094352804 0.059226856
000070 f1 04 ff 3d 3b 33 b4 bd 60 8b b0 3c 8c ab 97 bd
       0.124521144 -0.08798834 0.021550834 -0.07405767

bn3.running_mean f4 [32]
000000 88 58 8f 40 ba be 81 40 78 a4 47 40 46 8a 31 40
       4.479557 4.054532 3.1194134 2.7740645
000010 7f e2 08 40 30 74 3c 40 66 03 28 40 dd 80 5c 40
       2.1388242 2.9445915 2.6252074 3.4453652
000020 78 77 84 40 9f 38 6e 40 ff ef 89 40 76 16 88 40
       4.1395836 3.7222059 4.3105464 4.252742
000030 5a 4f 43 40 f2 e7 3c 40 ea 02 0e 40 f2 8b 1e 40
       3.0517182 2.9516568 2.2189279 2.4772916
000040 8d 9a 00 40 07 05 17 40 6e d2 13 40 0e cd 07 40
       2.009433 2.3596818 2.3097186 2.1218905
000050 54 14 83 40 2e e7 48 40 4a 3d 7f 40 0d 01 a3 40
       4.0962315 3.13911 3.9881158 5.0938783
000060 dd b8 5a 40 12 37 37 40 39 5e 91 40 5d 28 37 40
       3.4175332 2.8627362 4.542752 2.8618386
000070 7b c7 37 40 11 c9 55 40 97 e1 a4 40 e1 c9 e7 3f
       2.8715503 3.3403971 5.152538 1.8108484

bn3.running_var f4 [32]
000000 6b d8 4f 42 2d 1d 93 42 ba f4 08 42 ac 59 85 41
       51.961346 73.556984 34.23899 16.668785
000010 cf 44 1a 41 5d 3b 51 42 8d ba fa 41 55 c0 3e 42
       9.641799 52.307972 31.34109 47.687824
000020 88 7c 3d 42 a4 65 11 42 ca 13 05 42 f3 89 43 42
       47.371613 36.34926 33.269325 48.884716
000030 ae 31 91 41 e0 67 c3 41 e3 6d 4d 41 b5 02 55 41
       18.149258 24.42572 12.839328 13.313161
000040 91 70 2e 41 ca 9c 86 41 ce 70 5b 41 8b eb 31 41
       10.902482 16.826557 13.71504 11.120006
000050 ac 97 6c 42 20 24 89 41 44 13 a7 41 06 a4 c3 42
       59.148117 17.14264 20.884407 97.82036
000060 af 90 f4 41 0b 01 86 41 21 85 bb 42 ad f7 be 41
       30.570646 16.75051 93.76002 23.870935
000070 02 b9 b6 41 35 07 ea 41 1c 2d 09 42 8c c4 28 41
       22.840336 29.25352 34.294052 10.547985

cnn.0.weight f4 [8, 2, 5, 5]
000000 9a d9 51 be 89 8d e3 bd 7e 2f 75 bc 01 d1 a0 be
       -0.20493165 -0.1111098 -0.014964936 -0.31409457
000010 78 8d 55 be ed 9f d7 bd 81 93 01 be fe be 07 be
       -0.20854747 -0.1052855 -0.12653925 -0.13256451
000020 6b a7 1b be 2b 7e 1d 3d aa e1 34 3e cd dc 1f 3d
       -0.15200584 0.0384504 0.17664209 0.03902893
000030 e6 e1 3d 3e 63 79 ce 3c 47 a3 15 3e 0c ea 2b bd
       0.18543205 0.025204366 0.14613067 -0.04197125
000040 45 f9 3c 3e e9 ff 1a bc 93 35 a9 3d f2 41 7f 3d
       0.18454464 -0.009460428 0.082621716 0.06231875
000050 1a 9d b9 bd d5 97 c0 bd 81 63 98 bd fa 70 90 3d
       -0.09063168 -0.0940396 -0.07440854 0.070527986
000060 22 6c d0 3d db 44 a3 be 92 8b 38 be 11 83 34 3b
       0.10176875 -0.3188847 -0.18021992 0.0027543942
000070 36 63 f2 bd 00 77 59 be 09 04 b3 bd fd 3f 79 3d
       -0.11835329 -0.21236801 -0.08741004 0.06085204
000080 85 56 08 3e 1f 3e d1 bd 73 fa 10 be 1f 69 55 3e
       0.13314255 -0.10216927 -0.14158039 0.20840882
000090 05 05 34 3e 8f 1f df bb 2d 6e cc 3d 4e b2 08 3e
       0.1758004 -0.006809182 0.09981952 0.13349268
0000a0 99 f4 53 3d b6 cb 14 3d a9 c9 16 3d c1 42 92 3d
       0.05174694 0.036327086 0.03681341 0.071416385
0000b0 fe 60 13 3c 6e b9 05 3e e3 a8 c4 3d f7 66 2c 3e
       0.008995293 0.13059017 0.09602525 0.16836153
0000c0 83 b9 c6 bd 78 b1 1f 3e d5 4e 2a 3a f7 11 7d 3e
       -0.09703352 0.15595043 0.0006496732 0.24713884
0000d0 53 50 21 3d 1e e2 b5 3d 91 a1 93 bd f4 8f ba bd
       0.039383244 0.08881019 -0.07208551 -0.09109488
0000e0 bb a4 58 3e 8b d8 22 3e 67 35 0e be 46 a2 92 3d
       0.2115659 0.15902917 -0.13887559 0.071598575
0000f0 60 0d 92 bd 8f 03 d9 bc ae 90 b8 bd ed 53 0d 3d
       -0.07131457 -0.026490955 -0.090119705 0.034503866
000100 6f 68 32 bd 4f 59 5a 3c 30 5c 6a bd d9 90 98 3b
       -0.043556627 0.013326957 -0.057216823 0.004655939
000110 1f 38 08 be 4d b0 d2 3d 4d 58 7f be b9 4c 80 bd
       -0.13302658 0.10287533 -0.24936028 -0.06264634
000120 67 06 00 be 6c 6a 82 bd 93 48 c2 3d 68 58 9c 3d
       -0.12502442 -0.063679546 0.09486499 0.0763405
000130 8a dd 27 3b f8 98 b4 3d 85 43 41 be b7 d9 96 3d
       0.0025614225 0.08818239 -0.18873413 0.073657446
000140 9d f8 bb 3d b1 91 7e bb ff 19 cb 3d d5 ed ab 3d
       0.091782786 -0.0038844163 0.09917068 0.08394972
000150 82 cc 19 3e 45 1b a9 bc 69 d6 7a bd 22 05 3c be
       0.1501942 -0.020642886 -0.061239634 -0.18361333
000160 6a ce b6 bc 37 82 80 bd ab 5c 64 bd cd 6c 2c bd
       -0.022315223 -0.062748365 -0.055752438 -0.042095948
000170 82 b1 7a 3c 15 8a 0f be 48 57 4b bd ec 1b 9e be
       0.01530111 -0.14017518 -0.049643785 -0.30880678
000180 70 48 5c be 68 7e 71 bd 0e cb cf bd 7a 6a ea bb
       -0.21512008 -0.05895844 -0.101461515 -0.0071538063
000190 e6 99 7e bd e8 ea 15 3e 7c 66 c0 3d 8a b3 23 bd
       -0.062158488 0.14640391 0.09394547 -0.039966144
0001a0 fb ab 2c 3e de dd cd bd db 82 16 bd 18 c6 52 3d
       0.1686248 -0.100520834 -0.036745887 0.05145845
0001b0 cc 05 d2 bd 4a 70 d3 bc f5 f1 7e be f9 3e 3b be
       -0.10255012 -0.02581038 -0.24896987 -0.18285741
0001c0 a9 08 1b be 6a 35 48 be fe 10 7f bd b0 61 2b bd
       -0.15140022 -0.19551626 -0.062272064 -0.04184121
0001d0 52 bf 07 3e 32 8f 22 3d 79 55 5e 3d 2e ba ee bd
       0.13256577 0.039687343 0.05428073 -0.11656605
0001e0 f8 06 97 3c bb a7 9e 3a 54 c7 bd 3d de 7a 2b 3e
       0.01843594 0.0012104431 0.092665344 0.16746089
0001f0 ed 61 5f 3d 6f ef 63 3d b8 1d 22 3d d9 f0 b1 3d
       0.05453675 0.055648264 0.039579123 0.08688516
000200 54 27 22 3e 76 72 26 3c fa 70 1d 3d 92 cb 2c 3e
       0.15835315 0.010159126 0.03843782 0.16874531
000210 d1 6b 59 3c 35 5f ce 3d 59 17 9b 3d f5 dc 2d be
       0.013270334 0.10076753 0.075728126 -0.1697882
000220 3c 02 a1 bd 31 9c 56 be 0b 05 ac bc 65 39 d9 bd
       -0.07861754 -0.2095802 -0.020998498 -0.1060665
000230 4c 31 9c 3b 71 c1 bb bd 56 79 07 3d 2f e1 35 3c
       0.004766619 -0.091677554 0.0330747 0.011101051
000240 d5 6f 13 be 6e e9 fa 3d 6b 80 1e 3e 55 94 f8 3c
       -0.1439813 0.122515544 0.15478675 0.030344168
000250 d3 6d 28 3e f8 4d be 3d 46 89 0a 3e 87 e5 19 b8
       0.16448145 0.09292215 0.13528928 -3.6691807e-05
000260 18 3c 98 3d 48 9a 84 bb f0 21 2b bd d3 b1 96 3d
       0.07433337 -0.004046712 -0.041780412 0.07358136
000270 5a 0b c9 3c 84 82 e0 3d f8 1a 07 be 3e de 83 3d
       0.024541546 0.10962394 -0.13193882 0.06438874
000280 8c c3 1c be 19 2f 2a be ab 1c 50 bd 67 48 61 be
       -0.1530897 -0.16619529 -0.05080859 -0.22000276
000290 0f 13 4d bd cc 63 37 bd 6e 51 87 bd 5d 8d 15 be
       -0.050067004 -0.044772908 -0.06607328 -0.14604707
0002a0 7b 88 84 be b7 ad 8c bd de f6 b0 bc 62 70 0d be
       -0.25885376 -0.06869071 -0.02160209 -0.13812402
0002b0 aa e6 f5 bd d8 2e 04 be ee f4 11 bd 6a ba 54 3e
       -0.12006886 -0.12908494 -0.035633974 0.20774236
0002c0 0c c0 10 bd d1 30 ca 3d ef 6e a4 bd 66 3c e9 bc
       -0.0353394 0.09872592 -0.080289714 -0.028471183
0002d0 b9 d8 09 be cc e1 c4 bd 3d 99 e3 bc 22 95 17 be
       -0.1346158 -0.0961338 -0.02778303 -0.14802983
0002e0 f1 94 05 bc 13 fc 3b be 27 e7 37 be 02 d1 9c 3d
       -0.008153186 -0.18357877 -0.17959271 0.076570526
0002f0 24 d1 b0 bd d2 3d da 3c ca 99 96 bd 45 4e 2f be
       -0.086336404 0.026640806 -0.07353552 -0.17119701
000300 82 8a f9 3c cf 0f 56 be 85 fb 09 be 25 7d ad bd
       0.030461553 -0.20904468 -0.13474853 -0.08471135
000310 c1 79 de bd b6 6f 2f 3d e2 88 33 be 4b 4a 86 bc
       -0.108630665 0.042831145 -0.17532685 -0.016392848
000320 57 bc c0 3c 6e 51 0a 3d 54 98 d4 bd fb 28 7d bd
       0.023527307 0.033769064 -0.10380617 -0.06180666
000330 18 0b ee bc 39 fd 85 bd b0 ac 29 3e 1c 17 69 bd
       -0.029058024 -0.06542439 0.16569781 -0.056906804
000340 a7 12 59 3c cb e0 e5 bd 4d 5b 1f 3e 3c 90 e0 3d
       0.013249076 -0.112245165 0.15562172 0.109650105
000350 15 0b 74 3d ce 98 df bc 56 00 19 be 4f 2d 68 bd
       0.05958088 -0.027294543 -0.14941534 -0.056683835
000360 f0 c9 fa 3d 40 b5 52 3c c5 2a 51 3e d8 cd 06 bd
       0.12245548 0.012860596 0.20426472 -0.03291115
000370 cc 85 d9 3d fa 10 61 3d 29 b3 b0 3c 36 29 43 3c
       0.10621223 0.05494783 0.021569805 0.011911681
000380 ab 69 f1 3d 8b f9 db bd c4 8b a9 3d e3 44 35 3d
       0.11787733 -0.10740956 0.08278611 0.04425515
000390 21 4c ab 3d 1a d6 02 3d b4 f0 9f 3d cf 77 63 3e
       0.0836413 0.031942464 0.07809582 0.22213672
0003a0 85 a5 e3 3d 0d de 10 3e 7c 3b d9 3d aa c9 1e 3e
       0.11115555 0.14147206 0.10607049 0.15506616
0003b0 ee 5a 6e 3e 82 9a cc bb cb 9f 9b 3d e4 b7 f4 bc
       0.23276874 -0.0062440047 0.075988375 -0.029872842
0003c0 f5 fe 34 3c 19 c4 a1 3e 64 d0 b2 3d 2a 61 7d 3e
       0.011047115 0.31594923 0.087311536 0.24744096
0003d0 35 13 03 3e fe db 79 bd 91 3e fb 3c be 28 64 3d
       0.12800296 -0.061000817 0.030669482 0.055702917
0003e0 f3 1f c7 3d 3d 2d 8a 3d a9 82 52 be 41 ce 45 be
       0.09722891 0.0674691 -0.20557655 -0.19316961
0003f0 77 d3 e3 bb 7e a6 46 be ce 0e 04 be 4a 8d 1c bd
       -0.006952699 -0.19399449 -0.12896273 -0.03822068

cnn.0.bias f4 [8]
000000 46 41 9b bd 64 f5 31 bd 65 b1 1f be 61 50 93 3d
       -0.07580809 -0.043446913 -0.15595014 0.071930654
000010 7c 0e d6 bd 2e e9 48 be cd 49 36 3e 5f 90 c5 3d
       -0.104519814 -0.19620201 0.1780159 0.09646677

cnn.2.weight f4 [8]
000000 16 dd 79 3f 52 f0 48 3f 5e 46 74 3f 62 dc 2c 3f
       0.97602975 0.784917 0.9541987 0.6752378
000010 b8 b8 73 3f 4e 68 93 3f 0a fe 93 3f 29 c2 5b 3f
       0.95203733 1.1516206 1.1561902 0.8584314

cnn.2.bias f4 [8]
000000 5c ae 59 3c 46 2f 14 3e 55 72 20 3d 22 50 bc 3d
       0.013286199 0.14471158 0.039171536 0.091949716
000010 54 bb f3 bd b7 10 c8 bd 9b 55 d6 bd 19 8b bc bb
       -0.119009644 -0.09768813 -0.10465547 -0.0057538864

cnn.2.running_mean f4 [8]
000000 73 a5 7e 3e ac 72 c5 3e ce 02 0c 3e 5f e0 82 3f
       0.24867801 0.3856405 0.13672945 1.0224723
000010 b4 1e 5f 3f 94 68 c8 3e 0d 3e cc 3e 65 ae 15 3f
       0.87156224 0.39142287 0.3989109 0.5846923

cnn.2.running_var f4 [8]
000000 8c 73 95 3e 8e 5d a0 3e 59 38 b5 3d 9c e2 01 40
       0.29189718 0.31321377 0.08848638 2.0294561
000010 d3 a5 f9 3f 71 4c ce 3e d5 ef 95 3e ae 0e 1f 3f
       1.950373 0.40292695 0.2928454 0.62131774

cnn.3.weight f4 [32, 8, 5, 5]
000000 ee e0 12 bc c9 77 3c bd 7a d2 be bd 47 41 22 be
       -0.00896476 -0.046012674 -0.09317489 -0.15845214
000010 29 ee 5f bd b1 6b 13 be d9 c2 19 be 77 23 10 be
       -0.054670487 -0.1439655 -0.15015735 -0.14076029
000020 a1 51 17 be 18 ce f7 bd 42 11 e9 bd 9d 10 ec bc
       -0.14777233 -0.12099856 -0.11380245 -0.028816516
000030 9b b0 c8 bd 5d 44 21 bd d2 50 02 bd 5b 3e 77 bd
       -0.0979931 -0.039371837 -0.031815358 -0.0603622
000040 a6 03 ae bd 0e 90 1d bb 57 3d 1e bd fd df 9a bd
       -0.0849679 -0.0024042162 -0.038632717 -0.075622536
000050 20 c5 df 3d d2 af 99 3d 86 b8 e1 3c 5b 0c 88 3d
       0.109262705 0.07504238 0.027553808 0.066429816
000060 d7 29 81 3d 52 f6 6a bc 60 bf 00 bd 73 0f 90 bc
       0.063068084 -0.014340954 -0.03143251 -0.017585492
000070 15 b5 09 bd f1 0b 91 3c 1f 8d 51 3d 0b 7b bc 3b
       -0.03361996 0.01770589 0.051159974 0.0057519726
000080 72 22 04 3e 5a 2e aa 3d 67 5b a8 3d 13 8d 82 bd
       0.12903765 0.08309622 0.082205586 -0.06374564
000090 d4 4f bd 3d 54 a1 23 3e 05 20 a8 3d b2 33 8f 3c
       0.09243742 0.1597951 0.08209232 0.017480705
0000a0 3f 29 86 bd b0 6c 40 3b 1b 77 9a 3c f6 cd bf 3d
       -0.06550836 0.0029361658 0.018855622 0.09365456
0000b0 15 a6 9a bc 88 18 37 be d0 1d 10 be 79 ab e3 3b
       -0.018878022 -0.17880452 -0.14073873 0.0069479314
0000c0 c1 05 48 3c 12 14 14 bd cd 3d ef bd c9 66 63 3c
       0.012208403 -0.036151953 -0.116817094 0.013879486
0000d0 fe 4e c1 bd 0e 73 f4 bd 54 29 e4 bd 65 74 33 bc
       -0.09438895 -0.119360074 -0.11140695 -0.010953044
0000e0 67 5a ad bd fe 8e d0 bd f8 36 02 bd 81 7d f7 bd
       -0.084645085 -0.101835236 -0.031790704 -0.12084485
0000f0 82 cf c3 bd df 5d 53 bd 78 8a f8 bd 3c 13 4b 3c
       -0.09561063 -0.051603194 -0.12135786 0.012394723
000100 f6 f3 c6 3c cb aa 00 bc 85 aa ea 3c 36 3f c0 bd
       0.024286252 -0.00785322 0.028645763 -0.093870565
000110 7c 42 f9 3d bc 88 af 3d 0a 97 5e 3d 2f b5 dd 3d
       0.12170884 0.08571002 0.05434326 0.10825574
000120 0b 11 d8 bc a6 e7 02 3d ff d3 8d 3d a6 68 4c bd
       -0.026375314 0.0319592 0.06925201 -0.049904488
000130 f7 d8 0d bd 22 07 d3 bd cd 2f 9d bd a3 1d ed bc
       -0.034630742 -0.10304095 -0.07675133 -0.028944796
000140 4b be 17 bd d8 c6 ad bd 99 28 2d 3b a0 10 88 bd
       -0.037046712 -0.08485192 0.0026421903 -0.06643796
000150 15 a1 22 3c 82 af 89 ba e9 ae 5b 3d 2b a8 74 bd
       0.0099261 -0.0010504576 0.053633604 -0.05973069
000160 98 17 e2 bc cb b3 b3 3c f1 59 f9 3c a8 aa 5f 3d
       -0.027599141 0.021936318 0.030438395 0.05460611
000170 65 8d 20 bc ef 47 db 3d 94 d9 a3 3c 02 c9 2b 3d
       -0.009799336 0.107070796 0.02000121 0.041939743
000180 fe 58 c8 3c eb 78 9c 3d 20 e9 77 3d cf 71 90 bc
       0.024456497 0.07640251 0.06052506 -0.017632393
000190 ea 32 33 b9 4c 29 6b 3d 7b 56 42 3e 4f 7d 38 3d
       -0.00017089737 0.05741243 0.18978302 0.04504138
0001a0 57 e3 ad 3d 35 74 7f bd d4 57 b0 3c 9a 35 ef bc
       0.08490627 -0.062366683 0.021526255 -0.029200364
0001b0 cd 29 a7 3d f0 34 b3 bc 35 70 61 3c 1c 2b 5f 3c
       0.0816227 -0.021875829 0.013759662 0.013621118
0001c0 da a3 64 bd 2f 3a 46 bc f8 29 27 be db 9a a6 bd
       -0.055820324 -0.012098833 -0.16324604 -0.08135005
0001d0 61 89 39 bd e9 a9 bd bd bb b8 9d bd a5 10 c6 bd
       -0.04529703 -0.092609234 -0.0770125 -0.096711434
0001e0 97 c6 cd bd 8f e4 43 be 5a 32 44 be f4 cc 27 be
       -0.10047644 -0.19130157 -0.19159833 -0.16386777
0001f0 a0 42 50 be d8 5b 72 bd c3 de 12 be 50 c0 4f bd
       -0.20337915 -0.05916962 -0.1434279 -0.050720513
000200 8a c0 5c bd a7 4c 79 bd cf b4 82 bd 1c 0a 36 be
       -0.053894557 -0.060864117 -0.06382143 -0.17777294
000210 a6 91 18 be 85 9b 8a be 36 2f bc bd e4 99 3b bd
       -0.1489931 -0.27071777 -0.09188692 -0.04580106
000220 77 82 41 be 7b 66 f6 bd f5 b4 c2 bd 49 e4 8b bd
       -0.18897425 -0.12031265 -0.09507171 -0.06830651
000230 57 6f fb bd 10 fd 67 be a4 7c 0f 3d c8 7a 7d bd
       -0.12277096 -0.2265513 0.035030976 -0.06188467
000240 cd a9 30 bc 01 4c 97 bc c9 3a b7 3d e9 e7 bb 3d
       -0.010782671 -0.018468859 0.08946759 0.09175093
000250 bb ba 8f bc 9b df 34 3e 3b 54 0d be e1 d3 67 be
       -0.017545095 0.17663424 -0.13801663 -0.22639419
000260 1f c0 33 be a3 5f ee bd 68 b6 b0 bd 6e 8f 28 3e
       -0.17553757 -0.11639335 -0.08628541 0.16460964
000270 cd 40 3f 3e 72 d0 8c 3e 7b f8 02 3e bd cf 5f 3e
       0.18677063 0.2750278 0.127901 0.2185659
000280 65 dd 88 3d 9d 70 14 3d 37 b7 ba 3d f6 14 14 3e
       0.06682853 0.03624021 0.09116977 0.14461121
000290 78 1f ae 3d 06 9d 46 bc ad 73 1a 3c fb 40 78 3d
       0.08502096 -0.012122398 0.009426993 0.060608845
0002a0 c9 86 16 bd 59 7d 60 bd d0 f3 fa bc 93 22 64 bd
       -0.036749635 -0.05480704 -0.030633837 -0.055697035
0002b0 c2 86 fe 3b ef 71 97 bc 1a b3 de bd 41 a2 24 3d
       0.007767529 -0.018486945 -0.10874005 0.0401938
0002c0 df b7 ac bd 06 bd a1 bc 1d 6e 2a bd 58 de ed bc
       -0.08433508 -0.019743454 -0.04160892 -0.029036686
0002d0 53 ea 82 bd bf 9d f0 bd 76 84 a1 bd c4 c9 20 3d
       -0.0639235 -0.11748838 -0.07886593 0.03925492
0002e0 24 69 fb bc 26 33 48 3d 7d cf 83 bd 04 f9 94 bc
       -0.030689783 0.048876904 -0.064360596 -0.018185146
0002f0 58 83 1a bb 5b 63 2d 3d d6 61 46 3b a0 8d c0 3d
       -0.0023576822 0.04233108 0.0030270717 0.09402013
000300 35 6b f0 3d 7d a2 c7 3c 8d f7 25 3d d6 da 04 3d
       0.11739198 0.024369473 0.040519286 0.03243526
000310 a6 e8 a5 3d d4 76 a9 bc f3 fa 9a 3d eb 4d 43 3d
       0.08101015 -0.020686544 0.07567396 0.04768173
000320 07 55 51 bd 1c b8 89 bd 18 a2 81 3d 86 da 86 3d
       -0.05110648 -0.06724569 0.06329745 0.06584649
000330 44 9c 8e 3b 2f bf bd bd 9e 69 d4 bd a2 3e 59 be
       0.0043521244 -0.09264981 -0.103717074 -0.21215299
000340 69 22 88 bd 3f 28 47 be 20 3d 9e bd c6 c2 a8 bb
       -0.06647188 -0.19448946 -0.077265024 -0.005150172
000350 e6 d0 c7 bd d8 8c 35 bd 04 3b 28 bd 6b e0 93 ba
       -0.09756641 -0.044323772 -0.041071907 -0.0011282092
000360 cc 20 8f bd 52 ef 0f bd 8b a7 7f bd 91 8d c0 bd
       -0.069886774 -0.035140343 -0.06241564 -0.09402002
000370 4e ce 25 bc ed 26 eb bd ca 7f b0 bd 8e d5 d6 bd
       -0.010119988 -0.11482034 -0.08618124 -0.10489951
000380 c8 5d 1a be 3f d6 f0 bd 06 26 ae bd ba e6 a2 bd
       -0.15074837 -0.11759614 -0.08503346 -0.07954164
000390 6f 80 e9 bc 59 56 0a be 0a 47 d0 3c 38 6c 03 be
       -0.028503625 -0.13509502 0.025424499 -0.12834251
0003a0 0d 54 af bd 91 51 a1 bd aa 65 1f be 32 4a 04 be
       -0.08560953 -0.07876886 -0.15566126 -0.12918928
0003b0 2d 7b dd bd 76 45 02 be f2 80 28 bc d9 0b 95 bd
       -0.108145095 -0.1272181 -0.010284649 -0.072776504
0003c0 2e 74 41 bd bc e9 1e bd 46 eb 1e bc 13 bc 33 3d
       -0.04722994 -0.038797125 -0.009699648 0.043880533
0003d0 7a 54 b0 bd 11 f0 1d bd 0e 24 80 3d 58 78 c2 bc
       -0.086098626 -0.038559023 0.06256877 -0.023739025
0003e0 1a 48 19 bd 8e 5a 9d 3c 21 10 7e bd 76 f9 06 be
       -0.037422277 0.019208219 -0.0620271 -0.131811
0003f0 97 5b 10 be a2 ed 61 bd ba 17 3a be b3 d9 81 bd
       -0.14097439 -0.055158265 -0.18173113 -0.06340351

cnn.3.bias f4 [32]
000000 d0 d7 17 3d a4 0b be 3d 7b 1d d0 bd 02 4f 2c be
       0.03707105 0.09279564 -0.10161873 -0.16827014
000010 9f 6e 46 be 3a 42 6d be a0 10 ba bd be 31 0c be
       -0.19378136 -0.23169795 -0.09085202 -0.1369085
000020 8e 34 be bd b1 1c 12 bc 37 ac 87 be 1e 11 be 3d
       -0.09287368 -0.008917973 -0.26498577 0.092806086
000030 44 12 58 be 9b 2f 17 3e 11 52 51 3d a4 0b b3 bd
       -0.21100718 0.14764254 0.051103655 -0.08742455
000040 7f ca d7 bb 6b 69 0d 3c 13 98 31 be 27 81 2c be
       -0.0065854187 0.008631091 -0.17343168 -0.16846143
000050 e2 4a 99 bd 65 bb d0 3d 2e 3f b8 bd e9 4e a7 bc
       -0.07484986 0.10191993 -0.089964256 -0.02042337
000060 18 a1 50 bd 30 69 1d be aa 48 0d be e9 64 97 bd
       -0.05093488 -0.15372157 -0.1379725 -0.07392294
000070 c0 6c 32 3c be 0a 87 3c 9b 79 79 bd c8 bc 98 3d
       0.010890186 0.016484614 -0.060906988 0.07457882

cnn.5.weight f4 [32]
000000 6a 0f 89 3f 30 05 83 3f f8 58 9e 3f 17 ca 6f 3f
       1.0707829 1.0235958 1.2370901 0.9366774
000010 23 b8 5d 3f 7e 9f 86 3f 84 5d 70 3f c5 8a 7a 3f
       0.86609095 1.0517423 0.93892694 0.97867996
000020 0d 66 82 3f 92 35 6f 3f ac 96 6c 3f e6 0c 81 3f
       1.0187393 0.93441117 0.9241741 1.0082061
000030 1c fd 7c 3f 27 19 62 3f 24 ce 8f 3f c1 57 8f 3f
       0.98823714 0.8831963 1.1234784 1.1198655
000040 e4 f7 78 3f 1a 0d 45 3f 93 58 54 3f f0 9b 7b 3f
       0.9725325 0.76973116 0.82947654 0.98284817
000050 2a bc 80 3f 16 0c 86 3f 68 35 93 3f fb 40 6d 3f
       1.0057423 1.0472438 1.1500673 0.9267728
000060 e6 86 58 3f 2d 4c 6f 3f 91 4f 5c 3f a5 83 80 3f
       0.8458084 0.9347561 0.8605891 1.0040175
000070 1b a5 7c 3f a3 fa 83 3f 7d 69 60 3f 75 a0 76 3f
       0.9868943 1.0310863 0.8766096 0.9633859

cnn.5.bias f4 [32]
000000 cd 6c 7f bd c1 1c 04 bd f9 04 e3 3d 2b e4 26 3e
       -0.06235962 -0.032253984 0.11084933 0.16297977
000010 f5 69 0c 3e 2e ac f5 3c d7 0a 96 bc c5 04 e2 bc
       0.13712294 0.029989328 -0.018315716 -0.027590165
000020 16 e7 45 3e 03 f6 0e bb 6b 91 ca bc 52 4b a8 3c
       0.19326434 -0.0021814115 -0.024727544 0.020543728
000030 81 7c 83 3e 6a 2b 26 3e 34 34 fd 3d 31 80 03 3e
       0.25680926 0.16227499 0.123634726 0.1284187
000040 eb fe 62 3c ce 59 04 be 69 af f4 3d 86 8b dd bd
       0.0138547225 -0.12924883 0.11947519 -0.108176276
000050 5f d1 88 bc 37 60 d7 bd 9a a8 cc 3d f8 22 b5 bc
       -0.016701398 -0.105163984 0.09993096 -0.022111401
000060 d2 e8 5f 3d 6e cb 08 3d 15 25 22 3e c8 d2 05 3e
       0.054665394 0.03339713 0.15834458 0.13068688
000070 85 64 ee 3c 7e 92 e5 bc 40 d3 88 bd 25 ce c1 3d
       0.029100666 -0.028023954 -0.06680918 0.09463147

cnn.5.running_mean f4 [32]
000000 fb 7c ac 3f 0f f7 cc 3f 8f 65 1f 3f c2 a5 97 3f
       1.3475641 1.6012896 0.6226434 1.184746
000010 58 eb 80 3f 80 d9 23 3f 9c c7 f5 3f 8c 41 70 3f
       1.0071821 0.64003754 1.9201541 0.93850017
000020 ca 1c fb 3e 7d bf e8 3f 61 6b 5c 3f 08 c8 b8 3f
       0.49045402 1.8183438 0.8610135 1.4436045
000030 aa 80 a8 3f 89 28 bb 3f 70 83 9a 3f 84 a8 b4 3f
       1.3164265 1.4621745 1.2071362 1.4113927
000040 6b b5 bf 3f 53 11 7a 3f aa eb 94 3f a6 75 9e 3f
       1.4977239 0.97682685 1.1634419 1.2379653
000050 20 45 f7 3f fb 76 a2 3f ab e9 81 3f 43 db d5 3f
       1.931797 1.269256 1.0149435 1.6707538
000060 7d 65 d6 3f c9 f3 b3 3f 30 9b 7a 3f 50 34 c5 3f
       1.6749722 1.4058772 0.9789305 1.540659
000070 f2 a9 e4 3f 1d e4 9b 3f 3a 78 e6 3f f2 e5 cd 3f
       1.7864363 1.217899 1.800544 1.6085799

cnn.5.running_var f4 [32]
000000 a2 a6 2e 40 14 58 42 40 6c 65 c8 3f bd 56 ba 40
       2.7289205 3.0366259 1.5655951 5.823088
000010 eb 3a 99 40 b1 37 09 40 bb fc 6a 41 e3 95 af 3f
       4.788442 2.1440241 14.686702 1.3717617
000020 19 c8 e8 3f a3 c4 61 40 83 fa 26 40 72 73 23 40
       1.8186065 3.5276268 2.60904 2.5539212
000030 93 ea e4 40 d7 aa 3c 40 1d 72 12 40 c9 fd 4c 40
       7.1536345 2.9479272 2.288215 3.2029898
000040 d4 70 2b 41 86 46 fa 3f ce 32 ad 40 c2 fe ee 3f
       10.715046 1.9552772 5.4124517 1.8671496
000050 a1 53 3b 41 62 b6 0f 40 ee 84 7a 40 97 5d 5d 40
       11.707917 2.2455068 3.9143634 3.4588373
000060 8c e8 3e 41 7e 73 7d 40 d1 e7 a2 40 7f 05 b9 40
       11.931774 3.960174 5.090798 5.781921
000070 7c 09 5f 40 8d 9e 10 40 5a fc 50 41 79 a5 37 41
       3.4849539 2.2596772 13.061609 11.477899
