models/film_cpu_94d9.model (torch, 189544 bytes, 78 tensors)

conv1.weight f4 [8, 2, 5, 5]
00000000: b4fb 193d 4479 043d b745 1d3c 1da1 fbbd
00000010: 05d0 66be f167 afbc ed04 bf3d 8aee 4a3d
00000020: b0b3 c7bc 1de5 303d 6408 183e cba7 43bd
00000030: a067 ae3d 765b 783e 215f 6d3d 153b 4ebc
00000040: b24d 4c3e c223 47bc 849f 183e 4319 eabc
00000050: 39c6 a93d 8640 8a3d 2aa8 213e c0e3 ba3d
00000060: 5b56 203c fc37 683c 2fdf 50bd 78bd dcbc
00000070: efe2 35be fa25 4bbe 7e11 e83d b4c1 93bd
00000080: 8e4d 8a3d b5af aabd 9aa3 05be 845c 91bd
00000090: c1be 3f3e e749 083e fd01 193d f998 d93d
000000a0: de75 a53d f708 353d c3c7 413e 6a9f dd3d
000000b0: 9102 d6bc ece3 8bbb 6b02 013e e772 633d
000000c0: bfd7 dc3d b652 233e adf6 c8bb ce8d 593d
000000d0: 4ff7 ce3d 3a90 b5bd 8ed5 e23d 3401 44bd
000000e0: 3ec3 0b3e cc70 dd3d 749b 10bd 5879 a53d
000000f0: bf71 253d 2a0b 60be 4c94 80bd e896 04be
00000100: 6f41 843d 1511 963d 1d90 e7bd a38c a23d
00000110: eb8d 043e 9d73 513e 9572 2b3d 2ca6 87bd
00000120: b6be fa3d bfb0 10bd d2b5 b43d a085 5cbc
00000130: 1310 d33d 0dbd aebd 10ac 9f3c 5f08 c73d
00000140: 32cd 91bd 0fec fb3c f2f6 87bd 62cc 053e
00000150: 02c7 fe3d 16ea 12be 2b9f 24be d80e 87bc
00000160: d091 a2bd 804b 83bd a72e 14bd 357e 693c
00000170: c8eb 18bc a9a1 a9bc 3393 063e 6008 1ebd
00000180: 8969 2a3e cf90 2e3e 063d 0a3c 8e9f 843d
00000190: 737c bbbd eded 3c3e 2fea 6cbd ba57 e8bd
000001a0: 46cd e0bc d2dc e53d f39d 93bc ca29 3dbd
000001b0: 0c02 7bbd ed46 023e abfc 693c ea5f 1a3e
000001c0: 85af 3cbc c80e c53d 3471 33be bd81 98bb
000001d0: 95fb f13d fb38 03bd ad56 883d dd0b 863d
000001e0: e38f 79bd a1f0 b13d 8bdd 9c3d b2c8 5c3d
000001f0: ce8d 44bc 879d 153e a905 323e 9a7f 9bbd
00000200: ffa5 94bd 5523 f73d 3208 083e 21a8 3d3e
00000210: d6bd eabd 161b eb3d 055b c7bd 7a4b 643c
00000220: e80d 86bd bb43 313d d5e9 c5bd 7212 3ebe
00000230: bae5 6c3d 4f58 a73d a404 1b3c 5a97 dc3d
00000240: 82ca 06be 4b1c f6bc d509 49bd 7579 2fbe
00000250: 5832 eb3c a723 37be b956 1b3e 64aa cb3d
00000260: 7fb1 8abd 2d03 3b3e 423c 09bc 29c5 2a3e
00000270: cdf1 4bbd 9113 0a3e 903c b9bd 4336 873c
00000280: 91f4 ddbd d146 81bd 4fd3 c6bd cc96 61bd
00000290: d8ce 043e 7d0c 16be 6533 06be b7d7 e5bd
000002a0: 910b 5ebb 9c18 12bd b455 c13b 2a3e 34bd
000002b0: b9c8 07bd d6ee f6bc ac3d adbd 57a2 b4bc
000002c0: 1653 263d 8ee4 273e db0e 0a3e ce51 263e
000002d0: 2a22 013e 215a 003e 4b87 99bc 28f9 e53a
000002e0: 414e 963d 2103 0a3d f676 f43c fbe1 83bc
000002f0: 3cb2 39be 85bb 8a3d 2614 8c3c 1cb5 1dbe
00000300: c474 743d 4119 71bc b2ae 0f3e 21ae 3bbe
00000310: b7fa 99bd bb8a 60bd b265 65bc c433 1cbe
00000320: c336 47be 5ed4 113d c8d5 0abd 7e6b 903d
00000330: abb2 c73d 2f8d ec3d b417 ab3d 32ff 253e
00000340: cfcc b23e 077b 6e3e e91b 32bc 04bb 26be
00000350: efa1 0c3d 2fac 7f3e a970 863d 5cbe a4bc
00000360: 4677 013d 0599 96bc 73be d4bc e6ad 1d3e
00000370: ea9d 8f3d 7700 8a3c f26e 01be 9296 0a3e
00000380: 6c11 9fbd 7d03 88bd 2ee3 19be e267 cebd
00000390: 8603 10bb 939d 2f3e 270d 41bc b9ca f8ba
000003a0: 991b abbd 7368 883e 96d9 5f3e e5ce 8a3b
000003b0: b360 50bd ae71 813d 35d8 533e aed9 873d
000003c0: 7d40 d13c 71b8 913b 4476 f4bd 7754 3cbd
000003d0: 245a 15bd 6028 96bd 6de5 07be 4ebc 143d
000003e0: 16b9 d8bc 3466 4f3d a3d0 383e 0f89 713d
000003f0: 2a33 cabc 4130 07bb ddf1 c33c 6cb9 ae3d
0.03759356 0.03234221 0.009599141 -0.12286589 -0.2254029 -0.021411868 0.093271114 0.049543895
-0.024377674 0.04318725 0.14846951 -0.04776744 0.08515859 0.2425364 0.05795205 -0.012587328
0.19951513 -0.012154521 0.149046 -0.028576499 0.08289761 0.06750588 0.15786806 0.09125471
0.009786214 0.014173504 -0.050994094 -0.026945814 -0.1776235 -0.19838706 0.11331461 -0.0721468
0.06753074 -0.08334295 -0.1305069 -0.07097724 0.1872511 0.13309442 0.03735541 0.1062488
0.08079122 0.044198003 0.1892386 0.108214214 -0.02612427 -0.0042691138 0.12598579 0.0555295
0.10783338 0.1594952 -0.0061329217 0.05311375 0.10105764 -0.088654 0.110758886 -0.04785271
0.13648698 0.1081253 -0.0353045 0.08079785 0.04039168 -0.21879259 -0.062782854 -0.12948191
0.06457793 0.07327477 -0.11306784 0.079369806 0.12944762 0.20454259 0.04185732 -0.06623492
0.122434065 -0.03532481 0.08823742 -0.013459593 0.103058 -0.08532152 0.019491225 0.097183935
-0.07119216 0.03075221 -0.06638898 0.13066247 0.124403015 -0.14347109 -0.16076343 -0.01648657
-0.07937968 -0.06410885 -0.036177304 0.0142512815 -0.009333558 -0.020706968 0.1314209 -0.038582206
0.16641821 0.17047428 0.008437401 0.06475745 -0.09154596 0.18450136 -0.057840522 -0.113448575
-0.027441632 0.11223759 -0.018019652 -0.04618243 -0.06128125 0.12722369 0.014281432 0.15075651
-0.0115164565 0.0962196 -0.17523652 -0.004654138 0.118155636 -0.032036763 0.06657157 0.065452315
-0.060928237 0.086884744 0.076594435 0.053902335 -0.0119966995 0.14610873 0.17384972 -0.075926974
-0.07258224 0.12067286 0.13284376 0.18521167 -0.114619896 0.114797756 -0.097341575 0.013934011
-0.06545621 0.043277483 -0.096637405 -0.18561724 0.05783627 0.081711404 0.009461556 0.107710555
-0.13163188 -0.030042788 -0.049081642 -0.17136176 0.02871053 -0.17884694 0.15169801 0.09944609
-0.06772136 0.1826293 -0.008376183 0.16676773 -0.049791146 0.13484026 -0.090447545 0.016505366
-0.10837663 -0.06312335 -0.09708273 -0.05507545 0.1296953 -0.14653201 -0.13105543 -0.11222785
-0.0033881406 -0.035668 0.005900109 -0.044004597 -0.03315041 -0.030143183 -0.084590286 -0.022050066
0.04060658 0.1639578 0.1348223 0.16242144 0.12610689 0.12534381 -0.01874127 0.0017545568
0.073391445 0.03369439 0.029841881 -0.016098967 -0.18134397 0.06774048 0.017099451 -0.15401119
0.05968167 -0.014715494 0.14031485 -0.18328144 -0.07518523 -0.054819804 -0.014001297 -0.15254122
-0.19454484 0.03560292 -0.033895284 0.070517525 0.09750875 0.11550366 0.083541304 0.1621063
0.34921882 0.23289119 -0.010870912 -0.16282278 0.03433412 0.24968027 0.06564457 -0.020110302
0.03160789 -0.018383512 -0.02596972 0.15398368 0.070125416 0.016845925 -0.12639979 0.13534
-0.07766995 -0.0664129 -0.15028068 -0.10078408 -0.0021974756 0.17149954 -0.011782921 -0.0018981314
-0.08354873 0.26642188 0.21860346 0.0042360895 -0.05087347 0.06320511 0.20687945 0.06633316
0.025543446 0.004447036 -0.1193662 -0.04597899 -0.036462918 -0.0733192 -0.13271113 0.036312394
-0.026455443 0.050634578 0.18048339 0.0589686 -0.0246826 -0.0020628127 0.02391904 0.0853146

conv1.bias f4 [8]
00000000: 6208 37bd 2d68 39bb 1563 003d f19d 4bbd
00000010: 70b7 75bd c79f a9bd ea72 86bd ea8c 093e
-0.04468573 -0.0028290853 0.031344492 -0.04971117 -0.059989393 -0.08282428 -0.06564887 0.1343266

bn1.weight f4 [8]
00000000: b715 803f af6a 713f 8765 663f c6be 823f
00000010: d8a9 893f 329d 313f 0f72 773f d6e3 8f3f
1.0006627 0.9430341 0.8999867 1.021447 1.0754957 0.69380486 0.96658415 1.1241405

bn1.bias f4 [8]
00000000: 0936 a53c ad79 203d b46d 183d e608 073e
00000010: e84c 193c eb0f 92bd aefd 4abd dee8 283e
0.020167368 0.03917854 0.037213996 0.13186988 0.009356715 -0.07131942 -0.049558334 0.16495082

bn1.running_mean f4 [8]
00000000: cf4d 233f e7db ab3e 73c5 8c3e 5e90 3c3e
00000010: 5a5d 133f 8f71 413f 688a b03e f15a fd3e
0.637906 0.3356621 0.27494392 0.18414447 0.5756432 0.755639 0.34480596 0.49483445

bn1.running_var f4 [8]
00000000: 5aa6 863f 8f48 8b3e d308 343e 138a e43d
00000010: 9c28 663f c98c b43f 34ad 8b3e 7d90 f83e
1.0519516 0.27203795 0.17581491 0.11159148 0.89905715 1.4105464 0.2728058 0.48547736

conv2.weight f4 [32, 8, 5, 5]
00000000: 02af 44bd 8866 05be 5a9a 8fba e6ea 1abc
00000010: ef53 1bbd 28ce 463d 0bf0 633d a609 913d
00000020: ed96 f6bc 9985 b6ba cc4c b0bd bf56 95bd
00000030: 1eb0 1ebd 3b4f bebd fcfb 4fbd 27c1 623a
00000040: 69e3 293d 67cf 43bb 09f0 39bd 1a22 1dbe
00000050: 14b5 d03b 72ee 953d c43b 6c3d 2abd 0f3b
00000060: b78a 74bd 8a52 a43d 256a e03c cc95 ec3d
00000070: f679 3b3d 1cc2 623d 81e0 ad3d fba4 853d
00000080: 4499 153d 165f 0b3e 9c73 91bc df37 bcba
00000090: e244 b53d bf40 ddbc 4d8d b83c d3c7 823c
000000a0: 5d79 42bc d47a 353d 6834 1fbc 5f83 dbbc
000000b0: 491e c33c d28d 023e 7542 823d 6eb1 10bd
000000c0: 627a 343c 3b44 e73d 01f6 fabd 54b8 79bd
000000d0: 6716 b6bd 88ca 83bd bff9 27bd 43b7 2fbd
000000e0: c7d2 96bd a31b fc3a 871d 5ebd 5932 5bbd
000000f0: a99c abbc afdf 7fbb 6e7b a2bc 296e eb3d
00000100: c266 89bb 91e6 a4bc 0362 47bd 04fb 143d
00000110: 98db a73d 2226 f8bc 4b81 5fbd 3366 9fbd
00000120: 5d93 a63c c34e b63d 02be f8bc 2174 88bc
00000130: 1b59 2abc 94b3 453d 28e0 c93d deee d1bd
00000140: e693 443c 8b64 7a3d cea5 d2bc 0467 35bd
00000150: d0fa 423b e2c1 923b 6bc3 543d 37c6 923c
00000160: 5165 a93d d32c 823d 79f4 e93d 2902 35bd
00000170: 86dd d43a 7a29 d9bd ac06 46bd d5d4 133d
00000180: cd31 033d aeec a53b 7334 523c b55d 7dbd
00000190: a555 e4bd 9c12 1dbe 5a1f 0dbe abeb 2bbd
000001a0: cff5 89bc 62fd 70bd 46c3 cfbd de2b f43b
000001b0: eb61 9c3d ca06 d6bc 6cb4 6cbd 4179 b33c
000001c0: 9384 c3bd 5e72 a73d 9a72 17bd bf00 c33c
000001d0: 5f97 683c 6978 6e3c bf0d 393d 53b1 b3bd
000001e0: 82b9 1f3d b919 dc3c 7dc7 e2ba 884e ba3c
000001f0: ada2 42bd 4318 6d3b d72e 3abd 42a3 213d
00000200: 2863 443c d4bb 20bd a05d 853d 9b31 8e3c
00000210: 4700 5abd 181d c63d 3461 883c 685c e8bb
00000220: f3f5 2f3d 7fd6 15bd 8bcd 833d aa70 95bd
00000230: 1c86 163d 2de7 1d3d 61e9 1f3d 690c 94bc
00000240: df0e c63c 7ff4 6f3d c264 9bbc 97ea 26bd
00000250: 4d6d 5b3d 31e3 90bd 8933 1abd 8510 e8bd
00000260: 4312 503d 33a6 c43c 8f47 903d 498b 40bd
00000270: dd3c ba3c 7556 983c 44d1 a93d 2f34 b63d
00000280: b1f0 9dbd 4ed7 4a3d c576 60bd f812 d43d
00000290: 875e ac3d 9ad8 70bc d1d1 f33c fc25 7ebd
000002a0: 724d 013e 16b1 9abd 8af8 b9bc b60f 03bd
000002b0: d8fe aabd 59f8 893d e843 52bd 2655 bf3d
000002c0: c72e f13d 7204 b63d 5791 8f3b 2adb 09bd
000002d0: 8d80 a63d ffc4 af3d 180f 023e 3f25 263b
000002e0: 335d 673d 8096 ea3d 8754 a03c a376 f63d
000002f0: 9116 05bd 8692 a03b 4f83 993c 4c8e 8cbd
00000300: 6cbd 033e 60ee 303c bb1c 543c f793 963d
00000310: a4f9 06bd 03cb fd3d e264 183d 18e3 a43c
00000320: 09ee 103d a053 1b3e 3db5 e13d 3d53 b93b
00000330: 3969 76bd 288e fdbc 0f03 b73d fff2 623d
00000340: bc91 f13d 0ef1 71bd 944e b63c 180a 663d
00000350: 09b5 2cbc 4966 8f3d 0bab 96bd df2d 3cb9
00000360: d042 af3d e60a ac3d 357c 073d 416e e2bd
00000370: aaf7 95ba a2d7 ce3d 94f0 ca3d 4133 7c3d
00000380: 21ce 28bd fc49 a23d 0da3 f13b 89e5 ebbd
00000390: 5872 98bc ceee bb3d e950 8f3b 0464 9f3d
000003a0: 6581 b5bd 082a de3b 6c6c a139 9ea3 d73c
000003b0: b24f 133d a93e b6bd 1409 403c 8633 bfbc
000003c0: 9107 b6bd bc74 d43d be68 f3bd d044 3dbd
000003d0: 460e 633d 29e8 423c ae72 363e 6103 05bc
000003e0: 140f 0a3e 38cd e63d 6d5c 163c 90bc f93c
000003f0: 629a 4c3d b70a 053d 9b92 e2bc 2015 5e3d
-0.048018463 -0.13027394 -0.0010956035 -0.009455418 -0.037921842 0.04853645 0.055648845 0.070819184
-0.030101264 -0.0013925313 -0.08608398 -0.07291936 -0.038742177 -0.09292456 -0.05077742 0.0008649998
0.04147664 -0.002987826 -0.04539493 -0.1534504 0.0063692424 0.073208705 0.057674184 0.002193282
-0.0597026 0.080235556 0.027394364 0.11552009 0.045770608 0.0553609 0.08490086 0.06525608
0.03652312 0.13610491 -0.017755322 -0.0014359913 0.08851029 -0.027008412 0.022528315 0.015964424
-0.011869756 0.04430659 -0.0097170845 -0.026796041 0.023818152 0.12749413 0.06360332 -0.03532546
0.011015506 0.11292311 -0.12253953 -0.060966805 -0.08890992 -0.06435114 -0.04100966 -0.04289938
-0.07364421 0.0019234311 -0.05422738 -0.053514812 -0.020948725 -0.0039043238 -0.019834246 0.11495621
-0.004193158 -0.020129474 -0.048677456 0.0363722 0.08196181 -0.03029162 -0.054566663 -0.07783165
0.02033394 0.08901741 -0.03036404 -0.016656937 -0.010397221 0.048266962 0.098572075 -0.102506384
0.011998152 0.06113104 -0.025713827 -0.044287696 0.0029751547 0.004478679 0.051944178 0.017916782
0.08271278 0.06356206 0.114235826 -0.044191513 0.0016240336 -0.10603614 -0.048346207 0.036091644
0.032029916 0.005063615 0.012829888 -0.061856944 -0.11149148 -0.1533913 -0.13781491 -0.041972797
-0.016840843 -0.058835395 -0.10144667 0.0074515184 0.07635864 -0.026126284 -0.05778925 0.021908404
-0.09546771 0.08176111 -0.036974527 0.023804067 0.014196246 0.014555075 0.045179125 -0.08774056
0.038995273 0.026867734 -0.0017301884 0.022742525 -0.04751842 0.0036177791 -0.045454826 0.039462335
0.011986531 -0.039241627 0.06511998 0.017357638 -0.05322292 0.09673518 0.016647913 -0.007091094
0.042959165 -0.036581513 0.064356886 -0.072968796 0.03674899 0.038550545 0.039040927 -0.018072324
0.024177013 0.05858278 -0.018968944 -0.040751066 0.053571034 -0.07074583 -0.037646804 -0.11331276
0.050798666 0.024005031 0.07044899 -0.047007833 0.0227341 0.018595913 0.082918674 0.08896672
-0.07711924 0.049521737 -0.054800767 0.103551805 0.08416467 -0.014700079 0.029763134 -0.062047943
0.126272 -0.07553308 -0.02270152 -0.031997405 -0.08349389 0.06736822 -0.05133429 0.09342413
0.117765 0.088875666 0.0043813395 -0.033656277 0.08129988 0.08582496 0.1270107 0.002535179
0.056485366 0.11454487 0.019571556 0.12034347 -0.032492224 0.0049002795 0.01873937 -0.068630785
0.12865227 0.0107990205 0.012946303 0.07352441 -0.03295292 0.12392237 0.037205584 0.020127818
0.035383258 0.15168619 0.110208966 0.0056556747 -0.060158942 -0.030951574 0.0893613 0.05540752
0.11795375 -0.05906778 0.022254266 0.05616197 -0.010541209 0.07001931 -0.073568426 -0.00017946165
0.08557665 0.08400516 0.033077437 -0.110561855 -0.0011441607 0.100997224 0.09909168 0.061572317
-0.041212205 0.07924268 0.0073741735 -0.1151839 -0.01860921 0.09176408 0.004373659 0.07782748
-0.08862571 0.006779913 0.00030789094 0.026323136 0.035964675 -0.0889867 0.011720914 -0.023339998
-0.08888162 0.10373828 -0.11885212 -0.046208203 0.055433534 0.011896172 0.17817184 -0.008118481
0.13482314 0.11269611 0.009177309 0.030485421 0.04995192 0.03248092 -0.027657798 0.054219365

conv2.bias f4 [32]
00000000: b7f5 91bd 62b5 fabc cc45 31bd aa4d 943d
00000010: 5cca c1bd 579e b03d 331e 01bd 4a76 e0bd
00000020: b4c6 78bc 20cf 10be bf4e 343d 2bf9 b63c
00000030: e498 a4bc 1f8f d43c 1a2a 013d ee3e 8fbd
00000040: ee74 fcbd 7d53 0fbe 1d3d a43c 67e8 463c
00000050: 6d81 85bd 2c8b 623d 2ae6 19be fb54 b8bc
00000060: aed0 21be 12ea 19bd 4ee9 96bc 47d6 35bd
00000070: f851 70be 0d4b 05bd 2ac8 9cbd 84aa afbd
-0.071269445 -0.030604068 -0.043279454 0.07241376 -0.09462425 0.08623951 -0.03152294 -0.10960062
-0.015184093 -0.14141512 0.04402041 0.02233561 -0.020092435 0.025947152 0.03153429 -0.06994425
-0.1232699 -0.13996692 0.020048672 0.01214037 -0.06518827 0.055308506 -0.15029207 -0.02250146
-0.15802261 -0.037576742 -0.018421795 -0.044393804 -0.23468769 -0.032542277 -0.07655366 -0.08577445

bn2.weight f4 [32]
00000000: 3a74 823f 2df7 623f ce65 8b3f d01f 7f3f
00000010: 9040 893f 0ca3 863f aea3 773f efea 5c3f
00000020: 6223 693f 010c 7f3f 01cb 7f3f 75b6 713f
00000030: ad84 633f 4bf8 653f 76dc 7e3f f74b 783f
00000040: 0de0 853f 6777 6e3f 4feb 8d3f b01a 873f
00000050: e506 813f 97fb 763f 26d1 733f acc7 6c3f
00000060: eb91 8d3f 57a0 853f caea 713f 5aa5 763f
00000070: 857e 9e3f 393a 583f e713 813f 36b0 863f
1.019172 0.8865841 1.0890443 0.9965792 1.0722828 1.0518508 0.9673413 0.8629598
0.91069615 0.9962769 0.99919134 0.9441903 0.8887432 0.8983199 0.99555147 0.96990913
1.0459 0.93150944 1.1087435 1.0555019 1.0080229 0.96477646 0.9524101 0.92492175
1.1060156 1.0439557 0.94498885 0.96346056 1.2382361 0.8446384 1.0084199 1.0522525

bn2.bias f4 [32]
00000000: 1806 22be 3212 183d 7422 883e 094b 323e
00000010: 619b 2cbe bbd3 383e d9e3 253e 907a d7bd
00000020: f41b 08be f973 31be 2257 0ebe 7576 f8bd
00000030: c9e3 363c 1fa5 15be 57d6 4e3e 6825 323e
00000040: 4e89 18be 4848 363e 3fc4 c1bd ad8b 26be
00000050: 9702 5e3e 3813 28be 8d46 32be d1c7 163e
00000060: 215d 313e 22f9 24be 74ee 15be 4a2a 10be
00000070: 42cb 7f3d 21d7 923d 0ab6 19be 9ec5 4abe
-0.15822637 0.037126727 0.26588786 0.17411436 -0.16856147 0.18049519 0.16200198 -0.10521424
-0.13291913 -0.17329396 -0.13900426 -0.12131969 0.011162707 -0.1461377 0.20198952 0.17397082
-0.14896128 0.1780101 -0.09461259 -0.1626422 0.21680675 -0.16413581 -0.17409725 0.14724661
0.17320682 -0.16110662 -0.14641744 -0.14078632 0.0624497 0.07169939 -0.15010849 -0.19801947

bn2.running_mean f4 [32]
00000000: 889b 243f b0b8 833f 1a0c 633f 407d 583f
00000010: 4094 463f 3ce4 3a3f e81d 343f 2422 5c3f
00000020: 16a6 943f 334c 663f d730 4d3f ee20 8e3f
00000030: dec1 ea3e 8dfa a33f 3773 623f bc6a 223f
00000040: 25b3 843f 30c6 373f 26a0 093f 39ba 4a3f
00000050: 7a6e 6c3f 2885 3c3f fcc3 903f a219 143f
00000060: 00cb cf3e a6b4 d53e 242b 9e3f af38 443f
00000070: 1fa6 773f 522f 393f 5bc9 3a3f 30dc 263f
0.6429982 1.0290737 0.8869034 0.84566116 0.7756996 0.7300451 0.70358133 0.85989594
1.1613185 0.8996002 0.8015265 1.1103799 0.45851034 1.2810837 0.88457054 0.63444114
1.036717 0.71786785 0.5375999 0.79190403 0.92356074 0.7364068 1.130981 0.5785161
0.40584564 0.41739386 1.2356915 0.7664899 0.96737856 0.7233783 0.72963494 0.6517973

bn2.running_var f4 [32]
00000000: ecd4 953f cb82 1340 c4d9 a93f 7eef 733f
00000010: f5a3 1140 b3d0 543f 13d5 4e3f 1172 1240
00000020: 1440 1a40 ffda 1340 ec92 5e3f 9ac3 0840
00000030: eec6 5c3f a548 a040 49e8 943f dfa6 4a3f
00000040: 97c2 2440 1d4e 1240 45a1 373f d077 d93f
00000050: b0ab a83f da74 e43f 6d5a 7e40 e941 2a3f
00000060: 56af 073f f2ec e23e 04a6 5d40 1333 623f
00000070: d30a b53f 71c0 da3f 91df d13f 0eaa b43f
1.1705604 2.304858 1.3269582 0.9528731 2.2756321 0.8313095 0.80793875 2.288212
2.410161 2.3102415 0.86942935 2.1369386 0.8624104 5.0088677 1.1633388 0.79160875
2.5743768 2.2860177 0.7173045 1.6989689 1.3177395 1.784816 3.9742692 0.6650682
0.53001916 0.443214 3.4632578 0.88359183 1.4143928 1.7089978 1.6396352 1.4114397

conv3.weight f4 [32, 32, 5, 5]
00000000: f1fd 23bc 2023 a6bb 85ef f2bd bb5c f03a
00000010: 8841 2e3d d0e6 8bbd e8c7 68bc 549e 10be
00000020: 9470 4f3d 74ba 03bd 8367 7abd 298e 55bd
00000030: 0310 abbd 64cb 453c 1afb 93bc a069 a3bd
00000040: 9397 d4bd 4e93 b9bd 0a35 78bd bd4b dbbd
00000050: cdde a5bc 863b 3bbd 1e43 ad3c 8652 783d
00000060: 9f17 c3bc eef7 0bbe 6205 1dbd c714 723a
00000070: c1a8 50bc 3fdc fabc 4e66 aebd 403f 163d
00000080: 5f70 10bd 9474 6a3b 8d03 933c 5fd6 81bd
00000090: 4b17 31bc 32a0 f8bc 42a0 863d 2306 0fbc
000000a0: 54b8 49bd ad8f b4bc cadb 97bd 1378 0b3d
000000b0: 9acb dfbc 0104 2a3b 42b1 7abd 7ac1 83bd
000000c0: f608 02bd 37f9 60bc f2ce de3d ad56 7e3b
000000d0: 04f6 4cbd 3acc 2d3d f93a 493d bd0b 2b3d
000000e0: 556f b33b 4a8e 61bd 45ef 8b3c 5022 593d
000000f0: ee33 893d 072a 253d 85df ffbc 9c60 9c3c
00000100: 12f7 6d3c d473 973c cb8d f9bc a3a4 83bd
00000110: 727c 16bd d858 113b 4fe9 043d 99ee 7e3d
00000120: 5a74 093d 0c1b a33d f866 763d 5de4 993d
00000130: 4469 883d 798f a33c 4499 db3c 7bdb 9b3c
00000140: 02e7 c03d a295 f53d 3681 693d 0329 c63d
00000150: f258 2f3d 1017 debc 3438 70bd 3af8 18bd
00000160: b351 31bd e89a 20bc 207a 03bc 140f 4bbd
00000170: fc78 2d3c d128 143b 3884 c5bc 2f9d 553d
00000180: 08a1 f13c 3578 953b 705e 313d bf2a 233d
00000190: 3518 133d c6cb f1ba a91e 453d 7ffb 2c3e
000001a0: 432a b73d eb6a 9a3c c9e2 123d 41ea 833c
000001b0: dd89 eb3c 3d51 90bc a187 ae3b 8de1 93bb
000001c0: 6979 df3c 4acb 68bd 2659 353d 4836 afbd
000001d0: 6087 a9bd 84b4 25be 6911 80bd fafc a2bd
000001e0: 66ed b13c cef8 ccbd 4d27 babd 1fe7 a0bd
000001f0: e70e 98bd 0247 323c b04d 9bbd ef91 8bbd
00000200: 5870 2cbd 95c8 cabc 69a1 963d 3557 783d
00000210: 8d8d 653d 0aab df3c ff36 a73d 7647 6e3d
00000220: b60a 0cbc 6444 5ebd dfcf 89bc ef2c d43c
00000230: 61c5 7a3c 5cad 543d 97a5 33bc 9aa0 393c
00000240: cd05 e63c 53ab 893c 3ddf a83c 845e 1bbd
00000250: 588f 913b 3bfb 353d d069 53bc b10f 69bd
00000260: 5023 84bd 2ab7 c7bc 8a78 f43c 8050 793b
00000270: 56e1 233d 0ab3 ebbc a3d9 ce3c c521 873c
00000280: e59e 37bd adde 33bd 67cf fbbd f2b8 8fbd
00000290: fe15 023d 4c9a f5bb 1857 73bd 6b79 a8bd
000002a0: 878b b9bd 2673 09bd a574 163d 273a cfbd
000002b0: 2d95 2fbd dd7b 7abd 86f7 1f3c acfc 7a3c
000002c0: af13 3ebd 05dc 8fbd 046c 8bbd 2407 4bbd
000002d0: be02 97bc f822 9abd ef70 7cbd f16c 3cbd
000002e0: 7b78 8f3b dd25 2ebc 81bf a1bb 3b7a 6dbd
000002f0: d5c8 25bd 943c 63bc 5678 6d3b 179c 723c
00000300: ae97 683c 6880 e6bc 5670 eabb f22a 91bd
00000310: 432c ccbc 9b15 11bd 24ff 2abd 4a26 f3bc
00000320: b21d de3c a707 013c 92f1 08bd 97f9 da3c
00000330: a8cc 28bd 6d09 e5bc 48a5 e2bc f06d 03bd
00000340: 5775 b93b 0b9e 03bd 9a20 44bc da8b 7abd
00000350: 6dda cebd 8906 85bd ce6b 8ebd 3a6c 1cbd
00000360: 96c3 8ebd 0601 63bd 95e3 dcbc 4ae2 9ebc
00000370: 7fdc 87bc ee9d a63c 7ee6 423c 222e f73c
00000380: 4c26 7b3d 2be2 6a3d af22 533d c375 943d
00000390: eef5 e53d 4ec2 333d e241 d83d ae60 ac3c
000003a0: f2c4 723d 7898 4f3c 3836 3dbd 9840 3bbc
000003b0: 61e9 a1bc 4de0 59bd 79cb 91bc 9f32 7d3d
000003c0: 14d3 4fbb c4d3 0dbc d14f 2bbd f2ca babd
000003d0: c44e 993c c6b3 07bd a871 b73b a4b0 f9bd
000003e0: 6660 c4bd 0cf8 90bd 1ba2 a43c 3bee dfbc
000003f0: dbd0 b0bb 7469 2d3c 5747 25bd aecc 1d3d
-0.010009275 -0.005070105 -0.11862091 0.0018338183 0.042542964 -0.06831133 -0.014207818 -0.14122897
0.050644472 -0.032160237 -0.061133873 -0.052137528 -0.08352663 0.012072418 -0.01806407 -0.07979131
-0.10380473 -0.09061299 -0.060597457 -0.10707805 -0.020247841 -0.045711063 0.021150168 0.060625575
-0.023814974 -0.13668796 -0.03833521 0.00092346634 -0.012735547 -0.0306226 -0.08515607 0.036681414
-0.035263415 0.0035775052 0.01794603 -0.06339716 -0.010808776 -0.030349825 0.065735355 -0.00872949
-0.049248055 -0.022041166 -0.07414968 0.03405006 -0.027318764 0.0025942328 -0.061204202 -0.06433387
-0.031746827 -0.013731292 0.108793154 0.0038808987 -0.050039306 0.042431094 0.049128506 0.04175924
0.0054759183 -0.055067338 0.017081866 0.05301124 0.06699358 0.040323284 -0.031234512 0.019089036
0.014524238 0.018487848 -0.03046312 -0.06427886 -0.036739774 0.00221782 0.032449063 0.062239263
0.033558227 0.07964143 0.060156792 0.0751426 0.06660703 0.019965874 0.026806481 0.019025555
0.09419061 0.11991431 0.05700799 0.09675791 0.042809434 -0.027110606 -0.05864735 -0.037346102
-0.043290805 -0.0098025575 -0.008024722 -0.049574926 0.010587927 0.0022607336 -0.024110898 0.052151855
0.029495731 0.004561449 0.043302953 0.039835688 0.035911757 -0.001844757 0.048124943 0.16892813
0.08943608 0.01884981 0.03586081 0.016102912 0.028752262 -0.017616862 0.005326227 -0.0045129717
0.027279573 -0.056834497 0.04427447 -0.08555275 -0.08277774 -0.16182142 -0.06253321 -0.07958408
0.021719646 -0.10008393 -0.09089527 -0.07856583 -0.074247174 0.010881187 -0.07583177 -0.06814944
-0.042099327 -0.024753848 0.07355005 0.060630042 0.056043196 0.027303237 0.081647865 0.05817362
-0.008547476 -0.05426444 -0.016822753 0.025900332 0.015305848 0.05192314 -0.010964773 0.011329794
0.028078938 0.016805327 0.02061426 -0.037931934 0.0044421367 0.044429045 -0.012903646 -0.05689973
-0.06452048 -0.024379332 0.029842634 0.0038042367 0.04000982 -0.028771896 0.025250262 0.016495595
-0.044829268 -0.043913532 -0.12295418 -0.070176974 0.031759255 -0.0074952003 -0.05940923 -0.08226284
-0.09059816 -0.03355708 0.036732335 -0.101185136 -0.042866874 -0.06115328 0.009763604 0.015319031
-0.04640549 -0.07024387 -0.06807712 -0.049567357 -0.018433925 -0.07526201 -0.06163114 -0.046002332
0.004378376 -0.0106291445 -0.004936159 -0.057977896 -0.04047473 -0.013869423 0.0036235056 0.0148077225
0.0141963195 -0.0281374 -0.007154505 -0.07088269 -0.02492345 -0.035420995 -0.041747227 -0.029681344
0.02711377 0.00787536 -0.033433504 0.026730342 -0.0412108 -0.027958596 -0.027666703 -0.032087266
0.00565974 -0.032133143 -0.011970663 -0.06116853 -0.10100255 -0.06495387 -0.06954156 -0.03818915
-0.06970899 -0.055420898 -0.026963988 -0.019395012 -0.016584633 0.020338979 0.011895774 0.030173365
0.06131582 0.057344597 0.05154675 0.07249024 0.11228548 0.043886475 0.10559441 0.021042194
0.059269853 0.012670629 -0.046194285 -0.011428975 -0.019764604 -0.053192426 -0.017797219 0.061815854
-0.0031711506 -0.008656446 -0.041824166 -0.0912074 0.018714316 -0.03313043 0.0055982657 -0.12191895
-0.09588699 -0.07078561 0.02009683 -0.027335277 -0.0053959913 0.010584224 -0.040351238 0.038525276

conv3.bias f4 [32]
00000000: bd79 453e 092a 3b3e 3e8c 233e 98f9 1e3e
00000010: 3620 f73d 7c4b b13d 175a 8e3c ea31 813d
00000020: 0382 0c3e ac42 133e 0ea2 bf3d 18bc 033d
00000030: 13de d63d 2063 b43d c1d1 9d3d d9e6 a63d
00000040: d971 63bc 8832 c43d 87f9 3d3d 748e 4d3d
00000050: ee66 f53d fa6b 0dbd 7083 783d b99b a6bd
00000060: c03e 4c3d 7a6a 193e 051f aabd 5ed7 f7bd
00000070: 3c40 60bd c79b 44bd 162d b1bd a62f edbc
0.1928472 0.18277754 0.15971467 0.155249 0.120666906 0.086569756 0.017376943 0.063083485
0.1372147 0.14380902 0.09357081 0.032161802 0.10491576 0.08807969 0.07706023 0.081494994
-0.013882124 0.095799506 0.046380546 0.050184682 0.11982523 -0.034526803 0.060672224 -0.081351705
0.04986453 0.14982024 -0.08306698 -0.12101625 -0.05474876 -0.048000123 -0.086511776 -0.028953385

bn3.weight f4 [32]
00000000: 6a6b 903f 48e0 903f 0104 943f 52fd 8a3f
00000010: 0ae3 913f 30eb 883f ed8b 913f 3d4a 883f
00000020: fee3 953f adb5 883f c2c8 813f 5ee0 743f
00000030: 8684 983f f30c 8b3f 642e a43f b3e8 a53f
00000040: e5a4 913f d80d 953f 1ef8 943f 2e76 8c3f
00000050: 88ec 953f aa28 903f c183 943f 05a4 6c3f
00000060: 99f5 8a3f 0099 8b3f b596 593f d8f5 883f
00000070: a629 953f e8cd 7c3f c4de 7b3f 0c1a 693f
1.128278 1.1318445 1.1563722 1.0858557 1.1397412 1.0696774 1.1370827 1.0647656
1.1710203 1.0680443 1.0139391 0.9565486 1.1915443 1.0863327 1.2826657 1.2961639
1.1378447 1.164485 1.1638219 1.0973566 1.1712809 1.126241 1.1602708 0.92437774
1.08562 1.0906067 0.84995586 1.0700026 1.1653335 0.9875169 0.9838679 0.9105537

bn3.bias f4 [32]
00000000: 519e c83d e9bc 623d fe9e 293d 74a6 4c3d
00000010: 8c24 a63d 5e16 223d 55ef 6cbc f29b 913d
00000020: ada9 9e3b 137b 3f3d 98af 113d a7a6 813c
00000030: b472 2a3d f5bf 89bd 3cb7 ce3d 561c 2e3e
00000040: b1d3 a53c 37c4 01bd 38f3 bdbd 9c4c 5e3d
00000050: 1446 393d 5063 383c 5d78 233e b82f ffbc
00000060: 18a4 d43c 2192 3cbe e2cf 8abd 4ab4 5bbe
00000070: 04e2 6fbd a435 9cbd d9cc 61bd 9c37 70bc
0.097958215 0.05535594 0.041411392 0.04996343 0.081124395 0.039572112 -0.014461358 0.07109822
0.0048420043 0.046748232 0.03556785 0.015826536 0.041613296 -0.06726066 0.10093543 0.17002997
0.020242544 -0.031681266 -0.09274906 0.05427228 0.045232847 0.011254147 0.15963884 -0.031150684
0.025957152 -0.18415119 -0.06777932 -0.21455494 -0.058565155 -0.07627419 -0.055127 -0.014661696

bn3.running_mean f4 [32]
00000000: 268d 3c40 8282 0140 d8a9 7240 7a17 e23f
00000010: 1196 f03f ec9f 8040 50ed ec3f dc60 7140
00000020: ad53 5040 fdd8 2140 291c 3940 8fff 4c40
00000030: 1c9a 9d3f 8a7b 5f40 4427 a93f 9a2f f43f
00000040: 6757 3240 ea7c 4d40 228c 3a40 606f 0a40
00000050: 20b3 0340 f528 2a40 79e5 1940 7cf5 0740
00000060: a5b9 8140 025d 9340 0697 4840 4b9c 8f40
00000070: ef3e 2840 22c1 5b40 06ab 6b40 81e5 2c40
2.946115 2.0235906 3.7916164 1.7663414 1.8795797 4.0195217 1.8509922 3.7715368
3.2551072 2.528869 2.8923438 3.203098 1.2312655 3.4919152 1.3215108 1.9077027
2.7865846 3.2107491 2.914803 2.1630478 2.057808 2.6587498 2.404631 2.1243582
4.0539117 4.6051035 3.1342177 4.4878287 2.6288412 3.433663 3.6823134 2.7015078

bn3.running_var f4 [32]
00000000: dd53 0141 782e d440 a2c5 7541 9382 aa40
00000010: bb19 1441 91db 9f41 4e18 bd40 1c74 9f41
00000020: 1dd8 2f41 e0a0 0241 608a f740 d8fc 2a41
00000030: 5943 e740 3782 4041 9d4c 9640 b5ea 0041
00000040: f8c2 4341 3ca6 2d41 f84d 3d41 f450 1441
00000050: fc16 1741 fa61 1741 9000 a441 a8f6 4841
00000060: ff07 0042 d1af 2b42 ae82 8041 765d c441
00000070: 7521 9341 9a3f cd41 cc41 9f41 368e ab41
8.082974 6.6306725 15.36075 5.328439 9.256282 19.98221 5.909217 19.931694
10.990262 8.164276 7.7356415 10.686729 7.226971 12.031791 4.696852 8.0573015
12.2351 10.853085 11.831535 9.269764 9.443111 9.46142 20.500275 12.560219
32.00781 42.921696 16.063808 24.545635 18.391336 25.656055 19.907127 21.444439

cnn.0.weight f4 [8, 2, 5, 5]
00000000: b4fb 193d 4479 043d b745 1d3c 1da1 fbbd
00000010: 05d0 66be f167 afbc ed04 bf3d 8aee 4a3d
00000020: b0b3 c7bc 1de5 303d 6408 183e cba7 43bd
00000030: a067 ae3d 765b 783e 215f 6d3d 153b 4ebc
00000040: b24d 4c3e c223 47bc 849f 183e 4319 eabc
00000050: 39c6 a93d 8640 8a3d 2aa8 213e c0e3 ba3d
00000060: 5b56 203c fc37 683c 2fdf 50bd 78bd dcbc
00000070: efe2 35be fa25 4bbe 7e11 e83d b4c1 93bd
00000080: 8e4d 8a3d b5af aabd 9aa3 05be 845c 91bd
00000090: c1be 3f3e e749 083e fd01 193d f998 d93d
000000a0: de75 a53d f708 353d c3c7 413e 6a9f dd3d
000000b0: 9102 d6bc ece3 8bbb 6b02 013e e772 633d
000000c0: bfd7 dc3d b652 233e adf6 c8bb ce8d 593d
000000d0: 4ff7 ce3d 3a90 b5bd 8ed5 e23d 3401 44bd
000000e0: 3ec3 0b3e cc70 dd3d 749b 10bd 5879 a53d
000000f0: bf71 253d 2a0b 60be 4c94 80bd e896 04be
00000100: 6f41 843d 1511 963d 1d90 e7bd a38c a23d
00000110: eb8d 043e 9d73 513e 9572 2b3d 2ca6 87bd
00000120: b6be fa3d bfb0 10bd d2b5 b43d a085 5cbc
00000130: 1310 d33d 0dbd aebd 10ac 9f3c 5f08 c73d
00000140: 32cd 91bd 0fec fb3c f2f6 87bd 62cc 053e
00000150: 02c7 fe3d 16ea 12be 2b9f 24be d80e 87bc
00000160: d091 a2bd 804b 83bd a72e 14bd 357e 693c
00000170: c8eb 18bc a9a1 a9bc 3393 063e 6008 1ebd
00000180: 8969 2a3e cf90 2e3e 063d 0a3c 8e9f 843d
00000190: 737c bbbd eded 3c3e 2fea 6cbd ba57 e8bd
000001a0: 46cd e0bc d2dc e53d f39d 93bc ca29 3dbd
000001b0: 0c02 7bbd ed46 023e abfc 693c ea5f 1a3e
000001c0: 85af 3cbc c80e c53d 3471 33be bd81 98bb
000001d0: 95fb f13d fb38 03bd ad56 883d dd0b 863d
000001e0: e38f 79bd a1f0 b13d 8bdd 9c3d b2c8 5c3d
000001f0: ce8d 44bc 879d 153e a905 323e 9a7f 9bbd
00000200: ffa5 94bd 5523 f73d 3208 083e 21a8 3d3e
00000210: d6bd eabd 161b eb3d 055b c7bd 7a4b 643c
00000220: e80d 86bd bb43 313d d5e9 c5bd 7212 3ebe
00000230: bae5 6c3d 4f58 a73d a404 1b3c 5a97 dc3d
00000240: 82ca 06be 4b1c f6bc d509 49bd 7579 2fbe
00000250: 5832 eb3c a723 37be b956 1b3e 64aa cb3d
00000260: 7fb1 8abd 2d03 3b3e 423c 09bc 29c5 2a3e
00000270: cdf1 4bbd 9113 0a3e 903c b9bd 4336 873c
00000280: 91f4 ddbd d146 81bd 4fd3 c6bd cc96 61bd
00000290: d8ce 043e 7d0c 16be 6533 06be b7d7 e5bd
000002a0: 910b 5ebb 9c18 12bd b455 c13b 2a3e 34bd
000002b0: b9c8 07bd d6ee f6bc ac3d adbd 57a2 b4bc
000002c0: 1653 263d 8ee4 273e db0e 0a3e ce51 263e
000002d0: 2a22 013e 215a 003e 4b87 99bc 28f9 e53a
000002e0: 414e 963d 2103 0a3d f676 f43c fbe1 83bc
000002f0: 3cb2 39be 85bb 8a3d 2614 8c3c 1cb5 1dbe
00000300: c474 743d 4119 71bc b2ae 0f3e 21ae 3bbe
00000310: b7fa 99bd bb8a 60bd b265 65bc c433 1cbe
00000320: c336 47be 5ed4 113d c8d5 0abd 7e6b 903d
00000330: abb2 c73d 2f8d ec3d b417 ab3d 32ff 253e
00000340: cfcc b23e 077b 6e3e e91b 32bc 04bb 26be
00000350: efa1 0c3d 2fac 7f3e a970 863d 5cbe a4bc
00000360: 4677 013d 0599 96bc 73be d4bc e6ad 1d3e
00000370: ea9d 8f3d 7700 8a3c f26e 01be 9296 0a3e
00000380: 6c11 9fbd 7d03 88bd 2ee3 19be e267 cebd
00000390: 8603 10bb 939d 2f3e 270d 41bc b9ca f8ba
000003a0: 991b abbd 7368 883e 96d9 5f3e e5ce 8a3b
000003b0: b360 50bd ae71 813d 35d8 533e aed9 873d
000003c0: 7d40 d13c 71b8 913b 4476 f4bd 7754 3cbd
000003d0: 245a 15bd 6028 96bd 6de5 07be 4ebc 143d
000003e0: 16b9 d8bc 3466 4f3d a3d0 383e 0f89 713d
000003f0: 2a33 cabc 4130 07bb ddf1 c33c 6cb9 ae3d
0.03759356 0.03234221 0.009599141 -0.12286589 -0.2254029 -0.021411868 0.093271114 0.049543895
-0.024377674 0.04318725 0.14846951 -0.04776744 0.08515859 0.2425364 0.05795205 -0.012587328
0.19951513 -0.012154521 0.149046 -0.028576499 0.08289761 0.06750588 0.15786806 0.09125471
0.009786214 0.014173504 -0.050994094 -0.026945814 -0.1776235 -0.19838706 0.11331461 -0.0721468
0.06753074 -0.08334295 -0.1305069 -0.07097724 0.1872511 0.13309442 0.03735541 0.1062488
0.08079122 0.044198003 0.1892386 0.108214214 -0.02612427 -0.0042691138 0.12598579 0.0555295
0.10783338 0.1594952 -0.0061329217 0.05311375 0.10105764 -0.088654 0.110758886 -0.04785271
0.13648698 0.1081253 -0.0353045 0.08079785 0.04039168 -0.21879259 -0.062782854 -0.12948191
0.06457793 0.07327477 -0.11306784 0.079369806 0.12944762 0.20454259 0.04185732 -0.06623492
0.122434065 -0.03532481 0.08823742 -0.013459593 0.103058 -0.08532152 0.019491225 0.097183935
-0.07119216 0.03075221 -0.06638898 0.13066247 0.124403015 -0.14347109 -0.16076343 -0.01648657
-0.07937968 -0.06410885 -0.036177304 0.0142512815 -0.009333558 -0.020706968 0.1314209 -0.038582206
0.16641821 0.17047428 0.008437401 0.06475745 -0.09154596 0.18450136 -0.057840522 -0.113448575
-0.027441632 0.11223759 -0.018019652 -0.04618243 -0.06128125 0.12722369 0.014281432 0.15075651
-0.0115164565 0.0962196 -0.17523652 -0.004654138 0.118155636 -0.032036763 0.06657157 0.065452315
-0.060928237 0.086884744 0.076594435 0.053902335 -0.0119966995 0.14610873 0.17384972 -0.075926974
-0.07258224 0.12067286 0.13284376 0.18521167 -0.114619896 0.114797756 -0.097341575 0.013934011
-0.06545621 0.043277483 -0.096637405 -0.18561724 0.05783627 0.081711404 0.009461556 0.107710555
-0.13163188 -0.030042788 -0.049081642 -0.17136176 0.02871053 -0.17884694 0.15169801 0.09944609
-0.06772136 0.1826293 -0.008376183 0.16676773 -0.049791146 0.13484026 -0.090447545 0.016505366
-0.10837663 -0.06312335 -0.09708273 -0.05507545 0.1296953 -0.14653201 -0.13105543 -0.11222785
-0.0033881406 -0.035668 0.005900109 -0.044004597 -0.03315041 -0.030143183 -0.084590286 -0.022050066
0.04060658 0.1639578 0.1348223 0.16242144 0.12610689 0.12534381 -0.01874127 0.0017545568
0.073391445 0.03369439 0.029841881 -0.016098967 -0.18134397 0.06774048 0.017099451 -0.15401119
0.05968167 -0.014715494 0.14031485 -0.18328144 -0.07518523 -0.054819804 -0.014001297 -0.15254122
-0.19454484 0.03560292 -0.033895284 0.070517525 0.09750875 0.11550366 0.083541304 0.1621063
0.34921882 0.23289119 -0.010870912 -0.16282278 0.03433412 0.24968027 0.06564457 -0.020110302
0.03160789 -0.018383512 -0.02596972 0.15398368 0.070125416 0.016845925 -0.12639979 0.13534
-0.07766995 -0.0664129 -0.15028068 -0.10078408 -0.0021974756 0.17149954 -0.011782921 -0.0018981314
-0.08354873 0.26642188 0.21860346 0.0042360895 -0.05087347 0.06320511 0.20687945 0.06633316
0.025543446 0.004447036 -0.1193662 -0.04597899 -0.036462918 -0.0733192 -0.13271113 0.036312394
-0.026455443 0.050634578 0.18048339 0.0589686 -0.0246826 -0.0020628127 0.02391904 0.0853146

cnn.0.bias f4 [8]
00000000: 6208 37bd 2d68 39bb 1563 003d f19d 4bbd
00000010: 70b7 75bd c79f a9bd ea72 86bd ea8c 093e
-0.04468573 -0.0028290853 0.031344492 -0.04971117 -0.059989393 -0.08282428 -0.06564887 0.1343266

cnn.2.weight f4 [8]
00000000: b715 803f af6a 713f 8765 663f c6be 823f
00000010: d8a9 893f 329d 313f 0f72 773f d6e3 8f3f
1.0006627 0.9430341 0.8999867 1.021447 1.0754957 0.69380486 0.96658415 1.1241405

cnn.2.bias f4 [8]
00000000: 0936 a53c ad79 203d b46d 183d e608 073e
00000010: e84c 193c eb0f 92bd aefd 4abd dee8 283e
0.020167368 0.03917854 0.037213996 0.13186988 0.009356715 -0.07131942 -0.049558334 0.16495082

cnn.2.running_mean f4 [8]
00000000: cf4d 233f e7db ab3e 73c5 8c3e 5e90 3c3e
00000010: 5a5d 133f 8f71 413f 688a b03e f15a fd3e
0.637906 0.3356621 0.27494392 0.18414447 0.5756432 0.755639 0.34480596 0.49483445

cnn.2.running_var f4 [8]
00000000: 5aa6 863f 8f48 8b3e d308 343e 138a e43d
00000010: 9c28 663f c98c b43f 34ad 8b3e 7d90 f83e
1.0519516 0.27203795 0.17581491 0.11159148 0.89905715 1.4105464 0.2728058 0.48547736

cnn.3.weight f4 [32, 8, 5, 5]
00000000: 02af 44bd 8866 05be 5a9a 8fba e6ea 1abc
00000010: ef53 1bbd 28ce 463d 0bf0 633d a609 913d
00000020: ed96 f6bc 9985 b6ba cc4c b0bd bf56 95bd
00000030: 1eb0 1ebd 3b4f bebd fcfb 4fbd 27c1 623a
00000040: 69e3 293d 67cf 43bb 09f0 39bd 1a22 1dbe
00000050: 14b5 d03b 72ee 953d c43b 6c3d 2abd 0f3b
00000060: b78a 74bd 8a52 a43d 256a e03c cc95 ec3d
00000070: f679 3b3d 1cc2 623d 81e0 ad3d fba4 853d
00000080: 4499 153d 165f 0b3e 9c73 91bc df37 bcba
00000090: e244 b53d bf40 ddbc 4d8d b83c d3c7 823c
000000a0: 5d79 42bc d47a 353d 6834 1fbc 5f83 dbbc
000000b0: 491e c33c d28d 023e 7542 823d 6eb1 10bd
000000c0: 627a 343c 3b44 e73d 01f6 fabd 54b8 79bd
000000d0: 6716 b6bd 88ca 83bd bff9 27bd 43b7 2fbd
000000e0: c7d2 96bd a31b fc3a 871d 5ebd 5932 5bbd
000000f0: a99c abbc afdf 7fbb 6e7b a2bc 296e eb3d
00000100: c266 89bb 91e6 a4bc 0362 47bd 04fb 143d
00000110: 98db a73d 2226 f8bc 4b81 5fbd 3366 9fbd
00000120: 5d93 a63c c34e b63d 02be f8bc 2174 88bc
00000130: 1b59 2abc 94b3 453d 28e0 c93d deee d1bd
00000140: e693 443c 8b64 7a3d cea5 d2bc 0467 35bd
00000150: d0fa 423b e2c1 923b 6bc3 543d 37c6 923c
00000160: 5165 a93d d32c 823d 79f4 e93d 2902 35bd
00000170: 86dd d43a 7a29 d9bd ac06 46bd d5d4 133d
00000180: cd31 033d aeec a53b 7334 523c b55d 7dbd
00000190: a555 e4bd 9c12 1dbe 5a1f 0dbe abeb 2bbd
000001a0: cff5 89bc 62fd 70bd 46c3 cfbd de2b f43b
000001b0: eb61 9c3d ca06 d6bc 6cb4 6cbd 4179 b33c
000001c0: 9384 c3bd 5e72 a73d 9a72 17bd bf00 c33c
000001d0: 5f97 683c 6978 6e3c bf0d 393d 53b1 b3bd
000001e0: 82b9 1f3d b919 dc3c 7dc7 e2ba 884e ba3c
000001f0: ada2 42bd 4318 6d3b d72e 3abd 42a3 213d
00000200: 2863 443c d4bb 20bd a05d 853d 9b31 8e3c
00000210: 4700 5abd 181d c63d 3461 883c 685c e8bb
00000220: f3f5 2f3d 7fd6 15bd 8bcd 833d aa70 95bd
00000230: 1c86 163d 2de7 1d3d 61e9 1f3d 690c 94bc
00000240: df0e c63c 7ff4 6f3d c264 9bbc 97ea 26bd
00000250: 4d6d 5b3d 31e3 90bd 8933 1abd 8510 e8bd
00000260: 4312 503d 33a6 c43c 8f47 903d 498b 40bd
00000270: dd3c ba3c 7556 983c 44d1 a93d 2f34 b63d
00000280: b1f0 9dbd 4ed7 4a3d c576 60bd f812 d43d
00000290: 875e ac3d 9ad8 70bc d1d1 f33c fc25 7ebd
000002a0: 724d 013e 16b1 9abd 8af8 b9bc b60f 03bd
000002b0: d8fe aabd 59f8 893d e843 52bd 2655 bf3d
000002c0: c72e f13d 7204 b63d 5791 8f3b 2adb 09bd
000002d0: 8d80 a63d ffc4 af3d 180f 023e 3f25 263b
000002e0: 335d 673d 8096 ea3d 8754 a03c a376 f63d
000002f0: 9116 05bd 8692 a03b 4f83 993c 4c8e 8cbd
00000300: 6cbd 033e 60ee 303c bb1c 543c f793 963d
00000310: a4f9 06bd 03cb fd3d e264 183d 18e3 a43c
00000320: 09ee 103d a053 1b3e 3db5 e13d 3d53 b93b
00000330: 3969 76bd 288e fdbc 0f03 b73d fff2 623d
00000340: bc91 f13d 0ef1 71bd 944e b63c 180a 663d
00000350: 09b5 2cbc 4966 8f3d 0bab 96bd df2d 3cb9
00000360: d042 af3d e60a ac3d 357c 073d 416e e2bd
00000370: aaf7 95ba a2d7 ce3d 94f0 ca3d 4133 7c3d
00000380: 21ce 28bd fc49 a23d 0da3 f13b 89e5 ebbd
00000390: 5872 98bc ceee bb3d e950 8f3b 0464 9f3d
000003a0: 6581 b5bd 082a de3b 6c6c a139 9ea3 d73c
000003b0: b24f 133d a93e b6bd 1409 403c 8633 bfbc
000003c0: 9107 b6bd bc74 d43d be68 f3bd d044 3dbd
000003d0: 460e 633d 29e8 423c ae72 363e 6103 05bc
000003e0: 140f 0a3e 38cd e63d 6d5c 163c 90bc f93c
000003f0: 629a 4c3d b70a 053d 9b92 e2bc 2015 5e3d
-0.048018463 -0.13027394 -0.0010956035 -0.009455418 -0.037921842 0.04853645 0.055648845 0.070819184
-0.030101264 -0.0013925313 -0.08608398 -0.07291936 -0.038742177 -0.09292456 -0.05077742 0.0008649998
0.04147664 -0.002987826 -0.04539493 -0.1534504 0.0063692424 0.073208705 0.057674184 0.002193282
-0.0597026 0.080235556 0.027394364 0.11552009 0.045770608 0.0553609 0.08490086 0.06525608
0.03652312 0.13610491 -0.017755322 -0.0014359913 0.08851029 -0.027008412 0.022528315 0.015964424
-0.011869756 0.04430659 -0.0097170845 -0.026796041 0.023818152 0.12749413 0.06360332 -0.03532546
0.011015506 0.11292311 -0.12253953 -0.060966805 -0.08890992 -0.06435114 -0.04100966 -0.04289938
-0.07364421 0.0019234311 -0.05422738 -0.053514812 -0.020948725 -0.0039043238 -0.019834246 0.11495621
-0.004193158 -0.020129474 -0.048677456 0.0363722 0.08196181 -0.03029162 -0.054566663 -0.07783165
0.02033394 0.08901741 -0.03036404 -0.016656937 -0.010397221 0.048266962 0.098572075 -0.102506384
0.011998152 0.06113104 -0.025713827 -0.044287696 0.0029751547 0.004478679 0.051944178 0.017916782
0.08271278 0.06356206 0.114235826 -0.044191513 0.0016240336 -0.10603614 -0.048346207 0.036091644
0.032029916 0.005063615 0.012829888 -0.061856944 -0.11149148 -0.1533913 -0.13781491 -0.041972797
-0.016840843 -0.058835395 -0.10144667 0.0074515184 0.07635864 -0.026126284 -0.05778925 0.021908404
-0.09546771 0.08176111 -0.036974527 0.023804067 0.014196246 0.014555075 0.045179125 -0.08774056
0.038995273 0.026867734 -0.0017301884 0.022742525 -0.04751842 0.0036177791 -0.045454826 0.039462335
0.011986531 -0.039241627 0.06511998 0.017357638 -0.05322292 0.09673518 0.016647913 -0.007091094
0.042959165 -0.036581513 0.064356886 -0.072968796 0.03674899 0.038550545 0.039040927 -0.018072324
0.024177013 0.05858278 -0.018968944 -0.040751066 0.053571034 -0.07074583 -0.037646804 -0.11331276
0.050798666 0.024005031 0.07044899 -0.047007833 0.0227341 0.018595913 0.082918674 0.08896672
-0.07711924 0.049521737 -0.054800767 0.103551805 0.08416467 -0.014700079 0.029763134 -0.062047943
0.126272 -0.07553308 -0.02270152 -0.031997405 -0.08349389 0.06736822 -0.05133429 0.09342413
0.117765 0.088875666 0.0043813395 -0.033656277 0.08129988 0.08582496 0.1270107 0.002535179
0.056485366 0.11454487 0.019571556 0.12034347 -0.032492224 0.0049002795 0.01873937 -0.068630785
0.12865227 0.0107990205 0.012946303 0.07352441 -0.03295292 0.12392237 0.037205584 0.020127818
0.035383258 0.15168619 0.110208966 0.0056556747 -0.060158942 -0.030951574 0.0893613 0.05540752
0.11795375 -0.05906778 0.022254266 0.05616197 -0.010541209 0.07001931 -0.073568426 -0.00017946165
0.08557665 0.08400516 0.033077437 -0.110561855 -0.0011441607 0.100997224 0.09909168 0.061572317
-0.041212205 0.07924268 0.0073741735 -0.1151839 -0.01860921 0.09176408 0.004373659 0.07782748
-0.08862571 0.006779913 0.00030789094 0.026323136 0.035964675 -0.0889867 0.011720914 -0.023339998
-0.08888162 0.10373828 -0.11885212 -0.046208203 0.055433534 0.011896172 0.17817184 -0.008118481
0.13482314 0.11269611 0.009177309 0.030485421 0.04995192 0.03248092 -0.027657798 0.054219365

cnn.3.bias f4 [32]
00000000: b7f5 91bd 62b5 fabc cc45 31bd aa4d 943d
00000010: 5cca c1bd 579e b03d 331e 01bd 4a76 e0bd
00000020: b4c6 78bc 20cf 10be bf4e 343d 2bf9 b63c
00000030: e498 a4bc 1f8f d43c 1a2a 013d ee3e 8fbd
00000040: ee74 fcbd 7d53 0fbe 1d3d a43c 67e8 463c
00000050: 6d81 85bd 2c8b 623d 2ae6 19be fb54 b8bc
00000060: aed0 21be 12ea 19bd 4ee9 96bc 47d6 35bd
00000070: f851 70be 0d4b 05bd 2ac8 9cbd 84aa afbd
-0.071269445 -0.030604068 -0.043279454 0.07241376 -0.09462425 0.08623951 -0.03152294 -0.10960062
-0.015184093 -0.14141512 0.04402041 0.02233561 -0.020092435 0.025947152 0.03153429 -0.06994425
-0.1232699 -0.13996692 0.020048672 0.01214037 -0.06518827 0.055308506 -0.15029207 -0.02250146
-0.15802261 -0.037576742 -0.018421795 -0.044393804 -0.23468769 -0.032542277 -0.07655366 -0.08577445

cnn.5.weight f4 [32]
00000000: 3a74 823f 2df7 623f ce65 8b3f d01f 7f3f
00000010: 9040 893f 0ca3 863f aea3 773f efea 5c3f
00000020: 6223 693f 010c 7f3f 01cb 7f3f 75b6 713f
00000030: ad84 633f 4bf8 653f 76dc 7e3f f74b 783f
00000040: 0de0 853f 6777 6e3f 4feb 8d3f b01a 873f
00000050: e506 813f 97fb 763f 26d1 733f acc7 6c3f
00000060: eb91 8d3f 57a0 853f caea 713f 5aa5 763f
00000070: 857e 9e3f 393a 583f e713 813f 36b0 863f
1.019172 0.8865841 1.0890443 0.9965792 1.0722828 1.0518508 0.9673413 0.8629598
0.91069615 0.9962769 0.99919134 0.9441903 0.8887432 0.8983199 0.99555147 0.96990913
1.0459 0.93150944 1.1087435 1.0555019 1.0080229 0.96477646 0.9524101 0.92492175
1.1060156 1.0439557 0.94498885 0.96346056 1.2382361 0.8446384 1.0084199 1.0522525

cnn.5.bias f4 [32]
00000000: 1806 22be 3212 183d 7422 883e 094b 323e
00000010: 619b 2cbe bbd3 383e d9e3 253e 907a d7bd
00000020: f41b 08be f973 31be 2257 0ebe 7576 f8bd
00000030: c9e3 363c 1fa5 15be 57d6 4e3e 6825 323e
00000040: 4e89 18be 4848 363e 3fc4 c1bd ad8b 26be
00000050: 9702 5e3e 3813 28be 8d46 32be d1c7 163e
00000060: 215d 313e 22f9 24be 74ee 15be 4a2a 10be
00000070: 42cb 7f3d 21d7 923d 0ab6 19be 9ec5 4abe
-0.15822637 0.037126727 0.26588786 0.17411436 -0.16856147 0.18049519 0.16200198 -0.10521424
-0.13291913 -0.17329396 -0.13900426 -0.12131969 0.011162707 -0.1461377 0.20198952 0.17397082
-0.14896128 0.1780101 -0.09461259 -0.1626422 0.21680675 -0.16413581 -0.17409725 0.14724661
0.17320682 -0.16110662 -0.14641744 -0.14078632 0.0624497 0.07169939 -0.15010849 -0.19801947

cnn.5.running_mean f4 [32]
00000000: 889b 243f b0b8 833f 1a0c 633f 407d 583f
00000010: 4094 463f 3ce4 3a3f e81d 343f 2422 5c3f
00000020: 16a6 943f 334c 663f d730 4d3f ee20 8e3f
00000030: dec1 ea3e 8dfa a33f 3773 623f bc6a 223f
00000040: 25b3 843f 30c6 373f 26a0 093f 39ba 4a3f
00000050: 7a6e 6c3f 2885 3c3f fcc3 903f a219 143f
00000060: 00cb cf3e a6b4 d53e 242b 9e3f af38 443f
00000070: 1fa6 773f 522f 393f 5bc9 3a3f 30dc 263f
0.6429982 1.0290737 0.8869034 0.84566116 0.7756996 0.7300451 0.70358133 0.85989594
1.1613185 0.8996002 0.8015265 1.1103799 0.45851034 1.2810837 0.88457054 0.63444114
1.036717 0.71786785 0.5375999 0.79190403 0.92356074 0.7364068 1.130981 0.5785161
0.40584564 0.41739386 1.2356915 0.7664899 0.96737856 0.7233783 0.72963494 0.6517973

cnn.5.running_var f4 [32]
00000000: ecd4 953f cb82 1340 c4d9 a93f 7eef 733f
00000010: f5a3 1140 b3d0 543f 13d5 4e3f 1172 1240
00000020: 1440 1a40 ffda 1340 ec92 5e3f 9ac3 0840
00000030: eec6 5c3f a548 a040 49e8 943f dfa6 4a3f
00000040: 97c2 2440 1d4e 1240 45a1 373f d077 d93f
00000050: b0ab a83f da74 e43f 6d5a 7e40 e941 2a3f
00000060: 56af 073f f2ec e23e 04a6 5d40 1333 623f
00000070: d30a b53f 71c0 da3f 91df d13f 0eaa b43f
1.1705604 2.304858 1.3269582 0.9528731 2.2756321 0.8313095 0.80793875 2.288212
2.410161 2.3102415 0.86942935 2.1369386 0.8624104 5.0088677 1.1633388 0.79160875
2.5743768 2.2860177 0.7173045 1.6989689 1.3177395 1.784816 3.9742692 0.6650682
0.53001916 0.443214 3.4632578 0.88359183 1.4143928 1.7089978 1.6396352 1.4114397
