models/film_speaker_1s.model (torch, 183901 bytes, 78 tensors)

conv1.weight f4 [8, 2, 5, 5]
000000 b4 41 f8 3d 42 ca 3a 3e 7c 7c 86 3e 71 e0 30 3e
       0.12121907 0.18241218 0.2626685 0.17273118
000010 a4 65 ac 3e d8 73 31 3e f9 dd b3 3e f2 ae 62 3e
       0.33671296 0.17329347 0.3513029 0.22137049
000020 83 e8 09 3d 6e 26 3c 3e d0 49 9c bd bf 5b c4 ba
       0.033669006 0.18374035 -0.07631266 -0.0014980956
000030 05 6a e1 3d d4 e6 db 3c d2 3c 9b bd 5e 1c 3c bd
       0.1100655 0.026843466 -0.0757996 -0.04592549
000040 6b 5a 4b bd 12 1c 2d be 74 7a 47 bd a2 ab 10 bd
       -0.049646776 -0.16905239 -0.048700765 -0.03531993
000050 f0 ea 07 be d6 d5 a6 bc e5 ac 95 be ef 18 8f be
       -0.13273215 -0.020365637 -0.2923347 -0.2794871
000060 01 80 c4 3c fd b1 0f 3d 51 ad 96 3e fa 5e 8a 3e
       0.023986818 0.035081852 0.29429105 0.27025586
000070 fd c6 2a 3e c7 f2 68 3e 0c 85 fc 3c aa 58 b0 3e
       0.1667747 0.22748862 0.03082516 0.34442645
000080 51 d0 29 3e 87 86 4d 3e 96 48 40 3e ac cd 81 bd
       0.16583373 0.2007085 0.1877769 -0.06338057
000090 53 7c 86 3d ee 50 87 bd 6c bf 1a bc 6f d5 b7 3d
       0.06566682 -0.06607233 -0.009445053 0.08976256
0000a0 39 88 2c 3e 87 11 e4 3d 5b af aa bd 4f 0c 52 3d
       0.1684884 0.111361556 -0.08334228 0.05128127
0000b0 97 ab b6 3d 6f b3 ed bc 5a 69 52 be 2d 1e 48 bd
       0.08919447 -0.029016225 -0.20548001 -0.048856903
0000c0 14 d5 dc bd 27 e1 88 3d 99 30 50 3e 45 36 84 3d
       -0.10782829 0.066835694 0.20331039 0.064556636
0000d0 8d fc 2b ba 2b 30 83 be 0f e8 ed bd 96 ae b9 3c
       -0.00065607653 -0.25622687 -0.11616527 0.022666257
0000e0 20 83 7e bd 75 99 e2 3c e5 c6 28 be e5 3d 57 be
       -0.06213677 0.027661065 -0.16482122 -0.21019705
0000f0 98 4f 23 3d 38 90 2e 3e d4 06 a1 bd 66 2a 69 bd
       0.03987083 0.17047203 -0.078626305 -0.0569252
000100 9c e0 e7 bd 9f c7 4f 3e f3 8f 19 3e 83 dd d0 bd
       -0.11322138 0.20290993 0.14996319 -0.101985
000110 44 fb 26 be 52 e5 1f be e4 d1 c4 3e 67 6d a2 3e
       -0.16306788 -0.15614823 0.38441384 0.31724092
000120 19 d4 43 3d 92 e9 9d bc bb b2 b1 3d dc 4b 85 3e
       0.047809694 -0.019276414 0.08676668 0.2603444
000130 7a 44 d5 3d cb 1d de 3c 55 10 10 be 0f c8 89 bc
       0.104134515 0.027113816 -0.1406873 -0.016819028
000140 2d a5 8b 3d 31 72 38 3e 3c 2f 10 be d6 e2 92 bd
       0.06818614 0.1801231 -0.14080518 -0.07172172
000150 c0 c4 84 3d e7 e7 48 3e 48 9b 95 3e de 66 a9 bc
       0.064828396 0.19619714 0.29220033 -0.020678934
000160 05 e4 50 be c2 e0 ea bd 52 59 1f 3e c0 13 58 3e
       -0.20399483 -0.114686504 0.15561417 0.21101284
000170 46 1e ac bc 5b cd 4a be 3b c1 23 bd ef 87 b8 3e
       -0.02101053 -0.198049 -0.0399792 0.3604121
000180 07 30 98 3e 24 ac bf 3d 20 2d 00 be c5 a3 df bb
       0.29724142 0.09359005 -0.12517214 -0.006824943
000190 6a 93 31 3e 07 de 9e 3e 61 fe 56 3c f1 ad 04 3f
       0.1734139 0.31028768 0.013122172 0.51827914
0001a0 ba 8f 09 3f a8 d9 8c 3d d5 93 51 3e 6a 1b 21 be
       0.53734934 0.06877452 0.2046655 -0.15733114
0001b0 e5 15 21 3e b3 bc a7 3e 7b 33 4e 3d 64 4d 9e 3d
       0.15731008 0.32761154 0.050342064 0.07729605
0001c0 c0 ef 54 be 3b be 80 3e 55 8d 87 3e 85 b5 c7 3c
       -0.20794582 0.25145134 0.26475015 0.024378547
0001d0 6d ff 98 3d b1 bd bf 3d 4a df 80 3e f4 27 06 3e
       0.074705936 0.09362353 0.25170356 0.13101178
0001e0 dd 5d b6 3c 91 07 04 bd 7d 4e 0c be b4 58 b6 3c
       0.022261554 -0.03223378 -0.13701816 0.022259094
0001f0 75 d0 4b 3e 03 18 9d bd e8 0d ec 3d 92 c8 66 3d
       0.19903739 -0.076705955 0.1152609 0.056343623
000200 83 6e ce 3e 4b b6 0b 3f 5f c7 a1 3d e8 e3 ca 3d
       0.4031869 0.5457503 0.07899355 0.09906751
000210 ae 30 7e be 90 ba 9a 3e ec dc a1 3e ee 3e 3a 3e
       -0.24823257 0.3022046 0.31613863 0.18188068
000220 7b 52 15 3e a8 5f 8c bd a5 8f 99 3d 09 02 cf 3e
       0.14582245 -0.068541825 0.07498101 0.4043124
000230 3b a5 5c 3c 48 e8 fd 3c 1e 55 a5 3c 1e 5c 98 3d
       0.013467128 0.03099455 0.020182189 0.07439445
000240 15 bd 94 3e 1e ea e3 3d ac 96 04 3e 82 10 56 bd
       0.29050508 0.11128639 0.12948102 -0.052261837
000250 ed ab 26 bd 8b 9a 8b 3c 0a b8 1c 3e 84 79 e0 3e
       -0.040691305 0.017041465 0.1530458 0.4384271
000260 86 0a 43 be 18 79 b6 3e 4b 5d 33 3f 24 f9 b8 3e
       -0.19046983 0.35639262 0.7006423 0.3612758
000270 df 8e 91 3d 18 00 16 be ae 23 1c 3e f9 51 1f 3f
       0.071073286 -0.14648473 0.15247986 0.62234455
000280 20 c2 0a be 90 27 6e be d6 a1 e4 be 2c 59 12 be
       -0.13550615 -0.2325728 -0.4465472 -0.14291829
000290 d4 f5 66 bd 96 16 39 3e 13 09 43 3b 52 3c ec bb
       -0.056386784 0.18075022 0.0029760047 -0.007209339
0002a0 6f 2b 05 3e 52 c7 2b 3e 94 07 39 bc 39 87 3c be
       0.1300485 0.16775253 -0.011293311 -0.18410958
0002b0 d5 46 8c bd 2d 19 aa bd dc 9e a3 3d 41 eb 9e 3e
       -0.06849448 -0.08305583 0.079892844 0.3103886
0002c0 5d a1 a1 3e d8 8e 16 be 95 af d8 3e 01 0d fd 3e
       0.31568423 -0.14702928 0.42321458 0.49423984
0002d0 67 0d b5 3e a7 95 48 3e d7 e8 3d be 07 83 66 3e
       0.35361788 0.19588338 -0.18545853 0.2251092
0002e0 24 09 ff 3e 38 83 21 be 4c 3a d6 bd cd 6c ff be
       0.4981166 -0.15772712 -0.10460338 -0.49887696
0002f0 51 58 a6 bd 22 13 0f bd 8e 26 5a 3e 4e 17 b7 bd
       -0.08122314 -0.034930356 0.2130377 -0.08939992
000300 a3 59 bb bd 43 08 60 bd ca f8 53 3c 7b 9a 7e 3d
       -0.09147956 -0.05469538 0.012937734 0.062159043
000310 ed e9 bf bc 92 ca d2 bd 44 c3 86 3d 6f d4 06 be
       -0.023426974 -0.102925435 0.06580213 -0.13166974
000320 b7 88 06 be 01 03 1b be b6 56 59 bd 65 4b 3c 3d
       -0.1313809 -0.15137865 -0.05306121 0.04597034
000330 f4 9d 17 be e1 eb 83 bc c2 f5 87 be eb cb 83 bd
       -0.14806348 -0.016103687 -0.26554686 -0.06435379
000340 16 f4 e7 be c4 74 40 be d3 c4 c1 be 41 16 09 bf
       -0.4530341 -0.18794543 -0.37845477 -0.5354958
000350 fc e3 86 be 3a a7 17 bf 43 4f e2 be 40 df 00 be
       -0.26345813 -0.5923954 -0.44201097 -0.12585163
000360 82 f6 87 3d 5e 8d c1 3d 3b f1 d3 bd ac e7 90 3d
       0.066388145 0.09450792 -0.103487454 0.07075438
000370 8a f5 35 3d 3e 85 a6 3e 39 da 3f 3e 77 91 a0 3d
       0.044423617 0.3252353 0.18735589 0.07840245
000380 d3 fb 40 3e 3b b3 0b 3d 2b c9 f5 bc f6 8c 92 3c
       0.18846063 0.034106474 -0.03000315 0.017889481
000390 44 d0 02 3e 20 0d 93 3c e4 c7 13 be fb d9 aa be
       0.1277476 0.017950594 -0.14431721 -0.3336943
0003a0 32 21 29 be 1a bb f9 be f8 c5 70 3d 10 77 9a be
       -0.1651657 -0.4877556 0.058782548 -0.30168962
0003b0 c9 58 c7 be 7d 0f 94 bd 78 16 c5 be de 1a 67 be
       -0.38934925 -0.07229517 -0.38493705 -0.22568843
0003c0 eb 47 fa bd ad 88 0a be c8 70 0e 3e cc 94 01 3e
       -0.122207485 -0.135287 0.1391021 0.12654418
0003d0 d6 02 29 3c 67 48 36 bc 0e ae 02 3e 80 e7 a8 3e
       0.010315618 -0.0111256605 0.12761709 0.3298912
0003e0 31 42 b0 3d 1c 7f 5b bc a8 c7 50 be 17 16 2e bd
       0.08606375 -0.013397004 -0.20388663 -0.042501535
0003f0 a2 48 64 be dc 4b 4b be d0 b3 24 3d c7 d7 70 be
       -0.22293332 -0.19853157 0.040210545 -0.23519813

conv1.bias f4 [8]
000000 62 09 2e be d3 56 f3 bd 6f 27 2f be cf a7 a6 bd
       -0.16995767 -0.11881795 -0.17104886 -0.08137476
000010 e9 40 83 be a9 83 dc bd 5c 49 92 bc a8 ca aa 3e
       -0.2563546 -0.107673 -0.017857246 0.3335774

bn1.weight f4 [8]
000000 48 91 9f 3f b9 4c 85 3f 0f d7 2b 3f 51 83 76 3f
       1.2466211 1.0414039 0.6712503 0.9629412
000010 79 76 72 3f 62 96 9a 3f 8a 58 95 3f 2b b3 56 3f
       0.94712025 1.2077143 1.1667645 0.8386714

bn1.bias f4 [8]
000000 91 6b cc 3c a1 2d 85 3d 12 62 fa 3e f6 01 bc 3e
       0.024953635 0.06502844 0.48902947 0.36720246
000010 8b 5a 22 3d 3a ba b0 3e e1 07 9a 3e 73 e1 9f 3e
       0.03963713 0.3451708 0.30084136 0.31226692

bn1.running_mean f4 [8]
000000 a9 3c 75 3f 48 53 48 3f 28 18 f8 3f 2b 01 90 3f
       0.95795685 0.7825208 1.9382372 1.1250356
000010 eb f1 ae 3f 3c 4f 7d 3f b7 44 4f 3f 0a 89 69 3f
       1.3667578 0.9894903 0.80964226 0.9122473

bn1.running_var f4 [8]
000000 b4 77 24 40 c9 36 dc 3f 6c 0d 1b 41 38 83 6a 40
       2.569806 1.7204219 9.690777 3.664259
000010 f6 e6 a9 40 a1 ff 49 40 29 81 fc 3f 11 d4 f6 3f
       5.3094435 3.1562274 1.9726917 1.9283468

conv2.weight f4 [32, 8, 5, 5]
000000 7f b8 9a be c2 c8 5c be b3 68 da be 98 15 1c bf
       -0.30218884 -0.21560958 -0.42658004 -0.6097045
000010 fd 65 c9 be 7e 9f f6 be f8 c7 bd be a8 e5 d9 be
       -0.39335623 -0.48168558 -0.37066627 -0.42558026
000020 c1 f1 db be 90 ad 22 bf ff 5b 0b 3d e7 83 47 3e
       -0.4295788 -0.63546085 0.03402328 0.1948391
000030 a6 51 21 3d 0d b5 5b 3e 20 dd 21 3e a8 9b 8e bd
       0.039384507 0.21455784 0.15807009 -0.06963283
000040 70 39 0c be 9f f6 8d bd 9f 9a 9e bd 77 f3 29 be
       -0.13693786 -0.06931805 -0.077443354 -0.1659678
000050 dc c9 d8 bd fd 64 3e be 21 f5 20 be 93 1f ad bd
       -0.105853766 -0.18593211 -0.1571851 -0.08453288
000060 c1 77 4a be 6c 69 ae be be 7c 63 3e 50 c4 e4 bd
       -0.19772245 -0.34064806 0.22215554 -0.11170256
000070 0c ef 0d 3e f9 d1 4b be ae d3 12 bb 93 71 c7 3e
       0.1386072 -0.19904317 -0.0022404003 0.38953838
000080 78 9f a9 3d 84 e1 60 3e 9c 3b 84 bc a4 c7 91 bb
       0.082823694 0.21961027 -0.016141705 -0.004448848
000090 ca aa db 3e 33 76 7c bd 06 2a fb 3c 7f 74 fc bd
       0.4290374 -0.06163616 0.030659687 -0.12326907
0000a0 8d 05 a4 3d a6 31 e3 3e 74 a4 b9 3d b9 c9 cb bc
       0.08008871 0.44373816 0.0906457 -0.024876462
0000b0 16 58 32 3c 2c 42 20 3b b5 38 87 3e b6 53 a4 bd
       0.010885259 0.0024453504 0.26410452 -0.08023779
0000c0 0e 48 4d 3d a3 83 7e bd cd 8f a9 be 11 1a 89 be
       0.050117545 -0.062137257 -0.33117524 -0.267777
0000d0 82 4a 20 be 92 87 23 be 65 8e 7f be 03 4b e5 bd
       -0.15653422 -0.15969685 -0.24956663 -0.11195948
0000e0 9c ed 1a 3d f9 81 9e bd f8 13 0d 3d 4f 78 2d be
       0.03782426 -0.07739634 0.03444287 -0.16940425
0000f0 47 b0 75 bb 67 f0 e5 3c 0c ed bf bd 47 84 e6 3c
       -0.0037489103 0.028068734 -0.09371385 0.028139247
000100 e9 78 44 3d 5e 93 2c be c0 de 79 bd 5c f5 00 be
       0.04796687 -0.16853091 -0.061003447 -0.12593597
000110 3f f7 20 bc 81 07 05 bd 75 8b 76 be a1 7a 84 be
       -0.009824573 -0.03247786 -0.24076636 -0.25874808
000120 d4 63 3f be 9b d6 13 be 86 ce fc bd e9 6e 04 bf
       -0.18690425 -0.14437334 -0.12344079 -0.51731735
000130 05 3c ba be ef fa 85 be f6 4e cd be 87 3d b3 be
       -0.36373916 -0.2616801 -0.40099305 -0.3500788
000140 bc 81 e4 be 56 2c 9c be c0 84 a7 be a7 30 b4 be
       -0.4463023 -0.30502576 -0.32718468 -0.3519337
000150 39 bd 1c bf 97 c8 ff bd 05 55 4b 3d bf 82 8a 3d
       -0.6122623 -0.12489431 0.049641628 0.06763219
000160 87 93 42 3e c8 34 23 bd ec 97 21 be e9 57 fd bc
       0.1900159 -0.039845258 -0.1578061 -0.030925708
000170 7e 36 f3 bd ef 93 d9 bc 23 35 70 bd 7c 45 11 be
       -0.11875628 -0.026559798 -0.058644425 -0.14186662
000180 ef 52 44 be a5 b9 90 bd b7 51 d9 bd 41 d9 a6 bd
       -0.19172262 -0.07066659 -0.10611289 -0.08146907
000190 30 08 69 bd cf 7c 07 bc b2 c4 9d 3d 1e 16 76 bc
       -0.056892574 -0.008269503 0.07703532 -0.015019922
0001a0 99 58 c0 3d 78 63 b8 bc 78 dd 72 3d 63 a8 be bc
       0.09391899 -0.022508368 0.05929324 -0.023273652
0001b0 a3 d6 d4 3d 99 9a 04 3e 63 6c 98 3b dd 64 8c 3d
       0.10392501 0.129496 0.0046515926 0.06855176
0001c0 d2 ad e5 bc 69 49 4e 3b 68 a4 35 bd b9 37 02 bd
       -0.028036986 0.0031476861 -0.044346243 -0.031791423
0001d0 ad ac a5 bc 3c ac 81 3c d1 f5 16 bc 2e aa 5c bd
       -0.02022394 0.015829198 -0.009213881 -0.053873233
0001e0 4b ea 7f be 5e 4b 04 be f2 49 3b be 26 c0 01 be
       -0.2499172 -0.12919375 -0.18289927 -0.12670955
0001f0 c3 2d 03 be ec 36 44 be e5 d5 a9 be bc 19 a7 be
       -0.12810425 -0.19161576 -0.33171 -0.3263682
000200 0d 7c a9 be d3 c5 be be d9 29 b4 3d 4e 9a 95 3d
       -0.33102456 -0.37260303 0.08797044 0.07304822
000210 a0 c9 e0 3c 43 56 15 3e 84 23 f3 3d 16 60 97 3d
       0.027439892 0.14583687 0.118720084 0.07391374
000220 9f 3d 10 be 94 0e 70 3b ce e0 73 bd 81 50 b4 3b
       -0.14086007 0.0036629783 -0.059540562 0.005502761
000230 f3 84 1b be 80 f9 70 be 36 72 0a be 62 99 da bd
       -0.15187435 -0.23532677 -0.1352013 -0.10673787
000240 27 b9 f0 bd 64 02 21 3e 72 a4 74 be 71 9d 4b bd
       -0.11754065 0.15723568 -0.23890856 -0.049710695
000250 09 7c d3 3c 42 9b 46 3d 46 96 89 be 12 fc 88 be
       0.02581598 0.04848791 -0.26872462 -0.26754814
000260 bf ad 4e be 88 e2 ab be ef c6 22 be 80 a3 41 3e
       -0.20183466 -0.33571267 -0.158962 0.18910027
000270 96 0a 79 3d 38 8a 0a 3d 3f 17 26 3d b5 a9 68 3e
       0.06080111 0.033823222 0.040549513 0.22720988
000280 1f b4 f9 3c 93 aa fe bd f3 81 46 bd ee 01 07 be
       0.030481396 -0.12434878 -0.048463773 -0.1318433
000290 a6 b9 2b bd ef 05 05 be 55 39 64 be 26 30 50 be
       -0.041925095 -0.12990545 -0.22287495 -0.20330867
0002a0 84 80 fa bd 56 dc 77 bd 28 b9 20 3e 8d 86 07 3d
       -0.12231544 -0.060512863 0.15695632 0.033087302
0002b0 54 ca ee bb ad 39 90 3d a5 85 35 3e 8a b9 6a be
       -0.007287303 0.07042251 0.17726763 -0.2292234
0002c0 3f 28 1c be fd 10 50 be 80 1d 06 be f2 58 88 be
       -0.15249728 -0.2031898 -0.13097191 -0.2663036
0002d0 3a 58 0c 3e 85 ad b7 3d 48 8e 2c 3d 42 d8 33 3e
       0.13705531 0.08968643 0.042127877 0.17562965
0002e0 35 43 d5 3d 48 f4 54 3d 86 17 d5 bd 33 89 0b 3d
       0.10413209 0.051990777 -0.10404877 0.03406639
0002f0 65 1b b6 bd f0 ce 6f bd fb 33 51 be ba 99 96 be
       -0.08891944 -0.05854696 -0.20429985 -0.2941416
000300 89 e6 07 be d5 1c 3d be 48 1c 48 be 7c 35 b2 bc
       -0.13271536 -0.1846803 -0.19542038 -0.021754019
000310 b8 70 8e 3b c6 4e cb 3c d0 d1 24 bc b7 54 76 3d
       0.004346933 0.024817836 -0.010059789 0.060139384
000320 b9 67 84 bd ea 25 c3 3c c6 65 c0 bd d3 af 1a 3d
       -0.06465096 0.02382179 -0.09394412 0.037765335
000330 3b 9d 6e be fc 7a 4f bc aa d5 2a bc b5 dc 0f bd
       -0.23302166 -0.012663599 -0.010426918 -0.035122592
000340 da 7f a9 bd d5 93 83 be 40 83 47 bd 77 60 b6 3d
       -0.08276339 -0.25698724 -0.048709154 0.08905118
000350 6f 2b db 3d 22 9c 18 3e 96 17 10 3e 77 a9 6e bc
       0.10701644 0.1490331 0.14071497 -0.014566771
000360 0a 1f 97 3d 7f de 8e 3e 73 29 fb 3e 17 31 c4 3e
       0.07378967 0.27904126 0.4905506 0.38318703
000370 e6 87 e2 3c 70 d4 22 3d 42 5e 6c 3b 38 ee 05 3e
       0.027652692 0.039753377 0.0036066924 0.13079154
000380 30 15 7f 3e 9e ba 83 3d 83 a6 92 3d d8 95 2d be
       0.24910426 0.06432079 0.07160666 -0.16951692
000390 64 34 2e 3e a3 e0 37 bd 4b c4 ad 3d 1b 10 65 3e
       0.17012173 -0.044891965 0.084847055 0.22369425
0003a0 50 46 eb bd 87 c7 53 3e c4 29 eb 3d a2 0b 08 be
       -0.114880204 0.20681582 0.114825755 -0.13285688
0003b0 43 f1 5c 3d 27 e5 ce bd 4e fb a8 3d 80 b8 f7 bc
       0.053941023 -0.10102301 0.082510576 -0.030239344
0003c0 b4 b4 82 bd 8e 3d 35 3d bf fb ba 3d 77 68 97 bd
       -0.06382123 0.044248156 0.09130048 -0.07392972
0003d0 75 bb a4 3b 09 40 99 bd 72 aa 53 bc 97 1f 87 bc
       0.0050272294 -0.07482917 -0.012919055 -0.016494555
0003e0 1b aa dd bd 05 0a a2 bd 4c 31 0f be 61 f6 56 be
       -0.10823461 -0.07912067 -0.13983649 -0.20992424
0003f0 44 4d 11 be a3 58 70 be 31 c8 9a be 6c 4c 48 be
       -0.14189631 -0.23471312 -0.3023086 -0.19560403

conv2.bias f4 [32]
000000 e9 c3 8e 3e 68 57 2d be 40 07 02 be 39 b3 85 3d
       0.27883843 -0.16927874 -0.12698078 0.06528325
000010 bf ee 9f be e1 e5 87 be 5c 8a 1e bd ce 11 c0 3c
       -0.31236836 -0.2654257 -0.03870617 0.02344599
000020 d1 02 d3 bd d1 2a dc bc 88 89 5f be 79 7e 12 3e
       -0.103032716 -0.026875885 -0.21829808 0.14306058
000030 a0 32 8f 3d ce 5f 2d bc 85 be a9 be 08 5d 86 be
       0.06992078 -0.010581924 -0.33153167 -0.26242852
000040 6f 1c 8d 3e d6 d4 56 b9 9a b9 5d be 8b b3 2c bb
       0.27560756 -0.00020487918 -0.21652833 -0.0026352133
000050 c1 c4 fb 3d 1e e9 9e 3e 7d d5 87 be 92 87 cc 3c
       0.12293387 0.3103723 -0.26530066 0.024966989
000060 41 9e 54 bd 27 35 8a be 35 f9 64 3d a6 8a 2a be
       -0.051908735 -0.26993677 0.055901725 -0.16654453
000070 e5 ba 1d bd 41 88 c4 bd ac 8e 42 bd 46 35 99 3e
       -0.038508315 -0.09596301 -0.047499344 0.29923457

bn2.weight f4 [32]
000000 b3 be 8b 3f 3e 0d 90 3f e8 50 39 3f cf 7a 7d 3f
       1.0917572 1.1254041 0.7238908 0.99015516
000010 fa e0 a1 3f 4e 3f a4 3f 97 2d 96 3f cf 7f 44 3f
       1.2646782 1.2831819 1.1732663 0.7675752
000020 c7 62 46 3f 40 4b 4f 3f 39 43 1a 3f f2 c0 4d 3f
       0.7749447 0.809742 0.60258824 0.80372536
000030 70 10 1d 3f d2 b4 95 3f 74 66 89 3f 7f 95 9a 3f
       0.61353207 1.1695807 1.0734391 1.2076873
000040 1e 89 60 3f 77 c3 72 3f 8d af 97 3f 7a 9b 8b 3f
       0.87709224 0.94829506 1.1850449 1.0906823
000050 c8 0e 8a 3f e6 b7 a1 3f ba 0b 47 3f 08 a7 bd 3f
       1.0785761 1.2634246 0.7775227 1.4816599
000060 23 92 81 3f 55 e5 80 3f aa be 08 3f 6e b5 87 3f
       1.0122722 1.0069987 0.5341593 1.0602243
000070 03 61 96 3f f4 da 81 3f 3d 3f 63 3f 4f 77 7a 3f
       1.1748356 1.0144944 0.8876837 0.978383

bn2.bias f4 [32]
000000 3f e2 e4 3e 3a 2e 52 be f6 51 9b 3d 88 df bd bd
       0.44703862 -0.20525447 0.07583992 -0.09271151
000010 e7 ec e4 3e fe 4a f8 bd 20 f1 89 3e af 4f 32 be
       0.44711992 -0.121236786 0.26941776 -0.1741321
000020 5d a4 05 3e c2 2a e7 3d 99 4f 9c be 58 cd c5 3d
       0.13050981 0.11287452 -0.30529478 0.09658307
000030 4f 68 6b be a0 80 b8 3d e0 26 d5 be 9c c0 ca 3e
       -0.2298901 0.09008908 -0.41631222 0.39600074
000040 16 80 23 bf 97 2d 84 bc b7 cf a0 3e 4c 24 83 3e
       -0.6386732 -0.01613502 0.31408474 0.2561363
000050 12 25 17 be be d8 8b 3e 99 ec 84 be e4 bc 7c 3e
       -0.14760235 0.273138 -0.2596176 0.24681431
000060 25 f6 36 3d 70 64 b9 3e 90 4f bf bd 96 31 13 3e
       0.044668335 0.3620944 -0.09341347 0.14374384
000070 bb 86 ca bd 5a 1c a6 3e 50 9a b3 bd ca 62 cd be
       -0.09888979 0.32443506 -0.08769667 -0.40114433

bn2.running_mean f4 [32]
000000 b2 5c db 3f f6 17 6e 3f bd 62 3b 40 e0 01 b2 3f
       1.7137663 0.9300531 2.9279015 1.3906822
000010 cf 16 62 3f d6 b5 13 40 50 32 00 40 8e 90 a0 40
       0.88316053 2.3079734 2.0030708 5.017646
000020 0e 5c 9a 40 0c 14 ff 3f 5f 13 0c 3f 98 ca 22 40
       4.823737 1.9927993 0.5471706 2.5436153
000030 ea 82 63 40 12 7f 97 3f 32 4e 31 40 db 9f a3 3f
       3.5548654 1.1835654 2.7703977 1.2783159
000040 6c 96 38 40 ff 1a ab 40 c4 fa 48 3f d5 80 f9 3f
       2.884181 5.3470454 0.7850764 1.9492441
000050 2a 87 ff 3f a7 2c b7 3f 33 97 2f 3f 85 e1 e7 3f
       1.9963124 1.4310502 0.68590087 1.8115698
000060 f3 3e 0a 40 89 53 82 3f 82 17 eb 3f e9 eb df 3f
       2.160092 1.0181743 1.8366549 1.7493869
000070 5d 13 e9 3f 2a 84 00 40 05 3e 76 3f a6 87 7f 40
       1.8209034 2.0080667 0.96188384 3.9926543

bn2.running_var f4 [32]
000000 92 9e 93 40 67 82 b2 40 3d cf 02 42 68 8c 6f 40
       4.6131067 5.5784183 32.70238 3.7429447
000010 66 d4 40 40 50 d4 c3 41 a6 7c 97 41 61 ca 78 42
       3.0129638 24.478668 18.935863 62.197636
000020 8a 8c 50 42 ce 15 69 41 72 c2 f3 3f 63 7d 89 41
       52.137245 14.567823 1.9043715 17.186224
000030 71 13 25 42 85 0e 75 40 46 bf 77 41 cc 93 20 41
       41.268986 3.8290112 15.484198 10.036083
000040 58 f0 8c 41 77 ca 60 42 6f d0 88 40 df d2 1d 41
       17.617355 56.19772 4.2754436 9.863982
000050 b4 38 f0 40 14 68 d2 40 03 7a ea 3f d3 e2 30 41
       7.506922 6.575205 1.8318485 11.055377
000060 ee 7c 71 41 e3 ef 34 40 f3 03 99 40 9c 95 02 41
       15.093 2.8271415 4.781732 8.161526
000070 dc 18 bf 40 11 99 27 41 6e c2 08 40 1f 13 ed 41
       5.9717846 10.47487 2.136867 29.634336

conv3.weight f4 [32, 32, 5, 5]
000000 71 b9 fb bd 8e e8 b0 be 26 bc 22 bf de 02 f6 be
       -0.122912295 -0.34552425 -0.6356834 -0.48049062
000010 dc 1a d5 be 8b 6e 0e 3b 5d 5c 89 3c ae 08 81 bd
       -0.41622055 0.002173337 0.016767675 -0.06300484
000020 13 af 4f 3c 90 e2 e4 bc c3 84 0d 3f 1e 1e 26 3e
       0.012676018 -0.027940065 0.55280703 0.16222426
000030 9d ee ab 3e 98 e7 56 3e 2a 04 a7 3e 18 a0 64 3d
       0.33580485 0.20986784 0.32620364 0.05581674
000040 20 5e 46 3d a1 e3 67 3b 90 56 56 bd aa f5 d6 bb
       0.04842961 0.003538348 -0.052328646 -0.006560047
000050 ed 24 92 3d 6b 03 5a bd 98 b7 29 bd 89 d8 22 be
       0.07135949 -0.053225916 -0.041434854 -0.15902914
000060 f8 9a dd bc d4 48 cd bd ba 74 2e bd 1d 87 8d be
       -0.027051434 -0.100236565 -0.042591788 -0.27642146
000070 85 f0 a1 be 9c b7 a0 be 81 94 94 3d 04 b5 79 3e
       -0.31628814 -0.31390083 0.07254887 0.24385458
000080 8d c9 83 bd 50 97 a8 3d c7 f1 d6 bd 13 b4 01 3e
       -0.06434927 0.082319856 -0.10495334 0.12666349
000090 08 f4 52 3e 7e 0f 0d 3e b9 1c 54 3e e5 37 d5 3c
       0.20600903 0.13775441 0.20714082 0.02602763
0000a0 72 2d c5 3d ba 83 27 3d 2b e2 5c 3e 43 b8 92 3c
       0.09627809 0.04089711 0.21570651 0.017910128
0000b0 a0 67 84 3e 25 98 32 3b e0 46 22 3c 49 da 2f bd
       0.2586031 0.002725133 0.009904593 -0.042932782
0000c0 77 7c 1c bd d0 ff f1 bd 8c 17 8d be db 22 2b be
       -0.038204636 -0.118163705 -0.27557027 -0.16712515
0000d0 89 e6 83 be db 42 a5 be 30 87 30 be 46 fb 7e be
       -0.25761822 -0.3227757 -0.1723907 -0.2490054
0000e0 09 e1 48 be 99 b9 85 be ee 3e 44 be e9 fa f4 bd
       -0.19617094 -0.26118162 -0.19164631 -0.1196192
0000f0 e1 e2 4e 3c 97 5f cc bc 2c 1f fb bc f2 4e b4 bd
       0.012627334 -0.024947925 -0.030654512 -0.0880412
000100 7d dc 84 bc d0 4c 05 3e e1 c4 97 bd 62 89 14 3e
       -0.016218418 0.13017583 -0.074105985 0.14505532
000110 f6 58 eb bc 46 4e 9c 3d 7c 18 ec bb f4 b1 3a be
       -0.028728943 0.07632117 -0.007205067 -0.18231946
000120 de 5f 1d be 4a f8 5f be 7c 7a 79 be 18 ba 35 be
       -0.15368602 -0.21872059 -0.2436313 -0.1774677
000130 10 b0 8e be e3 c4 ee be 4b fe 80 be 65 ac dc bd
       -0.278687 -0.46634588 -0.2519401 -0.10775069
000140 4f 5c 87 3e 32 17 ad 3e 00 07 16 3d cb 06 21 3e
       0.26437613 0.3380676 0.03662777 0.15725248
000150 b7 ff f7 3d 12 d2 6d 3e b8 50 47 3d 90 1f 6a 3e
       0.121093206 0.23224667 0.048660964 0.22863603
000160 8f fc 36 3d ad cf 72 3e c4 62 b5 3d 90 d6 e5 bc
       0.044674452 0.23712035 0.08856729 -0.028056413
000170 f2 35 6f 3d b9 76 8c bd d0 8d 18 3e dd 3d 9a bd
       0.058401056 -0.06858582 0.14897847 -0.07531331
000180 97 2c 04 be b4 ef 57 be d4 8c 7e be 6b eb da bd
       -0.12907635 -0.21087533 -0.24858409 -0.10689434
000190 de 15 9f 3e f5 bd a7 3e bc d5 d5 3e 1d 18 c7 3e
       0.3107137 0.32762113 0.4176463 0.38885584
0001a0 ae ed 9c 3e 48 41 a3 3e 6e a3 97 3e da d9 84 3e
       0.30650085 0.31885743 0.29616874 0.25947458
0001b0 e1 c2 bc 3e 1d 55 6a 3e 7a fa 44 3d 36 c9 25 bc
       0.3686743 0.2288403 0.048090436 -0.010118773
0001c0 33 09 38 3d be f3 99 3d d6 50 c1 3d 17 a4 aa bd
       0.044930648 0.07517193 0.09439246 -0.08332079
0001d0 31 6f 0c be ff 03 3c be ff 49 f0 bd b3 68 c9 be
       -0.13714291 -0.183609 -0.11732864 -0.39337692
0001e0 12 bd 9f 3b c3 29 af bd dc 03 c6 3c 12 f0 40 3d
       0.004874834 -0.08552887 0.024171762 0.04710395
0001f0 df 4d 83 3d 20 93 d9 3e 40 0e cb 3e 51 e0 e9 3e
       0.06411337 0.4249506 0.3965931 0.45678952
000200 ab b9 fb 3e 09 2b 0b 3e fc 8c 99 3e b6 66 3c 3e
       0.4916509 0.13590635 0.29990375 0.18398556
000210 43 5d 3f 3e f6 dc e3 3d 74 04 53 3d 3a da dd bd
       0.1868792 0.11126129 0.05151792 -0.10832639
000220 2a 91 85 be 0f 7a 23 be 53 ec 8e be 3f 1c 7f be
       -0.26087314 -0.1596453 -0.27914676 -0.24913119
000230 c9 44 24 bd 7a 07 1c be ff 3a da bd 12 51 a3 bd
       -0.04010466 -0.15237227 -0.10655784 -0.07974447
000240 3b 08 99 bd 32 f0 37 bd fe fd 2a be 68 c6 35 3d
       -0.07472273 -0.044906802 -0.16698453 0.044378668
000250 7d b4 66 3c 5c 08 79 3d 6b 07 4f be f0 5c 37 be
       0.014081118 0.060798988 -0.20217673 -0.17906547
000260 f3 84 5f be cd e4 aa bc de 45 c7 bc 62 a6 68 3d
       -0.2182806 -0.020861054 -0.024325307 0.0567993
000270 a8 a7 2f 3d a5 89 a9 bc 30 f9 89 bd bf 66 6e 3c
       0.0428845 -0.020695517 -0.06736982 0.014550864
000280 02 b5 ae 3d 0d ff 3d bd 81 f6 c4 3d 98 67 66 3d
       0.08530618 -0.046385814 0.096173294 0.05625114
000290 cb 0b 1a 3d b3 f1 85 bd 85 0b 32 bc 56 dc 86 bd
       0.037608903 -0.06540241 -0.010867004 -0.065849945
0002a0 ab 0e 6d 3c df 2d 74 bc 21 36 98 be dd ec e0 be
       0.014468829 -0.014903515 -0.29728797 -0.43930712
0002b0 e5 3c fb be 2d 53 04 bf 87 68 6e be 11 f1 b9 bd
       -0.49069896 -0.51689416 -0.23282062 -0.09079183
0002c0 95 9b a2 bd 93 58 20 be f1 c4 22 be fd 06 17 be
       -0.07939831 -0.15658788 -0.1589544 -0.1474876
0002d0 ce 1b ab be bc c7 8a be 48 3b 8f be 43 55 4d be
       -0.3341965 -0.2710551 -0.27974916 -0.20052056
0002e0 4e 66 55 be d7 10 d2 3c 50 90 78 bd 34 a2 fc bb
       -0.20839807 0.025642795 -0.060684502 -0.007709766
0002f0 17 85 8d bd 46 32 8c bc a6 ff 9c 3d 5d c2 05 bd
       -0.069101505 -0.017113816 0.076659486 -0.032656062
000300 26 42 a6 3b d4 2b 06 bd 2d 5a 5a bd 0d 00 e4 3d
       0.0050738035 -0.03275664 -0.053308655 0.11132822
000310 60 98 19 bd 6f 46 90 bd 0e 1e 02 be c5 66 53 be
       -0.03749883 -0.07044684 -0.12706777 -0.20644672
000320 30 2a 1a be 1e da 9b bd e3 08 ae 3c 14 02 03 be
       -0.15055156 -0.07609962 0.021244472 -0.12793761
000330 7e 4c 50 be 94 4b b5 be 0d 3c 3e be 9e fe 32 be
       -0.2034168 -0.35409224 -0.18577595 -0.17479941
000340 e2 d1 06 be 42 49 23 3d 68 e4 fc bd d8 54 2a 3d
       -0.13166001 0.039864786 -0.123482525 0.04158482
000350 72 9a 4b bd 33 c5 1f bd 6c 17 ca bd f1 3c cb bd
       -0.049707837 -0.039006423 -0.098677486 -0.09923733
000360 03 50 27 3c 2a 9c c3 3c 4d 63 9f 3b 3c 92 d5 3c
       0.010211947 0.023878176 0.0048641325 0.026070707
000370 77 c6 02 be 01 d7 10 bd 3b c8 93 bd a3 bc ad bb
       -0.12771021 -0.035361294 -0.07215925 -0.0053020283
000380 9f 6a 34 bd d1 30 b5 be bf f9 4e be 27 28 c2 be
       -0.044046994 -0.35388806 -0.20212458 -0.3792126
000390 6a 82 7f be de c3 11 be b6 3d 7d be 08 2c 40 be
       -0.24952093 -0.14234874 -0.24730572 -0.18766797
0003a0 39 d9 5c be 66 0d 8f bd 62 56 f3 bc 49 e8 77 3d
       -0.21567239 -0.069849774 -0.029704276 0.06052426
0003b0 c3 cc fc bb 83 91 8a 3d 5f ad b7 bc 0b f9 8d bd
       -0.007714839 0.067660354 -0.022421537 -0.06932267
0003c0 85 13 0c 3e 6b 93 3d bc b3 4a 9b 3d 0e b0 4b bc
       0.13679321 -0.011570792 0.07582607 -0.012432111
0003d0 03 bd 8a 3d 03 c0 c1 bd 28 90 f0 bd 8b a1 4a be
       0.067743324 -0.094604515 -0.117462456 -0.19788186
0003e0 cc 66 08 be 3d 28 22 be 83 57 c1 bc 6f 26 b3 bd
       -0.13320464 -0.15835662 -0.0236013 -0.08747565
0003f0 77 1d 91 be b7 73 b1 be 3e 1e bb be de 88 fb 3b
       -0.28342792 -0.34658596 -0.3654651 0.007676228

conv3.bias f4 [32]
000000 08 9b 34 3e b1 9a 24 3e f2 5a 9b 3e 59 de af 3d
       0.17637265 0.16074635 0.30342823 0.08587331
000010 0d ea 85 3d b1 b9 9e 3c cc 49 c1 3d 1b 68 03 3e
       0.06538782 0.019375654 0.09437904 0.12832682
000020 9c 01 05 3e d7 0b ba 3d a1 3e 21 be 6d 44 11 bd
       0.12988895 0.090842895 -0.15746547 -0.035465647
000030 08 47 1d 3f 20 5c a9 3e 7a a1 58 3c f3 be 1a 3e
       0.6143651 0.33078098 0.013222093 0.15111904
000040 d8 2c 67 be f6 65 bf be 7e f3 8e 3e 89 8c 87 be
       -0.225757 -0.37382478 0.27920145 -0.26474407
000050 0f f4 c8 3e ea 96 a6 be 01 f9 f0 be 46 a2 54 bf
       0.39248702 -0.32537013 -0.47064975 -0.8306011
000060 fb 84 74 be ab 7f 81 3d 1e 85 43 be 79 3b ca be
       -0.23878853 0.06323179 -0.19093749 -0.394985
000070 f0 3e 2e bd 46 c9 29 3e de 39 b8 be 39 67 32 3e
       -0.04254049 0.16580686 -0.3598165 0.17422189

bn3.weight f4 [32]
000000 63 f7 8e 3f 8b 31 be 3f bf 7d b1 3f c1 1a af 3f
       1.1169246 1.4858869 1.38665 1.368004
000010 70 61 86 3f 7d 5a ae 3f 73 70 96 3f 2f 2e 76 3f
       1.0498486 1.3621365 1.1753067 0.9616422
000020 a3 af 99 3f ea cb b7 3f 0f dc 2b 3f 84 a3 3d 3f
       1.2006725 1.4359105 0.6713266 0.7407763
000030 68 fc aa 3f 9e b2 92 3f e1 f2 83 3f a5 c5 a5 3f
       1.3358278 1.146076 1.0308496 1.2950941
000040 05 0a 83 3f 4d f2 12 3f 62 e2 9a 3f 60 ab 3a 3f
       1.0237433 0.5740097 1.2100337 0.7291775
000050 77 12 96 3f 97 3b 9a 3e e6 eb 46 3f ce 20 53 3f
       1.1724385 0.30123588 0.777037 0.8247193
000060 c3 7e 4a 3f 78 66 36 3f 7a e7 c0 3e f7 e0 64 3f
       0.79099673 0.71250105 0.37676603 0.8940577
000070 2a 09 5e 3f 6d 8b 84 3f 46 92 bb 3f 88 cc 9b 3f
       0.86732733 1.0355049 1.4654014 1.2171793

bn3.bias f4 [32]
000000 8d 6e 06 bd 14 5c 81 bd 45 59 41 3e 4d 7b 90 bd
       -0.032820273 -0.06316391 0.1888171 -0.07054768
000010 d3 e8 b5 3d 30 da fa bc 0d 3d 0e be 4e cb 08 3e
       0.08882298 -0.030621618 -0.13890477 0.13358805
000020 77 08 bc 3d 23 c4 ed bd 27 96 a1 3d 99 17 89 3e
       0.09181302 -0.11609676 0.078899674 0.26775816
000030 d7 0e 9b 3e 4d c9 fb bc 8b 1e 92 be cd d6 5a be
       0.3028476 -0.030735636 -0.28538927 -0.21371002
000040 11 a1 86 3e fd af 85 bd 0c 82 4c be 84 8d e7 be
       0.2629476 -0.06527708 -0.19971484 -0.45225155
000050 6a 45 93 be 24 61 c0 be b5 e5 85 be 1b 6d cd be
       -0.28763896 -0.37574112 -0.26151815 -0.40122303
000060 8f b9 08 bf ee bf e0 be 7d e5 c0 be 94 51 cb be
       -0.5340814 -0.4389643 -0.37675086 -0.39710677
000070 42 39 28 be 50 53 f8 be 8a 20 fc be 56 89 4e 3e
       -0.16428092 -0.48501062 -0.49243575 0.20169577

bn3.running_mean f4 [32]
000000 80 b0 23 41 e1 d0 45 41 75 a9 42 41 1e 52 79 41
       10.230591 12.363496 12.166371 15.582548
000010 c6 a5 1d 41 b1 4f 26 41 3f 85 fc 40 c3 e7 2b 41
       9.852972 10.394456 7.8912654 10.744082
000020 00 a6 fb 40 df 1e 57 41 e9 05 33 41 14 36 93 40
       7.8640137 13.445037 11.188943 4.6003513
000030 4a 7a 8e 41 e9 5d 0c 41 fe 76 20 41 96 32 30 41
       17.809711 8.772927 10.029051 11.01235
000040 06 39 c7 40 e0 79 ac 40 1d 9d 80 41 1e 9c 5a 40
       6.225711 5.3898773 16.076715 3.4157786
000050 fa 2b 52 41 3a 6f 9e 40 79 be 89 40 4e 56 a7 40
       13.135736 4.9510775 4.304501 5.2292852
000060 30 d0 8f 40 60 5d f3 40 fe e8 e1 40 01 d3 fd 40
       4.4941635 7.6051483 7.0596914 7.9320073
000070 37 d6 5f 41 c6 d1 92 41 61 42 c7 40 99 e3 79 41
       13.989799 18.352428 6.226853 15.618066

bn3.running_var f4 [32]
000000 8a 04 23 43 ca 42 3b 43 17 4c ea 43 c5 cc a3 43
       163.01773 187.2609 468.59445 327.59976
000010 bd b1 da 43 ce 4d e9 43 ab 19 8c 43 26 9c 2e 43
       437.38858 466.60785 280.20053 174.60995
000020 76 09 ae 43 b3 65 8c 43 ea 95 4d 43 7f 93 55 42
       348.0739 280.79453 205.5856 53.39404
000030 a7 dd 64 43 e9 f0 47 43 9a 18 09 43 75 dd 50 43
       228.86583 199.94106 137.0961 208.86507
000040 45 e4 1a 43 66 c3 9d 43 7d e1 cf 43 ba be 3e 42
       154.89168 315.52655 415.76163 47.686256
000050 7e 9c 7d 43 23 c0 cc 42 f2 59 ec 42 1b d5 93 43
       253.6113 102.37527 118.175674 295.6649
000060 81 0f 86 42 52 48 25 43 3a ab b8 43 47 c8 bf 43
       67.03028 165.2825 369.3377 383.56467
000070 76 b1 49 44 f6 10 98 43 23 56 ae 43 75 a9 de 43
       806.7728 304.1325 348.67294 445.32388

cnn.0.weight f4 [8, 2, 5, 5]
000000 b4 41 f8 3d 42 ca 3a 3e 7c 7c 86 3e 71 e0 30 3e
       0.12121907 0.18241218 0.2626685 0.17273118
000010 a4 65 ac 3e d8 73 31 3e f9 dd b3 3e f2 ae 62 3e
       0.33671296 0.17329347 0.3513029 0.22137049
000020 83 e8 09 3d 6e 26 3c 3e d0 49 9c bd bf 5b c4 ba
       0.033669006 0.18374035 -0.07631266 -0.0014980956
000030 05 6a e1 3d d4 e6 db 3c d2 3c 9b bd 5e 1c 3c bd
       0.1100655 0.026843466 -0.0757996 -0.04592549
000040 6b 5a 4b bd 12 1c 2d be 74 7a 47 bd a2 ab 10 bd
       -0.049646776 -0.16905239 -0.048700765 -0.03531993
000050 f0 ea 07 be d6 d5 a6 bc e5 ac 95 be ef 18 8f be
       -0.13273215 -0.020365637 -0.2923347 -0.2794871
000060 01 80 c4 3c fd b1 0f 3d 51 ad 96 3e fa 5e 8a 3e
       0.023986818 0.035081852 0.29429105 0.27025586
000070 fd c6 2a 3e c7 f2 68 3e 0c 85 fc 3c aa 58 b0 3e
       0.1667747 0.22748862 0.03082516 0.34442645
000080 51 d0 29 3e 87 86 4d 3e 96 48 40 3e ac cd 81 bd
       0.16583373 0.2007085 0.1877769 -0.06338057
000090 53 7c 86 3d ee 50 87 bd 6c bf 1a bc 6f d5 b7 3d
       0.06566682 -0.06607233 -0.009445053 0.08976256
0000a0 39 88 2c 3e 87 11 e4 3d 5b af aa bd 4f 0c 52 3d
       0.1684884 0.111361556 -0.08334228 0.05128127
0000b0 97 ab b6 3d 6f b3 ed bc 5a 69 52 be 2d 1e 48 bd
       0.08919447 -0.029016225 -0.20548001 -0.048856903
0000c0 14 d5 dc bd 27 e1 88 3d 99 30 50 3e 45 36 84 3d
       -0.10782829 0.066835694 0.20331039 0.064556636
0000d0 8d fc 2b ba 2b 30 83 be 0f e8 ed bd 96 ae b9 3c
       -0.00065607653 -0.25622687 -0.11616527 0.022666257
0000e0 20 83 7e bd 75 99 e2 3c e5 c6 28 be e5 3d 57 be
       -0.06213677 0.027661065 -0.16482122 -0.21019705
0000f0 98 4f 23 3d 38 90 2e 3e d4 06 a1 bd 66 2a 69 bd
       0.03987083 0.17047203 -0.078626305 -0.0569252
000100 9c e0 e7 bd 9f c7 4f 3e f3 8f 19 3e 83 dd d0 bd
       -0.11322138 0.20290993 0.14996319 -0.101985
000110 44 fb 26 be 52 e5 1f be e4 d1 c4 3e 67 6d a2 3e
       -0.16306788 -0.15614823 0.38441384 0.31724092
000120 19 d4 43 3d 92 e9 9d bc bb b2 b1 3d dc 4b 85 3e
       0.047809694 -0.019276414 0.08676668 0.2603444
000130 7a 44 d5 3d cb 1d de 3c 55 10 10 be 0f c8 89 bc
       0.104134515 0.027113816 -0.1406873 -0.016819028
000140 2d a5 8b 3d 31 72 38 3e 3c 2f 10 be d6 e2 92 bd
       0.06818614 0.1801231 -0.14080518 -0.07172172
000150 c0 c4 84 3d e7 e7 48 3e 48 9b 95 3e de 66 a9 bc
       0.064828396 0.19619714 0.29220033 -0.020678934
000160 05 e4 50 be c2 e0 ea bd 52 59 1f 3e c0 13 58 3e
       -0.20399483 -0.114686504 0.15561417 0.21101284
000170 46 1e ac bc 5b cd 4a be 3b c1 23 bd ef 87 b8 3e
       -0.02101053 -0.198049 -0.0399792 0.3604121
000180 07 30 98 3e 24 ac bf 3d 20 2d 00 be c5 a3 df bb
       0.29724142 0.09359005 -0.12517214 -0.006824943
000190 6a 93 31 3e 07 de 9e 3e 61 fe 56 3c f1 ad 04 3f
       0.1734139 0.31028768 0.013122172 0.51827914
0001a0 ba 8f 09 3f a8 d9 8c 3d d5 93 51 3e 6a 1b 21 be
       0.53734934 0.06877452 0.2046655 -0.15733114
0001b0 e5 15 21 3e b3 bc a7 3e 7b 33 4e 3d 64 4d 9e 3d
       0.15731008 0.32761154 0.050342064 0.07729605
0001c0 c0 ef 54 be 3b be 80 3e 55 8d 87 3e 85 b5 c7 3c
       -0.20794582 0.25145134 0.26475015 0.024378547
0001d0 6d ff 98 3d b1 bd bf 3d 4a df 80 3e f4 27 06 3e
       0.074705936 0.09362353 0.25170356 0.13101178
0001e0 dd 5d b6 3c 91 07 04 bd 7d 4e 0c be b4 58 b6 3c
       0.022261554 -0.03223378 -0.13701816 0.022259094
0001f0 75 d0 4b 3e 03 18 9d bd e8 0d ec 3d 92 c8 66 3d
       0.19903739 -0.076705955 0.1152609 0.056343623
000200 83 6e ce 3e 4b b6 0b 3f 5f c7 a1 3d e8 e3 ca 3d
       0.4031869 0.5457503 0.07899355 0.09906751
000210 ae 30 7e be 90 ba 9a 3e ec dc a1 3e ee 3e 3a 3e
       -0.24823257 0.3022046 0.31613863 0.18188068
000220 7b 52 15 3e a8 5f 8c bd a5 8f 99 3d 09 02 cf 3e
       0.14582245 -0.068541825 0.07498101 0.4043124
000230 3b a5 5c 3c 48 e8 fd 3c 1e 55 a5 3c 1e 5c 98 3d
       0.013467128 0.03099455 0.020182189 0.07439445
000240 15 bd 94 3e 1e ea e3 3d ac 96 04 3e 82 10 56 bd
       0.29050508 0.11128639 0.12948102 -0.052261837
000250 ed ab 26 bd 8b 9a 8b 3c 0a b8 1c 3e 84 79 e0 3e
       -0.040691305 0.017041465 0.1530458 0.4384271
000260 86 0a 43 be 18 79 b6 3e 4b 5d 33 3f 24 f9 b8 3e
       -0.19046983 0.35639262 0.7006423 0.3612758
000270 df 8e 91 3d 18 00 16 be ae 23 1c 3e f9 51 1f 3f
       0.071073286 -0.14648473 0.15247986 0.62234455
000280 20 c2 0a be 90 27 6e be d6 a1 e4 be 2c 59 12 be
       -0.13550615 -0.2325728 -0.4465472 -0.14291829
000290 d4 f5 66 bd 96 16 39 3e 13 09 43 3b 52 3c ec bb
       -0.056386784 0.18075022 0.0029760047 -0.007209339
0002a0 6f 2b 05 3e 52 c7 2b 3e 94 07 39 bc 39 87 3c be
       0.1300485 0.16775253 -0.011293311 -0.18410958
0002b0 d5 46 8c bd 2d 19 aa bd dc 9e a3 3d 41 eb 9e 3e
       -0.06849448 -0.08305583 0.079892844 0.3103886
0002c0 5d a1 a1 3e d8 8e 16 be 95 af d8 3e 01 0d fd 3e
       0.31568423 -0.14702928 0.42321458 0.49423984
0002d0 67 0d b5 3e a7 95 48 3e d7 e8 3d be 07 83 66 3e
       0.35361788 0.19588338 -0.18545853 0.2251092
0002e0 24 09 ff 3e 38 83 21 be 4c 3a d6 bd cd 6c ff be
       0.4981166 -0.15772712 -0.10460338 -0.49887696
0002f0 51 58 a6 bd 22 13 0f bd 8e 26 5a 3e 4e 17 b7 bd
       -0.08122314 -0.034930356 0.2130377 -0.08939992
000300 a3 59 bb bd 43 08 60 bd ca f8 53 3c 7b 9a 7e 3d
       -0.09147956 -0.05469538 0.012937734 0.062159043
000310 ed e9 bf bc 92 ca d2 bd 44 c3 86 3d 6f d4 06 be
       -0.023426974 -0.102925435 0.06580213 -0.13166974
000320 b7 88 06 be 01 03 1b be b6 56 59 bd 65 4b 3c 3d
       -0.1313809 -0.15137865 -0.05306121 0.04597034
000330 f4 9d 17 be e1 eb 83 bc c2 f5 87 be eb cb 83 bd
       -0.14806348 -0.016103687 -0.26554686 -0.06435379
000340 16 f4 e7 be c4 74 40 be d3 c4 c1 be 41 16 09 bf
       -0.4530341 -0.18794543 -0.37845477 -0.5354958
000350 fc e3 86 be 3a a7 17 bf 43 4f e2 be 40 df 00 be
       -0.26345813 -0.5923954 -0.44201097 -0.12585163
000360 82 f6 87 3d 5e 8d c1 3d 3b f1 d3 bd ac e7 90 3d
       0.066388145 0.09450792 -0.103487454 0.07075438
000370 8a f5 35 3d 3e 85 a6 3e 39 da 3f 3e 77 91 a0 3d
       0.044423617 0.3252353 0.18735589 0.07840245
000380 d3 fb 40 3e 3b b3 0b 3d 2b c9 f5 bc f6 8c 92 3c
       0.18846063 0.034106474 -0.03000315 0.017889481
000390 44 d0 02 3e 20 0d 93 3c e4 c7 13 be fb d9 aa be
       0.1277476 0.017950594 -0.14431721 -0.3336943
0003a0 32 21 29 be 1a bb f9 be f8 c5 70 3d 10 77 9a be
       -0.1651657 -0.4877556 0.058782548 -0.30168962
0003b0 c9 58 c7 be 7d 0f 94 bd 78 16 c5 be de 1a 67 be
       -0.38934925 -0.07229517 -0.38493705 -0.22568843
0003c0 eb 47 fa bd ad 88 0a be c8 70 0e 3e cc 94 01 3e
       -0.122207485 -0.135287 0.1391021 0.12654418
0003d0 d6 02 29 3c 67 48 36 bc 0e ae 02 3e 80 e7 a8 3e
       0.010315618 -0.0111256605 0.12761709 0.3298912
0003e0 31 42 b0 3d 1c 7f 5b bc a8 c7 50 be 17 16 2e bd
       0.08606375 -0.013397004 -0.20388663 -0.042501535
0003f0 a2 48 64 be dc 4b 4b be d0 b3 24 3d c7 d7 70 be
       -0.22293332 -0.19853157 0.040210545 -0.23519813

cnn.0.bias f4 [8]
000000 62 09 2e be d3 56 f3 bd 6f 27 2f be cf a7 a6 bd
       -0.16995767 -0.11881795 -0.17104886 -0.08137476
000010 e9 40 83 be a9 83 dc bd 5c 49 92 bc a8 ca aa 3e
       -0.2563546 -0.107673 -0.017857246 0.3335774

cnn.2.weight f4 [8]
000000 48 91 9f 3f b9 4c 85 3f 0f d7 2b 3f 51 83 76 3f
       1.2466211 1.0414039 0.6712503 0.9629412
000010 79 76 72 3f 62 96 9a 3f 8a 58 95 3f 2b b3 56 3f
       0.94712025 1.2077143 1.1667645 0.8386714

cnn.2.bias f4 [8]
000000 91 6b cc 3c a1 2d 85 3d 12 62 fa 3e f6 01 bc 3e
       0.024953635 0.06502844 0.48902947 0.36720246
000010 8b 5a 22 3d 3a ba b0 3e e1 07 9a 3e 73 e1 9f 3e
       0.03963713 0.3451708 0.30084136 0.31226692

cnn.2.running_mean f4 [8]
000000 a9 3c 75 3f 48 53 48 3f 28 18 f8 3f 2b 01 90 3f
       0.95795685 0.7825208 1.9382372 1.1250356
000010 eb f1 ae 3f 3c 4f 7d 3f b7 44 4f 3f 0a 89 69 3f
       1.3667578 0.9894903 0.80964226 0.9122473

cnn.2.running_var f4 [8]
000000 b4 77 24 40 c9 36 dc 3f 6c 0d 1b 41 38 83 6a 40
       2.569806 1.7204219 9.690777 3.664259
000010 f6 e6 a9 40 a1 ff 49 40 29 81 fc 3f 11 d4 f6 3f
       5.3094435 3.1562274 1.9726917 1.9283468

cnn.3.weight f4 [32, 8, 5, 5]
000000 7f b8 9a be c2 c8 5c be b3 68 da be 98 15 1c bf
       -0.30218884 -0.21560958 -0.42658004 -0.6097045
000010 fd 65 c9 be 7e 9f f6 be f8 c7 bd be a8 e5 d9 be
       -0.39335623 -0.48168558 -0.37066627 -0.42558026
000020 c1 f1 db be 90 ad 22 bf ff 5b 0b 3d e7 83 47 3e
       -0.4295788 -0.63546085 0.03402328 0.1948391
000030 a6 51 21 3d 0d b5 5b 3e 20 dd 21 3e a8 9b 8e bd
       0.039384507 0.21455784 0.15807009 -0.06963283
000040 70 39 0c be 9f f6 8d bd 9f 9a 9e bd 77 f3 29 be
       -0.13693786 -0.06931805 -0.077443354 -0.1659678
000050 dc c9 d8 bd fd 64 3e be 21 f5 20 be 93 1f ad bd
       -0.105853766 -0.18593211 -0.1571851 -0.08453288
000060 c1 77 4a be 6c 69 ae be be 7c 63 3e 50 c4 e4 bd
       -0.19772245 -0.34064806 0.22215554 -0.11170256
000070 0c ef 0d 3e f9 d1 4b be ae d3 12 bb 93 71 c7 3e
       0.1386072 -0.19904317 -0.0022404003 0.38953838
000080 78 9f a9 3d 84 e1 60 3e 9c 3b 84 bc a4 c7 91 bb
       0.082823694 0.21961027 -0.016141705 -0.004448848
000090 ca aa db 3e 33 76 7c bd 06 2a fb 3c 7f 74 fc bd
       0.4290374 -0.06163616 0.030659687 -0.12326907
0000a0 8d 05 a4 3d a6 31 e3 3e 74 a4 b9 3d b9 c9 cb bc
       0.08008871 0.44373816 0.0906457 -0.024876462
0000b0 16 58 32 3c 2c 42 20 3b b5 38 87 3e b6 53 a4 bd
       0.010885259 0.0024453504 0.26410452 -0.08023779
0000c0 0e 48 4d 3d a3 83 7e bd cd 8f a9 be 11 1a 89 be
       0.050117545 -0.062137257 -0.33117524 -0.267777
0000d0 82 4a 20 be 92 87 23 be 65 8e 7f be 03 4b e5 bd
       -0.15653422 -0.15969685 -0.24956663 -0.11195948
0000e0 9c ed 1a 3d f9 81 9e bd f8 13 0d 3d 4f 78 2d be
       0.03782426 -0.07739634 0.03444287 -0.16940425
0000f0 47 b0 75 bb 67 f0 e5 3c 0c ed bf bd 47 84 e6 3c
       -0.0037489103 0.028068734 -0.09371385 0.028139247
000100 e9 78 44 3d 5e 93 2c be c0 de 79 bd 5c f5 00 be
       0.04796687 -0.16853091 -0.061003447 -0.12593597
000110 3f f7 20 bc 81 07 05 bd 75 8b 76 be a1 7a 84 be
       -0.009824573 -0.03247786 -0.24076636 -0.25874808
000120 d4 63 3f be 9b d6 13 be 86 ce fc bd e9 6e 04 bf
       -0.18690425 -0.14437334 -0.12344079 -0.51731735
000130 05 3c ba be ef fa 85 be f6 4e cd be 87 3d b3 be
       -0.36373916 -0.2616801 -0.40099305 -0.3500788
000140 bc 81 e4 be 56 2c 9c be c0 84 a7 be a7 30 b4 be
       -0.4463023 -0.30502576 -0.32718468 -0.3519337
000150 39 bd 1c bf 97 c8 ff bd 05 55 4b 3d bf 82 8a 3d
       -0.6122623 -0.12489431 0.049641628 0.06763219
000160 87 93 42 3e c8 34 23 bd ec 97 21 be e9 57 fd bc
       0.1900159 -0.039845258 -0.1578061 -0.030925708
000170 7e 36 f3 bd ef 93 d9 bc 23 35 70 bd 7c 45 11 be
       -0.11875628 -0.026559798 -0.058644425 -0.14186662
000180 ef 52 44 be a5 b9 90 bd b7 51 d9 bd 41 d9 a6 bd
       -0.19172262 -0.07066659 -0.10611289 -0.08146907
000190 30 08 69 bd cf 7c 07 bc b2 c4 9d 3d 1e 16 76 bc
       -0.056892574 -0.008269503 0.07703532 -0.015019922
0001a0 99 58 c0 3d 78 63 b8 bc 78 dd 72 3d 63 a8 be bc
       0.09391899 -0.022508368 0.05929324 -0.023273652
0001b0 a3 d6 d4 3d 99 9a 04 3e 63 6c 98 3b dd 64 8c 3d
       0.10392501 0.129496 0.0046515926 0.06855176
0001c0 d2 ad e5 bc 69 49 4e 3b 68 a4 35 bd b9 37 02 bd
       -0.028036986 0.0031476861 -0.044346243 -0.031791423
0001d0 ad ac a5 bc 3c ac 81 3c d1 f5 16 bc 2e aa 5c bd
       -0.02022394 0.015829198 -0.009213881 -0.053873233
0001e0 4b ea 7f be 5e 4b 04 be f2 49 3b be 26 c0 01 be
       -0.2499172 -0.12919375 -0.18289927 -0.12670955
0001f0 c3 2d 03 be ec 36 44 be e5 d5 a9 be bc 19 a7 be
       -0.12810425 -0.19161576 -0.33171 -0.3263682
000200 0d 7c a9 be d3 c5 be be d9 29 b4 3d 4e 9a 95 3d
       -0.33102456 -0.37260303 0.08797044 0.07304822
000210 a0 c9 e0 3c 43 56 15 3e 84 23 f3 3d 16 60 97 3d
       0.027439892 0.14583687 0.118720084 0.07391374
000220 9f 3d 10 be 94 0e 70 3b ce e0 73 bd 81 50 b4 3b
       -0.14086007 0.0036629783 -0.059540562 0.005502761
000230 f3 84 1b be 80 f9 70 be 36 72 0a be 62 99 da bd
       -0.15187435 -0.23532677 -0.1352013 -0.10673787
000240 27 b9 f0 bd 64 02 21 3e 72 a4 74 be 71 9d 4b bd
       -0.11754065 0.15723568 -0.23890856 -0.049710695
000250 09 7c d3 3c 42 9b 46 3d 46 96 89 be 12 fc 88 be
       0.02581598 0.04848791 -0.26872462 -0.26754814
000260 bf ad 4e be 88 e2 ab be ef c6 22 be 80 a3 41 3e
       -0.20183466 -0.33571267 -0.158962 0.18910027
000270 96 0a 79 3d 38 8a 0a 3d 3f 17 26 3d b5 a9 68 3e
       0.06080111 0.033823222 0.040549513 0.22720988
000280 1f b4 f9 3c 93 aa fe bd f3 81 46 bd ee 01 07 be
       0.030481396 -0.12434878 -0.048463773 -0.1318433
000290 a6 b9 2b bd ef 05 05 be 55 39 64 be 26 30 50 be
       -0.041925095 -0.12990545 -0.22287495 -0.20330867
0002a0 84 80 fa bd 56 dc 77 bd 28 b9 20 3e 8d 86 07 3d
       -0.12231544 -0.060512863 0.15695632 0.033087302
0002b0 54 ca ee bb ad 39 90 3d a5 85 35 3e 8a b9 6a be
       -0.007287303 0.07042251 0.17726763 -0.2292234
0002c0 3f 28 1c be fd 10 50 be 80 1d 06 be f2 58 88 be
       -0.15249728 -0.2031898 -0.13097191 -0.2663036
0002d0 3a 58 0c 3e 85 ad b7 3d 48 8e 2c 3d 42 d8 33 3e
       0.13705531 0.08968643 0.042127877 0.17562965
0002e0 35 43 d5 3d 48 f4 54 3d 86 17 d5 bd 33 89 0b 3d
       0.10413209 0.051990777 -0.10404877 0.03406639
0002f0 65 1b b6 bd f0 ce 6f bd fb 33 51 be ba 99 96 be
       -0.08891944 -0.05854696 -0.20429985 -0.2941416
000300 89 e6 07 be d5 1c 3d be 48 1c 48 be 7c 35 b2 bc
       -0.13271536 -0.1846803 -0.19542038 -0.021754019
000310 b8 70 8e 3b c6 4e cb 3c d0 d1 24 bc b7 54 76 3d
       0.004346933 0.024817836 -0.010059789 0.060139384
000320 b9 67 84 bd ea 25 c3 3c c6 65 c0 bd d3 af 1a 3d
       -0.06465096 0.02382179 -0.09394412 0.037765335
000330 3b 9d 6e be fc 7a 4f bc aa d5 2a bc b5 dc 0f bd
       -0.23302166 -0.012663599 -0.010426918 -0.035122592
000340 da 7f a9 bd d5 93 83 be 40 83 47 bd 77 60 b6 3d
       -0.08276339 -0.25698724 -0.048709154 0.08905118
000350 6f 2b db 3d 22 9c 18 3e 96 17 10 3e 77 a9 6e bc
       0.10701644 0.1490331 0.14071497 -0.014566771
000360 0a 1f 97 3d 7f de 8e 3e 73 29 fb 3e 17 31 c4 3e
       0.07378967 0.27904126 0.4905506 0.38318703
000370 e6 87 e2 3c 70 d4 22 3d 42 5e 6c 3b 38 ee 05 3e
       0.027652692 0.039753377 0.0036066924 0.13079154
000380 30 15 7f 3e 9e ba 83 3d 83 a6 92 3d d8 95 2d be
       0.24910426 0.06432079 0.07160666 -0.16951692
000390 64 34 2e 3e a3 e0 37 bd 4b c4 ad 3d 1b 10 65 3e
       0.17012173 -0.044891965 0.084847055 0.22369425
0003a0 50 46 eb bd 87 c7 53 3e c4 29 eb 3d a2 0b 08 be
       -0.114880204 0.20681582 0.114825755 -0.13285688
0003b0 43 f1 5c 3d 27 e5 ce bd 4e fb a8 3d 80 b8 f7 bc
       0.053941023 -0.10102301 0.082510576 -0.030239344
0003c0 b4 b4 82 bd 8e 3d 35 3d bf fb ba 3d 77 68 97 bd
       -0.06382123 0.044248156 0.09130048 -0.07392972
0003d0 75 bb a4 3b 09 40 99 bd 72 aa 53 bc 97 1f 87 bc
       0.0050272294 -0.07482917 -0.012919055 -0.016494555
0003e0 1b aa dd bd 05 0a a2 bd 4c 31 0f be 61 f6 56 be
       -0.10823461 -0.07912067 -0.13983649 -0.20992424
0003f0 44 4d 11 be a3 58 70 be 31 c8 9a be 6c 4c 48 be
       -0.14189631 -0.23471312 -0.3023086 -0.19560403

cnn.3.bias f4 [32]
000000 e9 c3 8e 3e 68 57 2d be 40 07 02 be 39 b3 85 3d
       0.27883843 -0.16927874 -0.12698078 0.06528325
000010 bf ee 9f be e1 e5 87 be 5c 8a 1e bd ce 11 c0 3c
       -0.31236836 -0.2654257 -0.03870617 0.02344599
000020 d1 02 d3 bd d1 2a dc bc 88 89 5f be 79 7e 12 3e
       -0.103032716 -0.026875885 -0.21829808 0.14306058
000030 a0 32 8f 3d ce 5f 2d bc 85 be a9 be 08 5d 86 be
       0.06992078 -0.010581924 -0.33153167 -0.26242852
000040 6f 1c 8d 3e d6 d4 56 b9 9a b9 5d be 8b b3 2c bb
       0.27560756 -0.00020487918 -0.21652833 -0.0026352133
000050 c1 c4 fb 3d 1e e9 9e 3e 7d d5 87 be 92 87 cc 3c
       0.12293387 0.3103723 -0.26530066 0.024966989
000060 41 9e 54 bd 27 35 8a be 35 f9 64 3d a6 8a 2a be
       -0.051908735 -0.26993677 0.055901725 -0.16654453
000070 e5 ba 1d bd 41 88 c4 bd ac 8e 42 bd 46 35 99 3e
       -0.038508315 -0.09596301 -0.047499344 0.29923457

cnn.5.weight f4 [32]
000000 b3 be 8b 3f 3e 0d 90 3f e8 50 39 3f cf 7a 7d 3f
       1.0917572 1.1254041 0.7238908 0.99015516
000010 fa e0 a1 3f 4e 3f a4 3f 97 2d 96 3f cf 7f 44 3f
       1.2646782 1.2831819 1.1732663 0.7675752
000020 c7 62 46 3f 40 4b 4f 3f 39 43 1a 3f f2 c0 4d 3f
       0.7749447 0.809742 0.60258824 0.80372536
000030 70 10 1d 3f d2 b4 95 3f 74 66 89 3f 7f 95 9a 3f
       0.61353207 1.1695807 1.0734391 1.2076873
000040 1e 89 60 3f 77 c3 72 3f 8d af 97 3f 7a 9b 8b 3f
       0.87709224 0.94829506 1.1850449 1.0906823
000050 c8 0e 8a 3f e6 b7 a1 3f ba 0b 47 3f 08 a7 bd 3f
       1.0785761 1.2634246 0.7775227 1.4816599
000060 23 92 81 3f 55 e5 80 3f aa be 08 3f 6e b5 87 3f
       1.0122722 1.0069987 0.5341593 1.0602243
000070 03 61 96 3f f4 da 81 3f 3d 3f 63 3f 4f 77 7a 3f
       1.1748356 1.0144944 0.8876837 0.978383

cnn.5.bias f4 [32]
000000 3f e2 e4 3e 3a 2e 52 be f6 51 9b 3d 88 df bd bd
       0.44703862 -0.20525447 0.07583992 -0.09271151
000010 e7 ec e4 3e fe 4a f8 bd 20 f1 89 3e af 4f 32 be
       0.44711992 -0.121236786 0.26941776 -0.1741321
000020 5d a4 05 3e c2 2a e7 3d 99 4f 9c be 58 cd c5 3d
       0.13050981 0.11287452 -0.30529478 0.09658307
000030 4f 68 6b be a0 80 b8 3d e0 26 d5 be 9c c0 ca 3e
       -0.2298901 0.09008908 -0.41631222 0.39600074
000040 16 80 23 bf 97 2d 84 bc b7 cf a0 3e 4c 24 83 3e
       -0.6386732 -0.01613502 0.31408474 0.2561363
000050 12 25 17 be be d8 8b 3e 99 ec 84 be e4 bc 7c 3e
       -0.14760235 0.273138 -0.2596176 0.24681431
000060 25 f6 36 3d 70 64 b9 3e 90 4f bf bd 96 31 13 3e
       0.044668335 0.3620944 -0.09341347 0.14374384
000070 bb 86 ca bd 5a 1c a6 3e 50 9a b3 bd ca 62 cd be
       -0.09888979 0.32443506 -0.08769667 -0.40114433

cnn.5.running_mean f4 [32]
000000 b2 5c db 3f f6 17 6e 3f bd 62 3b 40 e0 01 b2 3f
       1.7137663 0.9300531 2.9279015 1.3906822
000010 cf 16 62 3f d6 b5 13 40 50 32 00 40 8e 90 a0 40
       0.88316053 2.3079734 2.0030708 5.017646
000020 0e 5c 9a 40 0c 14 ff 3f 5f 13 0c 3f 98 ca 22 40
       4.823737 1.9927993 0.5471706 2.5436153
000030 ea 82 63 40 12 7f 97 3f 32 4e 31 40 db 9f a3 3f
       3.5548654 1.1835654 2.7703977 1.2783159
000040 6c 96 38 40 ff 1a ab 40 c4 fa 48 3f d5 80 f9 3f
       2.884181 5.3470454 0.7850764 1.9492441
000050 2a 87 ff 3f a7 2c b7 3f 33 97 2f 3f 85 e1 e7 3f
       1.9963124 1.4310502 0.68590087 1.8115698
000060 f3 3e 0a 40 89 53 82 3f 82 17 eb 3f e9 eb df 3f
       2.160092 1.0181743 1.8366549 1.7493869
000070 5d 13 e9 3f 2a 84 00 40 05 3e 76 3f a6 87 7f 40
       1.8209034 2.0080667 0.96188384 3.9926543

cnn.5.running_var f4 [32]
000000 92 9e 93 40 67 82 b2 40 3d cf 02 42 68 8c 6f 40
       4.6131067 5.5784183 32.70238 3.7429447
000010 66 d4 40 40 50 d4 c3 41 a6 7c 97 41 61 ca 78 42
       3.0129638 24.478668 18.935863 62.197636
000020 8a 8c 50 42 ce 15 69 41 72 c2 f3 3f 63 7d 89 41
       52.137245 14.567823 1.9043715 17.186224
000030 71 13 25 42 85 0e 75 40 46 bf 77 41 cc 93 20 41
       41.268986 3.8290112 15.484198 10.036083
000040 58 f0 8c 41 77 ca 60 42 6f d0 88 40 df d2 1d 41
       17.617355 56.19772 4.2754436 9.863982
000050 b4 38 f0 40 14 68 d2 40 03 7a ea 3f d3 e2 30 41
       7.506922 6.575205 1.8318485 11.055377
000060 ee 7c 71 41 e3 ef 34 40 f3 03 99 40 9c 95 02 41
       15.093 2.8271415 4.781732 8.161526
000070 dc 18 bf 40 11 99 27 41 6e c2 08 40 1f 13 ed 41
       5.9717846 10.47487 2.136867 29.634336
