models/optimized-speech_1.5s.model (torch, 237725 bytes, 78 tensors)

conv1.weight f4 [8, 2, 5, 5]
00000000: 77b8 9c3d 8f75 c6bd ad02 f73c cbdb 7f3c
00000010: 544e 983d c906 9b3e 7f98 983e dbda 803e
00000020: ccfd a73e 4c5a da3d ae52 813d fce7 a9bc
00000030: 8a38 debd afd2 05bd 1a83 b13d beff 2cbe
00000040: 0081 a1be bbc0 cfbd 5f66 77be 51bf 473c
00000050: ca62 c0be d9cf a1be 7830 f8bc 5fce 33be
00000060: b30c 24be 2193 813b 96b4 16be 364c 283c
00000070: 6313 8e3d 3559 8cbd d986 bf3d 8ed3 843e
00000080: 224e 023e 1908 903e 783d 953e 6113 933c
00000090: 1902 9cbb cbd5 ca3d 6dd8 673c 6593 3e3e
000000a0: 9bfd 84bd 203a bfbe 1af0 5ebe 5325 85bc
000000b0: 7693 07be 9a97 86bd 651e 99be dd0f 42be
000000c0: 8f4e 55bd b97a a4bd 1170 30be fe58 ae3d
000000d0: d5aa 4dbd 15f7 fb3c a4d0 05bc 9fe9 18be
000000e0: ab5a 8cbe f3d3 83be f1d4 5fbc 3c56 253e
000000f0: bf4a 2ebe 3316 aebc 83d3 e0bd b544 86bd
00000100: dc47 853e 4714 a2be 9f5f dd3d 6f79 843e
00000110: 5ae4 1c3e eabe 413e 8b1e 25be 4d40 813e
00000120: 5c9a 793e ef06 6c3e 7e5e 39be 80ed 97bc
00000130: df40 6c3d d6c9 66bc 9a64 073d df61 423d
00000140: 4dcb 38be 64c9 1bbe 8554 b3bd ce3f 33be
00000150: 79e0 d13b 2ece 1cbe 7163 57be dea7 87be
00000160: aa96 c53d 1cf4 243e 1ffc adbe 7adf 113e
00000170: 0745 483e c16b 463e c03b adbb a8dd 5dbd
00000180: 1f6f a63d fb2f 3c3e e714 90bc a4bb 17be
00000190: 0675 52be 9287 dbbd 6232 8dbd c556 313e
000001a0: f081 583e 0a98 993d 4e63 17bd 35c1 233c
000001b0: b411 dfbd a640 3f3d 6c22 1d3e 9287 103e
000001c0: 36b5 01be 9d8e 5cbe 671d acbd 8564 203e
000001d0: 842b 973e ef76 eb3d 7bf1 c6bc 56cf b6bd
000001e0: 8c63 3d3c a90f 2f3e b037 663c 507d 62be
000001f0: cc84 3abe 0ad7 e3bd 94de 333b 209d ce3d
00000200: 4bfb be3d 4b03 f23d 90ae aebd 99f6 28be
00000210: 5ccd fdbd 610d eebd 502b a6bd 1ccd 153e
00000220: a7d7 4f3e 97fa 0cbc 0612 a7bd 2265 cdbd
00000230: 720e 7e3e 04b8 9f3e 41df 413e b8bf 08be
00000240: 1855 ebbd 4599 d7bb 9fab 553e 22ad 6ebb
00000250: 13f1 0fbe b5a4 5fbe ce43 8bbd bd93 1a3e
00000260: ad1f 113e 5bc7 db3d 9d58 1a3e 10cc cb3d
00000270: a5bf 193e e3c3 ed3d 82b6 3a3e fe75 713e
00000280: 1bcb 11be 2ae7 94be 7ad1 8abe 2b34 75be
00000290: 744d 68be e129 9dbe be03 96be daa2 81be
000002a0: ae81 8dbd db29 0d3d 8986 273d 7fcd 3e3e
000002b0: 54d3 4b3e 18fa 6f3d 047f 833d 1270 303e
000002c0: fb48 653c 73bf 763d c829 b93c 1cb3 853d
000002d0: afc8 4b3e 95f6 463e 62ed 533e 45b6 123e
000002e0: a762 b53d 70db a5bd 3285 a5be 3367 97be
000002f0: ac49 f0bd 104a 51be 569d 4bbe bd98 46be
00000300: e7af 1c3c 99bd 55be a5ae 82bd bc53 41bd
00000310: 5655 e23d eefc 183e 946d 4b3c 27ef 433d
00000320: 7e38 5f3d ed1a a73e 11e1 ed3d db79 bf3e
00000330: 638c 9e3d c9af d83d fadc 7abb b987 523e
00000340: 78f5 883e 29dc 933c 7539 a0bc 0390 9cbd
00000350: 6900 efbd 5700 2b3e 056f 67bd 8ce7 ecbd
00000360: 7c56 9e3b 8c18 17ba 67d5 1cbe f7e1 43be
00000370: 8669 28bd 9aa2 d5bd f4ac 34bd cca1 fcbd
00000380: 13d8 24be 65c5 493e 74a3 463e a919 ba3e
00000390: 7386 e63d 3603 11bd 0257 39be 549f 253e
000003a0: 9859 873e 0843 813e c021 73be 51d7 2bbe
000003b0: b45c 923d 1a1e e33d ae2f c1bc ce26 97be
000003c0: 8cbd 01be e73e adbd 4769 33be 701e 503d
000003d0: 0177 b5be 392f 9cbd e342 0bbe 392d bd3c
000003e0: 0c73 49be 67a4 b7be 3925 97bd 252f bbbd
000003f0: 545d e63d ebf5 3bbe 70ca b2be e3ee 76be
0.076523714 -0.09690391 0.030152643 0.015616368 0.07436815 0.30278614 0.29803845 0.25166973
0.3281082 0.10661754 0.06314598 -0.020740502 -0.10850628 -0.032671627 0.08667584 -0.16894433
-0.31543732 -0.10144182 -0.24160145 0.0121916095 -0.3757537 -0.31603888 -0.03029655 -0.17559193
-0.1602047 0.0039543067 -0.14717326 0.010272076 0.069372915 -0.068529524 0.09351892 0.25942653
0.12725118 0.28131178 0.2914846 0.017953577 -0.0047609922 0.09904059 0.014150721 0.18610914
-0.06493684 -0.37349033 -0.21771279 -0.01625315 -0.13239846 -0.065718845 -0.29906002 -0.18951364
-0.052076872 -0.0803122 -0.1723025 0.08513068 -0.050211746 0.030757466 -0.00816742 -0.1493287
-0.27412924 -0.25747642 -0.013661609 0.16146177 -0.17020701 -0.02125082 -0.10977843 -0.065560736
0.26031387 -0.31656095 0.10809254 0.25873896 0.15321484 0.18920484 -0.16124932 0.2524437
0.2437529 0.2304952 -0.18102452 -0.018545866 0.057679053 -0.014086207 0.033054926 0.04745662
-0.18046303 -0.15213543 -0.08756355 -0.17504808 0.006404933 -0.15313026 -0.21034028 -0.2649526
0.096478775 0.16108745 -0.33981416 0.14245406 0.19557582 0.19377042 -0.005286664 -0.054166466
0.081266634 0.18377678 -0.017588092 -0.14817673 -0.20552453 -0.10719217 -0.068943754 0.17318256
0.21143317 0.07499702 -0.03695994 0.009994795 -0.108920485 0.046692513 0.15345162 0.14114216
-0.12666783 -0.21538778 -0.084040456 0.15663345 0.29525387 0.11497294 -0.024285069 -0.08926265
0.011559378 0.17095818 0.014051363 -0.22118115 -0.1821472 -0.11125 0.00274459 0.10088563
0.09325274 0.11817034 -0.08529389 -0.1650032 -0.12392685 -0.116236456 -0.0811373 0.14629024
0.20297109 -0.008604667 -0.081577346 -0.10029055 0.24810198 0.3119508 0.18932821 -0.13354385
-0.1149084 -0.0065795504 0.2086625 -0.0036419113 -0.14056806 -0.21840174 -0.06800042 0.1509542
0.1417224 0.107313834 0.15072866 0.09951031 0.15014513 0.11609628 0.18233684 0.23580167
-0.14237635 -0.29082614 -0.27112943 -0.23945682 -0.22685796 -0.30696014 -0.2929973 -0.25319558
-0.069095 0.034463745 0.040899787 0.18633078 0.19904834 0.058588117 0.06420711 0.17230251
0.013994451 0.060241174 0.02260293 0.06528303 0.19900773 0.19430001 0.20696023 0.14327343
0.08856707 -0.08098495 -0.32328182 -0.29570922 -0.11732802 -0.20438409 -0.19884238 -0.19394203
0.009563423 -0.20873107 -0.06380967 -0.047198996 0.11051433 0.14940235 0.012416262 0.047835495
0.054497235 0.3263773 0.11615194 0.37397656 0.077416204 0.10580403 -0.0038278685 0.20559587
0.26749778 0.018049316 -0.019558648 -0.076446556 -0.1167 0.16699348 -0.05650236 -0.115676016
0.004832087 -0.00057638506 -0.15315782 -0.19129167 -0.04111626 -0.104314044 -0.044110253 -0.12335548
-0.16098051 0.19704206 0.1939829 0.36347702 0.11256113 -0.035403453 -0.18099597 0.1617406
0.26435542 0.25246453 -0.23743343 -0.16781355 0.07146588 0.11089726 -0.023582306 -0.29521793
-0.12669963 -0.08459263 -0.17520629 0.050810277 -0.35442355 -0.076261945 -0.13599734 0.023092853
-0.19672793 -0.35867617 -0.073801465 -0.091398515 0.1124827 -0.18355529 -0.34920073 -0.24114566

conv1.bias f4 [8]
00000000: 6feb 923c 8369 cc3c c759 1bbf 1310 8e3e
00000010: 983c b83e 3990 81be d509 acbe f6e5 ab3d
0.01793453 0.024952656 -0.60683864 0.2774664 0.3598373 -0.25305346 -0.3360125 0.08393471

bn1.weight f4 [8]
00000000: 8f0d 6b3f f1fc 2e3f 10e2 aa3f 6fa6 6a3f
00000010: ef41 653f e7a7 5f3f d2cb 5e3f 5c48 603f
0.91817564 0.6835471 1.3350239 0.9166021 0.8955373 0.87365574 0.87029755 0.8761041

bn1.bias f4 [8]
00000000: 145f 903e b554 fb3d 5c7d e43d 954d d63d
00000010: 47e8 a63e 68d4 043f a98c 1f3e ccb1 823e
0.2819754 0.12272016 0.11156723 0.10464016 0.3259909 0.51886606 0.15581001 0.25526273

bn1.running_mean f4 [8]
00000000: bf80 103f 52c6 f33e 09c3 303e 70e7 123f
00000010: 4786 3f3f 5845 aa3f fcea b23f a588 053f
0.5644645 0.47612244 0.172619 0.57384396 0.74814266 1.3302412 1.3977962 0.5216163

bn1.running_var f4 [8]
00000000: 0f20 183f 2d8c 013f 48ed 643e 0af5 e73e
00000010: e781 4c3f 892f 8840 4516 a840 d952 4b3f
0.5942392 0.50604516 0.2235614 0.45304137 0.79885715 4.2558026 5.2527184 0.7942329

conv2.weight f4 [32, 8, 5, 5]
00000000: 4b7b ae3d d297 d13d 0c31 c63d c27e 12be
00000010: 78e3 14bd 606f 793d 9d8d ba3d 2a7c 373e
00000020: eb29 91bb bd38 d23d 6b1e a9bd 8138 293a
00000030: b0e7 333d d8a1 3dbe d449 13be d59b 693d
00000040: 0687 d83d 0a68 353e 2b03 00be a7fd 813d
00000050: c35e 2c3f 278b 1f3f 4979 0d3f 4804 cb3e
00000060: d342 ac3e d07e 863d 740e d33d ac8a 1b3e
00000070: d2d1 583d fe9a 85bc cbb3 083e 4d9c 603d
00000080: 7f6d c23b af4d ae3d f802 8dbd 21c7 fb3c
00000090: 7ada 90bc b71e 51bd a63e ddbd 51d8 6dbe
000000a0: af0d a03d bb7c 7e3d 205a 9bbc e77c 2bbe
000000b0: c171 bfbd 7e0a 1ebd 7eb0 cd3b a787 a4bc
000000c0: 097d 08be 7437 2cbe 5800 2ebe 7c3b 813c
000000d0: 4230 ffbd ecd5 653e 94a5 19bd 7014 52be
000000e0: 1bb8 2cbe a3f7 13be 793f 813d 7c38 b2bd
000000f0: 807f ddbd 7f48 8bbd 42e9 22be 1114 fb3d
00000100: d0f3 dc3d 2473 43bd bf0d 18be e0da f2bc
00000110: 75a3 05bd 4656 6c3d 81da f7bb 3ddb 29be
00000120: 903d a2be a6e7 23be 34f3 f9bd a36f b53c
00000130: dd8a d6bd 5986 b73d ee8b 2ebe bac5 c63d
00000140: 7f00 383e ec1b 923e 5d23 a53e 300a 5b3e
00000150: fc8a 8a3e 4b2e 31bd f385 6dbb a2a9 a03d
00000160: c8ad 51be e027 bbbd 42ed 97bb f719 933d
00000170: 36e2 fb3c 538d 12bd 4dd3 b33c 60b8 813e
00000180: 7a9e 113e f502 753e 9d53 b23d 5c99 463d
00000190: 78bd 72be 4d9a 66be e4f0 853c 82cc 3d3c
000001a0: 9c0e 11be 364c 22bd f4d1 bbbd 5cf2 f13d
000001b0: e306 8a3d 7b61 db3c 204f 26be 7f49 14be
000001c0: 3715 90bd e6fd 97bd fd99 79be 01bc 96bd
000001d0: a687 1c3c f9dc f53d 50bd 923b 93c0 fdbd
000001e0: ad95 24be 546a a3be 4892 1ebe 086e 29be
000001f0: 25fc cebe cdd8 093d 3e09 86bd dcdb 40be
00000200: a019 46bc 1820 febd eb1f 813d 6e72 c03c
00000210: 0674 22be 9641 12bd 55d6 19be fb7b 243e
00000220: 86f4 e43d c58f a23d 8bc6 8c3c aaeb a13d
00000230: fe48 f13d a45b 563e 630e 063d 2a1c 57bd
00000240: bc2e 643d 1a32 ad3e cf80 993e 58c5 2a3e
00000250: e195 213d 47eb f53d 7feb 1a3d 3529 fc3b
00000260: 1c85 cb3d 1d45 9e3d e44d f83c 4857 e8bd
00000270: ec53 83bc 68c8 c83d 0d65 d03c 0b5f 90bd
00000280: 9741 a9bd 8871 85bd 60e7 6d3d 1bb1 b1bc
00000290: f592 08be 4f02 49be 40ec 53be 36da 43bd
000002a0: 9e38 3dbe f6a1 48be ae2b 41be 437c 2abe
000002b0: 6fd1 56bd 96db 57be be5d d6bd 2f49 0cbd
000002c0: 86b4 be3d d9cb d5bc d6b6 813b 7c25 03bc
000002d0: b97f 2bbe f157 0bbe a003 6ebe 4efd 52be
000002e0: ad2b 45be 5c86 f5bd da8a f8bd ac42 a8bd
000002f0: 97e3 70be 80be 4abd 09a6 463d aae3 4ebd
00000300: b9c7 94bd ea0f c6bd a61c 3cbb d35c 79bd
00000310: 4efb 25be d429 20be 5eb4 65be 707a 4c3d
00000320: 97b3 583e 4d50 7ebc b4e7 31be ecca 00be
00000330: e0d8 0ebe 2c9a 963e c233 0ebd 430a 923c
00000340: ecf1 61be 0840 7dbe 4775 5e3d 65c3 46be
00000350: 7bb1 c0bd befa 0a3d f8a9 153d 01d4 3dbe
00000360: f90d b4bd 2387 013d 1e05 033e 61b3 703e
00000370: 6a80 97be f5f3 bfbe dc33 dcbd c684 b93d
00000380: b2c4 293e d692 07bd a3f8 87bd 8650 d73d
00000390: b10b a33e f1f7 1e3e d0ea 8dbe 1e9d 8abd
000003a0: e49e b83d 0db5 f03d c1a8 debd 0881 64bd
000003b0: d806 a73e 2f12 bc3e f3ab a4bc 1a6b b7bd
000003c0: 8e41 3a3c f196 6e3d bf23 48be b31b 20be
000003d0: cd89 b83d 6d99 cc3d f2e6 8e3d 6592 e7bd
000003e0: 3d9a 60be 2327 6abe ccd8 a0bd b9a2 80be
000003f0: a53a 50be 3603 62be 9c79 0b3e cf5f 783d
0.0851961 0.102340356 0.09677324 -0.14306167 -0.036349744 0.06089723 0.09109042 0.17918459
-0.004430046 0.10264728 -0.08257755 0.0006455258 0.043922126 -0.1851877 -0.14383632 0.05703338
0.10572629 0.17715469 -0.12501208 0.063472085 0.67332095 0.62321705 0.5526319 0.39651704
0.33644733 0.06567156 0.10305491 0.15189618 0.052934475 -0.016309258 0.13349836 0.05483656
0.005933463 0.08510911 -0.06885332 0.0307346 -0.017682303 -0.051054683 -0.10802965 -0.2322705
0.0781511 0.06213067 -0.018963873 -0.16746865 -0.09347869 -0.038584225 0.006277143 -0.020084215
-0.13328947 -0.16818029 -0.16992319 0.015775435 -0.12460376 0.22444886 -0.037511423 -0.20515609
-0.16867106 -0.14449935 0.063109346 -0.0870218 -0.10815334 -0.06800937 -0.15909293 0.12259687
0.10788691 -0.04771723 -0.14848994 -0.029645383 -0.032626588 0.057699464 -0.0075638895 -0.16587539
-0.31687593 -0.16006336 -0.122045904 0.02214796 -0.10475705 0.08961172 -0.17045566 0.09705682
0.17968939 0.28536928 0.32253543 0.21390605 0.27059162 -0.04325704 -0.003624317 0.07844855
-0.20476449 -0.09138465 -0.0046364376 0.07182687 0.030747514 -0.03577931 0.021951342 0.2533598
0.1422061 0.2392691 0.08707354 0.0484861 -0.23705089 -0.22519799 0.016350217 0.011584403
-0.1416573 -0.03962346 -0.09170905 0.118138045 0.06739595 0.02677988 -0.16241121 -0.14481162
-0.070352964 -0.07421474 -0.24375148 -0.07360078 0.0095538255 0.12005038 0.004478134 -0.12390246
-0.16072722 -0.3191706 -0.1548549 -0.1654588 -0.40426746 0.033654023 -0.065447316 -0.1883387
-0.01209107 -0.12408465 0.06304916 0.023492064 -0.15864572 -0.03570708 -0.15023167 0.1606292
0.11179452 0.07937578 0.017184516 0.079062775 0.117815 0.20933396 0.032728564 -0.052517094
0.055708632 0.33827287 0.29981086 0.16676843 0.039449576 0.12007766 0.037822243 0.007695342
0.09937498 0.07728026 0.030310579 -0.113447726 -0.016031228 0.098038495 0.02543881 -0.07049378
-0.082644634 -0.06515795 0.058081985 -0.021690896 -0.1333731 -0.19629787 -0.20695591 -0.047815524
-0.18478629 -0.19593033 -0.18864319 -0.16648965 -0.052445825 -0.21079859 -0.10467099 -0.03424948
0.09311776 -0.026098179 0.0039585633 -0.008004542 -0.16747941 -0.13607766 -0.2324357 -0.2060444
-0.19254942 -0.11988518 -0.12135859 -0.08215842 -0.23524319 -0.04949808 0.048498187 -0.050510086
-0.072646566 -0.09671004 -0.00287036 -0.06087954 -0.16209146 -0.15640956 -0.22432086 0.049921453
0.21162258 -0.015522075 -0.17373544 -0.12577409 -0.13949919 0.294145 -0.03471733 0.017827159
-0.22064942 -0.24731457 0.054311063 -0.19410475 -0.09408852 0.033930533 0.036539048 -0.18537904
-0.087917276 0.031623017 0.12794921 0.23505928 -0.2959016 -0.37490812 -0.10752079 0.09058528
0.1657894 -0.033099018 -0.066392206 0.105134055 0.31844857 0.1552427 -0.2771821 -0.06768249
0.09014681 0.11753283 -0.10872031 -0.055787116 0.3262241 0.36732623 -0.020101523 -0.08955975
0.0113681685 0.058249418 -0.19544886 -0.15635566 0.090106584 0.09990201 0.06977643 -0.113072194
-0.21933837 -0.22866492 -0.07853851 -0.25124148 -0.20334871 -0.22071537 0.13620609 0.060638245

conv2.bias f4 [32]
00000000: c888 aabe 175e edbe 7a73 8cbe 393a 3abe
00000010: f161 2bbe a909 2fbf 15c3 96be 0191 62bd
00000020: ca9b 3bbe deef 54be a8f8 c5be ed52 1bbf
00000030: 429c a8bd 20e0 ddbd fa6e 55be b88f c4be
00000040: d895 15be 8929 9c3d a45e b53d 3e90 dbbe
00000050: 384d 8ebe 90f7 553e 392b 70bd 2831 64be
00000060: c68e 16bf 71c6 c5bd cf48 e8be 0ccd e0be
00000070: 2292 5dbe 4940 bdbd 1b6f b1be aaa0 d2bd
-0.3330748 -0.46360847 -0.27431852 -0.18186273 -0.1673658 -0.68374115 -0.2944571 -0.055314068
-0.18321148 -0.20794627 -0.38666272 -0.6067341 -0.08232929 -0.10833764 -0.20843115 -0.383909
-0.14607942 0.0762511 0.08855942 -0.42883486 -0.27793288 0.20895219 -0.05863497 -0.22284377
-0.58811605 -0.0965699 -0.4536805 -0.43906438 -0.21637776 -0.09240777 -0.3465508 -0.102845505

bn2.weight f4 [32]
00000000: 6958 403f bf6a aa3f 49ba 863f 52e3 3f3f
00000010: f6de 793f c9a9 a83f 2792 8e3f 8b23 843f
00000020: 2b6b 833f ca26 843f 93b6 833f d941 503f
00000030: 6bf5 8a3f 5a70 923f 5829 a13f 2611 8d3f
00000040: 3638 5f3f d504 8e3f e1d3 8b3f 0ada 2a3f
00000050: 721f 643f 5ca1 613f cee6 7e3f 70b1 863f
00000060: aff2 7b3f 21cc 823f 844d 8d3f ad23 8f3f
00000070: 81f5 903f d954 6a3f 0ca4 7d3f 9cc2 8c3f
0.75134903 1.3313826 1.05256 0.7495624 0.97605836 1.3176814 1.1138352 1.0323347
1.026708 1.0324337 1.0290092 0.81350476 1.0856146 1.1440537 1.2590742 1.1020858
0.87195146 1.1095225 1.0924035 0.6673895 0.8911048 0.8813684 0.9957093 1.05229
0.9841718 1.0218545 1.1039281 1.1182762 1.1324922 0.9153572 0.9907844 1.099689

bn2.bias f4 [32]
00000000: db0f 3c3e 298a 49bc c451 7abd e365 34be
00000010: f091 6d3e 30f3 c6bd 7d31 2cbd 0d5e ff3d
00000020: c258 4abd 09fd 113e ce58 ae3e f4d4 0a3c
00000030: 4952 483d 0839 a03d d632 1fbe d220 183d
00000040: 138c 0fbd 94a8 c4bb 091f a13e 6aa2 b53d
00000050: 655e 59bc 6950 743d bd53 05be bff2 53bc
00000060: 4517 9ebd 27e0 f23b 0f76 27bd 0a2a 37bd
00000070: 6eed 7d3d 7320 2a3d b342 52be fee4 643d
0.18365423 -0.012301006 -0.061113134 -0.17616992 0.23200202 -0.09714353 -0.042039383 0.12469111
-0.049401052 0.14256682 0.34052128 0.008473624 0.0489066 0.07823378 -0.15546736 0.037140675
-0.035045695 -0.0060015414 0.3146899 0.08868869 -0.013267134 0.059646998 -0.13020225 -0.012936293
-0.07719282 0.007411975 -0.040884074 -0.044717826 0.06199401 0.041534852 -0.20533256 0.055882446

bn2.running_mean f4 [32]
00000000: cb12 bd3f 3543 fb3e 4b71 743f d62d c53f
00000010: 7b0a b23e b5e4 203f e97f 2e3f 7423 c13f
00000020: 0a07 cb3f 16cb 0440 e4b4 393f 35aa cd3f
00000030: 040f e33f 793e 423f d74e cb3e e24f 743f
00000040: ecd0 993f 465f 453f 8468 7c3f 660a a43f
00000050: f870 773f 19b8 7a3f 33da 5b3f 4e83 133f
00000060: a6b8 ba3f 5d16 ab3e 6ed3 283f 95e9 533f
00000070: f620 2d3f d869 213f a5a7 893f a669 213f
1.477136 0.49074712 0.9548537 1.5404613 0.3477362 0.6284898 0.68163925 1.5088944
1.5861523 2.0748954 0.7254164 1.6067568 1.7738957 0.75876576 0.39708588 0.9543439
1.2016883 0.770985 0.9859698 1.2815673 0.9665675 0.9793716 0.8587982 0.5762223
1.45876 0.334155 0.65947616 0.8277829 0.6762842 0.6305213 1.0754286 0.6305183

bn2.running_var f4 [32]
00000000: 482d c640 cb15 c83f c72e 6b40 a789 1a41
00000010: 0c44 2e3f 9332 1c40 847b d23f da9b c240
00000020: 4423 8e40 25eb fd40 f53e 2740 a7d0 0441
00000030: 3e18 d040 4202 1640 ffe0 863f da2c 8b40
00000040: c85a 9f40 00d0 0240 b9a0 7640 ee5c 8d40
00000050: e198 a340 2eda 8340 5548 3d40 9c15 f53f
00000060: 9259 e340 8ad3 373f 3bf8 1940 f232 4940
00000070: c1b9 0840 4646 fd3f b855 b840 0343 f13f
6.1930275 1.5631651 3.67473 9.658607 0.6807258 2.4405868 1.6443944 6.081525
4.441805 7.934954 2.6132176 8.3009405 6.5029593 2.3438878 1.0537413 4.349225
4.9798317 2.0439453 3.8535597 4.417594 5.112412 4.1203833 2.9575398 1.914722
7.104684 0.7180716 2.4057758 3.1437345 2.1363375 1.9787071 5.7604637 1.8848575

conv3.weight f4 [48, 32, 5, 5]
00000000: d69b 25be d422 5ebe 0f36 45be fe23 89bd
00000010: fe0a 21be f136 b6bd 75ed 083d cab7 4a3d
00000020: 59dc a43d cc31 4a3d fbcc 22be ecb2 47be
00000030: fc12 03be 9ce6 5d3b e7a0 33bd 5048 0abd
00000040: e4c7 4cbd 9514 c53d 9cfb b03d b7cd e33d
00000050: 499b e9bd 33a1 50be 9763 ffbd f80d 65bd
00000060: 614f 7a3c 678c 57be c2ff 893d a5a1 8f3d
00000070: b6bc 4dbe b535 6abe 28bb 803d 529a 03be
00000080: afc1 57bd fa79 6a3d 1206 0cbe 2591 bebd
00000090: 2f7c a1bd 87af 3a3b db72 9d3d c3f3 b4be
000000a0: 9a9c 763d 628e 20be e92d f33d a4f9 dcbd
000000b0: 62f4 8fbe 66ee b8bc 4f07 da3b 00e1 1cbd
000000c0: 193b 09bc 0fb0 09bd c5e3 1e3e 7dd7 d6bd
000000d0: 850e d9bd 5b02 c33e 2a73 ddbd d07b 3c3d
000000e0: b0f0 02be b15e adbd c975 a83e 1cae d0bd
000000f0: 8352 733e 26f9 03be defb 2c3e a5f0 923e
00000100: d4ca 9bbd b8ee 153d f8c3 573c 22cc 92bd
00000110: 3dd0 1a3e 0fe3 afbc cb18 30bc 3b33 9a3d
00000120: 8972 a63c 37d5 683e 5d73 573d aa46 5d3d
00000130: f2eb 28bd 1e34 27bc 6184 e4bd af7a 023c
00000140: c277 a43c ea23 95bd b704 7dbd 72bf 2c3c
00000150: ea66 063d e01a aebc f326 0dbe 8c4d 023d
00000160: af20 553d fce8 fb3d 464b afbc 198b 94be
00000170: 1a0b a43d 1847 d5bb 56b5 f5bc b337 dfbd
00000180: 4331 2fbe f78c cc3d c183 be38 a818 dcbc
00000190: 3a4b 903d 438f 043e 2ae7 433e 0e90 1d3e
000001a0: 3271 553c d5cf 92bd 07f4 0b3e 4336 10be
000001b0: 3b7c 4ebd fc7f 0fbe cb2a 473d 66b8 11be
000001c0: 704f cdbc 1f90 b2bd 6dde 3bbe f8eb 1ebd
000001d0: e42d 06be 53bd ce3c 61af 85bd 2966 9cbd
000001e0: 4c34 8bbd 3ff9 e53c 8a71 c9bd 6e62 cbbd
000001f0: d886 28be ae20 653d 71a5 b2bc 978c f5bb
00000200: b627 d93d 3e66 f6bc a1ea 6f3e ab50 65be
00000210: 2ba7 6cbd 70bb 5b3e e0f0 a13c d9fb a93e
00000220: 69be 9ebe 18d3 d13d 2315 813e 78ba 483d
00000230: 63fe 853e 874c 9dbe 430b 803e 5f12 2e3e
00000240: fe37 a93d d821 143e f9db 1cbe d9b1 043e
00000250: 11de 093e 77c9 d9bd 7109 4ebe 2acf 6bbe
00000260: 024e e3be ac7d 95be 0b1d 59be a271 1b3e
00000270: a8d5 3e3e bd43 b63d 16dc 993d 9dae 053e
00000280: cf16 873e 1d11 6d3e 8fc5 8c3e 1192 5b3e
00000290: ba45 b43d a90e cc3d c418 323d dd33 87bd
000002a0: 5657 46be b86d 60be 9ebb 5c3d 88ab e93d
000002b0: b7d7 c6bd b6d4 87bd 363b 143e 97b6 1d3d
000002c0: e5bc 7dbd f144 41be f18c 29be 7d76 703e
000002d0: af2f a2bd 11f1 7bbc d856 ebbd 50be 24bd
000002e0: 1c52 123d 8ad2 003f cb92 913e 8b75 ae3e
000002f0: 8940 9b3e 40ac 913e 28e5 803d 76a0 8fbd
00000300: 042b d83d c12d b43c db28 1e3c 89cc 713d
00000310: a1e7 063e c68c cb3d 1f9a 1dbe 76f4 74bd
00000320: 26b2 0fbe d9f1 69be 64b5 74bd 3822 16be
00000330: c700 6bbe 9249 0cbe ec62 37be 4b7f be3c
00000340: 02a7 34bd 99f9 14be 8361 0bbe 3ec8 3abe
00000350: 8cc8 abbd f68a 67be 6f96 b539 ffc1 903e
00000360: aff3 5d3e b14d 033e d457 453c 4d8d 833e
00000370: cf5b a63e 243c c63e 4703 f73e 1207 d33e
00000380: 3321 ed3e 0f17 02bc 3b16 e0bd efe8 7abe
00000390: 22b1 a93b cdb6 bebd 7461 233e 5bc2 a93d
000003a0: df9e abbd b8f5 993d 8ce7 573d 0a09 1abe
000003b0: 57e3 7cbe 78bc 86be c5e8 3fbe 72ba 13bd
000003c0: c85f ff3d 5b73 433e b020 5b3d 3bf4 3d3d
000003d0: 20f8 9c3e 921d 433d 8a0e 373e 60eb 013e
000003e0: 0a84 893e 3765 cf3e 771b b33e ce7f 37bd
000003f0: bebe ca3d 9d21 38bd 79f8 5dbd 351c bc3d
-0.16172728 -0.21692973 -0.19258903 -0.06696318 -0.1572685 -0.08897198 0.03342958 0.04949168
0.080498405 0.049363896 -0.15898506 -0.19501847 -0.1280021 0.0033859378 -0.04385462 -0.03376037
-0.049995318 0.09623066 0.08641741 0.11123221 -0.114065714 -0.20373993 -0.12470167 -0.055921525
0.0152777145 -0.21049653 0.06738235 0.07013253 -0.20091519 -0.2287205 0.06285697 -0.12851837
-0.052674945 0.057245232 -0.1367419 -0.09305028 -0.07885014 0.002848597 0.076879226 -0.35342225
0.06020794 -0.15679315 0.11873991 -0.10789803 -0.28116137 -0.022574615 0.0066537033 -0.038300514
-0.008375906 -0.03361517 0.15516575 -0.1049032 -0.105984725 0.38087735 -0.108129814 0.046016514
-0.12787127 -0.084653266 0.32902363 -0.10189459 0.23761944 -0.12888011 0.16892955 0.28699222
-0.07607046 0.036604613 0.013169281 -0.071678415 0.15118499 -0.021470575 -0.010748099 0.07529303
0.020318286 0.22737585 0.052600253 0.05402247 -0.04124064 -0.010205297 -0.11158062 0.00796382
0.020076636 -0.07282241 -0.061772075 0.010543691 0.03281299 -0.02125305 -0.13784389 0.031812236
0.052033123 0.123002976 -0.021398198 -0.29012373 0.0800993 -0.006508719 -0.029993694 -0.10899296
-0.17108636 0.099878244 9.084447e-05 -0.026867226 0.07045598 0.12945275 0.19131151 0.15386984
0.013027476 -0.07168547 0.13667308 -0.14083199 -0.050411444 -0.14013666 0.048624795 -0.14230499
-0.025062293 -0.08718895 -0.18346567 -0.038799256 -0.13103443 0.025236761 -0.065275915 -0.07636673
-0.06797084 0.028072951 -0.09836109 -0.09930883 -0.16457689 0.05593937 -0.021807404 -0.0074935663
0.106032774 -0.03007805 0.23429348 -0.22394054 -0.05777661 0.2145822 0.019768178 0.33199957
-0.31004646 0.10245341 0.2521144 0.049005955 0.26170644 -0.30722448 0.25008592 0.16999196
0.08262633 0.14466035 -0.15318288 0.12958468 0.13463618 -0.106341295 -0.20120789 -0.23028246
-0.44395453 -0.29197443 -0.21202485 0.15180066 0.18636191 0.08899639 0.07512681 0.13054891
0.2638459 0.2315106 0.27494475 0.21442439 0.08802362 0.09963734 0.04348065 -0.06601689
-0.19369254 -0.21916854 0.053889863 0.1140967 -0.09709113 -0.06632368 0.14475712 0.03850421
-0.061947722 -0.18873955 -0.16557671 0.234827 -0.07919251 -0.015377299 -0.114911735 -0.04022056
0.035722837 0.5032126 0.28432307 0.34074053 0.30322674 0.2845173 0.06293708 -0.07013027
0.105550796 0.021994473 0.009653295 0.05903295 0.13174297 0.0993896 -0.15390824 -0.05980345
-0.14032802 -0.22846164 -0.0597433 -0.14661491 -0.22949515 -0.1369994 -0.1790883 0.023254057
-0.044104584 -0.14548339 -0.13611417 -0.18240449 -0.08387861 -0.22611603 0.00034635092 0.28273007
0.21674989 0.12822606 0.012044866 0.2569374 0.3249192 0.3871776 0.48244688 0.41216332
0.46314391 -0.007940068 -0.1094174 -0.2450292 0.0051785866 -0.0931221 0.15955144 0.082890235
-0.08379912 0.0751757 0.052711055 -0.1504251 -0.24696098 -0.26315665 -0.18741138 -0.03606648
0.12469441 0.19086973 0.05349797 0.046375494 0.30658054 0.047635622 0.1787664 0.12687445
0.2685855 0.40506908 0.34981892 -0.04479962 0.098996624 -0.04495393 -0.05419204 0.091850676

conv3.bias f4 [48]
00000000: 35e8 d1bc 2485 5c3e c610 abbc 035c 943e
00000010: 871a a13d f9f0 b0bd 1f32 bdbe e85e 05bc
00000020: f5bd a73e b082 88bd fc61 a5bd ce68 c03d
00000030: 141d 4dbd 5a08 ae3d c47f 133c 34b3 273e
00000040: 1cec 15be e68b 3b3e c5c1 cc3c d7da a63c
00000050: 480e c13d 76cf 95bd e03f 25bb 860b d7bd
00000060: 627c 0b3d ffc9 9b3e 9719 a7bc 9206 94be
00000070: 86f1 17be 35f1 1c3d fa0e a9bd 2bf0 a4be
00000080: b851 3dbe 5517 563d fbbe 073e 5b6d eebc
00000090: e74b 30be 8a83 ecbd f584 25bf e52f 16be
000000a0: 79a4 05be 4e84 f0bb 49af afba d577 4c3d
000000b0: 11ac 9fbe 249b c63c 06ee 2fbe cc2a 95be
-0.02562342 0.21535164 -0.020882022 0.2897645 0.07866388 -0.08639712 -0.36952302 -0.008140303
0.32762113 -0.06665552 -0.0807533 0.0939499 -0.05007656 0.08497687 0.00900263 0.16376954
-0.1464085 0.18315086 0.02499474 0.020368023 0.09426552 -0.07314961 -0.0025215074 -0.10500245
0.034054168 0.30427548 -0.020397944 -0.28911263 -0.14838228 0.03831597 -0.0825481 -0.32214484
-0.18488204 0.052268345 0.13256447 -0.02910488 -0.17216454 -0.115485266 -0.64656 -0.14666708
-0.13051023 -0.0073399907 -0.001340368 0.04991897 -0.31185964 0.024243899 -0.17180642 -0.29134214

bn3.weight f4 [48]
00000000: acbb 8c3f 2d9f 903f ff5c 9e3f 5399 a83f
00000010: 9952 8d3f 10c9 883f f4a8 893f e146 3d3f
00000020: f143 953f 6345 873f d51f 833f 25b0 8f3f
00000030: b7be c13f 95d7 a93f 16ad 783f cd6a 9d3f
00000040: d049 9d3f aca5 8e3f e6f1 823f 9a5a 843f
00000050: 7688 aa3f f2a2 9b3f 76e4 9d3f 3ca0 613f
00000060: d329 b63f 8d20 783f 2555 ac3f 8961 6a3f
00000070: 6e97 693f 886d 883f aa45 8b3f 3063 4a3f
00000080: 967c 9c3f 1e0b 563f 02f8 923f 0ed5 9c3f
00000090: 9e50 293f 702e 863f ffdc 633f c168 803f
000000a0: 59db 933f e515 8a3f 19a4 833f 560e 993f
000000b0: 1d72 7a3f 1fe1 873f cf15 863f 8584 a83f
1.0994773 1.1298577 1.237213 1.3171791 1.1040832 1.068636 1.0754685 0.7393628
1.1661359 1.056805 1.0244089 1.122563 1.5136327 1.3268915 0.9713911 1.2298218
1.2288151 1.1144309 1.0230072 1.0340149 1.3322895 1.2159102 1.2335346 0.88135123
1.4231514 0.9692467 1.3463484 0.91555077 0.9124669 1.0658426 1.0880635 0.790576
1.2225521 0.83610713 1.1481936 1.2252519 0.6613864 1.0482922 0.8900909 1.0031968
1.1551315 1.0787932 1.0284454 1.19575 0.97830373 1.0615577 1.0475405 1.3165442

bn3.bias f4 [48]
00000000: dd98 ce3b aeb7 063e 5190 073b 6603 5c3c
00000010: 4455 30bd fc33 8d3d 6018 4bbd 5c86 fc3d
00000020: 7ff4 63bc 1d7a 143a 4047 973d 0608 c73c
00000030: 423a 8c3d dc3b 2a3d f86b 843c 9cba 863d
00000040: 15fd 99bc 2526 463d 938b 083e 8dd4 473e
00000050: d382 683d 253c 293e 9ad4 063e babf ca3d
00000060: f2ab f13d 8406 373e 03d2 a53d 8cfb cb3b
00000070: 78c1 a53c ae3f 0bbd d465 6c3c e376 fd3d
00000080: 65d0 063d f53c 173e 3594 003e 7291 efbb
00000090: e2d2 2bbd 63af 4cbe b8e6 673e a00c 813e
000000a0: f434 c83e 000a 3b3d 5084 b33d aa95 663e
000000b0: 742a 9f3d 6d8d 393e 0a3b 393e 6bf2 ebbd
0.006304844 0.13156006 0.0020685385 0.013428545 -0.043050066 0.06894681 -0.049583793 0.123303145
-0.013913273 0.0005663948 0.07386637 0.024295818 0.06847049 0.041560993 0.016164765 0.06578562
-0.018797437 0.04837622 0.13334493 0.19514675 0.05676539 0.1652685 0.13167039 0.0989985
0.11800374 0.1787358 0.08096697 0.006225055 0.020233855 -0.033996277 0.014428575 0.123761915
0.032913584 0.14769347 0.12556536 -0.0073110396 -0.04194916 -0.1998878 0.22646606 0.25204945
0.391029 0.045663834 0.08765471 0.2251803 0.07771769 0.18120356 0.18088928 -0.11520847

bn3.running_mean f4 [48]
00000000: 5e53 8340 3154 9e40 9b14 8640 ca98 b040
00000010: 0082 9640 a879 2540 c26c 6640 bf4c 8740
00000020: 5e47 c640 42a6 9240 b4a6 7b40 e453 8b40
00000030: 28b0 8840 013e c640 b9ef 8b40 cf1c 9a40
00000040: e998 9a40 a99f ae40 70f2 8740 62fa 7740
00000050: 8c3b bc40 bde2 8440 65e9 4940 d39c 4040
00000060: edfe 9e40 09a1 7840 8bf3 7b40 75ca 9040
00000070: f991 7a40 fa9f 6b40 aa47 3840 0cbb 5840
00000080: bf63 6840 be00 bb40 2663 be40 aeb6 b340
00000090: 28aa 5240 5e40 8d40 8659 5040 b8d8 b540
000000a0: a795 9e40 ffea 7940 1b97 d640 3b48 b040
000000b0: 59ad 7140 c950 f040 2afc be40 e7ab 6840
4.1039267 4.9477773 4.1900153 5.518651 4.703369 2.5855503 3.600388 4.2281184
6.196212 4.582795 3.9320498 4.3539906 4.2715034 6.195069 4.373013 4.8160167
4.831166 5.45699 4.2483444 3.8746572 5.882269 4.152678 3.1548703 3.0095718
4.968619 3.8848288 3.9367397 4.524714 3.9151595 3.6816392 2.879374 3.3864164
3.631088 5.8438406 5.949603 5.61605 3.2916355 4.4141073 3.255464 5.682705
4.955768 3.904968 6.7059455 5.508817 3.7762053 7.5098615 5.9682817 3.635492

bn3.running_var f4 [48]
00000000: f556 f941 2c8d 3f42 9294 2342 7ae7 2f42
00000010: 5382 2a42 e6d0 e741 504f 3a42 8482 2042
00000020: c72a 8042 15b4 9e42 5197 4042 d400 2442
00000030: 3001 0642 5232 5942 ba0c 8e42 0024 8542
00000040: 4dc8 3f42 0136 1c42 7d6b 2042 a3d0 1842
00000050: ba27 6242 1dbc 4842 3eef 0242 d095 1242
00000060: d347 7842 0287 1042 8e98 0742 7017 8242
00000070: 9861 6842 640e 2442 d925 0c42 f823 3e42
00000080: a794 2d42 ae29 3b42 cbbb 4c42 b029 9342
00000090: 0f3d 0542 fc68 2d42 3c29 5842 cde1 8942
000000a0: 8f86 5c42 c36d 0942 8748 9242 0051 8142
000000b0: 0c0d 4d42 6913 ec42 3882 b142 6200 6642
31.16746 47.887863 40.89509 43.97605 42.62727 28.977001 46.577454 40.127457
64.08355 79.35172 48.14777 41.00081 33.50116 54.29914 71.02486 66.57031
47.945606 39.05274 40.10497 38.203747 56.538795 50.183704 32.733635 36.6463
62.07014 36.131844 33.89898 65.04578 58.095306 41.014053 35.03696 47.535126
43.39517 46.790703 51.18339 73.58142 33.309628 43.352524 54.040268 68.94102
55.131405 34.35719 73.141655 64.6582 51.26274 118.03791 88.75433 57.500374

cnn.0.weight f4 [8, 2, 5, 5]
00000000: 77b8 9c3d 8f75 c6bd ad02 f73c cbdb 7f3c
00000010: 544e 983d c906 9b3e 7f98 983e dbda 803e
00000020: ccfd a73e 4c5a da3d ae52 813d fce7 a9bc
00000030: 8a38 debd afd2 05bd 1a83 b13d beff 2cbe
00000040: 0081 a1be bbc0 cfbd 5f66 77be 51bf 473c
00000050: ca62 c0be d9cf a1be 7830 f8bc 5fce 33be
00000060: b30c 24be 2193 813b 96b4 16be 364c 283c
00000070: 6313 8e3d 3559 8cbd d986 bf3d 8ed3 843e
00000080: 224e 023e 1908 903e 783d 953e 6113 933c
00000090: 1902 9cbb cbd5 ca3d 6dd8 673c 6593 3e3e
000000a0: 9bfd 84bd 203a bfbe 1af0 5ebe 5325 85bc
000000b0: 7693 07be 9a97 86bd 651e 99be dd0f 42be
000000c0: 8f4e 55bd b97a a4bd 1170 30be fe58 ae3d
000000d0: d5aa 4dbd 15f7 fb3c a4d0 05bc 9fe9 18be
000000e0: ab5a 8cbe f3d3 83be f1d4 5fbc 3c56 253e
000000f0: bf4a 2ebe 3316 aebc 83d3 e0bd b544 86bd
00000100: dc47 853e 4714 a2be 9f5f dd3d 6f79 843e
00000110: 5ae4 1c3e eabe 413e 8b1e 25be 4d40 813e
00000120: 5c9a 793e ef06 6c3e 7e5e 39be 80ed 97bc
00000130: df40 6c3d d6c9 66bc 9a64 073d df61 423d
00000140: 4dcb 38be 64c9 1bbe 8554 b3bd ce3f 33be
00000150: 79e0 d13b 2ece 1cbe 7163 57be dea7 87be
00000160: aa96 c53d 1cf4 243e 1ffc adbe 7adf 113e
00000170: 0745 483e c16b 463e c03b adbb a8dd 5dbd
00000180: 1f6f a63d fb2f 3c3e e714 90bc a4bb 17be
00000190: 0675 52be 9287 dbbd 6232 8dbd c556 313e
000001a0: f081 583e 0a98 993d 4e63 17bd 35c1 233c
000001b0: b411 dfbd a640 3f3d 6c22 1d3e 9287 103e
000001c0: 36b5 01be 9d8e 5cbe 671d acbd 8564 203e
000001d0: 842b 973e ef76 eb3d 7bf1 c6bc 56cf b6bd
000001e0: 8c63 3d3c a90f 2f3e b037 663c 507d 62be
000001f0: cc84 3abe 0ad7 e3bd 94de 333b 209d ce3d
00000200: 4bfb be3d 4b03 f23d 90ae aebd 99f6 28be
00000210: 5ccd fdbd 610d eebd 502b a6bd 1ccd 153e
00000220: a7d7 4f3e 97fa 0cbc 0612 a7bd 2265 cdbd
00000230: 720e 7e3e 04b8 9f3e 41df 413e b8bf 08be
00000240: 1855 ebbd 4599 d7bb 9fab 553e 22ad 6ebb
00000250: 13f1 0fbe b5a4 5fbe ce43 8bbd bd93 1a3e
00000260: ad1f 113e 5bc7 db3d 9d58 1a3e 10cc cb3d
00000270: a5bf 193e e3c3 ed3d 82b6 3a3e fe75 713e
00000280: 1bcb 11be 2ae7 94be 7ad1 8abe 2b34 75be
00000290: 744d 68be e129 9dbe be03 96be daa2 81be
000002a0: ae81 8dbd db29 0d3d 8986 273d 7fcd 3e3e
000002b0: 54d3 4b3e 18fa 6f3d 047f 833d 1270 303e
000002c0: fb48 653c 73bf 763d c829 b93c 1cb3 853d
000002d0: afc8 4b3e 95f6 463e 62ed 533e 45b6 123e
000002e0: a762 b53d 70db a5bd 3285 a5be 3367 97be
000002f0: ac49 f0bd 104a 51be 569d 4bbe bd98 46be
00000300: e7af 1c3c 99bd 55be a5ae 82bd bc53 41bd
00000310: 5655 e23d eefc 183e 946d 4b3c 27ef 433d
00000320: 7e38 5f3d ed1a a73e 11e1 ed3d db79 bf3e
00000330: 638c 9e3d c9af d83d fadc 7abb b987 523e
00000340: 78f5 883e 29dc 933c 7539 a0bc 0390 9cbd
00000350: 6900 efbd 5700 2b3e 056f 67bd 8ce7 ecbd
00000360: 7c56 9e3b 8c18 17ba 67d5 1cbe f7e1 43be
00000370: 8669 28bd 9aa2 d5bd f4ac 34bd cca1 fcbd
00000380: 13d8 24be 65c5 493e 74a3 463e a919 ba3e
00000390: 7386 e63d 3603 11bd 0257 39be 549f 253e
000003a0: 9859 873e 0843 813e c021 73be 51d7 2bbe
000003b0: b45c 923d 1a1e e33d ae2f c1bc ce26 97be
000003c0: 8cbd 01be e73e adbd 4769 33be 701e 503d
000003d0: 0177 b5be 392f 9cbd e342 0bbe 392d bd3c
000003e0: 0c73 49be 67a4 b7be 3925 97bd 252f bbbd
000003f0: 545d e63d ebf5 3bbe 70ca b2be e3ee 76be
0.076523714 -0.09690391 0.030152643 0.015616368 0.07436815 0.30278614 0.29803845 0.25166973
0.3281082 0.10661754 0.06314598 -0.020740502 -0.10850628 -0.032671627 0.08667584 -0.16894433
-0.31543732 -0.10144182 -0.24160145 0.0121916095 -0.3757537 -0.31603888 -0.03029655 -0.17559193
-0.1602047 0.0039543067 -0.14717326 0.010272076 0.069372915 -0.068529524 0.09351892 0.25942653
0.12725118 0.28131178 0.2914846 0.017953577 -0.0047609922 0.09904059 0.014150721 0.18610914
-0.06493684 -0.37349033 -0.21771279 -0.01625315 -0.13239846 -0.065718845 -0.29906002 -0.18951364
-0.052076872 -0.0803122 -0.1723025 0.08513068 -0.050211746 0.030757466 -0.00816742 -0.1493287
-0.27412924 -0.25747642 -0.013661609 0.16146177 -0.17020701 -0.02125082 -0.10977843 -0.065560736
0.26031387 -0.31656095 0.10809254 0.25873896 0.15321484 0.18920484 -0.16124932 0.2524437
0.2437529 0.2304952 -0.18102452 -0.018545866 0.057679053 -0.014086207 0.033054926 0.04745662
-0.18046303 -0.15213543 -0.08756355 -0.17504808 0.006404933 -0.15313026 -0.21034028 -0.2649526
0.096478775 0.16108745 -0.33981416 0.14245406 0.19557582 0.19377042 -0.005286664 -0.054166466
0.081266634 0.18377678 -0.017588092 -0.14817673 -0.20552453 -0.10719217 -0.068943754 0.17318256
0.21143317 0.07499702 -0.03695994 0.009994795 -0.108920485 0.046692513 0.15345162 0.14114216
-0.12666783 -0.21538778 -0.084040456 0.15663345 0.29525387 0.11497294 -0.024285069 -0.08926265
0.011559378 0.17095818 0.014051363 -0.22118115 -0.1821472 -0.11125 0.00274459 0.10088563
0.09325274 0.11817034 -0.08529389 -0.1650032 -0.12392685 -0.116236456 -0.0811373 0.14629024
0.20297109 -0.008604667 -0.081577346 -0.10029055 0.24810198 0.3119508 0.18932821 -0.13354385
-0.1149084 -0.0065795504 0.2086625 -0.0036419113 -0.14056806 -0.21840174 -0.06800042 0.1509542
0.1417224 0.107313834 0.15072866 0.09951031 0.15014513 0.11609628 0.18233684 0.23580167
-0.14237635 -0.29082614 -0.27112943 -0.23945682 -0.22685796 -0.30696014 -0.2929973 -0.25319558
-0.069095 0.034463745 0.040899787 0.18633078 0.19904834 0.058588117 0.06420711 0.17230251
0.013994451 0.060241174 0.02260293 0.06528303 0.19900773 0.19430001 0.20696023 0.14327343
0.08856707 -0.08098495 -0.32328182 -0.29570922 -0.11732802 -0.20438409 -0.19884238 -0.19394203
0.009563423 -0.20873107 -0.06380967 -0.047198996 0.11051433 0.14940235 0.012416262 0.047835495
0.054497235 0.3263773 0.11615194 0.37397656 0.077416204 0.10580403 -0.0038278685 0.20559587
0.26749778 0.018049316 -0.019558648 -0.076446556 -0.1167 0.16699348 -0.05650236 -0.115676016
0.004832087 -0.00057638506 -0.15315782 -0.19129167 -0.04111626 -0.104314044 -0.044110253 -0.12335548
-0.16098051 0.19704206 0.1939829 0.36347702 0.11256113 -0.035403453 -0.18099597 0.1617406
0.26435542 0.25246453 -0.23743343 -0.16781355 0.07146588 0.11089726 -0.023582306 -0.29521793
-0.12669963 -0.08459263 -0.17520629 0.050810277 -0.35442355 -0.076261945 -0.13599734 0.023092853
-0.19672793 -0.35867617 -0.073801465 -0.091398515 0.1124827 -0.18355529 -0.34920073 -0.24114566

cnn.0.bias f4 [8]
00000000: 6feb 923c 8369 cc3c c759 1bbf 1310 8e3e
00000010: 983c b83e 3990 81be d509 acbe f6e5 ab3d
0.01793453 0.024952656 -0.60683864 0.2774664 0.3598373 -0.25305346 -0.3360125 0.08393471

cnn.2.weight f4 [8]
00000000: 8f0d 6b3f f1fc 2e3f 10e2 aa3f 6fa6 6a3f
00000010: ef41 653f e7a7 5f3f d2cb 5e3f 5c48 603f
0.91817564 0.6835471 1.3350239 0.9166021 0.8955373 0.87365574 0.87029755 0.8761041

cnn.2.bias f4 [8]
00000000: 145f 903e b554 fb3d 5c7d e43d 954d d63d
00000010: 47e8 a63e 68d4 043f a98c 1f3e ccb1 823e
0.2819754 0.12272016 0.11156723 0.10464016 0.3259909 0.51886606 0.15581001 0.25526273

cnn.2.running_mean f4 [8]
00000000: bf80 103f 52c6 f33e 09c3 303e 70e7 123f
00000010: 4786 3f3f 5845 aa3f fcea b23f a588 053f
0.5644645 0.47612244 0.172619 0.57384396 0.74814266 1.3302412 1.3977962 0.5216163

cnn.2.running_var f4 [8]
00000000: 0f20 183f 2d8c 013f 48ed 643e 0af5 e73e
00000010: e781 4c3f 892f 8840 4516 a840 d952 4b3f
0.5942392 0.50604516 0.2235614 0.45304137 0.79885715 4.2558026 5.2527184 0.7942329

cnn.3.weight f4 [32, 8, 5, 5]
00000000: 4b7b ae3d d297 d13d 0c31 c63d c27e 12be
00000010: 78e3 14bd 606f 793d 9d8d ba3d 2a7c 373e
00000020: eb29 91bb bd38 d23d 6b1e a9bd 8138 293a
00000030: b0e7 333d d8a1 3dbe d449 13be d59b 693d
00000040: 0687 d83d 0a68 353e 2b03 00be a7fd 813d
00000050: c35e 2c3f 278b 1f3f 4979 0d3f 4804 cb3e
00000060: d342 ac3e d07e 863d 740e d33d ac8a 1b3e
00000070: d2d1 583d fe9a 85bc cbb3 083e 4d9c 603d
00000080: 7f6d c23b af4d ae3d f802 8dbd 21c7 fb3c
00000090: 7ada 90bc b71e 51bd a63e ddbd 51d8 6dbe
000000a0: af0d a03d bb7c 7e3d 205a 9bbc e77c 2bbe
000000b0: c171 bfbd 7e0a 1ebd 7eb0 cd3b a787 a4bc
000000c0: 097d 08be 7437 2cbe 5800 2ebe 7c3b 813c
000000d0: 4230 ffbd ecd5 653e 94a5 19bd 7014 52be
000000e0: 1bb8 2cbe a3f7 13be 793f 813d 7c38 b2bd
000000f0: 807f ddbd 7f48 8bbd 42e9 22be 1114 fb3d
00000100: d0f3 dc3d 2473 43bd bf0d 18be e0da f2bc
00000110: 75a3 05bd 4656 6c3d 81da f7bb 3ddb 29be
00000120: 903d a2be a6e7 23be 34f3 f9bd a36f b53c
00000130: dd8a d6bd 5986 b73d ee8b 2ebe bac5 c63d
00000140: 7f00 383e ec1b 923e 5d23 a53e 300a 5b3e
00000150: fc8a 8a3e 4b2e 31bd f385 6dbb a2a9 a03d
00000160: c8ad 51be e027 bbbd 42ed 97bb f719 933d
00000170: 36e2 fb3c 538d 12bd 4dd3 b33c 60b8 813e
00000180: 7a9e 113e f502 753e 9d53 b23d 5c99 463d
00000190: 78bd 72be 4d9a 66be e4f0 853c 82cc 3d3c
000001a0: 9c0e 11be 364c 22bd f4d1 bbbd 5cf2 f13d
000001b0: e306 8a3d 7b61 db3c 204f 26be 7f49 14be
000001c0: 3715 90bd e6fd 97bd fd99 79be 01bc 96bd
000001d0: a687 1c3c f9dc f53d 50bd 923b 93c0 fdbd
000001e0: ad95 24be 546a a3be 4892 1ebe 086e 29be
000001f0: 25fc cebe cdd8 093d 3e09 86bd dcdb 40be
00000200: a019 46bc 1820 febd eb1f 813d 6e72 c03c
00000210: 0674 22be 9641 12bd 55d6 19be fb7b 243e
00000220: 86f4 e43d c58f a23d 8bc6 8c3c aaeb a13d
00000230: fe48 f13d a45b 563e 630e 063d 2a1c 57bd
00000240: bc2e 643d 1a32 ad3e cf80 993e 58c5 2a3e
00000250: e195 213d 47eb f53d 7feb 1a3d 3529 fc3b
00000260: 1c85 cb3d 1d45 9e3d e44d f83c 4857 e8bd
00000270: ec53 83bc 68c8 c83d 0d65 d03c 0b5f 90bd
00000280: 9741 a9bd 8871 85bd 60e7 6d3d 1bb1 b1bc
00000290: f592 08be 4f02 49be 40ec 53be 36da 43bd
000002a0: 9e38 3dbe f6a1 48be ae2b 41be 437c 2abe
000002b0: 6fd1 56bd 96db 57be be5d d6bd 2f49 0cbd
000002c0: 86b4 be3d d9cb d5bc d6b6 813b 7c25 03bc
000002d0: b97f 2bbe f157 0bbe a003 6ebe 4efd 52be
000002e0: ad2b 45be 5c86 f5bd da8a f8bd ac42 a8bd
000002f0: 97e3 70be 80be 4abd 09a6 463d aae3 4ebd
00000300: b9c7 94bd ea0f c6bd a61c 3cbb d35c 79bd
00000310: 4efb 25be d429 20be 5eb4 65be 707a 4c3d
00000320: 97b3 583e 4d50 7ebc b4e7 31be ecca 00be
00000330: e0d8 0ebe 2c9a 963e c233 0ebd 430a 923c
00000340: ecf1 61be 0840 7dbe 4775 5e3d 65c3 46be
00000350: 7bb1 c0bd befa 0a3d f8a9 153d 01d4 3dbe
00000360: f90d b4bd 2387 013d 1e05 033e 61b3 703e
00000370: 6a80 97be f5f3 bfbe dc33 dcbd c684 b93d
00000380: b2c4 293e d692 07bd a3f8 87bd 8650 d73d
00000390: b10b a33e f1f7 1e3e d0ea 8dbe 1e9d 8abd
000003a0: e49e b83d 0db5 f03d c1a8 debd 0881 64bd
000003b0: d806 a73e 2f12 bc3e f3ab a4bc 1a6b b7bd
000003c0: 8e41 3a3c f196 6e3d bf23 48be b31b 20be
000003d0: cd89 b83d 6d99 cc3d f2e6 8e3d 6592 e7bd
000003e0: 3d9a 60be 2327 6abe ccd8 a0bd b9a2 80be
000003f0: a53a 50be 3603 62be 9c79 0b3e cf5f 783d
0.0851961 0.102340356 0.09677324 -0.14306167 -0.036349744 0.06089723 0.09109042 0.17918459
-0.004430046 0.10264728 -0.08257755 0.0006455258 0.043922126 -0.1851877 -0.14383632 0.05703338
0.10572629 0.17715469 -0.12501208 0.063472085 0.67332095 0.62321705 0.5526319 0.39651704
0.33644733 0.06567156 0.10305491 0.15189618 0.052934475 -0.016309258 0.13349836 0.05483656
0.005933463 0.08510911 -0.06885332 0.0307346 -0.017682303 -0.051054683 -0.10802965 -0.2322705
0.0781511 0.06213067 -0.018963873 -0.16746865 -0.09347869 -0.038584225 0.006277143 -0.020084215
-0.13328947 -0.16818029 -0.16992319 0.015775435 -0.12460376 0.22444886 -0.037511423 -0.20515609
-0.16867106 -0.14449935 0.063109346 -0.0870218 -0.10815334 -0.06800937 -0.15909293 0.12259687
0.10788691 -0.04771723 -0.14848994 -0.029645383 -0.032626588 0.057699464 -0.0075638895 -0.16587539
-0.31687593 -0.16006336 -0.122045904 0.02214796 -0.10475705 0.08961172 -0.17045566 0.09705682
0.17968939 0.28536928 0.32253543 0.21390605 0.27059162 -0.04325704 -0.003624317 0.07844855
-0.20476449 -0.09138465 -0.0046364376 0.07182687 0.030747514 -0.03577931 0.021951342 0.2533598
0.1422061 0.2392691 0.08707354 0.0484861 -0.23705089 -0.22519799 0.016350217 0.011584403
-0.1416573 -0.03962346 -0.09170905 0.118138045 0.06739595 0.02677988 -0.16241121 -0.14481162
-0.070352964 -0.07421474 -0.24375148 -0.07360078 0.0095538255 0.12005038 0.004478134 -0.12390246
-0.16072722 -0.3191706 -0.1548549 -0.1654588 -0.40426746 0.033654023 -0.065447316 -0.1883387
-0.01209107 -0.12408465 0.06304916 0.023492064 -0.15864572 -0.03570708 -0.15023167 0.1606292
0.11179452 0.07937578 0.017184516 0.079062775 0.117815 0.20933396 0.032728564 -0.052517094
0.055708632 0.33827287 0.29981086 0.16676843 0.039449576 0.12007766 0.037822243 0.007695342
0.09937498 0.07728026 0.030310579 -0.113447726 -0.016031228 0.098038495 0.02543881 -0.07049378
-0.082644634 -0.06515795 0.058081985 -0.021690896 -0.1333731 -0.19629787 -0.20695591 -0.047815524
-0.18478629 -0.19593033 -0.18864319 -0.16648965 -0.052445825 -0.21079859 -0.10467099 -0.03424948
0.09311776 -0.026098179 0.0039585633 -0.008004542 -0.16747941 -0.13607766 -0.2324357 -0.2060444
-0.19254942 -0.11988518 -0.12135859 -0.08215842 -0.23524319 -0.04949808 0.048498187 -0.050510086
-0.072646566 -0.09671004 -0.00287036 -0.06087954 -0.16209146 -0.15640956 -0.22432086 0.049921453
0.21162258 -0.015522075 -0.17373544 -0.12577409 -0.13949919 0.294145 -0.03471733 0.017827159
-0.22064942 -0.24731457 0.054311063 -0.19410475 -0.09408852 0.033930533 0.036539048 -0.18537904
-0.087917276 0.031623017 0.12794921 0.23505928 -0.2959016 -0.37490812 -0.10752079 0.09058528
0.1657894 -0.033099018 -0.066392206 0.105134055 0.31844857 0.1552427 -0.2771821 -0.06768249
0.09014681 0.11753283 -0.10872031 -0.055787116 0.3262241 0.36732623 -0.020101523 -0.08955975
0.0113681685 0.058249418 -0.19544886 -0.15635566 0.090106584 0.09990201 0.06977643 -0.113072194
-0.21933837 -0.22866492 -0.07853851 -0.25124148 -0.20334871 -0.22071537 0.13620609 0.060638245

cnn.3.bias f4 [32]
00000000: c888 aabe 175e edbe 7a73 8cbe 393a 3abe
00000010: f161 2bbe a909 2fbf 15c3 96be 0191 62bd
00000020: ca9b 3bbe deef 54be a8f8 c5be ed52 1bbf
00000030: 429c a8bd 20e0 ddbd fa6e 55be b88f c4be
00000040: d895 15be 8929 9c3d a45e b53d 3e90 dbbe
00000050: 384d 8ebe 90f7 553e 392b 70bd 2831 64be
00000060: c68e 16bf 71c6 c5bd cf48 e8be 0ccd e0be
00000070: 2292 5dbe 4940 bdbd 1b6f b1be aaa0 d2bd
-0.3330748 -0.46360847 -0.27431852 -0.18186273 -0.1673658 -0.68374115 -0.2944571 -0.055314068
-0.18321148 -0.20794627 -0.38666272 -0.6067341 -0.08232929 -0.10833764 -0.20843115 -0.383909
-0.14607942 0.0762511 0.08855942 -0.42883486 -0.27793288 0.20895219 -0.05863497 -0.22284377
-0.58811605 -0.0965699 -0.4536805 -0.43906438 -0.21637776 -0.09240777 -0.3465508 -0.102845505

cnn.5.weight f4 [32]
00000000: 6958 403f bf6a aa3f 49ba 863f 52e3 3f3f
00000010: f6de 793f c9a9 a83f 2792 8e3f 8b23 843f
00000020: 2b6b 833f ca26 843f 93b6 833f d941 503f
00000030: 6bf5 8a3f 5a70 923f 5829 a13f 2611 8d3f
00000040: 3638 5f3f d504 8e3f e1d3 8b3f 0ada 2a3f
00000050: 721f 643f 5ca1 613f cee6 7e3f 70b1 863f
00000060: aff2 7b3f 21cc 823f 844d 8d3f ad23 8f3f
00000070: 81f5 903f d954 6a3f 0ca4 7d3f 9cc2 8c3f
0.75134903 1.3313826 1.05256 0.7495624 0.97605836 1.3176814 1.1138352 1.0323347
1.026708 1.0324337 1.0290092 0.81350476 1.0856146 1.1440537 1.2590742 1.1020858
0.87195146 1.1095225 1.0924035 0.6673895 0.8911048 0.8813684 0.9957093 1.05229
0.9841718 1.0218545 1.1039281 1.1182762 1.1324922 0.9153572 0.9907844 1.099689

cnn.5.bias f4 [32]
00000000: db0f 3c3e 298a 49bc c451 7abd e365 34be
00000010: f091 6d3e 30f3 c6bd 7d31 2cbd 0d5e ff3d
00000020: c258 4abd 09fd 113e ce58 ae3e f4d4 0a3c
00000030: 4952 483d 0839 a03d d632 1fbe d220 183d
00000040: 138c 0fbd 94a8 c4bb 091f a13e 6aa2 b53d
00000050: 655e 59bc 6950 743d bd53 05be bff2 53bc
00000060: 4517 9ebd 27e0 f23b 0f76 27bd 0a2a 37bd
00000070: 6eed 7d3d 7320 2a3d b342 52be fee4 643d
0.18365423 -0.012301006 -0.061113134 -0.17616992 0.23200202 -0.09714353 -0.042039383 0.12469111
-0.049401052 0.14256682 0.34052128 0.008473624 0.0489066 0.07823378 -0.15546736 0.037140675
-0.035045695 -0.0060015414 0.3146899 0.08868869 -0.013267134 0.059646998 -0.13020225 -0.012936293
-0.07719282 0.007411975 -0.040884074 -0.044717826 0.06199401 0.041534852 -0.20533256 0.055882446

cnn.5.running_mean f4 [32]
00000000: cb12 bd3f 3543 fb3e 4b71 743f d62d c53f
00000010: 7b0a b23e b5e4 203f e97f 2e3f 7423 c13f
00000020: 0a07 cb3f 16cb 0440 e4b4 393f 35aa cd3f
00000030: 040f e33f 793e 423f d74e cb3e e24f 743f
00000040: ecd0 993f 465f 453f 8468 7c3f 660a a43f
00000050: f870 773f 19b8 7a3f 33da 5b3f 4e83 133f
00000060: a6b8 ba3f 5d16 ab3e 6ed3 283f 95e9 533f
00000070: f620 2d3f d869 213f a5a7 893f a669 213f
1.477136 0.49074712 0.9548537 1.5404613 0.3477362 0.6284898 0.68163925 1.5088944
1.5861523 2.0748954 0.7254164 1.6067568 1.7738957 0.75876576 0.39708588 0.9543439
1.2016883 0.770985 0.9859698 1.2815673 0.9665675 0.9793716 0.8587982 0.5762223
1.45876 0.334155 0.65947616 0.8277829 0.6762842 0.6305213 1.0754286 0.6305183

cnn.5.running_var f4 [32]
00000000: 482d c640 cb15 c83f c72e 6b40 a789 1a41
00000010: 0c44 2e3f 9332 1c40 847b d23f da9b c240
00000020: 4423 8e40 25eb fd40 f53e 2740 a7d0 0441
00000030: 3e18 d040 4202 1640 ffe0 863f da2c 8b40
00000040: c85a 9f40 00d0 0240 b9a0 7640 ee5c 8d40
00000050: e198 a340 2eda 8340 5548 3d40 9c15 f53f
00000060: 9259 e340 8ad3 373f 3bf8 1940 f232 4940
00000070: c1b9 0840 4646 fd3f b855 b840 0343 f13f
6.1930275 1.5631651 3.67473 9.658607 0.6807258 2.4405868 1.6443944 6.081525
4.441805 7.934954 2.6132176 8.3009405 6.5029593 2.3438878 1.0537413 4.349225
4.9798317 2.0439453 3.8535597 4.417594 5.112412 4.1203833 2.9575398 1.914722
7.104684 0.7180716 2.4057758 3.1437345 2.1363375 1.9787071 5.7604637 1.8848575
