models/optimized-speaker_1.5s.model (torch, 238493 bytes, 78 tensors)

conv1.weight f4 [8, 2, 5, 5]
000000 f7 cf d2 3d ac 51 23 be 24 2c f3 bc b9 36 ae 3c
       0.102935724 -0.15949124 -0.029684134 0.021266328
000010 e8 3a 18 be 47 f6 61 bb 82 13 db bd bd 55 7e be
       -0.14866221 -0.0034479068 -0.1069708 -0.24837394
000020 0a a0 12 be 27 d3 12 be 41 e0 9c be 16 97 36 be
       -0.14318863 -0.1433836 -0.30639842 -0.17831072
000030 3c b7 c9 bd f6 f2 17 be 76 c7 e3 bd 0b 11 25 3e
       -0.09849402 -0.14838776 -0.111220285 0.16119783
000040 c4 82 07 3e 0d a6 98 3e e6 0e 95 3e c6 7e 12 3e
       0.13233477 0.29814187 0.2911293 0.14306173
000050 a3 d1 a5 bc bb 87 09 bd 21 fe 52 3e 17 12 31 3e
       -0.020241564 -0.03357671 0.20604755 0.17292057
000060 13 6f c7 3c e2 80 a4 bd f0 f2 e0 bd 52 d3 11 be
       0.024344957 -0.08032395 -0.10983837 -0.14240769
000070 2b fc ae 3b 06 f3 e4 bd 45 49 3d be ff f1 0a be
       0.0053401194 -0.111791655 -0.18484981 -0.13568877
000080 39 a4 e7 bd 6d 1c 55 be 26 2d 13 3d 83 39 3e be
       -0.1131062 -0.20811625 0.03593173 -0.18576626
000090 e8 94 62 be f1 a1 54 be 3b 87 15 be 3b 68 16 be
       -0.22127116 -0.207649 -0.14602368 -0.14688198
0000a0 e9 79 8b 3e 81 d2 89 3e 96 d8 97 3e e7 21 db 3d
       0.27241448 0.26918414 0.2965743 0.10699826
0000b0 c1 b1 65 3e 76 8d 15 3e fa 29 26 3e ab 77 cd 3d
       0.22431089 0.14604744 0.1622695 0.100325905
0000c0 df db ed 3d 8e 9b 39 3e 34 71 8d be fc 8e bf be
       0.11614203 0.18125746 -0.2762543 -0.37413776
0000d0 f4 4b 13 be b9 db d9 be 36 19 c9 be 69 73 2c be
       -0.14384443 -0.42550448 -0.39277047 -0.168409
0000e0 5f a1 67 bd 05 c0 de bd 0b 15 b8 3c 7f 2d 26 be
       -0.05655038 -0.108764686 0.022470972 -0.16228293
0000f0 23 8d 53 3e 82 7b ac 3d 55 d6 47 3e 5d af 25 bd
       0.20659308 0.08421995 0.19515355 -0.040450443
000100 c9 77 aa 3d 35 8b c7 3b 3c 5e f3 3a 18 2c 29 3e
       0.083236285 0.006089593 0.0018567513 0.16520727
000110 dc 3d 47 3c d1 47 ec 3d 82 15 41 3c f3 22 6d 3e
       0.0121607445 0.115371354 0.011784913 0.23157863
000120 51 20 24 3e 39 50 08 3e 6b 0e 35 bc 66 b5 74 be
       0.16027953 0.13311853 -0.011050801 -0.23897323
000130 43 60 73 be f7 01 85 be 7d c8 b8 be d4 22 96 be
       -0.2376719 -0.25978062 -0.3609046 -0.29323447
000140 0e 75 7f be a6 86 44 be 44 ed 95 bd d2 dd ea bd
       -0.24946997 -0.1919199 -0.073206455 -0.1146809
000150 7c 79 07 be f4 c0 64 bd da 5c 49 3e a5 58 2a 3e
       -0.13229936 -0.055848077 0.19664326 0.16635378
000160 a9 73 1e 3e 4a 11 0e 3e 91 b8 15 3e 38 d9 80 3d
       0.15473808 0.13873783 0.14621188 0.06291431
000170 2f d3 4e 3d 9c 69 55 3c cc 10 07 3d a9 70 b3 39
       0.05049437 0.0130256675 0.032975003 0.0003422548
000180 3e 87 32 bc 81 b3 e7 3d f6 82 51 3e cd 75 d7 3d
       -0.010896502 0.113135345 0.20460114 0.105205156
000190 83 57 43 be df df ec bc 96 76 6a be ed da 60 be
       -0.19076352 -0.028915344 -0.228968 -0.21958514
0001a0 7c 9f 9b bc 9e f1 31 be f4 08 a6 3c 8c e3 69 be
       -0.018996947 -0.17377326 0.020267941 -0.22840708
0001b0 36 f2 4a be 4b a3 e8 bd 27 67 29 3e 86 c6 92 3e
       -0.19818959 -0.11359271 0.16543256 0.28667086
0001c0 09 3a d6 3d 44 9a 1a 3e 58 fe a2 3e df e2 ae 3a
       0.10460288 0.1509791 0.31834674 0.0013342759
0001d0 04 a5 92 3e 37 d0 2c 3e c9 9e 6c 3e cc 57 2c 3d
       0.28641522 0.16876303 0.23107447 0.042075917
0001e0 08 33 42 3d 83 55 23 be 6d 94 4b be 6d 82 ca bb
       0.04741195 -0.15950589 -0.19880839 -0.0061800987
0001f0 b1 7e 25 3d 90 6d 03 be 9a 76 d1 bd 57 f6 cc bd
       0.040404025 -0.12834764 -0.102276996 -0.10007923
000200 fd d3 64 be ea 0f 48 bd 9f 13 3a be 05 9e a8 bc
       -0.22346492 -0.0488433 -0.18171547 -0.020583162
000210 d7 94 18 be b0 4d 92 bd 32 eb 63 be 31 13 91 3e
       -0.14900528 -0.07143724 -0.22257689 0.28334954
000220 54 97 c6 3e 69 5c b5 3e 7a f7 ba 3e b7 f4 95 3e
       0.3878733 0.35422066 0.36516935 0.29288265
000230 ad d8 86 3d b0 8e 20 3e 35 0c 62 3e 65 4b 52 3e
       0.065842964 0.15679431 0.22074969 0.20536573
000240 7d 26 c3 3d 3a 38 63 3d 21 76 dc 3c f9 91 e1 3c
       0.095288254 0.055473544 0.026911797 0.027535425
000250 37 06 10 3c ee 95 29 bd 06 15 ad bd c7 0f e7 3d
       0.008790544 -0.04140275 -0.084512755 0.11282306
000260 71 1f 97 3d a4 60 5a be 5c f1 32 be 47 c2 43 3d
       0.07379044 -0.21325928 -0.17474884 0.0477927
000270 8f f4 0c 3e 07 11 f1 3d ea bc 11 3d 15 b0 67 be
       0.13765167 0.11770826 0.035580553 -0.22625764
000280 12 22 2a bb ea 0c 70 3d 36 9c 50 3e 65 d8 1d bd
       -0.002596025 0.058606066 0.2037209 -0.038536448
000290 3e 5d 73 be ac 84 66 3e 75 94 0c 3e 03 65 a9 3d
       -0.23766038 0.22511548 0.13728507 0.082712196
0002a0 03 ea 80 bc cf de 5d bd 9e 24 8e bc f5 3f 87 bd
       -0.015736585 -0.054167565 -0.017351445 -0.06603996
0002b0 95 12 f1 bd b2 80 74 bd 91 3f 55 3d a4 c9 cb bd
       -0.11771122 -0.059693046 0.052062575 -0.09950569
0002c0 b1 16 70 bc 4c 2d 8f bd ae 79 3e be 42 e3 51 be
       -0.014653848 -0.069910616 -0.18601105 -0.20496848
0002d0 ef c2 8f 3b 1f 9b 01 3e cd 1a b6 3d 7e 02 05 be
       0.0043872516 0.1265683 0.088918306 -0.12989232
0002e0 e8 b8 cb bd 44 e8 18 3e 9e a8 1e 3e 14 e9 36 3e
       -0.099473774 0.14932352 0.1549401 0.1786235
0002f0 aa 6f 08 3e 51 f5 6b be 03 5f 79 3e 94 b3 af 3d
       0.13323846 -0.230428 0.2435265 0.08579174
000300 87 d7 09 ba 02 ad f3 3c 63 16 eb 3c 4f 5c 11 3d
       -0.00052582513 0.029745582 0.028697198 0.035488423
000310 dd 5b b9 3c a2 2b 60 be a2 a3 37 be 04 45 95 bd
       0.022626812 -0.21891645 -0.17933515 -0.07288554
000320 51 74 d7 bd 91 7a b1 3d 46 76 b3 3d 5c c1 90 3c
       -0.105202325 0.08665956 0.08762793 0.017670326
000330 93 df 92 3d ef 0e b4 3d f6 c7 0d 3e 1e b1 15 3c
       0.0717155 0.08791911 0.1384581 0.009136466
000340 65 90 59 3d d7 ed 87 3e b7 50 4c be 66 c9 2d be
       0.05311622 0.26548645 -0.19952665 -0.16971359
000350 1a 9b 93 be 9f 5e 32 be 4f af 5e 3d 00 ec 83 be
       -0.2882927 -0.17418908 0.054366406 -0.2576599
000360 65 da d1 be 4d 44 7f be 66 93 a0 be 94 79 41 bd
       -0.40986934 -0.24928398 -0.31362456 -0.047235087
000370 63 ab 6d 3e 5d 39 7c 3e 7d da 89 3d 42 37 7c 3d
       0.2320991 0.24631257 0.067311265 0.061576135
000380 46 2c 20 bc 45 12 a8 bb d9 66 0b 3e 08 fa 97 bd
       -0.009776181 -0.005129131 0.13613452 -0.074207366
000390 4c 33 1e 3e cd fd 81 3e e3 5b 2f bd db 1d 8e bd
       0.15449256 0.25388947 -0.04281224 -0.06939288
0003a0 a8 f8 da 3c 85 55 0f 3e bb 11 cc 3d fb 15 7f be
       0.026729897 0.13997467 0.09964319 -0.24910729
0003b0 29 c8 8a be 24 1e a8 be 0b 13 85 be df 23 82 bd
       -0.27105835 -0.32835495 -0.2599109 -0.06354498
0003c0 0e ab bf be 83 1c 48 be cd 75 f5 be c2 85 9a be
       -0.37435192 -0.19542126 -0.47941437 -0.30180174
0003d0 ca 44 85 39 7e 28 45 3e 4b 8f 02 3e da b5 3a bd
       0.0002541899 0.19253728 0.12749974 -0.045583583
0003e0 5b f2 11 3e 08 a3 54 3c bd fc 54 be 79 90 ee bd
       0.14252608 0.012978323 -0.20799537 -0.1164865
0003f0 2f 40 e7 3c 9f b3 38 bd 45 62 6c 3e 7c 44 0b be
       0.028228847 -0.045093175 0.23084362 -0.13600343

conv1.bias f4 [8]
000000 84 5e 05 3f 3f 36 28 bd fa 86 08 be c0 fe 49 bf
       0.52097344 -0.041067358 -0.1333274 -0.7890434
000010 be c5 ea bd 29 52 a2 be d4 93 30 be 0a e2 ad be
       -0.114634976 -0.31703308 -0.17243892 -0.33961517

bn1.weight f4 [8]
000000 9c 12 83 3f 9e 0f 15 3f 82 cd 85 3f 95 7b 9e 3f
       1.0240054 0.58226955 1.0453341 1.2381464
000010 d4 b8 65 3f 2d d4 80 3f b1 72 33 3f 81 9c 82 3f
       0.8973515 1.0064751 0.7009688 1.0204011

bn1.bias f4 [8]
000000 aa 51 90 3e cf 71 08 bd f9 61 0d be f1 7a 31 3d
       0.28187305 -0.03331166 -0.13806905 0.043330137
000010 06 a8 c6 3e ed 4f aa bc 08 54 ae 3d e7 31 79 3d
       0.38800067 -0.020790065 0.085121214 0.060838606

bn1.running_mean f4 [8]
000000 e4 98 1e 3f 19 9d 1e 3f 61 47 0d 3f 7a f1 d2 3d
       0.6195204 0.6195846 0.5518704 0.10299964
000010 02 7e 66 3f a1 26 a4 3e 4c 30 8b 3f 2d 69 46 3e
       0.9003602 0.32060722 1.0874114 0.19376059

bn1.running_var f4 [8]
000000 c9 ab 03 3f 55 52 60 3f 4e bb 9a 3f 55 37 f8 3d
       0.51434 0.8762563 1.2088411 0.12119929
000010 c3 56 b7 3f 0d 99 21 3f 96 4e 0e 40 b6 0b 48 3e
       1.4323353 0.6312416 2.2235465 0.19535717

conv2.weight f4 [32, 8, 5, 5]
000000 61 a1 2c bd 78 ca 28 bd a1 ff c7 b8 4e 43 88 3b
       -0.04214609 -0.041208714 -9.536674e-05 0.004158414
000010 7f 72 89 3b ef 82 7a 3e 3c f8 9f 3e 68 40 ed 3d
       0.004194557 0.2446401 0.31244075 0.1158455
000020 d5 08 3a 3e 60 be e0 3d 3d dc 21 3e 28 6b f0 3d
       0.18167432 0.10973811 0.1580667 0.117391884
000030 16 e8 be 3c 39 6a e1 bd 85 6d 14 be 91 e7 bc 3b
       0.023304027 -0.110065885 -0.14494903 0.0057649096
000040 c8 3a 00 3d bf 60 4b 3d 2a e4 be 3d 3b 67 20 3d
       0.03130606 0.04965281 0.093208626 0.03916095
000050 95 03 aa 3b 94 51 58 3d f0 bc 4d 3b f5 31 41 3d
       0.0051884153 0.052812174 0.0031393133 0.047166783
000060 26 8f 5e 3d 34 f5 f8 3d 9f 4f ff 3d ba f3 1f 3d
       0.054335736 0.12156144 0.124663584 0.039050795
000070 4b f3 df 3d 9a a8 15 3d 48 78 25 3e 74 5c 22 3e
       0.10935076 0.036537744 0.16159165 0.1585558
000080 af e9 72 3b 53 88 16 3c b1 38 aa bd 3d bc 12 3d
       0.0037065556 0.009187776 -0.08311594 0.03582405
000090 42 4d a3 3d 63 68 0d bd 67 13 e3 bd 01 11 73 be
       0.0797372 -0.03452338 -0.11087685 -0.23736955
0000a0 29 32 04 3e 8b c5 03 3e d3 32 2b 3e 2a 13 82 3d
       0.1290976 0.12868325 0.16718607 0.063513115
0000b0 9c 14 b1 3c 5b 29 90 bd e2 8d c4 bd c3 ac 0e be
       0.021616273 -0.07039138 -0.095973745 -0.13933091
0000c0 22 d0 f4 bd 50 b6 bc bd e8 60 b7 bd 51 44 e9 3a
       -0.11953761 -0.09214461 -0.0895403 0.0017796849
0000d0 64 16 0f 3d 5c 5f 21 3e 7b ab 86 3e 83 8e 4d bd
       0.034933463 0.15759033 0.26302704 -0.050184738
0000e0 f5 7a 41 3d a7 56 28 bc ae 55 84 3d fe da 82 3d
       0.0472364 -0.010274566 0.064616546 0.06389426
0000f0 f9 60 17 be 67 c7 60 be ae 28 28 be 28 e4 2e be
       -0.14783086 -0.21951066 -0.16421768 -0.17079222
000100 f6 f2 2e be 9a 06 ce 3d 95 76 95 3d 2d cf 65 3e
       -0.1708487 0.10059853 0.07298008 0.22442313
000110 03 35 6d 3e 3f 0c 64 3e d9 4c ae bc 07 d3 af bc
       0.23164754 0.22270297 -0.021276878 -0.02146293
000120 ac 89 7b bd b1 ce 40 bd c1 04 88 bc be b8 b7 3d
       -0.06141059 -0.047072116 -0.01660383 0.08970784
000130 0e 2a 2f be 02 33 e4 bd f9 9d 9b be ac 5f b7 3c
       -0.17105886 -0.111425415 -0.3039396 0.022384487
000140 9f 6e 10 3e f5 5a 9b 3d 1b aa 5f 3b d5 70 06 be
       0.14104699 0.07585708 0.003412849 -0.1312898
000150 73 b6 0a be 87 3c e1 3c 42 fc 6e bc fb 9e 9f 3c
       -0.13546161 0.027494682 -0.01458651 0.019484987
000160 87 c8 bc bd dc e0 f9 bd fb 32 a0 3d 4a 68 ed 3d
       -0.09217935 -0.12201092 0.07822224 0.11592157
000170 dc 6d 46 3e 9b ae ba bd e7 11 f1 3d a3 5a 92 3d
       0.19377846 -0.091153346 0.11770993 0.07146194
000180 c5 5e 15 be b5 28 db bc 57 61 10 be 4d 2e 21 be
       -0.14586933 -0.026752809 -0.14099632 -0.15740319
000190 58 af 54 3e ff 4a f5 3d d6 57 0f 3e ec 43 ae 3c
       0.20770013 0.11977195 0.1399835 0.021272622
0001a0 1c 64 3e 3d db ea 3b 3e 10 c3 f1 3d fd b8 3f 3e
       0.04648219 0.18351309 0.11804783 0.18722911
0001b0 e5 61 06 bc 70 a3 49 bd f8 3a 8a bd 66 a0 ce 3d
       -0.008202051 -0.04922813 -0.06749529 0.10089187
0001c0 fc 2f eb 3d d6 1f cd 3d b9 e5 7a 3d 9f ba f6 3d
       0.11483762 0.10015838 0.061254237 0.12047314
0001d0 11 ba 0a 3e 65 fe 8e 3d 51 bf 22 3d 96 e4 b9 3d
       0.13547541 0.06982116 0.039733235 0.090768024
0001e0 e3 61 33 be b7 18 1e be a1 90 25 bd 55 12 c6 bd
       -0.1751781 -0.15439115 -0.040421132 -0.09671465
0001f0 2b 24 e3 bd 10 7d 27 3e 24 36 32 3e 42 01 2a 3e
       -0.11090883 0.16356301 0.17403466 0.16602042
000200 5e e6 10 3e 25 3a f3 3d 98 fa 48 3d b7 71 8a 3d
       0.14150378 0.118763246 0.04906711 0.06759971
000210 4a b9 13 3e f7 ac 6b 3d 6a 4c 97 bc 59 8f 21 3d
       0.14426151 0.057538 -0.018469054 0.039443348
000220 a6 d8 22 3e 63 65 1b 3e d1 a6 6d 3d 58 87 81 3c
       0.15902957 0.15175395 0.058020417 0.015811607
000230 30 30 71 bd a5 f7 fa 3d 3b 0e 0d 3e 3f f5 bb bb
       -0.058883846 0.12254266 0.1377496 -0.0057360227
000240 e4 1e 29 bd df 50 be bd f7 82 87 3d f9 5c 37 3e
       -0.041289225 -0.09292769 0.066167764 0.1790656
000250 6d 23 a2 bc 6b 9e af 3d 1f c3 98 3d 9d ba 0f 3e
       -0.019792283 0.08575138 0.074590914 0.14036031
000260 70 34 16 3e e5 5d 0e b9 40 a6 b0 3d 98 54 3a bb
       0.14668441 -0.00013577154 0.0862546 -0.002843177
000270 93 d0 75 3d 18 a3 af 3c 6c 4c 24 bd 1f 69 b2 bd
       0.060013365 0.021440074 -0.040111944 -0.087114565
000280 c3 74 9c 3c 8b 1a 92 3d 2a 37 b3 3d 15 d9 76 3d
       0.019098645 0.07133969 0.08750756 0.06026562
000290 4a 43 26 3d 58 51 97 bd 01 a9 95 3d df cc 00 3d
       0.040591516 -0.07388562 0.073076256 0.03144538
0002a0 5c c7 f7 3c f5 29 f7 3c 86 63 3b be c3 32 26 bd
       0.03024643 0.030171374 -0.18299684 -0.040575754
0002b0 da ef 4b be ce cc c3 bd 01 29 60 be de 8f 0c bd
       -0.19915715 -0.09560548 -0.21890642 -0.03431689
0002c0 d6 28 d8 3d 7c 75 0c 3e 34 10 43 3e 56 aa 77 3e
       0.10554664 0.13716692 0.1904915 0.24186072
0002d0 26 6b f5 bc 73 13 5a bd 17 7f 04 3e 33 76 c3 3e
       -0.029958319 -0.053241204 0.12939106 0.38176116
0002e0 3b 01 06 3f e8 e2 21 be db 29 81 be 73 78 90 be
       0.5234563 -0.15809214 -0.25227246 -0.28216895
0002f0 85 a9 ef bb df c4 4c b9 ac c8 eb bd 7c 14 50 be
       -0.0073139095 -0.00019528296 -0.115128845 -0.20320314
000300 e9 01 db bd 06 ba f7 bb 80 fd ad bd d8 39 d1 bd
       -0.10693724 -0.0075600175 -0.08495617 -0.10216111
000310 aa 05 7d bc 45 7c 9c 3d 02 31 a7 3d 92 23 87 bc
       -0.015443245 0.0764089 0.081636444 -0.016496453
000320 a4 d0 58 bd 9c 51 39 bd 85 6b 72 3d 04 27 0d 3d
       -0.05293335 -0.045243844 0.05918457 0.034461036
000330 8f 39 1f 3d b5 ab be 3c 86 d2 58 bd 90 b0 af 3c
       0.03887325 0.023275236 -0.052935146 0.021446496
000340 64 74 b2 bd a1 5c 09 be aa cb fd bb 23 be 2b bd
       -0.08713606 -0.13414241 -0.007745226 -0.041929375
000350 be a5 d7 3b 27 32 43 b9 21 d1 39 bd 73 0f 7c 3d
       0.0065810373 -0.00018615332 -0.045365456 0.06153817
000360 b9 4d 87 3d bd 92 de 3d 8d 05 b8 3d e9 00 78 3d
       0.06606621 0.10867832 0.08985434 0.060547743
000370 50 e8 37 3d 2d 91 a1 3d 82 32 d2 bc bf a5 c7 bc
       0.044899285 0.07889018 -0.02565885 -0.024371026
000380 e7 da 15 bd 1a 17 19 3c 50 bd bc bc 30 53 17 bd
       -0.036585715 0.009343887 -0.02303949 -0.03694457
000390 8d 61 6d 3c 7e f3 ef bc 88 39 81 3d da 13 83 bd
       0.01448859 -0.02929091 0.06309801 -0.06400271
0003a0 a0 8c 87 ba 8b 0d dc 3c 25 c2 b2 bc 44 ab e2 3c
       -0.0010341592 0.026861927 -0.021821091 0.027669556
0003b0 55 89 aa 3d 8f 53 a3 3c c1 1c 09 3d 72 1a 60 bc
       0.08326975 0.019937305 0.033474687 -0.01367818
0003c0 a8 d6 ff 3c 9e 96 00 3d 0a 69 36 3d b2 c5 79 3d
       0.031230286 0.03139364 0.044533767 0.060979553
0003d0 69 ba 20 3d a1 87 51 3d 3e f9 4a 3d e0 a9 72 3d
       0.039240275 0.051154736 0.049554102 0.059244037
0003e0 67 b6 4c 3d 72 6e c4 bc ab 9a ac 3b e1 21 6d 3d
       0.04997864 -0.023978446 0.0052674613 0.057893638
0003f0 92 40 ce 3c 7e 0d b1 3c aa 9e c8 3d f8 ec 82 bd
       0.025177274 0.021612879 0.09795888 -0.063928545

conv2.bias f4 [32]
000000 16 74 4d be 17 fb ab be ac 3a 27 bd cd f3 f8 be
       -0.20063815 -0.33590004 -0.04082744 -0.48623505
000010 21 c1 26 be 7f be 7c be 97 57 9c be 77 48 04 be
       -0.1628461 -0.24682043 -0.30535576 -0.12918268
000020 0c 6f e9 be 77 cb f6 be 95 50 2a 3d 27 3c ba be
       -0.45592535 -0.48202106 0.041580755 -0.36374018
000030 8f 05 0d 3d 2f 00 02 bf 0b 16 fc be 04 6e b2 bd
       0.03442913 -0.5078153 -0.49235567 -0.0871239
000040 d9 ee 06 bf 6e 43 b1 be c6 4a 34 be 53 ba fe be
       -0.527082 -0.34621757 -0.17606649 -0.4975153
000050 8c c0 42 be 54 f9 80 be ea 43 54 be e4 36 13 be
       -0.19018763 -0.25190222 -0.20729032 -0.14376408
000060 f1 72 ed be 79 73 e1 be ad 72 09 bf 92 9e 6a be
       -0.46376756 -0.4403341 -0.53690606 -0.22912052
000070 34 3a 05 bf cb 54 16 be 7c a1 84 be a3 05 89 be
       -0.52041936 -0.14680783 -0.25904453 -0.26762113

bn2.weight f4 [32]
000000 df d9 32 3f c0 51 99 3f 88 d7 1f 3f 77 96 1c 3f
       0.69863695 1.1978073 0.6243825 0.6116709
000010 8f 72 35 3f 8a fc 18 3f 3b 5f 66 3f 5f 61 86 3f
       0.7087793 0.59760344 0.8998906 1.0498465
000020 3d 5a 29 3f c0 8f 69 3f e0 d6 87 3f a4 5d 6b 3f
       0.6615332 0.9123497 1.061245 0.9193976
000030 e0 2d 2f 3f fa 18 ab 3f 67 10 84 3f 0a a2 84 3f
       0.68429375 1.3366997 1.0317506 1.036195
000040 16 8f 91 3f a5 06 69 3f 89 bf ac 3f ad 33 5c 3f
       1.1371791 0.91025764 1.3495952 0.8601635
000050 b1 35 40 3f 87 5c 9d 3f 17 22 0b 3f e4 f6 a1 3f
       0.75081927 1.2293862 0.5434889 1.265347
000060 7d 69 19 3f 4d 8c 8c 3f 40 69 49 3f 21 c6 42 3f
       0.5992659 1.0980316 0.78676224 0.7608357
000070 bd 18 91 3f c7 f3 23 3f 64 0b 93 3f 8e 99 41 3f
       1.1335675 0.6404385 1.1487851 0.7562493

bn2.bias f4 [32]
000000 4a 98 d8 3d 8b be e9 bd f7 38 eb bd 31 72 c5 bd
       0.10575922 -0.11413296 -0.114854746 -0.09640921
000010 e0 b5 19 be 19 b6 eb bd 4f 65 ee bc cf 5c 54 3e
       -0.15010786 -0.11509342 -0.029101042 0.20738529
000020 38 33 bb bd 53 05 15 be d5 32 7a be 95 35 ab 3d
       -0.091406286 -0.14552812 -0.24433453 0.08359829
000030 6c 93 de 3c d8 32 74 be c5 4c c7 3d 52 b9 8a 3d
       0.027169906 -0.2384752 0.097314395 0.06773628
000040 c1 3a 43 be 65 c1 5c 3d 72 9b e1 3b c5 b6 69 3e
       -0.19065382 0.053895373 0.0068849856 0.22823627
000050 60 60 2f be f6 49 4c be 8d e4 a2 bb 88 3b a7 bd
       -0.17126608 -0.19950089 -0.004971093 -0.081656516
000060 60 7c 83 bd 11 61 3a 3d 32 33 5d bd 53 3c a6 3c
       -0.06420207 0.045502726 -0.0540039 0.020292437
000070 f3 82 b1 3c e8 00 ea bc 73 70 17 be 7c e5 f3 bd
       0.021668887 -0.028564885 -0.1478899 -0.11909005

bn2.running_mean f4 [32]
000000 f0 94 96 3f 37 78 90 3f 5a 66 d6 3f 06 01 d6 3f
       1.1764202 1.1286687 1.6749985 1.6719062
000010 5a b0 74 40 85 0f 73 40 a5 30 90 3f 23 a4 5e 3f
       3.8232636 3.7978222 1.1264845 0.869692
000020 ce 9a 01 40 53 6b 9c 3f a9 f3 26 40 42 12 7b 3f
       2.0250735 1.2220253 2.6086218 0.98074734
000030 c0 32 81 3f bc 5c 8e 3f f7 20 40 3f 70 39 5b 3f
       1.0093613 1.112205 0.750503 0.8563452
000040 fe 70 1c 3f 7f 34 78 3f 6e 13 71 3f 25 12 0a 3f
       0.6110991 0.969551 0.9417027 0.53933936
000050 e5 5f 0d 40 4e af 50 3f b6 95 40 40 f8 35 c2 3f
       2.208978 0.81517494 3.0091376 1.517272
000060 e3 90 c4 3f ff 74 85 3f 2a fd 7b 3f cd bf a8 3f
       1.5356716 1.0426329 0.9843317 1.3183533
000070 43 7a 6f 3f 4e 7e 97 3f 41 81 85 3f 77 82 35 40
       0.9354593 1.183542 1.043007 2.836088

bn2.running_var f4 [32]
000000 47 23 71 40 5e 27 41 40 a8 79 a2 40 b9 a9 07 41
       3.7677782 3.0180278 5.0773506 8.478936
000010 36 8f 04 42 b1 c5 1c 42 6f 41 7e 40 19 71 27 40
       33.139854 39.193058 3.9727437 2.616278
000020 a2 16 2d 41 c0 59 d7 40 14 b3 e3 40 ae 04 b9 40
       10.818026 6.729706 7.11561 5.7818213
000030 52 cb 4a 40 8c 2b 3d 40 91 72 53 40 4a 3c 2b 40
       3.1686597 2.955783 3.3038676 2.6755548
000040 6d 51 06 40 f8 58 98 40 cf 1c 2a 40 4b f1 0b 40
       2.0987198 4.7608604 2.6580083 2.1866024
000050 7a 22 55 41 59 1b e2 3f 89 8c 96 41 57 4a 8b 40
       13.320917 1.7664596 18.81862 4.3528247
000060 a8 0e 09 41 52 72 9a 40 63 7a 7d 40 9d 2b a8 40
       8.566078 4.826455 3.960595 5.255324
000070 c6 3c 89 40 a4 1c ae 40 11 52 37 40 a9 4f 9e 41
       4.2886686 5.440996 2.864384 19.788897

conv3.weight f4 [48, 32, 5, 5]
000000 d8 51 07 3d ec d1 83 3c c4 bd 33 be 04 9b fe bc
       0.033037037 0.01609131 -0.17552859 -0.031079777
000010 41 2e 8f 3c c8 61 5a bc 1d f6 bb bd 90 08 2d be
       0.01747811 -0.013328977 -0.09177802 -0.16897798
000020 40 ce 46 3c 54 cd 23 be fc 0c 47 3c 16 71 42 bd
       0.012134135 -0.15996295 0.012149092 -0.04747113
000030 17 43 c6 bd 2f 6a d4 bd fc 78 1e bb 3a 19 82 bc
       -0.09680765 -0.103718154 -0.0024181 -0.01588117
000040 6c 16 13 3c 5e d7 8c 3d dd 6f 03 3e f2 9f 51 3e
       0.008977514 0.068770155 0.12835641 0.2047117
000050 6f 78 7b bc a5 c0 a9 bb 97 2c c4 bd 31 cd 21 bc
       -0.015348538 -0.0051804357 -0.09578817 -0.009875582
000060 e7 c3 52 bd 20 66 da bd 0d 10 3d bd 1b b5 18 be
       -0.05145636 -0.1066401 -0.046157885 -0.14912836
000070 8b 52 b6 bd 7d da 33 be 13 31 1c bd 1b 43 0c bd
       -0.089024626 -0.17563815 -0.03813274 -0.034243684
000080 f7 db e6 bc f2 46 05 be 0b 51 1b be 78 4c 1a be
       -0.02818106 -0.13015345 -0.15167634 -0.15068233
000090 62 74 85 be 11 04 93 be 20 83 9e be 86 1a bd be
       -0.26065356 -0.2871404 -0.30959415 -0.36934298
0000a0 4b 0e 8a bd 1b 9a a8 bd f3 1f fb bd b8 d3 5c be
       -0.067410074 -0.08232518 -0.12261953 -0.2156514
0000b0 2e 18 88 be a8 e0 9a bd 13 79 ad bd 71 82 9d bd
       -0.26580948 -0.07562381 -0.08470359 -0.07690895
0000c0 e0 0d ed bd e7 d9 50 be 78 9e a3 3d 93 f1 19 3e
       -0.11574912 -0.20395623 0.0798921 0.1503356
0000d0 49 89 35 3e 3c 23 69 3e b8 85 50 3e a6 b8 96 3d
       0.17728151 0.22767347 0.2036351 0.07359438
0000e0 0d 4b a9 3d 0a c7 b7 bc d8 c9 35 bd 7c 2f 9c 3c
       0.08266268 -0.022433776 -0.044381946 0.019065611
0000f0 16 4f 69 3d 29 a2 b2 3c ae c0 df bd a1 17 44 bd
       0.056960188 0.02180584 -0.109254226 -0.047874097
000100 42 f6 35 3d 9e 50 0a 3d d5 9d c6 3c 22 78 00 bd
       0.044424303 0.03376829 0.024245182 -0.031364568
000110 73 3e 7f 3c 11 ef c0 3c 5e 83 0e 3d 16 1b d4 bc
       0.015578854 0.023551496 0.03479325 -0.025891822
000120 5d a8 26 bd ab e5 2b bc 79 c5 86 bc 3b ef 74 3d
       -0.040687907 -0.010491769 -0.016451584 0.05979846
000130 5a 68 69 bc d2 e2 22 bd f4 85 f2 bd 18 ca 68 bd
       -0.014246071 -0.039767094 -0.11841956 -0.056833357
000140 f1 07 3e 3d c1 cb 82 3c 40 a1 5a 3d 2e a6 ea bb
       0.046394292 0.015966298 0.053376436 -0.0071609234
000150 d3 ed 32 3d ac 54 47 3e 7b 79 0e 3e 0b 86 fe 3d
       0.043683838 0.19465894 0.13913529 0.124279104
000160 2f 50 6a 3d 68 16 e8 3d 25 9b d7 3d 82 68 14 3e
       0.057205375 0.11332399 0.10527638 0.14492992
000170 4a 95 14 3e 1d b3 c0 3d 5a b1 18 3e 42 5d 22 3b
       0.14510074 0.09409163 0.14911404 0.0024774824
000180 78 f1 e8 bb 4c 24 42 bc 85 37 a0 bd d5 2e 87 3c
       -0.0071088634 -0.011849474 -0.078230895 0.016501823
000190 0d 14 26 3e e6 0a d6 3d 47 4a a3 3d 07 5c 84 3c
       0.16218586 0.104512975 0.07973152 0.016157163
0001a0 e0 28 a8 3d 64 eb f6 3d 65 c6 06 3d 2a e6 38 bd
       0.08210921 0.12056616 0.032904048 -0.045141377
0001b0 41 07 5a bd 37 58 81 bb f8 ed f4 3c a0 d2 89 bd
       -0.053229574 -0.0039472836 0.029898629 -0.06729627
0001c0 1a d8 fc bd e0 d3 e3 bd 01 e6 31 bd a4 99 34 3e
       -0.123459056 -0.11124396 -0.04343224 0.17636734
0001d0 13 59 bc 3d c4 2f 54 3d 14 ac 0e 3d 28 10 8a 3d
       0.09196677 0.051803365 0.034832075 0.06741363
0001e0 fd 1f 03 bd 6c 40 e2 bd e2 05 2b be f0 77 6e bd
       -0.03201293 -0.11047444 -0.16701463 -0.05821985
0001f0 7d 15 06 be 38 b2 28 3e 84 70 a2 3d fb 41 08 3e
       -0.13094135 0.16474235 0.07931617 0.1330642
000200 36 45 81 3d 3f 29 e1 3d e6 ce 60 3d 94 83 85 3d
       0.06312029 0.10994195 0.054884814 0.06519237
000210 eb da ad 3c 1b 44 0e bd 83 95 cc bc 59 c3 52 3d
       0.021222552 -0.03473292 -0.024973636 0.05145583
000220 50 dd f5 3b 12 cf f3 3c 7e 7e 05 bd d3 ed 33 bb
       0.007503189 0.029761825 -0.032591335 -0.0027454987
000230 d4 a4 82 3d ed a2 bd 3d bd 9f b2 3d a2 24 9f 3b
       0.06379095 0.09259591 0.08721874 0.004856662
000240 51 22 a1 3c 3c c7 4f bd c0 77 8d ba fe 83 d5 bd
       0.019669684 -0.050727114 -0.0010793135 -0.10425566
000250 19 a4 31 bd 7f 4d bd 3b 31 04 8c 3e d8 7c 40 3e
       -0.043369386 0.0057770605 0.27346948 0.18797624
000260 d8 04 10 3e 18 db 4f 3e 4b 8a 01 bc f2 4a 3a 3d
       0.14064348 0.20298421 -0.007906507 0.04548163
000270 e5 0f 6f 3d 86 6b 9e 3c d9 88 cb bc fe 4d 36 bd
       0.058364768 0.01933838 -0.024845527 -0.044507973
000280 d7 43 3a 3e dc 1d 22 bd a0 a0 5d 3b db 1c 71 bd
       0.18189941 -0.039579257 0.0033817664 -0.05886541
000290 7e ef d4 3c 4f d8 09 3e 35 bb 0c 3e 03 58 7d 3d
       0.025993105 0.13461421 0.13743289 0.061851513
0002a0 a9 a4 e3 3c e3 b5 be 3d b9 5b a0 3d f0 83 16 be
       0.027788477 0.09312036 0.07829995 -0.14698768
0002b0 d4 6b c1 bd 24 ea 7c be 04 7e 51 3d 8f f3 5f bb
       -0.09444395 -0.24698693 0.05114557 -0.0034172272
0002c0 23 a9 cc 3c 95 6b 78 3d 2e 41 5c 3d a2 46 db 3d
       0.024982994 0.060649473 0.053773098 0.107068315
0002d0 a2 a6 43 3c 55 d3 c2 3d d7 95 9f 3d 2d c3 83 3c
       0.011941584 0.09512965 0.077922516 0.016084278
0002e0 f6 a1 b9 3d 0d 8c 15 3e 0d b9 2c 3e 7e 32 ff 3d
       0.09064095 0.14604206 0.16867466 0.124608025
0002f0 17 0f 57 3d 4e 5b 01 3e c5 5c cf 3d a7 ea e8 3d
       0.052504625 0.12632486 0.10125116 0.113728814
000300 6c 97 c8 3d bd 87 30 3e ea f7 3f 3e 27 86 ce bc
       0.097945064 0.1723928 0.18746915 -0.025210453
000310 d2 dc 21 3e c8 f9 10 3e 04 44 01 3c 17 a3 37 3d
       0.15806893 0.14157784 0.007889751 0.04483327
000320 ea 10 e5 3d 85 84 c2 3b 1e 63 06 3d c5 46 b7 bd
       0.11184867 0.0059362077 0.03280937 -0.08949045
000330 76 ce 96 3c ec 72 03 3e 72 03 4c 3d 4a b5 98 3d
       0.018408995 0.12836808 0.049807973 0.07456453
000340 b3 19 bb 3c 56 b8 4b 3d dc 15 3f 3e d3 96 ba 3d
       0.022839403 0.049736343 0.18660682 0.09110799
000350 fe 72 a0 3d 4d be 2e 3d 8c ae ac 3d 0f 48 35 3e
       0.07834433 0.042661954 0.0843173 0.1770327
000360 02 01 8c 3d 0b 27 15 3e 74 ec 04 bd 86 41 02 3e
       0.0683613 0.14565675 -0.03245206 0.12720308
000370 90 f0 1c 3e 10 91 04 bd 28 0c 0d 3d c2 a6 9a bd
       0.15326142 -0.032364905 0.03443542 -0.07551338
000380 f0 22 d9 3d 54 0f 00 bd c4 73 90 3c de ca 6a bd
       0.10602367 -0.031264618 0.017633326 -0.057322375
000390 c1 a3 2f bd 31 b2 3d 3c 6c 4b 95 bd be 75 d1 ba
       -0.042880777 0.011578129 -0.07289776 -0.0015980524
0003a0 1a a0 d1 bd 2e b4 6d bd a1 c8 30 3c 95 5f 1e 3e
       -0.10235615 -0.05803316 0.010790021 0.15466149
0003b0 df 64 c5 3d ce a4 ec 3d 33 16 e3 ba d2 91 83 3e
       0.0963838 0.115548715 -0.0017325341 0.2569719
0003c0 fa 07 92 3d 2c a0 d3 3d 23 2b 3d bc aa 04 eb bb
       0.07130428 0.10333285 -0.011545929 -0.007172187
0003d0 28 39 2b 3e 7d b1 77 bc 93 f3 be 3c 66 83 25 3d
       0.16721022 -0.015118 0.023309505 0.040408514
0003e0 d2 46 c1 3c 44 99 d4 3d bd ba 7b 3d 21 f9 12 3e
       0.02359334 0.103807956 0.061457384 0.14352848
0003f0 01 eb 05 3e 36 f7 35 3d b1 10 2d 3d 9d 87 9d bd
       0.13077928 0.04442521 0.042252246 -0.07691882

conv3.bias f4 [48]
000000 6d 2b 54 3e 36 73 06 3e 6f 87 c2 3d c2 e9 27 3e
       0.2071969 0.13129887 0.09498488 0.16397765
000010 9d 07 3b be dd 68 09 3e fd b3 2f bd 05 20 be bd
       -0.18264623 0.13418908 -0.04289626 -0.09283451
000020 ce 38 1e 3d e7 ba 49 3d b0 a9 29 3e cc c9 57 bd
       0.038628392 0.04925051 0.16568637 -0.052682683
000030 25 5e 87 bd 7e af c7 3e dd 67 98 3d bf 78 82 3e
       -0.066097535 0.39001077 0.07441685 0.25482747
000040 25 87 76 3e 17 54 c3 be e1 2e 99 3d 42 01 a8 3d
       0.24074991 -0.38150093 0.074796446 0.08203365
000050 9b 13 b2 3c 1a 63 1d 3e 6b 12 82 3e f2 00 ff 3c
       0.021737864 0.15369835 0.25404677 0.03112838
000060 bb b2 dd 3d a5 38 e9 be b2 e0 fe bd a9 18 35 3e
       0.10825106 -0.4555103 -0.12445201 0.17685188
000070 76 91 34 be d7 3f 29 3e 6e 1c 13 3d af f2 1a 3d
       -0.17633614 0.16528259 0.035915785 0.037829097
000080 0f 38 0b bd 43 1d 99 3d 53 5e ed 3c 1c ca 4a 3e
       -0.03398901 0.07476284 0.028975641 0.19803661
000090 71 1b 00 3e c5 fb bb be a0 3d 31 be 7d 0b 8d 3e
       0.12510468 -0.36715522 -0.17308664 0.27547827
0000a0 07 c2 c0 be b3 82 25 3e 62 e8 1f 3e b6 5a 01 3e
       -0.3764803 0.16163139 0.15615991 0.1263226
0000b0 5a b8 29 bd 36 c3 a3 3e ab 16 13 be b8 07 11 bd
       -0.041435577 0.31984872 -0.14364116 -0.03540775

bn3.weight f4 [48]
000000 1c 9a 31 3f ce 9d a2 3f c8 98 3d 3f 6d 01 95 3f
       0.6937578 1.2704408 0.7406125 1.164106
000010 00 c1 99 3f 20 d0 73 3f be 7f 92 3f e7 8b a8 3f
       1.2012024 0.9523945 1.1445234 1.3167695
000020 fe 9a 9c 3f e1 14 84 3f 14 68 80 3f 83 23 72 3f
       1.22348 1.0318872 1.0031762 0.94585437
000030 0e 87 a3 3f a8 fd a0 3f 1b a8 5d 3f 9d 67 59 3f
       1.277559 1.257741 0.86584634 0.84923726
000040 a5 73 52 3f 6e bc 8b 3f e6 13 85 3f 75 86 8f 3f
       0.8220771 1.0916879 1.0396698 1.1212908
000050 9b 31 95 3f 3d e4 50 3f 5c b2 70 3f e5 58 73 3f
       1.1655763 0.81598264 0.94022155 0.9505752
000060 87 d6 85 3f c6 a9 89 3f de 30 63 3f 4c 08 33 3f
       1.0456094 1.0754936 0.8874644 0.69934535
000070 c5 9c 6a 3f 00 9b 6d 3f 90 0b 5e 3f 50 33 6d 3f
       0.9164546 0.92814636 0.8673639 0.9265642
000080 98 9e 8d 3f 0f f8 9b 3f 79 28 9b 3f 7b c5 69 3f
       1.1064024 1.2185076 1.2121726 0.91316956
000090 98 c4 73 3f aa b3 73 3f 67 cf 8a 3f b3 ef a5 3f
       0.95221853 0.9519602 1.0844544 1.2963775
0000a0 d3 a6 8a 3f ce f7 88 3f 82 3f 45 3f 3e bd 91 3f
       1.0832161 1.0700624 0.7705003 1.1385877
0000b0 d9 d1 82 3f d4 c6 94 3f cb 88 bf 3f f9 d4 6c 3f
       1.022029 1.1623178 1.4963621 0.9251247

bn3.bias f4 [48]
000000 2c 88 6a be 72 8a 5d 3d 08 d1 90 bc 3e 80 18 3e
       -0.22903508 0.05408711 -0.017677799 0.1489267
000010 8d 61 b1 3d 4d f5 bf 3c cc 24 b5 bd 1e b3 90 3c
       0.086611845 0.023432398 -0.08844909 0.017663535
000020 3e ce 45 3d fe 30 87 be 5c 61 1d be af 0b 16 bd
       0.04829239 -0.26404566 -0.15369171 -0.036632236
000030 7a 77 a3 bd b9 8f 2d 3c 15 63 3d bd db fa 94 bd
       -0.07981773 0.010593348 -0.04623707 -0.072744094
000040 8e 25 30 bd bd 25 5e bd b1 5d dd bb f1 c5 99 3d
       -0.043004565 -0.05423521 -0.0067555537 0.075084575
000050 08 f1 74 3d a5 e5 aa 3d 06 5d d1 3d b6 5c 9d 3d
       0.059800178 0.083445825 0.10222821 0.07683699
000060 c2 60 27 3d c0 89 64 be 0b 3d a7 3c 60 18 07 be
       0.04086376 -0.22318172 0.02041485 -0.13192892
000070 dc ec 83 3d 76 e7 3f 3e fe 4b 03 3d 7a d9 38 3d
       0.06441662 0.18740639 0.032054894 0.045129277
000080 45 5b cf bd 00 f9 35 bc b3 ef 3f 3d c5 27 12 3e
       -0.1012483 -0.0111067295 0.046859454 0.14272983
000090 0a c9 03 3d 47 53 41 3d 37 e0 f6 bc 48 0b 9b bd
       0.032174148 0.04719856 -0.03013621 -0.07570511
0000a0 1b f0 9e bd ff 8a 72 bd f0 95 86 be 98 7e b8 bc
       -0.0776064 -0.05921459 -0.26286268 -0.022521302
0000b0 26 e7 6e bd ad 18 ee bd f6 67 7e bd 8d aa 34 bd
       -0.05832591 -0.116258 -0.062110864 -0.044107962

bn3.running_mean f4 [48]
000000 52 59 80 40 71 67 92 40 78 d6 a2 40 03 6d 9e 40
       4.0109034 4.575127 5.0886803 4.950807
000010 34 4d ae 40 08 a2 af 40 15 18 e9 40 c7 b5 6b 40
       5.446924 5.488529 7.2841897 3.6829698
000020 fa ee a6 40 47 55 a3 40 89 bd bc 40 4c da c9 40
       5.216672 5.10416 5.8981366 6.3078976
000030 43 d9 bf 40 3c 23 08 41 dc c3 f4 40 69 80 d9 40
       5.995271 8.508602 7.6489086 6.796925
000040 39 e2 a9 40 7c b4 62 40 7f 03 e0 40 16 25 97 40
       5.308865 3.542266 7.000427 4.723277
000050 c0 ed c9 40 98 bb af 40 08 39 08 41 be ee 82 40
       6.310272 5.4916496 8.513924 4.0916433
000060 9b 2d 85 40 a9 04 6c 40 b8 74 91 40 fe b3 95 40
       4.161817 3.6877844 4.545498 4.6782217
000070 07 77 73 40 b2 40 9b 40 f0 30 a7 40 9f c1 da 40
       3.8041399 4.8516474 5.224724 6.8361354
000080 56 ad 63 40 8d 14 94 40 8b 08 53 40 fa d1 76 40
       3.5574546 4.6275086 3.2973964 3.856566
000090 19 29 98 40 89 8d 16 40 ef 76 54 40 27 9d 41 41
       4.755017 2.3523886 3.3197591 12.100867
0000a0 e2 f0 53 40 55 5b a0 40 52 3a d9 40 d2 84 3f 41
       3.3115773 5.011149 6.788369 11.969927
0000b0 99 43 9f 40 e3 77 e8 40 29 74 ee 40 91 fd f8 40
       4.9770017 7.2646346 7.4516797 7.780953

bn3.running_var f4 [48]
000000 73 56 16 42 91 97 33 42 f9 cb 91 42 7e 8e 32 42
       37.584423 44.898014 72.898384 44.639153
000010 81 29 7d 42 4b ea ad 42 d2 1f 6d 42 a3 d1 d5 41
       63.29053 86.9576 59.281075 26.727362
000020 b4 4e 1a 42 0e 70 6c 42 24 99 8f 42 a6 48 92 42
       38.57686 59.10943 71.7991 73.14189
000030 72 22 59 42 cb d2 7e 42 ad fb 68 42 c9 87 3e 42
       54.283638 63.705853 58.245777 47.632603
000040 84 4a 1e 42 07 c6 2f 42 4a 09 60 42 db 3b 18 42
       39.57277 43.943386 56.00907 38.058453
000050 a3 2c 62 42 3d b7 03 42 4e f0 92 42 08 e2 db 41
       56.54359 32.928944 73.469345 27.485367
000060 d0 13 b7 41 5a 30 8a 42 7c 04 b8 42 0c 2e e3 41
       22.884674 69.09444 92.00876 28.397484
000070 0b ba 95 42 f1 cc e2 41 99 06 82 42 bd 28 8b 42
       74.863365 28.350069 65.012886 69.57957
000080 78 ce 32 42 11 99 8d 42 7b 9e d0 41 b8 8d 17 42
       44.70163 70.79896 26.077383 37.888397
000090 11 99 ab 42 38 26 04 42 36 cd 30 42 0f 60 03 43
       85.79896 33.037323 44.2004 131.37523
0000a0 29 97 63 42 da 89 a0 42 27 1b e9 42 1e 07 05 43
       56.897617 80.26924 116.55303 133.0278
0000b0 f6 cc 2c 42 bd 84 df 42 db 07 ec 42 c1 28 e4 42
       43.200157 111.759254 118.01534 114.0796

cnn.0.weight f4 [8, 2, 5, 5]
000000 f7 cf d2 3d ac 51 23 be 24 2c f3 bc b9 36 ae 3c
       0.102935724 -0.15949124 -0.029684134 0.021266328
000010 e8 3a 18 be 47 f6 61 bb 82 13 db bd bd 55 7e be
       -0.14866221 -0.0034479068 -0.1069708 -0.24837394
000020 0a a0 12 be 27 d3 12 be 41 e0 9c be 16 97 36 be
       -0.14318863 -0.1433836 -0.30639842 -0.17831072
000030 3c b7 c9 bd f6 f2 17 be 76 c7 e3 bd 0b 11 25 3e
       -0.09849402 -0.14838776 -0.111220285 0.16119783
000040 c4 82 07 3e 0d a6 98 3e e6 0e 95 3e c6 7e 12 3e
       0.13233477 0.29814187 0.2911293 0.14306173
000050 a3 d1 a5 bc bb 87 09 bd 21 fe 52 3e 17 12 31 3e
       -0.020241564 -0.03357671 0.20604755 0.17292057
000060 13 6f c7 3c e2 80 a4 bd f0 f2 e0 bd 52 d3 11 be
       0.024344957 -0.08032395 -0.10983837 -0.14240769
000070 2b fc ae 3b 06 f3 e4 bd 45 49 3d be ff f1 0a be
       0.0053401194 -0.111791655 -0.18484981 -0.13568877
000080 39 a4 e7 bd 6d 1c 55 be 26 2d 13 3d 83 39 3e be
       -0.1131062 -0.20811625 0.03593173 -0.18576626
000090 e8 94 62 be f1 a1 54 be 3b 87 15 be 3b 68 16 be
       -0.22127116 -0.207649 -0.14602368 -0.14688198
0000a0 e9 79 8b 3e 81 d2 89 3e 96 d8 97 3e e7 21 db 3d
       0.27241448 0.26918414 0.2965743 0.10699826
0000b0 c1 b1 65 3e 76 8d 15 3e fa 29 26 3e ab 77 cd 3d
       0.22431089 0.14604744 0.1622695 0.100325905
0000c0 df db ed 3d 8e 9b 39 3e 34 71 8d be fc 8e bf be
       0.11614203 0.18125746 -0.2762543 -0.37413776
0000d0 f4 4b 13 be b9 db d9 be 36 19 c9 be 69 73 2c be
       -0.14384443 -0.42550448 -0.39277047 -0.168409
0000e0 5f a1 67 bd 05 c0 de bd 0b 15 b8 3c 7f 2d 26 be
       -0.05655038 -0.108764686 0.022470972 -0.16228293
0000f0 23 8d 53 3e 82 7b ac 3d 55 d6 47 3e 5d af 25 bd
       0.20659308 0.08421995 0.19515355 -0.040450443
000100 c9 77 aa 3d 35 8b c7 3b 3c 5e f3 3a 18 2c 29 3e
       0.083236285 0.006089593 0.0018567513 0.16520727
000110 dc 3d 47 3c d1 47 ec 3d 82 15 41 3c f3 22 6d 3e
       0.0121607445 0.115371354 0.011784913 0.23157863
000120 51 20 24 3e 39 50 08 3e 6b 0e 35 bc 66 b5 74 be
       0.16027953 0.13311853 -0.011050801 -0.23897323
000130 43 60 73 be f7 01 85 be 7d c8 b8 be d4 22 96 be
       -0.2376719 -0.25978062 -0.3609046 -0.29323447
000140 0e 75 7f be a6 86 44 be 44 ed 95 bd d2 dd ea bd
       -0.24946997 -0.1919199 -0.073206455 -0.1146809
000150 7c 79 07 be f4 c0 64 bd da 5c 49 3e a5 58 2a 3e
       -0.13229936 -0.055848077 0.19664326 0.16635378
000160 a9 73 1e 3e 4a 11 0e 3e 91 b8 15 3e 38 d9 80 3d
       0.15473808 0.13873783 0.14621188 0.06291431
000170 2f d3 4e 3d 9c 69 55 3c cc 10 07 3d a9 70 b3 39
       0.05049437 0.0130256675 0.032975003 0.0003422548
000180 3e 87 32 bc 81 b3 e7 3d f6 82 51 3e cd 75 d7 3d
       -0.010896502 0.113135345 0.20460114 0.105205156
000190 83 57 43 be df df ec bc 96 76 6a be ed da 60 be
       -0.19076352 -0.028915344 -0.228968 -0.21958514
0001a0 7c 9f 9b bc 9e f1 31 be f4 08 a6 3c 8c e3 69 be
       -0.018996947 -0.17377326 0.020267941 -0.22840708
0001b0 36 f2 4a be 4b a3 e8 bd 27 67 29 3e 86 c6 92 3e
       -0.19818959 -0.11359271 0.16543256 0.28667086
0001c0 09 3a d6 3d 44 9a 1a 3e 58 fe a2 3e df e2 ae 3a
       0.10460288 0.1509791 0.31834674 0.0013342759
0001d0 04 a5 92 3e 37 d0 2c 3e c9 9e 6c 3e cc 57 2c 3d
       0.28641522 0.16876303 0.23107447 0.042075917
0001e0 08 33 42 3d 83 55 23 be 6d 94 4b be 6d 82 ca bb
       0.04741195 -0.15950589 -0.19880839 -0.0061800987
0001f0 b1 7e 25 3d 90 6d 03 be 9a 76 d1 bd 57 f6 cc bd
       0.040404025 -0.12834764 -0.102276996 -0.10007923
000200 fd d3 64 be ea 0f 48 bd 9f 13 3a be 05 9e a8 bc
       -0.22346492 -0.0488433 -0.18171547 -0.020583162
000210 d7 94 18 be b0 4d 92 bd 32 eb 63 be 31 13 91 3e
       -0.14900528 -0.07143724 -0.22257689 0.28334954
000220 54 97 c6 3e 69 5c b5 3e 7a f7 ba 3e b7 f4 95 3e
       0.3878733 0.35422066 0.36516935 0.29288265
000230 ad d8 86 3d b0 8e 20 3e 35 0c 62 3e 65 4b 52 3e
       0.065842964 0.15679431 0.22074969 0.20536573
000240 7d 26 c3 3d 3a 38 63 3d 21 76 dc 3c f9 91 e1 3c
       0.095288254 0.055473544 0.026911797 0.027535425
000250 37 06 10 3c ee 95 29 bd 06 15 ad bd c7 0f e7 3d
       0.008790544 -0.04140275 -0.084512755 0.11282306
000260 71 1f 97 3d a4 60 5a be 5c f1 32 be 47 c2 43 3d
       0.07379044 -0.21325928 -0.17474884 0.0477927
000270 8f f4 0c 3e 07 11 f1 3d ea bc 11 3d 15 b0 67 be
       0.13765167 0.11770826 0.035580553 -0.22625764
000280 12 22 2a bb ea 0c 70 3d 36 9c 50 3e 65 d8 1d bd
       -0.002596025 0.058606066 0.2037209 -0.038536448
000290 3e 5d 73 be ac 84 66 3e 75 94 0c 3e 03 65 a9 3d
       -0.23766038 0.22511548 0.13728507 0.082712196
0002a0 03 ea 80 bc cf de 5d bd 9e 24 8e bc f5 3f 87 bd
       -0.015736585 -0.054167565 -0.017351445 -0.06603996
0002b0 95 12 f1 bd b2 80 74 bd 91 3f 55 3d a4 c9 cb bd
       -0.11771122 -0.059693046 0.052062575 -0.09950569
0002c0 b1 16 70 bc 4c 2d 8f bd ae 79 3e be 42 e3 51 be
       -0.014653848 -0.069910616 -0.18601105 -0.20496848
0002d0 ef c2 8f 3b 1f 9b 01 3e cd 1a b6 3d 7e 02 05 be
       0.0043872516 0.1265683 0.088918306 -0.12989232
0002e0 e8 b8 cb bd 44 e8 18 3e 9e a8 1e 3e 14 e9 36 3e
       -0.099473774 0.14932352 0.1549401 0.1786235
0002f0 aa 6f 08 3e 51 f5 6b be 03 5f 79 3e 94 b3 af 3d
       0.13323846 -0.230428 0.2435265 0.08579174
000300 87 d7 09 ba 02 ad f3 3c 63 16 eb 3c 4f 5c 11 3d
       -0.00052582513 0.029745582 0.028697198 0.035488423
000310 dd 5b b9 3c a2 2b 60 be a2 a3 37 be 04 45 95 bd
       0.022626812 -0.21891645 -0.17933515 -0.07288554
000320 51 74 d7 bd 91 7a b1 3d 46 76 b3 3d 5c c1 90 3c
       -0.105202325 0.08665956 0.08762793 0.017670326
000330 93 df 92 3d ef 0e b4 3d f6 c7 0d 3e 1e b1 15 3c
       0.0717155 0.08791911 0.1384581 0.009136466
000340 65 90 59 3d d7 ed 87 3e b7 50 4c be 66 c9 2d be
       0.05311622 0.26548645 -0.19952665 -0.16971359
000350 1a 9b 93 be 9f 5e 32 be 4f af 5e 3d 00 ec 83 be
       -0.2882927 -0.17418908 0.054366406 -0.2576599
000360 65 da d1 be 4d 44 7f be 66 93 a0 be 94 79 41 bd
       -0.40986934 -0.24928398 -0.31362456 -0.047235087
000370 63 ab 6d 3e 5d 39 7c 3e 7d da 89 3d 42 37 7c 3d
       0.2320991 0.24631257 0.067311265 0.061576135
000380 46 2c 20 bc 45 12 a8 bb d9 66 0b 3e 08 fa 97 bd
       -0.009776181 -0.005129131 0.13613452 -0.074207366
000390 4c 33 1e 3e cd fd 81 3e e3 5b 2f bd db 1d 8e bd
       0.15449256 0.25388947 -0.04281224 -0.06939288
0003a0 a8 f8 da 3c 85 55 0f 3e bb 11 cc 3d fb 15 7f be
       0.026729897 0.13997467 0.09964319 -0.24910729
0003b0 29 c8 8a be 24 1e a8 be 0b 13 85 be df 23 82 bd
       -0.27105835 -0.32835495 -0.2599109 -0.06354498
0003c0 0e ab bf be 83 1c 48 be cd 75 f5 be c2 85 9a be
       -0.37435192 -0.19542126 -0.47941437 -0.30180174
0003d0 ca 44 85 39 7e 28 45 3e 4b 8f 02 3e da b5 3a bd
       0.0002541899 0.19253728 0.12749974 -0.045583583
0003e0 5b f2 11 3e 08 a3 54 3c bd fc 54 be 79 90 ee bd
       0.14252608 0.012978323 -0.20799537 -0.1164865
0003f0 2f 40 e7 3c 9f b3 38 bd 45 62 6c 3e 7c 44 0b be
       0.028228847 -0.045093175 0.23084362 -0.13600343

cnn.0.bias f4 [8]
000000 84 5e 05 3f 3f 36 28 bd fa 86 08 be c0 fe 49 bf
       0.52097344 -0.041067358 -0.1333274 -0.7890434
000010 be c5 ea bd 29 52 a2 be d4 93 30 be 0a e2 ad be
       -0.114634976 -0.31703308 -0.17243892 -0.33961517

cnn.2.weight f4 [8]
000000 9c 12 83 3f 9e 0f 15 3f 82 cd 85 3f 95 7b 9e 3f
       1.0240054 0.58226955 1.0453341 1.2381464
000010 d4 b8 65 3f 2d d4 80 3f b1 72 33 3f 81 9c 82 3f
       0.8973515 1.0064751 0.7009688 1.0204011

cnn.2.bias f4 [8]
000000 aa 51 90 3e cf 71 08 bd f9 61 0d be f1 7a 31 3d
       0.28187305 -0.03331166 -0.13806905 0.043330137
000010 06 a8 c6 3e ed 4f aa bc 08 54 ae 3d e7 31 79 3d
       0.38800067 -0.020790065 0.085121214 0.060838606

cnn.2.running_mean f4 [8]
000000 e4 98 1e 3f 19 9d 1e 3f 61 47 0d 3f 7a f1 d2 3d
       0.6195204 0.6195846 0.5518704 0.10299964
000010 02 7e 66 3f a1 26 a4 3e 4c 30 8b 3f 2d 69 46 3e
       0.9003602 0.32060722 1.0874114 0.19376059

cnn.2.running_var f4 [8]
000000 c9 ab 03 3f 55 52 60 3f 4e bb 9a 3f 55 37 f8 3d
       0.51434 0.8762563 1.2088411 0.12119929
000010 c3 56 b7 3f 0d 99 21 3f 96 4e 0e 40 b6 0b 48 3e
       1.4323353 0.6312416 2.2235465 0.19535717

cnn.3.weight f4 [32, 8, 5, 5]
000000 61 a1 2c bd 78 ca 28 bd a1 ff c7 b8 4e 43 88 3b
       -0.04214609 -0.041208714 -9.536674e-05 0.004158414
000010 7f 72 89 3b ef 82 7a 3e 3c f8 9f 3e 68 40 ed 3d
       0.004194557 0.2446401 0.31244075 0.1158455
000020 d5 08 3a 3e 60 be e0 3d 3d dc 21 3e 28 6b f0 3d
       0.18167432 0.10973811 0.1580667 0.117391884
000030 16 e8 be 3c 39 6a e1 bd 85 6d 14 be 91 e7 bc 3b
       0.023304027 -0.110065885 -0.14494903 0.0057649096
000040 c8 3a 00 3d bf 60 4b 3d 2a e4 be 3d 3b 67 20 3d
       0.03130606 0.04965281 0.093208626 0.03916095
000050 95 03 aa 3b 94 51 58 3d f0 bc 4d 3b f5 31 41 3d
       0.0051884153 0.052812174 0.0031393133 0.047166783
000060 26 8f 5e 3d 34 f5 f8 3d 9f 4f ff 3d ba f3 1f 3d
       0.054335736 0.12156144 0.124663584 0.039050795
000070 4b f3 df 3d 9a a8 15 3d 48 78 25 3e 74 5c 22 3e
       0.10935076 0.036537744 0.16159165 0.1585558
000080 af e9 72 3b 53 88 16 3c b1 38 aa bd 3d bc 12 3d
       0.0037065556 0.009187776 -0.08311594 0.03582405
000090 42 4d a3 3d 63 68 0d bd 67 13 e3 bd 01 11 73 be
       0.0797372 -0.03452338 -0.11087685 -0.23736955
0000a0 29 32 04 3e 8b c5 03 3e d3 32 2b 3e 2a 13 82 3d
       0.1290976 0.12868325 0.16718607 0.063513115
0000b0 9c 14 b1 3c 5b 29 90 bd e2 8d c4 bd c3 ac 0e be
       0.021616273 -0.07039138 -0.095973745 -0.13933091
0000c0 22 d0 f4 bd 50 b6 bc bd e8 60 b7 bd 51 44 e9 3a
       -0.11953761 -0.09214461 -0.0895403 0.0017796849
0000d0 64 16 0f 3d 5c 5f 21 3e 7b ab 86 3e 83 8e 4d bd
       0.034933463 0.15759033 0.26302704 -0.050184738
0000e0 f5 7a 41 3d a7 56 28 bc ae 55 84 3d fe da 82 3d
       0.0472364 -0.010274566 0.064616546 0.06389426
0000f0 f9 60 17 be 67 c7 60 be ae 28 28 be 28 e4 2e be
       -0.14783086 -0.21951066 -0.16421768 -0.17079222
000100 f6 f2 2e be 9a 06 ce 3d 95 76 95 3d 2d cf 65 3e
       -0.1708487 0.10059853 0.07298008 0.22442313
000110 03 35 6d 3e 3f 0c 64 3e d9 4c ae bc 07 d3 af bc
       0.23164754 0.22270297 -0.021276878 -0.02146293
000120 ac 89 7b bd b1 ce 40 bd c1 04 88 bc be b8 b7 3d
       -0.06141059 -0.047072116 -0.01660383 0.08970784
000130 0e 2a 2f be 02 33 e4 bd f9 9d 9b be ac 5f b7 3c
       -0.17105886 -0.111425415 -0.3039396 0.022384487
000140 9f 6e 10 3e f5 5a 9b 3d 1b aa 5f 3b d5 70 06 be
       0.14104699 0.07585708 0.003412849 -0.1312898
000150 73 b6 0a be 87 3c e1 3c 42 fc 6e bc fb 9e 9f 3c
       -0.13546161 0.027494682 -0.01458651 0.019484987
000160 87 c8 bc bd dc e0 f9 bd fb 32 a0 3d 4a 68 ed 3d
       -0.09217935 -0.12201092 0.07822224 0.11592157
000170 dc 6d 46 3e 9b ae ba bd e7 11 f1 3d a3 5a 92 3d
       0.19377846 -0.091153346 0.11770993 0.07146194
000180 c5 5e 15 be b5 28 db bc 57 61 10 be 4d 2e 21 be
       -0.14586933 -0.026752809 -0.14099632 -0.15740319
000190 58 af 54 3e ff 4a f5 3d d6 57 0f 3e ec 43 ae 3c
       0.20770013 0.11977195 0.1399835 0.021272622
0001a0 1c 64 3e 3d db ea 3b 3e 10 c3 f1 3d fd b8 3f 3e
       0.04648219 0.18351309 0.11804783 0.18722911
0001b0 e5 61 06 bc 70 a3 49 bd f8 3a 8a bd 66 a0 ce 3d
       -0.008202051 -0.04922813 -0.06749529 0.10089187
0001c0 fc 2f eb 3d d6 1f cd 3d b9 e5 7a 3d 9f ba f6 3d
       0.11483762 0.10015838 0.061254237 0.12047314
0001d0 11 ba 0a 3e 65 fe 8e 3d 51 bf 22 3d 96 e4 b9 3d
       0.13547541 0.06982116 0.039733235 0.090768024
0001e0 e3 61 33 be b7 18 1e be a1 90 25 bd 55 12 c6 bd
       -0.1751781 -0.15439115 -0.040421132 -0.09671465
0001f0 2b 24 e3 bd 10 7d 27 3e 24 36 32 3e 42 01 2a 3e
       -0.11090883 0.16356301 0.17403466 0.16602042
000200 5e e6 10 3e 25 3a f3 3d 98 fa 48 3d b7 71 8a 3d
       0.14150378 0.118763246 0.04906711 0.06759971
000210 4a b9 13 3e f7 ac 6b 3d 6a 4c 97 bc 59 8f 21 3d
       0.14426151 0.057538 -0.018469054 0.039443348
000220 a6 d8 22 3e 63 65 1b 3e d1 a6 6d 3d 58 87 81 3c
       0.15902957 0.15175395 0.058020417 0.015811607
000230 30 30 71 bd a5 f7 fa 3d 3b 0e 0d 3e 3f f5 bb bb
       -0.058883846 0.12254266 0.1377496 -0.0057360227
000240 e4 1e 29 bd df 50 be bd f7 82 87 3d f9 5c 37 3e
       -0.041289225 -0.09292769 0.066167764 0.1790656
000250 6d 23 a2 bc 6b 9e af 3d 1f c3 98 3d 9d ba 0f 3e
       -0.019792283 0.08575138 0.074590914 0.14036031
000260 70 34 16 3e e5 5d 0e b9 40 a6 b0 3d 98 54 3a bb
       0.14668441 -0.00013577154 0.0862546 -0.002843177
000270 93 d0 75 3d 18 a3 af 3c 6c 4c 24 bd 1f 69 b2 bd
       0.060013365 0.021440074 -0.040111944 -0.087114565
000280 c3 74 9c 3c 8b 1a 92 3d 2a 37 b3 3d 15 d9 76 3d
       0.019098645 0.07133969 0.08750756 0.06026562
000290 4a 43 26 3d 58 51 97 bd 01 a9 95 3d df cc 00 3d
       0.040591516 -0.07388562 0.073076256 0.03144538
0002a0 5c c7 f7 3c f5 29 f7 3c 86 63 3b be c3 32 26 bd
       0.03024643 0.030171374 -0.18299684 -0.040575754
0002b0 da ef 4b be ce cc c3 bd 01 29 60 be de 8f 0c bd
       -0.19915715 -0.09560548 -0.21890642 -0.03431689
0002c0 d6 28 d8 3d 7c 75 0c 3e 34 10 43 3e 56 aa 77 3e
       0.10554664 0.13716692 0.1904915 0.24186072
0002d0 26 6b f5 bc 73 13 5a bd 17 7f 04 3e 33 76 c3 3e
       -0.029958319 -0.053241204 0.12939106 0.38176116
0002e0 3b 01 06 3f e8 e2 21 be db 29 81 be 73 78 90 be
       0.5234563 -0.15809214 -0.25227246 -0.28216895
0002f0 85 a9 ef bb df c4 4c b9 ac c8 eb bd 7c 14 50 be
       -0.0073139095 -0.00019528296 -0.115128845 -0.20320314
000300 e9 01 db bd 06 ba f7 bb 80 fd ad bd d8 39 d1 bd
       -0.10693724 -0.0075600175 -0.08495617 -0.10216111
000310 aa 05 7d bc 45 7c 9c 3d 02 31 a7 3d 92 23 87 bc
       -0.015443245 0.0764089 0.081636444 -0.016496453
000320 a4 d0 58 bd 9c 51 39 bd 85 6b 72 3d 04 27 0d 3d
       -0.05293335 -0.045243844 0.05918457 0.034461036
000330 8f 39 1f 3d b5 ab be 3c 86 d2 58 bd 90 b0 af 3c
       0.03887325 0.023275236 -0.052935146 0.021446496
000340 64 74 b2 bd a1 5c 09 be aa cb fd bb 23 be 2b bd
       -0.08713606 -0.13414241 -0.007745226 -0.041929375
000350 be a5 d7 3b 27 32 43 b9 21 d1 39 bd 73 0f 7c 3d
       0.0065810373 -0.00018615332 -0.045365456 0.06153817
000360 b9 4d 87 3d bd 92 de 3d 8d 05 b8 3d e9 00 78 3d
       0.06606621 0.10867832 0.08985434 0.060547743
000370 50 e8 37 3d 2d 91 a1 3d 82 32 d2 bc bf a5 c7 bc
       0.044899285 0.07889018 -0.02565885 -0.024371026
000380 e7 da 15 bd 1a 17 19 3c 50 bd bc bc 30 53 17 bd
       -0.036585715 0.009343887 -0.02303949 -0.03694457
000390 8d 61 6d 3c 7e f3 ef bc 88 39 81 3d da 13 83 bd
       0.01448859 -0.02929091 0.06309801 -0.06400271
0003a0 a0 8c 87 ba 8b 0d dc 3c 25 c2 b2 bc 44 ab e2 3c
       -0.0010341592 0.026861927 -0.021821091 0.027669556
0003b0 55 89 aa 3d 8f 53 a3 3c c1 1c 09 3d 72 1a 60 bc
       0.08326975 0.019937305 0.033474687 -0.01367818
0003c0 a8 d6 ff 3c 9e 96 00 3d 0a 69 36 3d b2 c5 79 3d
       0.031230286 0.03139364 0.044533767 0.060979553
0003d0 69 ba 20 3d a1 87 51 3d 3e f9 4a 3d e0 a9 72 3d
       0.039240275 0.051154736 0.049554102 0.059244037
0003e0 67 b6 4c 3d 72 6e c4 bc ab 9a ac 3b e1 21 6d 3d
       0.04997864 -0.023978446 0.0052674613 0.057893638
0003f0 92 40 ce 3c 7e 0d b1 3c aa 9e c8 3d f8 ec 82 bd
       0.025177274 0.021612879 0.09795888 -0.063928545

cnn.3.bias f4 [32]
000000 16 74 4d be 17 fb ab be ac 3a 27 bd cd f3 f8 be
       -0.20063815 -0.33590004 -0.04082744 -0.48623505
000010 21 c1 26 be 7f be 7c be 97 57 9c be 77 48 04 be
       -0.1628461 -0.24682043 -0.30535576 -0.12918268
000020 0c 6f e9 be 77 cb f6 be 95 50 2a 3d 27 3c ba be
       -0.45592535 -0.48202106 0.041580755 -0.36374018
000030 8f 05 0d 3d 2f 00 02 bf 0b 16 fc be 04 6e b2 bd
       0.03442913 -0.5078153 -0.49235567 -0.0871239
000040 d9 ee 06 bf 6e 43 b1 be c6 4a 34 be 53 ba fe be
       -0.527082 -0.34621757 -0.17606649 -0.4975153
000050 8c c0 42 be 54 f9 80 be ea 43 54 be e4 36 13 be
       -0.19018763 -0.25190222 -0.20729032 -0.14376408
000060 f1 72 ed be 79 73 e1 be ad 72 09 bf 92 9e 6a be
       -0.46376756 -0.4403341 -0.53690606 -0.22912052
000070 34 3a 05 bf cb 54 16 be 7c a1 84 be a3 05 89 be
       -0.52041936 -0.14680783 -0.25904453 -0.26762113

cnn.5.weight f4 [32]
000000 df d9 32 3f c0 51 99 3f 88 d7 1f 3f 77 96 1c 3f
       0.69863695 1.1978073 0.6243825 0.6116709
000010 8f 72 35 3f 8a fc 18 3f 3b 5f 66 3f 5f 61 86 3f
       0.7087793 0.59760344 0.8998906 1.0498465
000020 3d 5a 29 3f c0 8f 69 3f e0 d6 87 3f a4 5d 6b 3f
       0.6615332 0.9123497 1.061245 0.9193976
000030 e0 2d 2f 3f fa 18 ab 3f 67 10 84 3f 0a a2 84 3f
       0.68429375 1.3366997 1.0317506 1.036195
000040 16 8f 91 3f a5 06 69 3f 89 bf ac 3f ad 33 5c 3f
       1.1371791 0.91025764 1.3495952 0.8601635
000050 b1 35 40 3f 87 5c 9d 3f 17 22 0b 3f e4 f6 a1 3f
       0.75081927 1.2293862 0.5434889 1.265347
000060 7d 69 19 3f 4d 8c 8c 3f 40 69 49 3f 21 c6 42 3f
       0.5992659 1.0980316 0.78676224 0.7608357
000070 bd 18 91 3f c7 f3 23 3f 64 0b 93 3f 8e 99 41 3f
       1.1335675 0.6404385 1.1487851 0.7562493
