models/optimized-speech_2s.model (torch, 291933 bytes, 78 tensors)

conv1.weight f4 [8, 2, 5, 5]
0.015157193 -0.07572495 -0.250121 -0.13712282 -0.007024841 0.08760527 -0.03107732 0.064323746
-0.04041677 -0.1601369 -0.09390841 -0.1708378 -0.04524515 0.011064896 -0.27036107 0.24802089
-0.036038887 0.01780315 0.15738188 -0.06881671 0.21739978 0.11588837 0.22622114 0.23486839
-0.052895527 0.18373573 -0.09020081 -0.17699304 -0.17158036 -0.10588936 -0.0109819025 -0.08160625
-0.124038205 -0.089630775 -0.17124723 -0.07100857 -0.06416945 -0.16072188 -0.07548323 -0.22685207
0.21043107 0.011368447 0.20416807 0.15241188 0.006678347 0.19193688 0.24931903 0.10444888
0.034752406 0.06839013 -0.06535448 -0.06658149 -0.019856147 -0.06774887 -0.018281749 -0.04453146
-0.18206486 0.038821056 0.11471914 0.09862977 -0.14302298 0.025586944 0.043715015 0.21483767
0.1004669 0.06015345 0.030052625 0.15335193 -0.13060877 -0.12613915 0.13775656 0.09010679
-0.18766311 -0.014144628 -0.10155962 0.13935247 0.08857161 -0.07910141 -0.042028677 0.01496761
-0.1826189 -0.09626473 0.06549699 -0.0008331565 0.12475478 -0.057348616 -0.17297156 0.11275024
0.20166005 0.14557435 0.16910005 0.16726238 0.02716358 -0.13466161 -0.17921162 -0.022813676
0.08180154 -0.08095753 0.009932958 -0.10250666 -0.23420623 -0.358473 -0.10725327 -0.22750801
-0.09299414 0.046124298 -0.074009 0.2122651 -0.19828399 -0.03505547 -0.12514733 -0.2622993
-0.05361023 -0.22796106 -0.15995009 0.029701224 -0.0065567065 0.10582965 0.04891491 0.1634504
-0.017291168 0.13997968 0.06537264 0.14094767 0.14724332 -0.2357854 -0.39909723 -0.051531736
-0.32759088 -0.27612257 -0.16089009 -0.057938997 -0.04027259 -0.27706167 -0.12802948 0.032874726
-0.24130715 -0.046396714 -0.27950475 -0.031260934 0.039484497 -0.1538212 0.17268796 0.026426923
0.09065228 0.16305257 0.03507185 0.11049958 0.09969069 -0.04422728 0.15983342 0.17500529
0.019096458 0.12866524 0.0019469903 0.15117687 0.24124761 0.059984256 0.089467354 0.038137913
-0.08556785 -0.07352775 0.03038877 0.021638747 -0.206975 -0.05690637 -0.027607163 -0.0661481
-0.20730898 -0.12807111 -0.111380175 -0.11681185 -0.019180132 -0.13645369 -0.20796806 0.2019594
0.13169883 0.18911126 0.13090928 0.05063339 0.0035624125 0.21253246 0.05718046 0.0036647504
-0.13687678 0.024669342 -0.07190116 -0.014124012 -0.030608231 -0.2328752 -0.11248281 0.032992233
0.08572575 -0.21423775 -0.24981242 -0.023048827 0.037839517 -0.10381774 0.001580733 -0.10034036
0.07949147 0.015455964 0.17437492 -0.06524622 -0.119658306 0.06804424 0.0945993 -0.08893726
-0.08309811 -0.024523135 0.08422797 0.14338645 0.06672491 -0.14063472 -0.04420642 0.0044271313
0.08901789 0.07409092 0.0052425303 -0.09268413 0.13159019 -0.03731347 -0.043461926 -0.21628867
-0.14755526 0.12478502 -0.08943256 -0.07340432 -0.08262794 -0.013725311 0.11730565 0.054450594
0.12198779 -0.16173866 0.08138541 0.09814261 0.03855996 -0.07676836 -0.006398122 -0.15585653
0.18907662 0.090622865 -0.08519084 -0.20645785 0.06909461 0.15833357 0.16454662 0.10930096
-0.22677922 -0.047825314 -0.171054 0.01179045 -0.27299386 -0.008804489 -0.12853721 -0.28615963
00000000: e055 783c af15 9bbd dc0f 80be ed69 0cbe
00000010: a330 e6bb 646a b33d dd95 febc 2bbc 833d
00000020: 0e8c 25bd edfa 23be 0d53 c0bd 1bf0 2ebe
00000030: fa52 39bd 8a49 353c c46c 8abe 30f9 7d3e
00000040: 839d 13bd e9d7 913c b728 213e c6ef 8cbd
00000050: 0c9e 5e3e e256 ed3d 84a6 673e 5781 703e
00000060: fba8 58bd 3825 3c3e 34bb b8bd aa3d 35be
00000070: c3b2 2fbe 85dc d8bd 70ed 33bc 2d21 a7bd
00000080: be07 febd 5790 b7bd 6f5b 2fbe f16c 91bd
00000090: 466b 83bd 4794 24be f496 9abd e94b 68be
000000a0: 3e7b 573e b942 3a3c 6f11 513e dc11 1c3e
000000b0: 09d6 da3b 1a8b 443e 7d4d 7f3e 4be9 d53d
000000c0: 8a58 0e3d 2010 8c3d 92d8 85bd e05b 88bd
000000d0: 5ca9 a2bc ebbf 8abd 9bc3 95bc 9f66 36bd
000000e0: 366f 3abe d402 1f3d def1 ea3d 68fe c93d
000000f0: 9e74 12be b69b d13c 840e 333d 68fe 5b3e
00000100: 97c1 cd3d 7763 763d ec30 f63c 4a08 1d3e
00000110: 4ebe 05be 9f2a 01be 0e10 0d3e e989 b83d
00000120: c22a 40be dfbe 67bc 7dfe cfbd 6ab2 0e3e
00000130: 0865 b53d ecff a1bd 4326 2cbd b53a 753c
00000140: 7300 3bbe 7126 c5bd 4923 863d 3068 5aba
00000150: 6f7f ff3d 62e6 6abd 751f 31be 99e9 e63d
00000160: f97f 4e3e 7111 153e 9028 2d3e d446 2b3e
00000170: 2886 de3c bce4 09be 4083 37be bfe3 babc
00000180: 9187 a73d 10cd a5bd d8bd 223c 03ef d1bd
00000190: c2d3 6fbe c689 b7be 9aa7 dbbd dcf7 68be
000001a0: b673 bebd d5ec 3c3d 0892 97bd 065c 593e
000001b0: f50a 4bbe 5396 0fbd 9f26 00be 184c 86be
000001c0: 6796 5bbd a06e 69be f5c9 23be fb4f f33c
000001d0: a4d9 d6bb 37bd d83d 005b 483d 8b5f 273e
000001e0: 35a6 8dbc d556 0f3e 17e2 853d 9654 103e
000001f0: f4c6 163e ba71 71be 7956 ccbe f112 53bd
00000200: feb9 a7be f05f 8dbe 5fc0 24be 7151 6dbd
00000210: dff4 24bd 07db 8dbe 291a 03be a6a7 063d
00000220: 3919 77be 7b0a 3ebd 3f1b 8fbe 770b 00bd
00000230: 7fba 213d 4e83 1dbe 1dd5 303e 467d d83c
00000240: e7a7 b93d 41f7 263e 80a7 0f3d 9b4d e23d
00000250: a22a cc3d aa27 35bd 5fab 233e 9634 333e
00000260: 2d70 9c3c d2c0 033e 2732 ff3a 1cce 1a3e
00000270: 9d09 773e 0db2 753d a93a b73d 8036 1c3d
00000280: 323e afbd b895 96bd dff1 f83c be43 b13c
00000290: 41f1 53be a716 69bd 6b28 e2bc a878 87bd
000002a0: ce48 54be 1325 03be 4a1b e4bd 0d3b efbd
000002b0: a71f 9dbc 84ba 0bbe 94f5 54be 72ce 4e3e
000002c0: 0fdc 063e 62a6 413e 150d 063e f564 4f3d
000002d0: 5d77 693b 1ca2 593e 0f36 6a3d 4f2c 703b
000002e0: 6d29 0cbe 5c17 ca3c ea40 93bd 6668 67bc
000002f0: 1dbe fabc d676 6ebe 635d e6bd dd22 073d
00000300: fb90 af3d 2461 5bbe d4ce 7fbe e5d0 bcbc
00000310: 9cfd 1a3d 659e d4bd 9930 cf3a 3f7f cdbd
00000320: 6ccc a23d 033b 7d3c 578f 323e cf9f 85bd
00000330: 6a0f f5bd c75a 8b3d 47bd c13d bd24 b6bd
00000340: 582f aabd bee4 c8bc b77f ac3d e6d3 123e
00000350: 12a7 883d 8c02 10be cb11 35bd 7811 913b
00000360: 034f b63d fbbc 973d 88c9 ab3b 2dd1 bdbd
00000370: 94bf 063e 02d6 18bd 2205 32bd c77a 5dbe
00000380: ba18 17be 4a8f ff3d 6b28 b7bd 0155 96bd
00000390: d638 a9bd 20e0 60bc f23d f03d 9607 5f3d
000003a0: bcd4 f93d d29e 25be 65ad a63d fefe c83d
000003b0: 0cf1 1d3d bb38 9dbd 56a7 d1bb db98 1fbe
000003c0: 4d9d 413e 7b98 b93d 8978 aebd b069 53be
000003d0: 7a81 8d3d 3222 223e e97e 283e 2fd9 df3d
000003e0: d038 68be 7ae4 43bd c828 2fbe bb2c 413c
000003f0: dac5 8bbe b440 10bc 429f 03be 8483 92be

conv1.bias f4 [8]
0.08001319 -0.48360658 0.016855117 0.045718677 -0.3760858 0.08990892 -0.38799682 -0.06924209
00000000: f5dd a33d 489b f7be be13 8a3c 8243 3b3d
00000010: 518e c0be 2b22 b83d 85a7 c6be ccce 8dbd

bn1.weight f4 [8]
0.72283995 1.0525048 0.83900225 1.1337124 1.0974245 0.94882095 1.0722513 0.54942447
00000000: 0a0c 393f 7ab8 863f dac8 563f 7d1d 913f
00000010: 6878 8c3f eee5 723f 883f 893f 15a7 0c3f

bn1.bias f4 [8]
0.29266322 0.001775016 0.42289588 0.031872317 -0.1544638 0.17669535 0.25753155 0.36673647
00000000: f4d7 953e a7a7 e83a cf85 d83e 8c8c 023d
00000010: c22b 1ebe a0ef 343e 2ddb 833e e2c4 bb3e

bn1.running_mean f4 [8]
0.40842655 0.024010051 1.0389253 0.47736478 0.22011034 0.42001122 0.1590122 0.9017089
00000000: 491d d13e bab0 c43c 81fb 843f 2869 f43e
00000010: 9b64 613e b60b d73e 18d4 223e 65d6 663f

bn1.running_var f4 [8]
0.4463742 0.01577545 2.486719 0.424584 0.2918944 0.60374194 0.15174568 2.0282326
00000000: 298b e43e 843b 813c 6726 1f40 1363 d93e
00000010: 2f73 953e d58e 1a3f 3863 1b3e 90ce 0140

conv2.weight f4 [32, 8, 5, 5]
-0.028309844 -0.08508787 -0.008404062 0.078138866 0.037214067 0.06589841 0.009818 -0.072555415
-0.083676085 0.022866849 0.009197287 0.0003704691 -0.10285705 -0.056562595 -0.054327585 -0.03712051
-0.043716818 0.0122104725 -0.12708765 0.05241528 -0.15829225 -0.003770294 -0.055938736 -0.07414098
-0.071208455 -0.03483971 -0.12724206 0.21312694 0.17062049 -0.021504782 -0.011108612 0.16328979
0.25636846 -0.064126216 0.091134235 0.0003400953 0.14601138 0.038568996 -0.024039984 -0.013601749
-0.047283374 -0.022536686 0.019614993 0.00040871507 0.09240911 0.04570853 0.0541446 -0.010650838
-0.02197455 -0.034541633 -0.047682684 -0.02631595 -0.09468394 -0.11026166 -0.10660522 0.037663832
-0.018018749 0.0046805553 -0.093591526 -0.10358104 -0.070624724 -0.009748316 -0.078785576 -0.1615644
-0.1369076 -0.059198856 -0.085817434 -0.07172942 -0.10938809 -0.07505274 -0.059476826 0.004310904
-0.07534007 -0.11517341 -0.08583383 -0.09171658 -0.18265209 0.08325796 -0.15807016 -0.05734647
-0.026464682 -0.13631408 0.077881016 0.1343805 0.022418292 -0.14867441 -0.1833559 0.16143285
0.12352758 0.03378776 -0.032038007 -0.028881561 0.0902904 -0.042475335 -0.028603856 -0.025261287
0.06400074 -0.03618417 -0.014830125 0.057669125 0.03616808 -0.26856494 -0.09864651 0.19824213
-0.027443899 0.14092354 -0.2841567 -0.002818153 0.16030097 0.1209629 0.059957214 -0.056875262
0.0051498553 -0.011021422 0.0143091455 0.05553438 0.14701867 -0.06149009 0.0155478185 0.17362525
-0.039163746 0.2055543 0.12714437 0.06000895 0.14856902 -0.14281 -0.066220365 0.16161832
-0.07152298 0.020195736 -0.08453856 0.06262117 -0.0028608292 -0.13855307 0.06639094 0.08547548
0.09967171 0.033443045 0.01681447 0.026114987 0.05740587 -0.027698154 0.0013850674 0.04076088
0.11628946 -0.07615482 0.048328515 -0.01745796 0.008658381 0.02436322 0.0037350669 0.25265682
-0.15591323 -0.08344912 0.114430875 -0.05367682 0.081871286 -0.0636549 -0.124280035 0.12657769
-0.024518453 -0.07591838 -0.19258784 -0.079461955 0.027226157 0.13526398 -0.014391466 -0.07278841
-0.062346812 0.051641505 0.16720657 -0.0387745 -0.101336904 -0.03918898 0.067976534 0.006311641
0.037496094 0.07615886 0.104427405 0.05428473 -0.05927544 0.16097613 0.0277171 0.051508307
-0.015446441 -0.0955514 -0.017244179 -0.12617548 -0.14765966 0.0039487914 0.031814534 -0.061404232
-0.15887865 -0.105084404 -0.045836642 -0.02490432 -0.10825675 -0.21782531 -0.1911648 -0.061614707
0.074790016 0.029741483 -0.05309985 0.04288395 -0.07259833 0.0014860176 -0.023099825 -0.16138954
-0.13631715 -0.1387842 0.042292494 0.13582909 0.050972965 -0.096000865 -0.020279117 -0.13800727
-0.024962915 -0.007699135 -0.018770663 -0.018399678 -0.02727892 0.06466364 0.0710101 0.11676391
0.11168377 -0.14426973 -0.031170946 0.08675646 -0.04986537 -0.033852298 -0.034936875 -0.12761073
-0.025611028 -0.23902701 -0.10746245 -0.11450289 -0.10884391 0.069409825 0.07930472 -0.07439683
-0.17318703 -0.08398176 0.034471955 -0.04862685 -0.18611789 0.014882254 -0.015513661 -0.0067666452
-0.027102815 -0.023940105 -0.086043514 0.009782678 -0.01603873 -0.036480714 -0.06709209 -0.08958746
00000000: 0cea e7bc 8d42 aebd 31b1 09bc 4507 a03d
00000010: c76d 183d bff5 863d addb 203c ef97 94bd
00000020: 5e5e abbd 4253 bb3c 38b0 163c 853b c239
00000030: b8a6 d2bd 2eae 67bd 9a86 5ebd ad0b 18bd
00000040: 6810 33bd 6f0e 483c 4423 02be 68b1 563d
00000050: 5d17 22be 0917 77bb 0420 65bd 3ad7 97bd
00000060: bdd5 91bd 15b4 0ebd be4b 02be f33d 5a3e
00000070: 23b7 2e3e cc2a b0bc e500 36bc 7035 273e
00000080: ba42 833e 9b54 83bd 96a4 ba3d d24e b239
00000090: 0284 153e 86fa 1d3d 80ef c4bc dfd9 5ebc
000000a0: 36ac 41bd db9e b8bc 9faf a03c cf48 d639
000000b0: fd40 bd3d de38 3b3d bac6 5d3d da80 2ebc
000000c0: f903 b4bc 877b 0dbd eb4e 43bd 8c94 d7bc
000000d0: a7e9 c1bd ddd0 e1bd d653 dabd 6445 1a3d
000000e0: 0e9c 93bc 585f 993b eaac bfbd 4c22 d4bd
000000f0: b2a3 90bd 67b7 1fbc 555a a1bd 2371 25be
00000100: 8231 0cbe 807a 72bd 0dc1 afbd e0e6 92bd
00000110: dd06 e0bd 40b5 99bd f99d 73bd 7c42 8d3b
00000120: e54b 9abd 09e0 ebbd a6c9 afbd e7d5 bbbd
00000130: 2609 3bbe 2683 aa3d 25dd 21be 22e4 6abd
00000140: 76cc d8bc eb95 0bbe 1580 9f3d 0b9b 093e
00000150: 91a6 b73c 1b3e 18be a6c1 3bbe a74e 253e
00000160: 07fc fc3d 0965 0a3d 493a 03bd 0699 ecbc
00000170: 2cea b83d 9efa 2dbd a252 eabc c2f0 cebc
00000180: d212 833d da35 14bd 0dfa 72bc 7636 6c3d
00000190: fb24 143d 5881 89be 2e07 cabd fcff 4a3e
000001a0: 07d2 e0bc 434e 103e fd7c 91be c3b0 38bb
000001b0: f025 243e 66bb f73d b295 753d 09f6 68bd
000001c0: 1ec0 a83b 3293 34bc e870 6a3c 0578 633d
000001d0: 108c 163e 08dd 7bbd 47bc 7e3c d1ca 313e
000001e0: 2a6a 20bd d47c 523e 2232 023e f2cb 753d
000001f0: 7a22 183e c93c 12be 8b9e 87bd 467f 253e
00000200: a47a 92bd 8771 a53c 8d22 adbd 873f 803d
00000210: c07c 3bbb dbe0 0dbe f9f7 873d c50d af3d
00000220: ae20 cc3d 93fb 083d 80be 893c 19ef d53c
00000230: 6b22 6b3d 3de7 e2bc 268b b53a e1f4 263d
00000240: 2b29 ee3d 0ff7 9bbd 1ff4 453d ff03 8fbc
00000250: e2db 0d3c 6095 c73c 06c8 743b 3c5c 813e
00000260: b8a7 1fbe 5fe7 aabd bc5a ea3d 3adc 5bbd
00000270: 22ac a73d 805d 82bd 8886 febd 959d 013e
00000280: ecda c8bc 187b 9bbd bf35 45be f3bc a2bd
00000290: 6409 df3c a482 0a3e 2fca 6bbc 1712 95bd
000002a0: 5f5f 7fbd 0b86 533d 3338 2b3e 03d2 1ebd
000002b0: b989 cfbd a084 20bd 4837 8b3d e2d1 ce3b
000002c0: 8195 193d 2df9 9b3d 09de d53d aa59 5e3d
000002d0: ceca 72bd edd6 243e f90e e33c 60fa 523d
000002e0: 1213 7dbc 74b0 c3bd aa43 8dbc 2534 01be
000002f0: 1834 17be dd64 813b f54f 023d 0183 7bbd
00000300: 16b1 22be 7e36 d7bd 34bf 3bbd 2504 ccbc
00000310: b7b5 ddbd 990d 5fbe b5c0 43be b45f 7cbd
00000320: 822b 993d 69a4 f33c 3a7f 59bd 15a7 2f3d
00000330: 6fae 94bd 7ac6 c23a d83b bdbc 4d43 25be
00000340: b996 0bbe 721d 0ebe e53a 2d3d c816 0b3e
00000350: 07c9 503d 1a9c c4bd 6420 a6bc c751 0dbe
00000360: 077f ccbc 0749 fcbb efc4 99bc ecba 96bc
00000370: 0b78 dfbc 5f6e 843d be6d 913d eb21 ef3d
00000380: 76ba e43d 72bb 13be 365a ffbc 5fad b13d
00000390: a13f 4cbd b5a8 0abd f819 0fbd 63ac 02be
000003a0: 38ce d1bc 7fc3 74be 4615 dcbd 7e80 eabd
000003b0: 8ee9 debd bd26 8e3d 836a a23d 5d5d 98bd
000003c0: f157 31be a1fe abbd 7732 0d3d f32c 47bd
000003d0: b095 3ebe b3d4 733c 032d 7ebc bcba ddbb
000003e0: b906 debc 0a1e c4bc 9537 b0bd 8747 203c
000003f0: a863 83bc cd6c 15bd 9467 89bd a179 b7bd

conv2.bias f4 [32]
-0.26693675 -0.04370325 -0.28760797 -0.2843014 -0.069348775 -0.13579032 -0.3876697 0.0021879724
-0.25268966 -0.13567175 -0.16972925 -0.05172208 0.05003625 -0.20562057 -0.27784666 -0.19515923
-0.41536927 -0.10355637 -0.22200465 -0.100762784 0.029614562 -0.302902 -0.29635805 -0.3365677
-0.103411034 -0.26456618 -0.11126702 -0.20656848 -0.089564264 0.040670812 0.03128601 0.018711062
00000000: efab 88be 2e02 33bd 5a41 93be f48f 91be
00000010: bb06 8ebd 9e0c 0bbe a57c c6be 1664 0f3b
00000020: 8a60 81be 89ed 0abe 81cd 2dbe 88da 53bd
00000030: d0f2 4c3d 338e 52be eb41 8ebe d2d7 47be
00000040: 48ab d4be 5d15 d4bd 3055 63be b85c cebd
00000050: 3d9a f23c f915 9bbe 3ebc 97be 9a52 acbe
00000060: 2ac9 d3bd 3875 87be f7df e3bd b086 53be
00000070: 786d b7bd 7096 263d c225 003d f147 993c

bn2.weight f4 [32]
0.8235654 1.0940105 0.99742764 1.1124103 0.8987709 1.1157959 1.504756 0.94052887
0.8420219 1.0416101 1.0301213 0.8574929 0.6348852 0.92369324 1.0322578 0.9032769
1.0418938 0.97009474 0.97542673 0.9471685 0.86508155 1.2181025 1.0766042 1.290129
0.89426816 1.0308172 1.040101 0.78835684 1.001263 1.0261183 0.85731524 0.95798075
00000000: 2fd5 523f 8908 8c3f 6b57 7f3f 7663 8e3f
00000010: da15 663f 66d2 8e3f d89b c03f 80c6 703f
00000020: bf8e 573f 7b53 853f 04db 833f a884 5b3f
00000030: d687 223f 2977 6c3f 0621 843f 283d 673f
00000040: c75c 853f 2158 783f 91b5 793f a379 723f
00000050: fc75 5d3f c8ea 9b3f 2bce 893f f222 a53f
00000060: c2ee 643f d1f1 833f 0822 853f c1d1 493f
00000070: 6329 803f d857 833f 0379 5b3f 3a3e 753f

bn2.bias f4 [32]
0.010112261 0.06315737 0.008993478 0.093135886 0.043379508 -0.069951415 -0.10825716 0.028203065
0.11020842 -0.053952336 -0.0095063755 0.06125092 0.13443571 -0.045263752 0.016117668 0.0025095164
-0.045897517 -0.012123095 0.07878005 -0.00563702 -0.087691754 -0.08818704 -0.10096565 0.028856505
0.021493822 -0.035950612 -0.059349027 0.016259972 -0.12371488 0.11063932 -0.18783532 0.06081227
00000000: e6ad 253c a758 813d 6159 133c 07be be3d
00000010: b6ae 313d b042 8fbd eeb5 ddbd 1d0a e73c
00000020: f4b4 e13d 20fd 5cbd a1c0 1bbc 3fe2 7a3d
00000030: 84a9 093e 7c66 39bd 3309 843c b376 243b
00000040: 09ff 3bbd f29f 46bc 6f57 a13d c0b6 b8bb
00000050: bc97 b3bd 689b b4bd 14c7 cebd 7a64 ec3c
00000060: d013 b03c f340 13bd f717 73bd a233 853c
00000070: 3a5e fdbd de96 e23d e757 40be 4916 793d

bn2.running_mean f4 [32]
0.27121115 0.31436747 0.24463792 1.6428045 2.219579 0.3700794 0.22519413 1.3172394
1.2546414 0.81356615 0.3356907 1.071776 1.1782606 1.0165172 0.41472867 0.38705125
0.3815143 0.8023949 0.50670856 1.6479008 1.2365898 0.22551 0.47174636 0.29958734
0.64298683 1.146458 0.16723643 1.0254997 0.21425918 1.2758076 1.6853913 2.2859387
00000000: 30dc 8a3e c6f4 a03e 5d82 7a3e 6b47 d23f
00000010: 950d 0e40 0c7b bd3e 4a99 663e 4d9b a83f
00000020: 1798 a03f df45 503f a7df ab3e f52f 893f
00000030: 3ed1 963f 3c1d 823f 5157 d43e 952b c63e
00000040: d855 c33e c169 4d3f a7b7 013f 6aee d23f
00000050: 9348 9e3f 18ec 663e bd88 f13e 8363 993e
00000060: c99a 243f 23bf 923f 0740 2b3e 9343 833f
00000070: c266 5b3e aa4d a33f e7ba d73f d24c 1240

bn2.running_var f4 [32]
0.70921695 0.7826147 0.6020521 7.5376687 11.195838 1.0684583 0.60756004 3.3881307
4.288285 1.9636983 0.99828523 2.12209 1.8125516 2.9915311 1.5980154 1.1375597
1.2145267 2.379511 1.1150999 6.225239 3.4301474 0.59619594 1.1856973 0.47393984
1.8434873 3.7673266 0.27324635 3.5151265 0.28497395 3.017752 3.903188 7.209045
00000000: 3e8f 353f 7059 483f 1620 1a3f 9534 f140
00000010: 2722 3341 3ec3 883f 0e89 1b3f 22d7 5840
00000020: a139 8940 775a fb3f 9f8f 7f3f 53d0 0740
00000030: b101 e83f 3f75 3f40 c58b cc3f 8e9b 913f
00000040: 9c75 9b3f e949 1840 98bb 8e3f 2835 c740
00000050: 8987 5b40 4ca0 183f eec4 973f 3ea8 f23e
00000060: 64f7 eb3f e11b 7140 f2e6 8b3e d5f7 6040
00000070: 1be8 913e d922 4140 d5cd 7940 7fb0 e640

conv3.weight f4 [64, 32, 5, 5]
-0.008928685 -0.12297107 -0.13274494 -0.08821657 -0.065781206 -0.11602764 -0.122084595 -0.1125386
-0.18199675 -0.09544576 0.14285088 0.029534832 0.016294459 -0.021176467 0.082197376 0.10183384
0.035597704 0.07923004 0.004864486 0.04259484 0.10767977 0.10207037 0.023673506 0.07306042
0.050237294 -0.024694413 0.09917569 -0.106805176 0.11214269 0.078086145 -0.26891592 -0.15307775
-0.17056778 -0.059190128 -0.11065419 0.10585681 0.02951893 0.018746192 0.09278133 0.07857953
0.087034635 0.06019691 0.025276873 -0.0060590934 0.13372317 0.047802947 0.006191811 0.09879083
-0.0086235115 0.15833952 -0.050027788 -0.17380157 -0.09907074 -0.035280604 -0.12007299 -0.07906482
0.031613536 -0.005231434 0.019316904 -0.042959154 0.020839406 0.15742922 0.12191774 0.045688998
-0.011449974 0.023142904 0.09382237 0.0306781 0.015393025 -0.019645996 0.054308463 0.19363354
0.13335226 0.06224828 0.05719916 -0.21623361 -0.2519249 -0.25447172 -0.257802 -0.23191926
-0.024634508 -0.08788946 -0.09376689 -0.14103422 -0.14256766 0.07322059 0.05162768 -0.056371067
-0.0056967866 -0.042335443 0.06893004 0.066384144 0.095618814 0.0076009454 -0.055828497 0.18980984
0.14105769 0.1327135 0.10246666 0.042029794 -0.17348848 -0.10726532 -0.04226087 -0.04140617
-0.08984511 -0.13674699 -0.07198341 -0.08489258 -0.00061639014 -0.08325592 -0.015441542 -0.0009439875
0.033958238 0.001651386 -0.07210644 0.028837908 0.038152013 0.069140285 0.07400885 0.035624836
0.08316429 0.07125326 0.15977097 0.11492235 0.0640341 0.01667119 0.06572227 0.038633283
0.091845326 0.16878018 -0.020113535 0.011698115 -0.13197902 0.05772741 0.03956349 -0.036635336
-0.02379782 -0.033438925 -0.033282142 0.12624504 -0.038122863 -0.07331812 0.016432729 0.02005367
0.045046892 -0.015558145 -0.08469346 0.025342025 0.1507284 0.04430679 -0.25148937 -0.08836239
-0.22446346 -0.17503807 -0.095412984 -0.02025964 -0.129553 -0.18291399 -0.11100083 -0.16806619
-0.009420269 -0.08390964 -0.14961 -0.07252689 0.01579632 0.03369391 -0.17901932 -0.018473096
-0.055553187 -0.068849884 -0.050380398 -0.009600648 -0.01898406 -0.027117943 -0.043200485 0.03358819
0.016544241 0.0051695695 0.0013181219 0.02948159 0.048964906 0.02925774 -0.03142241 0.03957133
0.004852912 -0.057486307 -0.15068577 -0.14055926 -0.16034085 -0.13056898 -0.086995676 -0.13581203
-0.056576043 -0.15851414 -0.11306108 -0.038814917 0.01013468 -0.0018549706 -0.020008042 0.0071889195
-0.1660659 -0.15299335 -0.22899279 -0.041539516 -0.08291202 0.02811508 -0.08930398 -0.19575644
-0.020102454 0.034818925 0.121605106 0.055739522 0.011970867 0.035230894 0.034188014 0.11671001
-0.0013933284 -0.011482563 -0.006584835 0.03447797 0.106533244 0.078724034 0.0768949 -0.001300511
0.07669293 -0.09420239 -0.18384919 -0.23271057 -0.110704266 -0.1279353 0.022782793 -0.060234617
-0.09150422 -0.01243328 0.016137507 0.07826566 -0.04462739 -0.024938012 0.00025772591 0.06899542
-0.015414923 -0.10519195 -0.12460277 -0.075122975 -0.04930306 -0.07042213 -0.09555355 -0.12605707
-0.09673433 -0.06776336 -0.061023187 0.18776013 0.013475545 0.043837246 0.07566506 -0.12857908
00000000: 9f49 12bc 42d8 fbbd 4aee 07be e4aa b4bd
00000010: 4cb8 86bd e69f edbd 7d07 fabd a37a e6bd
00000020: 5b5d 3abe 1179 c3bd 8047 123e 08f3 f13c
00000030: f57b 853c 457a adbc 1957 a83d 438e d03d
00000040: e6ce 113d 5c43 a23d 4466 9f3b ed77 2e3d
00000050: 3687 dc3d 450a d13d f1ee c13c b4a0 953d
00000060: 9fc5 4d3d f04b cabc a01c cb3d acbc dabd
00000070: 11ab e53d a1eb 9f3d 59af 89be 6ac0 1cbe
00000080: 52a9 2ebe 5971 72bd aa9e e2bd 75cb d83d
00000090: afd1 f13c 9d91 993c 2304 be3d 4eee a03d
000000a0: 373f b23d 0991 763d 7211 cf3c 5c8b c6bb
000000b0: baee 083e 06cd 433d ade4 ca3b d952 ca3d
000000c0: a149 0dbc c123 223e f0e9 4cbd 0af9 31be
000000d0: 9ae5 cabd 6582 10bd d4e8 f5bd bdec a1bd
000000e0: 327d 013d 736c abbb 7c3e 9e3c f0f5 2fbd
000000f0: 67b7 aa3c 2035 213e 02b0 f93d 6324 3b3d
00000100: ac98 3bbc 3096 bd3c f125 c03d a450 fb3c
00000110: 0733 7c3c a4f0 a0bc 8d72 5e3d df47 463e
00000120: 7f8d 083e 0df8 7e3d ab49 6a3d 586c 5dbe
00000130: 4dfc 80be 1e4a 82be a0fe 83be 3e7c 6dbe
00000140: 4fce c9bc 64ff b3bd db08 c0bd 466b 10be
00000150: 42fd 11be adf4 953d 8c77 533d 59e5 66bd
00000160: 1cac babb ee67 2dbd 312b 8d3d 69f4 873d
00000170: ccd3 c33d 5a11 f93b 6cac 64bd 835d 423e
00000180: 6d71 103e 0ce6 073e 0ada d13d 6f27 2c3d
00000190: f7a6 31be ecad dbbd bc19 2dbd 8499 29bd
000001a0: b700 b8bd 6707 0cbe 0a6c 93bd 29dc adbd
000001b0: 3e95 21ba 1482 aabd 85fe 7cbc ee75 77ba
000001c0: cb17 0b3d 5273 d83a 8bac 93bd 7a3d ec3c
000001d0: 4945 1c3d 6c99 8d3d f491 973d 59eb 113d
000001e0: 0a52 aa3d 3bed 913d 009b 233e 695c eb3d
000001f0: 4f24 833d 0592 883c 6699 863d ef3d 1e3d
00000200: 6719 bc3d b6d4 2c3e 24c5 a4bc 73a9 3f3c
00000210: 8225 07be 9473 6c3d 530d 223d ef0e 16bd
00000220: a5f3 c2bc 41f7 08bd db52 08bd 6146 013e
00000230: b826 1cbd cf27 96bd ee9d 863c 9847 a43c
00000240: 1783 383d 97e7 7ebc c473 adbd 149a cf3c
00000250: 8c58 1a3e 097b 353d 37c3 80be 57f7 b4bd
00000260: c0d9 65be 2e3d 33be e267 c3bd 8bf7 a5bc
00000270: 8ba9 04be ce4d 3bbe 6754 e3bd 8b19 2cbe
00000280: 7957 1abc d1d8 abbd 5d33 19be fa88 94bd
00000290: 4967 813c a002 0a3d d750 37be e454 97bc
000002a0: bd8b 63bd 2b01 8dbd ad5b 4ebd 094c 1dbc
000002b0: 7684 9bbc 7326 debc fef2 30bd c593 093d
000002c0: ca87 873c 7e65 a93b d5c4 ac3a 6083 f13c
000002d0: 6d8f 483d eead ef3c c9b4 00bd 8c15 223d
000002e0: 2d05 9f3b c376 6bbd 5f4d 1abe c4ee 0fbe
000002f0: 6430 24be e0b3 05be ca2a b2bd 4f12 0bbe
00000300: 48bc 67bd 8851 22be 918c e7bd 64fc 1ebd
00000310: ee0b 263c 7c22 f3ba e8e7 a3bc 0791 eb3b
00000320: 2e0d 2abe 4aaa 1cbe 167d 6abe 5725 2abd
00000330: c7cd a9bd 9951 e63c 01e5 b6bd 6074 48be
00000340: e7ad a4bc 4a9e 0e3d 190c f93d 204f 643d
00000350: 7521 443c 454e 103d bb08 0c3d a805 ef3d
00000360: 58a0 b6ba 5c21 3cbc 99c5 d7bb c638 0d3d
00000370: 1a2e da3d 113a a13d 137b 9d3d e875 aaba
00000380: 2f11 9d3d 2fed c0bd f642 3cbe ae4b 6ebe
00000390: ebb8 e2bd 7901 03be fba2 ba3c 93b8 76bd
000003a0: 9166 bbbd f5b4 4bbc ce32 843c bf49 a03d
000003b0: 36cb 36bd cd4a ccbc 631f 8739 794d 8d3d
000003c0: e08e 7cbc e16e d7bd bd2f ffbd 13da 99bd
000003d0: 01f2 49bd 7a39 90bd 94b1 c3bd 1b15 01be
000003e0: a61c c6bd 84c7 8abd 73f3 79bd 3144 403e
000003f0: 88c8 5c3c af8e 333d 48f6 9a3d 3caa 03be

conv3.bias f4 [64]
0.073471725 -0.08569857 0.054768007 0.0078031835 0.22370726 0.10301976 -0.13874261 -0.037982784
-0.04569658 0.21508354 -0.13780563 0.04087093 0.06813318 0.04345691 0.011478679 0.010165682
-0.04253852 0.073773704 0.06606089 -0.06713504 -0.2472325 0.0803029 0.009064009 0.0174667
-0.060496625 0.030300364 0.028416146 0.03495925 -0.11326036 -0.093092024 -0.11360742 -0.037660096
0.23677562 0.065874934 -0.05076212 0.018556505 -0.065538876 0.10763089 -0.08371138 0.059101097
0.03440925 0.010768006 0.2808747 0.05342305 0.1265776 -0.036602248 -0.076223224 -0.06885616
0.008986213 0.31587234 -0.23341647 0.0698447 0.28832164 0.12682518 -0.1572278 -0.01604817
0.008468604 -0.3031745 -0.018344345 -0.021909546 0.23172668 0.10288066 0.015419192 -0.15246284
00000000: 5878 963d bb82 afbd 6b54 603d d9b1 ff3b
00000010: 8413 653e 06fc d23d 8b12 0ebe d693 1bbd
00000020: 562c 3bbd dc3e 5c3e eb1c 0dbe 4768 273d
00000030: 6989 8b3d dfff 313d 1211 3c3c f68d 263c
00000040: df3c 2ebd ab16 973d ef4a 873d 197e 89bd
00000050: 842a 7dbe d975 a43d 3681 143c 5316 8f3c
00000060: 4fcb 77bd 7838 f83c fac8 e83c 6e31 0f3d
00000070: 0cf5 e7bd 08a7 bebd 02ab e8bd 7941 1abd
00000080: 4f75 723e 70e9 863d f1eb 4fbd d003 983c
00000090: 3f39 86bd 966d dc3d df70 abbd fe13 723d
000000a0: b7f0 0c3d 4a6c 303c cfce 8f3e 21d2 5a3d
000000b0: 8f9d 013e 3dec 15bd ec1a 9cbd 7504 8dbd
000000c0: e93a 133c 05ba a13e ba04 6fbe bd0a 8f3d
000000d0: e59e 933e 76de 013e 5300 21be 7477 83bc
000000e0: e6bf 0a3c b039 9bbe e146 96bc a67b b3bc
000000f0: c249 6d3e 18b3 d23d c7a0 7c3c 381f 1cbe

bn3.weight f4 [64]
0.95159465 0.89305645 0.9179246 0.9784541 1.0489467 0.8932054 0.9154449 0.76241875
1.1241456 0.8586295 0.83141655 1.1045008 1.1379275 0.8603204 1.172921 0.9829767
1.0463761 1.0807419 1.0247914 1.2243707 1.2145143 1.1018304 1.2262712 1.175897
1.2136449 0.92960536 1.2434288 1.1110336 0.84507143 1.0547397 0.793621 0.9802391
1.0393151 1.1535734 0.8897728 1.0536476 1.0531929 1.1422893 1.0584466 1.1610892
1.0977249 1.0025027 1.113866 1.2078801 1.0865871 1.0442455 1.0159343 1.0975443
0.9577406 0.8935494 1.0805475 0.89572805 1.1691519 0.6466484 1.0937893 0.95138264
1.008773 0.8944572 1.2140046 0.71816874 1.3484437 0.8035411 0.9592958 1.055144
00000000: b59b 733f 599f 643f 1bfd 6a3f f87b 7a3f
00000010: e343 863f 1ca9 643f 995a 6a3f e02d 433f
00000020: 01e4 8f3f 25cf 5b3f b7d7 543f 4860 8d3f
00000030: 9ca7 913f f53d 5c3f 4622 963f 5ca4 7b3f
00000040: a7ef 853f c055 8a3f 5d2c 833f 2eb8 9c3f
00000050: 3475 9b3f c708 8d3f 74f6 9c3f cb83 963f
00000060: b758 9b3f 9efa 6d3f ad28 9f3f 5936 8e3f
00000070: 9a56 583f b601 873f bf2a 4b3f f3f0 7a3f
00000080: 4708 853f 4ba8 933f 26c8 633f eddd 863f
00000090: 06cf 863f 8936 923f 2e7b 873f 929e 943f
000000a0: 4082 8c3f 0252 803f 2993 8e3f d19b 9a3f
000000b0: 4915 8b3f d6a9 853f 230a 823f 557c 8c3f
000000c0: 7d2e 753f a7bf 643f 614f 8a3f 6f4e 653f
000000d0: c5a6 953f c08a 253f 4a01 8c3f d08d 733f
000000e0: 791f 813f 26fb 643f 8164 9b3f e8d9 373f
000000f0: ce99 ac3f dfb4 4d3f 6994 753f f50e 873f

bn3.bias f4 [64]
-0.019887306 -0.13940005 -0.009995097 -0.09635099 -0.058588877 -0.23990902 -0.1801698 -0.09980617
-0.099066995 -0.16968033 -0.094463296 -0.14832887 -0.12723753 -0.18731782 -0.005681383 -0.16717392
-0.16811106 -0.09622739 -0.032671876 -0.09564011 -0.13216183 -0.1488936 -0.13311753 -0.01137658
0.04381562 0.122673385 0.03543216 0.024234122 -0.033912115 -0.072200365 -0.0429898 -0.065545276
0.010608229 -0.01798708 -0.16990244 -0.07030699 -0.08239651 0.014896982 -0.034981214 0.05676921
0.10773963 -0.005275257 0.09756044 0.09317933 0.18245488 -0.06964088 0.07655014 0.15683909
0.20670448 -0.004832623 0.016541904 -0.02845009 0.20219852 0.033915404 -0.026771946 0.002983759
-0.2129712 -0.1867701 -0.15035662 -0.26718205 -0.17724915 -0.23865625 -0.30192256 -0.028663576
00000000: b4ea a2bc e3be 0ebe 7ac2 23bc ab53 c5bd
00000010: e4fa 6fbd b6aa 75be 6f7e 38be 2d67 ccbd
00000020: a3e3 cabd aec0 2dbe f975 c1bd 86e3 17be
00000030: 8e4a 02be 3ed0 3fbe e52a babb a42f 2bbe
00000040: 4e25 2cbe de12 c5bd f2d2 05bd f6de c3bd
00000050: 6e55 07be 9077 18be f64f 08be d664 3abc
00000060: 0278 333d 2f3c fb3d 5021 113d a386 c63c
00000070: 6ee7 0abd c9dd 93bd 1316 30bd 9a3c 86bd
00000080: 23ce 2d3c a459 93bc e8fa 2dbe 1cfd 8fbd
00000090: 80bf a8bd 7912 743c 7648 0fbd d586 683d
000000a0: 98a6 dc3d 10dc acbb c5cd c73d ced4 be3d
000000b0: 74d5 3a3e e19f 8ebd 52c6 9c3d 6d9a 203e
000000c0: 57aa 533e fb5a 9ebb e382 873c 2a10 e9bc
000000d0: 210d 4f3e e1ea 0a3d d750 dbbc 2b8b 433b
000000e0: 1f15 5abe a940 3fbe 16f7 19be 16cc 88be
000000f0: cd80 35be 4e62 74be 9895 9abe e0cf eabc

bn3.running_mean f4 [64]
2.7794485 2.6681418 4.1999826 4.3807044 3.6401067 2.626328 3.8875735 3.314971
3.977019 6.290517 4.4187937 5.129697 4.2625623 5.08025 4.3658 4.178449
3.1348972 3.8012326 4.432195 3.4348347 3.8892322 4.235541 4.7721453 4.4216113
2.9116812 4.1135874 3.7667396 4.9733605 4.349152 4.098813 3.2236712 3.645719
4.433942 3.11555 2.8546214 3.5943193 3.2973833 2.8910928 2.7025666 4.9409986
3.3905325 4.0694695 4.347844 3.6942987 4.6987834 4.2824097 2.8973641 4.225723
3.8545337 4.467091 4.061504 6.447173 4.690981 7.028001 3.8282986 3.1369312
6.0052614 5.111646 6.4008217 7.2156296 9.034016 6.6314993 4.1400867 4.105212
00000000: 7ce2 3140 d6c2 2a40 4266 8640 bb2e 8c40
00000010: 82f7 6840 c215 2840 01ce 7840 7c28 5440
00000020: 7b87 7e40 ea4b c940 c266 8d40 7a26 a440
00000030: e966 8840 6891 a240 a2b4 8b40 dbb5 8540
00000040: 28a2 4840 6547 7340 8bd4 8d40 55d4 5b40
00000050: 2ee9 7840 8d89 8740 6ab5 9840 d77d 8d40
00000060: fc58 3a40 82a2 8340 4312 7140 c525 9f40
00000070: 412c 8b40 7a29 8340 a150 4e40 7653 6940
00000080: dae2 8d40 2c65 4740 1eb2 3640 5409 6640
00000090: 5408 5340 aa07 3940 daf6 2c40 a91c 9e40
000000a0: 7cfe 5840 1839 8240 8a21 8b40 646f 6c40
000000b0: 6f5c 9640 8009 8940 6a6e 3940 1f39 8740
000000c0: aeb0 7640 69f2 8e40 d7f7 8140 3e4f ce40
000000d0: 841c 9640 62e5 e040 d802 7540 7bc3 4840
000000e0: 1a2b c040 9b92 a340 88d3 cc40 70e6 e640
000000f0: 548b 1041 3e35 d440 977b 8440 e65d 8340

bn3.running_var f4 [64]
14.366568 14.697381 22.976688 31.03591 17.074364 13.3106365 31.201889 17.543955
20.456644 38.72985 28.777727 58.241478 35.508755 55.665356 32.5837 41.08611
30.4023 34.07015 29.985212 31.137661 18.9207 35.92727 63.42392 25.161568
26.184109 41.372227 32.17373 28.664011 33.488056 22.93234 18.602993 25.689661
28.254753 16.523453 17.527021 16.447515 20.277077 13.504184 15.056888 36.73425
29.684187 35.31666 31.314701 19.305449 39.12315 48.66447 16.232141 40.305935
28.442726 39.568653 29.649508 46.819214 42.406124 64.71873 51.04695 32.737682
75.444275 54.39819 81.22861 71.76668 113.315674 53.577446 30.062346 51.849068
00000000: 76dd 6541 7928 6b41 42d0 b741 8b49 f841
00000010: 4c98 8841 5ef8 5441 789d f941 055a 8c41
00000020: 35a7 a341 5eeb 1a42 c938 e641 46f7 6842
00000030: f708 0e42 53a9 5e42 b555 0242 2d58 2442
00000040: e937 f341 d547 0842 b7e1 ef41 ee19 f941
00000050: 985d 9741 86b5 0f42 18b2 7d42 e44a c941
00000060: 0e79 d141 297d 2542 e6b1 0042 e54f e541
00000070: c5f3 0542 6f75 b741 eed2 9441 6d84 cd41
00000080: bc09 e241 0830 8441 5737 8c41 8394 8341
00000090: 7437 a241 2311 5841 03e9 7041 dfef 1242
000000a0: 3779 ed41 4344 0d42 8284 fa41 8f71 9a41
000000b0: 1b7e 1c42 6ba8 4242 6ddb 8141 4739 2142
000000c0: b48a e341 4d46 1e42 3132 ed41 e046 3b42
000000d0: df9f 2942 fd6f 8142 1430 4c42 63f3 0242
000000e0: 78e3 9642 bf97 5942 0c75 a242 8a88 8f42
000000f0: a0a1 e242 4e4f 5642 af7f f041 7265 4f42

cnn.0.weight f4 [8, 2, 5, 5]
0.015157193 -0.07572495 -0.250121 -0.13712282 -0.007024841 0.08760527 -0.03107732 0.064323746
-0.04041677 -0.1601369 -0.09390841 -0.1708378 -0.04524515 0.011064896 -0.27036107 0.24802089
-0.036038887 0.01780315 0.15738188 -0.06881671 0.21739978 0.11588837 0.22622114 0.23486839
-0.052895527 0.18373573 -0.09020081 -0.17699304 -0.17158036 -0.10588936 -0.0109819025 -0.08160625
-0.124038205 -0.089630775 -0.17124723 -0.07100857 -0.06416945 -0.16072188 -0.07548323 -0.22685207
0.21043107 0.011368447 0.20416807 0.15241188 0.006678347 0.19193688 0.24931903 0.10444888
0.034752406 0.06839013 -0.06535448 -0.06658149 -0.019856147 -0.06774887 -0.018281749 -0.04453146
-0.18206486 0.038821056 0.11471914 0.09862977 -0.14302298 0.025586944 0.043715015 0.21483767
0.1004669 0.06015345 0.030052625 0.15335193 -0.13060877 -0.12613915 0.13775656 0.09010679
-0.18766311 -0.014144628 -0.10155962 0.13935247 0.08857161 -0.07910141 -0.042028677 0.01496761
-0.1826189 -0.09626473 0.06549699 -0.0008331565 0.12475478 -0.057348616 -0.17297156 0.11275024
0.20166005 0.14557435 0.16910005 0.16726238 0.02716358 -0.13466161 -0.17921162 -0.022813676
0.08180154 -0.08095753 0.009932958 -0.10250666 -0.23420623 -0.358473 -0.10725327 -0.22750801
-0.09299414 0.046124298 -0.074009 0.2122651 -0.19828399 -0.03505547 -0.12514733 -0.2622993
-0.05361023 -0.22796106 -0.15995009 0.029701224 -0.0065567065 0.10582965 0.04891491 0.1634504
-0.017291168 0.13997968 0.06537264 0.14094767 0.14724332 -0.2357854 -0.39909723 -0.051531736
-0.32759088 -0.27612257 -0.16089009 -0.057938997 -0.04027259 -0.27706167 -0.12802948 0.032874726
-0.24130715 -0.046396714 -0.27950475 -0.031260934 0.039484497 -0.1538212 0.17268796 0.026426923
0.09065228 0.16305257 0.03507185 0.11049958 0.09969069 -0.04422728 0.15983342 0.17500529
0.019096458 0.12866524 0.0019469903 0.15117687 0.24124761 0.059984256 0.089467354 0.038137913
-0.08556785 -0.07352775 0.03038877 0.021638747 -0.206975 -0.05690637 -0.027607163 -0.0661481
-0.20730898 -0.12807111 -0.111380175 -0.11681185 -0.019180132 -0.13645369 -0.20796806 0.2019594
0.13169883 0.18911126 0.13090928 0.05063339 0.0035624125 0.21253246 0.05718046 0.0036647504
-0.13687678 0.024669342 -0.07190116 -0.014124012 -0.030608231 -0.2328752 -0.11248281 0.032992233
0.08572575 -0.21423775 -0.24981242 -0.023048827 0.037839517 -0.10381774 0.001580733 -0.10034036
0.07949147 0.015455964 0.17437492 -0.06524622 -0.119658306 0.06804424 0.0945993 -0.08893726
-0.08309811 -0.024523135 0.08422797 0.14338645 0.06672491 -0.14063472 -0.04420642 0.0044271313
0.08901789 0.07409092 0.0052425303 -0.09268413 0.13159019 -0.03731347 -0.043461926 -0.21628867
-0.14755526 0.12478502 -0.08943256 -0.07340432 -0.08262794 -0.013725311 0.11730565 0.054450594
0.12198779 -0.16173866 0.08138541 0.09814261 0.03855996 -0.07676836 -0.006398122 -0.15585653
0.18907662 0.090622865 -0.08519084 -0.20645785 0.06909461 0.15833357 0.16454662 0.10930096
-0.22677922 -0.047825314 -0.171054 0.01179045 -0.27299386 -0.008804489 -0.12853721 -0.28615963
00000000: e055 783c af15 9bbd dc0f 80be ed69 0cbe
00000010: a330 e6bb 646a b33d dd95 febc 2bbc 833d
00000020: 0e8c 25bd edfa 23be 0d53 c0bd 1bf0 2ebe
00000030: fa52 39bd 8a49 353c c46c 8abe 30f9 7d3e
00000040: 839d 13bd e9d7 913c b728 213e c6ef 8cbd
00000050: 0c9e 5e3e e256 ed3d 84a6 673e 5781 703e
00000060: fba8 58bd 3825 3c3e 34bb b8bd aa3d 35be
00000070: c3b2 2fbe 85dc d8bd 70ed 33bc 2d21 a7bd
00000080: be07 febd 5790 b7bd 6f5b 2fbe f16c 91bd
00000090: 466b 83bd 4794 24be f496 9abd e94b 68be
000000a0: 3e7b 573e b942 3a3c 6f11 513e dc11 1c3e
000000b0: 09d6 da3b 1a8b 443e 7d4d 7f3e 4be9 d53d
000000c0: 8a58 0e3d 2010 8c3d 92d8 85bd e05b 88bd
000000d0: 5ca9 a2bc ebbf 8abd 9bc3 95bc 9f66 36bd
000000e0: 366f 3abe d402 1f3d def1 ea3d 68fe c93d
000000f0: 9e74 12be b69b d13c 840e 333d 68fe 5b3e
00000100: 97c1 cd3d 7763 763d ec30 f63c 4a08 1d3e
00000110: 4ebe 05be 9f2a 01be 0e10 0d3e e989 b83d
00000120: c22a 40be dfbe 67bc 7dfe cfbd 6ab2 0e3e
00000130: 0865 b53d ecff a1bd 4326 2cbd b53a 753c
00000140: 7300 3bbe 7126 c5bd 4923 863d 3068 5aba
00000150: 6f7f ff3d 62e6 6abd 751f 31be 99e9 e63d
00000160: f97f 4e3e 7111 153e 9028 2d3e d446 2b3e
00000170: 2886 de3c bce4 09be 4083 37be bfe3 babc
00000180: 9187 a73d 10cd a5bd d8bd 223c 03ef d1bd
00000190: c2d3 6fbe c689 b7be 9aa7 dbbd dcf7 68be
000001a0: b673 bebd d5ec 3c3d 0892 97bd 065c 593e
000001b0: f50a 4bbe 5396 0fbd 9f26 00be 184c 86be
000001c0: 6796 5bbd a06e 69be f5c9 23be fb4f f33c
000001d0: a4d9 d6bb 37bd d83d 005b 483d 8b5f 273e
000001e0: 35a6 8dbc d556 0f3e 17e2 853d 9654 103e
000001f0: f4c6 163e ba71 71be 7956 ccbe f112 53bd
00000200: feb9 a7be f05f 8dbe 5fc0 24be 7151 6dbd
00000210: dff4 24bd 07db 8dbe 291a 03be a6a7 063d
00000220: 3919 77be 7b0a 3ebd 3f1b 8fbe 770b 00bd
00000230: 7fba 213d 4e83 1dbe 1dd5 303e 467d d83c
00000240: e7a7 b93d 41f7 263e 80a7 0f3d 9b4d e23d
00000250: a22a cc3d aa27 35bd 5fab 233e 9634 333e
00000260: 2d70 9c3c d2c0 033e 2732 ff3a 1cce 1a3e
00000270: 9d09 773e 0db2 753d a93a b73d 8036 1c3d
00000280: 323e afbd b895 96bd dff1 f83c be43 b13c
00000290: 41f1 53be a716 69bd 6b28 e2bc a878 87bd
000002a0: ce48 54be 1325 03be 4a1b e4bd 0d3b efbd
000002b0: a71f 9dbc 84ba 0bbe 94f5 54be 72ce 4e3e
000002c0: 0fdc 063e 62a6 413e 150d 063e f564 4f3d
000002d0: 5d77 693b 1ca2 593e 0f36 6a3d 4f2c 703b
000002e0: 6d29 0cbe 5c17 ca3c ea40 93bd 6668 67bc
000002f0: 1dbe fabc d676 6ebe 635d e6bd dd22 073d
00000300: fb90 af3d 2461 5bbe d4ce 7fbe e5d0 bcbc
00000310: 9cfd 1a3d 659e d4bd 9930 cf3a 3f7f cdbd
00000320: 6ccc a23d 033b 7d3c 578f 323e cf9f 85bd
00000330: 6a0f f5bd c75a 8b3d 47bd c13d bd24 b6bd
00000340: 582f aabd bee4 c8bc b77f ac3d e6d3 123e
00000350: 12a7 883d 8c02 10be cb11 35bd 7811 913b
00000360: 034f b63d fbbc 973d 88c9 ab3b 2dd1 bdbd
00000370: 94bf 063e 02d6 18bd 2205 32bd c77a 5dbe
00000380: ba18 17be 4a8f ff3d 6b28 b7bd 0155 96bd
00000390: d638 a9bd 20e0 60bc f23d f03d 9607 5f3d
000003a0: bcd4 f93d d29e 25be 65ad a63d fefe c83d
000003b0: 0cf1 1d3d bb38 9dbd 56a7 d1bb db98 1fbe
000003c0: 4d9d 413e 7b98 b93d 8978 aebd b069 53be
000003d0: 7a81 8d3d 3222 223e e97e 283e 2fd9 df3d
000003e0: d038 68be 7ae4 43bd c828 2fbe bb2c 413c
000003f0: dac5 8bbe b440 10bc 429f 03be 8483 92be

cnn.0.bias f4 [8]
0.08001319 -0.48360658 0.016855117 0.045718677 -0.3760858 0.08990892 -0.38799682 -0.06924209
00000000: f5dd a33d 489b f7be be13 8a3c 8243 3b3d
00000010: 518e c0be 2b22 b83d 85a7 c6be ccce 8dbd

cnn.2.weight f4 [8]
0.72283995 1.0525048 0.83900225 1.1337124 1.0974245 0.94882095 1.0722513 0.54942447
00000000: 0a0c 393f 7ab8 863f dac8 563f 7d1d 913f
00000010: 6878 8c3f eee5 723f 883f 893f 15a7 0c3f

cnn.2.bias f4 [8]
0.29266322 0.001775016 0.42289588 0.031872317 -0.1544638 0.17669535 0.25753155 0.36673647
00000000: f4d7 953e a7a7 e83a cf85 d83e 8c8c 023d
00000010: c22b 1ebe a0ef 343e 2ddb 833e e2c4 bb3e

cnn.2.running_mean f4 [8]
0.40842655 0.024010051 1.0389253 0.47736478 0.22011034 0.42001122 0.1590122 0.9017089
00000000: 491d d13e bab0 c43c 81fb 843f 2869 f43e
00000010: 9b64 613e b60b d73e 18d4 223e 65d6 663f

cnn.2.running_var f4 [8]
0.4463742 0.01577545 2.486719 0.424584 0.2918944 0.60374194 0.15174568 2.0282326
00000000: 298b e43e 843b 813c 6726 1f40 1363 d93e
00000010: 2f73 953e d58e 1a3f 3863 1b3e 90ce 0140

cnn.3.weight f4 [32, 8, 5, 5]
-0.028309844 -0.08508787 -0.008404062 0.078138866 0.037214067 0.06589841 0.009818 -0.072555415
-0.083676085 0.022866849 0.009197287 0.0003704691 -0.10285705 -0.056562595 -0.054327585 -0.03712051
-0.043716818 0.0122104725 -0.12708765 0.05241528 -0.15829225 -0.003770294 -0.055938736 -0.07414098
-0.071208455 -0.03483971 -0.12724206 0.21312694 0.17062049 -0.021504782 -0.011108612 0.16328979
0.25636846 -0.064126216 0.091134235 0.0003400953 0.14601138 0.038568996 -0.024039984 -0.013601749
-0.047283374 -0.022536686 0.019614993 0.00040871507 0.09240911 0.04570853 0.0541446 -0.010650838
-0.02197455 -0.034541633 -0.047682684 -0.02631595 -0.09468394 -0.11026166 -0.10660522 0.037663832
-0.018018749 0.0046805553 -0.093591526 -0.10358104 -0.070624724 -0.009748316 -0.078785576 -0.1615644
-0.1369076 -0.059198856 -0.085817434 -0.07172942 -0.10938809 -0.07505274 -0.059476826 0.004310904
-0.07534007 -0.11517341 -0.08583383 -0.09171658 -0.18265209 0.08325796 -0.15807016 -0.05734647
-0.026464682 -0.13631408 0.077881016 0.1343805 0.022418292 -0.14867441 -0.1833559 0.16143285
0.12352758 0.03378776 -0.032038007 -0.028881561 0.0902904 -0.042475335 -0.028603856 -0.025261287
0.06400074 -0.03618417 -0.014830125 0.057669125 0.03616808 -0.26856494 -0.09864651 0.19824213
-0.027443899 0.14092354 -0.2841567 -0.002818153 0.16030097 0.1209629 0.059957214 -0.056875262
0.0051498553 -0.011021422 0.0143091455 0.05553438 0.14701867 -0.06149009 0.0155478185 0.17362525
-0.039163746 0.2055543 0.12714437 0.06000895 0.14856902 -0.14281 -0.066220365 0.16161832
-0.07152298 0.020195736 -0.08453856 0.06262117 -0.0028608292 -0.13855307 0.06639094 0.08547548
0.09967171 0.033443045 0.01681447 0.026114987 0.05740587 -0.027698154 0.0013850674 0.04076088
0.11628946 -0.07615482 0.048328515 -0.01745796 0.008658381 0.02436322 0.0037350669 0.25265682
-0.15591323 -0.08344912 0.114430875 -0.05367682 0.081871286 -0.0636549 -0.124280035 0.12657769
-0.024518453 -0.07591838 -0.19258784 -0.079461955 0.027226157 0.13526398 -0.014391466 -0.07278841
-0.062346812 0.051641505 0.16720657 -0.0387745 -0.101336904 -0.03918898 0.067976534 0.006311641
0.037496094 0.07615886 0.104427405 0.05428473 -0.05927544 0.16097613 0.0277171 0.051508307
-0.015446441 -0.0955514 -0.017244179 -0.12617548 -0.14765966 0.0039487914 0.031814534 -0.061404232
-0.15887865 -0.105084404 -0.045836642 -0.02490432 -0.10825675 -0.21782531 -0.1911648 -0.061614707
0.074790016 0.029741483 -0.05309985 0.04288395 -0.07259833 0.0014860176 -0.023099825 -0.16138954
-0.13631715 -0.1387842 0.042292494 0.13582909 0.050972965 -0.096000865 -0.020279117 -0.13800727
-0.024962915 -0.007699135 -0.018770663 -0.018399678 -0.02727892 0.06466364 0.0710101 0.11676391
0.11168377 -0.14426973 -0.031170946 0.08675646 -0.04986537 -0.033852298 -0.034936875 -0.12761073
-0.025611028 -0.23902701 -0.10746245 -0.11450289 -0.10884391 0.069409825 0.07930472 -0.07439683
-0.17318703 -0.08398176 0.034471955 -0.04862685 -0.18611789 0.014882254 -0.015513661 -0.0067666452
-0.027102815 -0.023940105 -0.086043514 0.009782678 -0.01603873 -0.036480714 -0.06709209 -0.08958746
00000000: 0cea e7bc 8d42 aebd 31b1 09bc 4507 a03d
00000010: c76d 183d bff5 863d addb 203c ef97 94bd
00000020: 5e5e abbd 4253 bb3c 38b0 163c 853b c239
00000030: b8a6 d2bd 2eae 67bd 9a86 5ebd ad0b 18bd
00000040: 6810 33bd 6f0e 483c 4423 02be 68b1 563d
00000050: 5d17 22be 0917 77bb 0420 65bd 3ad7 97bd
00000060: bdd5 91bd 15b4 0ebd be4b 02be f33d 5a3e
00000070: 23b7 2e3e cc2a b0bc e500 36bc 7035 273e
00000080: ba42 833e 9b54 83bd 96a4 ba3d d24e b239
00000090: 0284 153e 86fa 1d3d 80ef c4bc dfd9 5ebc
000000a0: 36ac 41bd db9e b8bc 9faf a03c cf48 d639
000000b0: fd40 bd3d de38 3b3d bac6 5d3d da80 2ebc
000000c0: f903 b4bc 877b 0dbd eb4e 43bd 8c94 d7bc
000000d0: a7e9 c1bd ddd0 e1bd d653 dabd 6445 1a3d
000000e0: 0e9c 93bc 585f 993b eaac bfbd 4c22 d4bd
000000f0: b2a3 90bd 67b7 1fbc 555a a1bd 2371 25be
00000100: 8231 0cbe 807a 72bd 0dc1 afbd e0e6 92bd
00000110: dd06 e0bd 40b5 99bd f99d 73bd 7c42 8d3b
00000120: e54b 9abd 09e0 ebbd a6c9 afbd e7d5 bbbd
00000130: 2609 3bbe 2683 aa3d 25dd 21be 22e4 6abd
00000140: 76cc d8bc eb95 0bbe 1580 9f3d 0b9b 093e
00000150: 91a6 b73c 1b3e 18be a6c1 3bbe a74e 253e
00000160: 07fc fc3d 0965 0a3d 493a 03bd 0699 ecbc
00000170: 2cea b83d 9efa 2dbd a252 eabc c2f0 cebc
00000180: d212 833d da35 14bd 0dfa 72bc 7636 6c3d
00000190: fb24 143d 5881 89be 2e07 cabd fcff 4a3e
000001a0: 07d2 e0bc 434e 103e fd7c 91be c3b0 38bb
000001b0: f025 243e 66bb f73d b295 753d 09f6 68bd
000001c0: 1ec0 a83b 3293 34bc e870 6a3c 0578 633d
000001d0: 108c 163e 08dd 7bbd 47bc 7e3c d1ca 313e
000001e0: 2a6a 20bd d47c 523e 2232 023e f2cb 753d
000001f0: 7a22 183e c93c 12be 8b9e 87bd 467f 253e
00000200: a47a 92bd 8771 a53c 8d22 adbd 873f 803d
00000210: c07c 3bbb dbe0 0dbe f9f7 873d c50d af3d
00000220: ae20 cc3d 93fb 083d 80be 893c 19ef d53c
00000230: 6b22 6b3d 3de7 e2bc 268b b53a e1f4 263d
00000240: 2b29 ee3d 0ff7 9bbd 1ff4 453d ff03 8fbc
00000250: e2db 0d3c 6095 c73c 06c8 743b 3c5c 813e
00000260: b8a7 1fbe 5fe7 aabd bc5a ea3d 3adc 5bbd
00000270: 22ac a73d 805d 82bd 8886 febd 959d 013e
00000280: ecda c8bc 187b 9bbd bf35 45be f3bc a2bd
00000290: 6409 df3c a482 0a3e 2fca 6bbc 1712 95bd
000002a0: 5f5f 7fbd 0b86 533d 3338 2b3e 03d2 1ebd
000002b0: b989 cfbd a084 20bd 4837 8b3d e2d1 ce3b
000002c0: 8195 193d 2df9 9b3d 09de d53d aa59 5e3d
000002d0: ceca 72bd edd6 243e f90e e33c 60fa 523d
000002e0: 1213 7dbc 74b0 c3bd aa43 8dbc 2534 01be
000002f0: 1834 17be dd64 813b f54f 023d 0183 7bbd
00000300: 16b1 22be 7e36 d7bd 34bf 3bbd 2504 ccbc
00000310: b7b5 ddbd 990d 5fbe b5c0 43be b45f 7cbd
00000320: 822b 993d 69a4 f33c 3a7f 59bd 15a7 2f3d
00000330: 6fae 94bd 7ac6 c23a d83b bdbc 4d43 25be
00000340: b996 0bbe 721d 0ebe e53a 2d3d c816 0b3e
00000350: 07c9 503d 1a9c c4bd 6420 a6bc c751 0dbe
00000360: 077f ccbc 0749 fcbb efc4 99bc ecba 96bc
00000370: 0b78 dfbc 5f6e 843d be6d 913d eb21 ef3d
00000380: 76ba e43d 72bb 13be 365a ffbc 5fad b13d
00000390: a13f 4cbd b5a8 0abd f819 0fbd 63ac 02be
000003a0: 38ce d1bc 7fc3 74be 4615 dcbd 7e80 eabd
000003b0: 8ee9 debd bd26 8e3d 836a a23d 5d5d 98bd
000003c0: f157 31be a1fe abbd 7732 0d3d f32c 47bd
000003d0: b095 3ebe b3d4 733c 032d 7ebc bcba ddbb
000003e0: b906 debc 0a1e c4bc 9537 b0bd 8747 203c
000003f0: a863 83bc cd6c 15bd 9467 89bd a179 b7bd

cnn.3.bias f4 [32]
-0.26693675 -0.04370325 -0.28760797 -0.2843014 -0.069348775 -0.13579032 -0.3876697 0.0021879724
-0.25268966 -0.13567175 -0.16972925 -0.05172208 0.05003625 -0.20562057 -0.27784666 -0.19515923
-0.41536927 -0.10355637 -0.22200465 -0.100762784 0.029614562 -0.302902 -0.29635805 -0.3365677
-0.103411034 -0.26456618 -0.11126702 -0.20656848 -0.089564264 0.040670812 0.03128601 0.018711062
00000000: efab 88be 2e02 33bd 5a41 93be f48f 91be
00000010: bb06 8ebd 9e0c 0bbe a57c c6be 1664 0f3b
00000020: 8a60 81be 89ed 0abe 81cd 2dbe 88da 53bd
00000030: d0f2 4c3d 338e 52be eb41 8ebe d2d7 47be
00000040: 48ab d4be 5d15 d4bd 3055 63be b85c cebd
00000050: 3d9a f23c f915 9bbe 3ebc 97be 9a52 acbe
00000060: 2ac9 d3bd 3875 87be f7df e3bd b086 53be
00000070: 786d b7bd 7096 263d c225 003d f147 993c

cnn.5.weight f4 [32]
0.8235654 1.0940105 0.99742764 1.1124103 0.8987709 1.1157959 1.504756 0.94052887
0.8420219 1.0416101 1.0301213 0.8574929 0.6348852 0.92369324 1.0322578 0.9032769
1.0418938 0.97009474 0.97542673 0.9471685 0.86508155 1.2181025 1.0766042 1.290129
0.89426816 1.0308172 1.040101 0.78835684 1.001263 1.0261183 0.85731524 0.95798075
00000000: 2fd5 523f 8908 8c3f 6b57 7f3f 7663 8e3f
00000010: da15 663f 66d2 8e3f d89b c03f 80c6 703f
00000020: bf8e 573f 7b53 853f 04db 833f a884 5b3f
00000030: d687 223f 2977 6c3f 0621 843f 283d 673f
00000040: c75c 853f 2158 783f 91b5 793f a379 723f
00000050: fc75 5d3f c8ea 9b3f 2bce 893f f222 a53f
00000060: c2ee 643f d1f1 833f 0822 853f c1d1 493f
00000070: 6329 803f d857 833f 0379 5b3f 3a3e 753f

cnn.5.bias f4 [32]
0.010112261 0.06315737 0.008993478 0.093135886 0.043379508 -0.069951415 -0.10825716 0.028203065
0.11020842 -0.053952336 -0.0095063755 0.06125092 0.13443571 -0.045263752 0.016117668 0.0025095164
-0.045897517 -0.012123095 0.07878005 -0.00563702 -0.087691754 -0.08818704 -0.10096565 0.028856505
0.021493822 -0.035950612 -0.059349027 0.016259972 -0.12371488 0.11063932 -0.18783532 0.06081227
00000000: e6ad 253c a758 813d 6159 133c 07be be3d
00000010: b6ae 313d b042 8fbd eeb5 ddbd 1d0a e73c
00000020: f4b4 e13d 20fd 5cbd a1c0 1bbc 3fe2 7a3d
00000030: 84a9 093e 7c66 39bd 3309 843c b376 243b
00000040: 09ff 3bbd f29f 46bc 6f57 a13d c0b6 b8bb
00000050: bc97 b3bd 689b b4bd 14c7 cebd 7a64 ec3c
00000060: d013 b03c f340 13bd f717 73bd a233 853c
00000070: 3a5e fdbd de96 e23d e757 40be 4916 793d

cnn.5.running_mean f4 [32]
0.27121115 0.31436747 0.24463792 1.6428045 2.219579 0.3700794 0.22519413 1.3172394
1.2546414 0.81356615 0.3356907 1.071776 1.1782606 1.0165172 0.41472867 0.38705125
0.3815143 0.8023949 0.50670856 1.6479008 1.2365898 0.22551 0.47174636 0.29958734
0.64298683 1.146458 0.16723643 1.0254997 0.21425918 1.2758076 1.6853913 2.2859387
00000000: 30dc 8a3e c6f4 a03e 5d82 7a3e 6b47 d23f
00000010: 950d 0e40 0c7b bd3e 4a99 663e 4d9b a83f
00000020: 1798 a03f df45 503f a7df ab3e f52f 893f
00000030: 3ed1 963f 3c1d 823f 5157 d43e 952b c63e
00000040: d855 c33e c169 4d3f a7b7 013f 6aee d23f
00000050: 9348 9e3f 18ec 663e bd88 f13e 8363 993e
00000060: c99a 243f 23bf 923f 0740 2b3e 9343 833f
00000070: c266 5b3e aa4d a33f e7ba d73f d24c 1240

cnn.5.running_var f4 [32]
0.70921695 0.7826147 0.6020521 7.5376687 11.195838 1.0684583 0.60756004 3.3881307
4.288285 1.9636983 0.99828523 2.12209 1.8125516 2.9915311 1.5980154 1.1375597
1.2145267 2.379511 1.1150999 6.225239 3.4301474 0.59619594 1.1856973 0.47393984
1.8434873 3.7673266 0.27324635 3.5151265 0.28497395 3.017752 3.903188 7.209045
00000000: 3e8f 353f 7059 483f 1620 1a3f 9534 f140
00000010: 2722 3341 3ec3 883f 0e89 1b3f 22d7 5840
00000020: a139 8940 775a fb3f 9f8f 7f3f 53d0 0740
00000030: b101 e83f 3f75 3f40 c58b cc3f 8e9b 913f
00000040: 9c75 9b3f e949 1840 98bb 8e3f 2835 c740
00000050: 8987 5b40 4ca0 183f eec4 973f 3ea8 f23e
00000060: 64f7 eb3f e11b 7140 f2e6 8b3e d5f7 6040
00000070: 1be8 913e d922 4140 d5cd 7940 7fb0 e640
