models/optimized-speaker_2s.model (torch, 292957 bytes, 78 tensors)

conv1.weight f4 [8, 2, 5, 5]
0.09699411 0.06225811 -0.1547888 -0.050440867 0.013273986 -0.18942605 -0.09434354 -0.13090585
-0.2664907 -0.12619989 -0.16223778 -0.0480091 -0.004711565 0.012228422 0.0052156253 -0.07746665
0.071501605 0.060745113 -0.041837487 -0.018211301 0.11909263 0.16588722 0.03306048 -0.10043948
0.05325469 -0.0027805497 0.002207727 -0.08625589 -0.19529438 0.21817069 -0.17381614 0.056062784
-0.05529931 -0.11045105 -0.09774753 -0.13916945 -0.021310592 -0.059225578 -0.16044234 -0.011804561
0.070046574 0.17114954 0.03001989 -0.053480748 -0.002676729 0.17882912 0.013077967 0.1533989
0.047989074 -0.11055663 0.06346182 0.1246603 0.02417965 -0.024903664 0.033052836 -0.019419443
0.11857979 0.0056869294 -0.12117622 -0.0689983 -0.033377774 0.053914774 -0.010127325 0.11572146
0.0013435546 0.03160982 -0.09233822 -0.17179441 -0.17901802 -0.13402054 -0.20823948 -0.14803334
-0.095471345 -0.27652177 -0.22938533 0.19679013 0.053690214 0.10334876 -0.02096817 0.07429184
-0.037572328 0.027232002 0.0412118 0.04192527 -0.12545645 0.08519388 -0.08063872 -0.07997027
-0.08012554 0.00983976 -0.18719277 -0.070287 -0.14135787 -0.032378472 -0.19510509 -0.15224996
-0.21377815 -0.09179178 -0.085829325 -0.22834882 0.27083516 -0.06165244 0.10198106 -0.056529135
-0.14215448 0.17085007 0.06042729 -0.19086437 -0.15445937 0.08695848 0.11964185 -0.16347413
-0.23207112 -0.22793841 -0.08150308 0.008193442 -0.018007023 -0.11809348 -0.06513538 0.113384746
-0.058801528 0.08704878 0.015536586 0.12218729 0.17144623 0.099238485 -0.10417741 -0.14516832
-0.18563047 -0.14477858 0.03541782 0.08308845 -0.05526969 -0.024928344 -0.0043273647 0.014052289
-0.16107675 -0.22978333 -0.07358673 -0.12159975 -0.0015878982 0.0628623 0.036912374 -0.19059525
-0.06898636 0.089016296 0.17233916 0.05855848 0.104187444 -0.017197905 -0.16287217 -0.05619854
-0.030355552 -0.076321095 0.009669601 -0.035482496 0.08105492 0.13920939 0.19169322 0.036109798
0.048234783 0.091182806 0.25102353 0.23733798 0.13010454 -0.086410545 -0.10251431 0.050912704
0.11612146 0.036892723 0.11649324 0.1049284 -0.11643295 -0.13738653 -0.13176703 -0.24634439
-0.034756258 -0.19869602 -0.02798249 0.047950733 0.059878755 0.0130296005 0.16467807 0.297534
0.119356684 0.10410534 0.01316394 0.219354 0.17682353 0.017050352 0.043580554 -0.09694723
0.04522863 -0.10712493 -0.17815234 0.052885298 0.02720133 -0.027635613 0.091987856 -0.04915823
0.19962925 0.2198164 -0.021125937 -0.037376896 0.015760576 0.108427115 0.20737235 -0.02361772
-0.22827557 -0.1373036 0.15664884 0.038961794 -0.15033706 0.03969893 0.047001835 -0.08315517
-0.11282572 -0.07440566 0.09777192 0.10980822 -0.1536034 -0.13933837 7.201323e-06 0.10965539
0.09204209 0.0664285 0.060318064 0.053575654 -0.06590422 -0.12131473 0.12702301 0.11092584
0.062329184 -0.19435348 -0.16029964 -0.014300926 0.040440165 -0.088923216 -0.094949886 0.08603315
-0.085681915 -0.12110691 -0.10585131 0.21772398 0.26997307 0.08983379 -0.14422461 -0.03768667
0.116036944 -0.04582597 -0.101983875 -0.1645237 -0.1852919 -0.15014805 -0.01057393 0.10366763
00000000: d9a4 c63d 5c02 7f3d f580 1ebe 159b 4ebd
00000010: 227b 593c e7f8 41be 3037 c1bd 2f0c 06be
00000020: 7871 88be 8b3a 01be a921 26be 31a5 44bd
00000030: 7963 9abb b859 483c d6e7 aa3b d6a6 9ebd
00000040: 6f6f 923d decf 783d c95d 2bbd de2f 95bc
00000050: d6e6 f33d 57de 293e 6d6a 073d 37b3 cdbd
00000060: 9721 5a3d e239 36bb 83af 103b eea6 b0bd
00000070: 40fb 47be 2368 5f3e dcfc 31be 17a2 653d
00000080: 8781 62bd 2934 e2bd db2f c8bd 7082 0ebe
00000090: 8d93 aebc 8596 72bd ff4a 24be eb67 41bc
000000a0: 9474 8f3d d341 2f3e 46ec f53c a10e 5bbd
000000b0: 106c 2fbb fb1e 373e f844 563c 9a14 1d3e
000000c0: 3190 443d 846b e2bd 45f8 813d e64d ff3d
000000d0: 6714 c63c c502 ccbc 6962 073d 8615 9fbc
000000e0: f6d9 f23d 6c59 ba3b 3d2b f8bd fb4e 8dbd
000000f0: 22b7 08bd bdd5 5c3d 14ed 25bc 5fff ec3d
00000100: 361a b03a 4c79 013d d21b bdbd e0ea 2fbe
00000110: 8050 37be ae3c 09be bb3c 55be 0d96 17be
00000120: 7b86 c3bd 4394 8dbe fde3 6abe 5a83 493e
00000130: 45ea 5b3d 84a8 d33d 71c5 abbc 5226 983d
00000140: 71e5 19bd a615 df3c b4cd 283d d5b9 2b3d
00000150: a877 00be 217a ae3d ea25 a5bd 74c7 a3bd
00000160: dc18 a4bd f236 213c 76af 3fbe a1f2 8fbd
00000170: 1ec0 10be 4a9f 04bd a1c9 47be 6ae7 1bbe
00000180: a9e8 5abe 54fd bbbd 49c7 afbd 46d4 69be
00000190: e8aa 8a3e 4587 7cbd 72db d03d 188b 67bd
000001a0: f290 11be 52f3 2e3e 9b82 773d f371 43be
000001b0: 992a 1ebe 4a17 b23d c906 f53d c365 27be
000001c0: 0da4 6dbe b068 69be 16eb a6bd c93d 063c
000001d0: 7783 93bc ffda f1bd b365 85bd 4336 e83d
000001e0: dfd9 70bd a146 b23d 2a8d 7e3c 543d fa3d
000001f0: 9a8f 2f3e 8c3d cb3d f75a d5bd 01a7 14be
00000200: ea15 3ebe d640 14be 4712 113d 472a aa3d
00000210: 7862 62bd 8736 ccbc 91cc 8dbb 923b 663c
00000220: 4ef1 24be 524c 6bbe a4b4 96bd 4a09 f9bd
00000230: 0621 d0ba f3bd 803d 6e31 173d 672b 43be
00000240: b948 8dbd 2d4e b63d ad79 303e 04db 6f3d
00000250: 3a60 d53d 9fe2 8cbc f6c7 26be 7130 66bd
00000260: 35ac f8bc 3c4e 9cbd 3f6d 1e3c 1856 11bd
00000270: 1f00 a63d e88c 0e3e 3a4b 443e dee7 133d
00000280: d691 453d 0dbe ba3d 2886 803e ba08 733e
00000290: 203a 053e 03f8 b0bd 06f3 d1bd d789 503d
000002a0: 17d1 ed3d d31c 173d 0294 ee3d b3e4 d63d
000002b0: 6674 eebd 0eaf 0cbe f0ed 06be b441 7cbe
000002c0: 945c 0ebd f876 4bbe 893b e5bc fd67 443d
000002d0: 6d43 753d 1b7a 553c 5ea1 283e 6056 983e
000002e0: 4771 f43d 2e35 d53d 91ad 573c 569e 603e
000002f0: 3a11 353e 2ead 8b3c 8681 323d 458c c6bd
00000300: a841 393d 5164 dbbd 916d 36be 419e 583d
00000310: 53d5 de3c 1564 e2bc 2164 bc3d 245a 49bd
00000320: 9c6b 4c3e 8d17 613e 4d10 adbc 8418 19bd
00000330: 531c 813c 090f de3d 6b59 543e f379 c1bc
00000340: 12c1 69be 5199 0cbe 8e68 203e 6796 1f3d
00000350: f5f1 19be 589b 223d ff84 403d 424d aabd
00000360: 2c11 e7bd ff61 98bd a53c c83d 22e3 e03d
00000370: 364a 1dbe b8ae 0ebe e5a2 f136 0193 e03d
00000380: 9080 bc3d aa0b 883d 1310 773d 2572 5b3d
00000390: cbf8 86bd db73 f8bd 5212 023e 162d e33d
000003a0: e34c 7f3d 9904 47be 9725 24be 6e4e 6abc
000003b0: 96a4 253d 601d b6bd 1675 c2bd 2632 b03d
000003c0: 007a afbd e606 f8bd 92c8 d8bd 09f3 5e3e
000003d0: e939 8a3e c7fa b73d 9eaf 13be 565d 1abd
000003e0: c7a4 ed3d 03b4 3bbd ecdc d0bd e778 28be
000003f0: 29bd 3dbe 69c0 19be 473e 2dbc b24f d43d

conv1.bias f4 [8]
-0.17510672 -0.114546314 -0.037092675 -0.08108998 -0.3097838 -0.34454596 0.045730088 0.14808467
00000000: 2d4f 33be 4297 eabd 7dee 17bd 8112 a6bd
00000010: fb9b 9ebe 5468 b0be 794f 3b3d 82a3 173e

bn1.weight f4 [8]
0.7571452 0.67793477 0.8076082 1.2907958 0.99977624 0.78317004 1.0661272 0.74473935
00000000: 45d4 413f 228d 2d3f 69bf 4e3f cc38 a53f
00000010: 56f1 7f3f d57d 483f db76 883f 3da7 3e3f

bn1.bias f4 [8]
0.42359015 0.42522296 -0.009640764 -0.047511514 -0.19248834 0.25322875 -0.29149127 0.2914432
00000000: cfe0 d83e d3b6 d93e 4cf4 1dbc 6f9b 42bd
00000010: aa1b 45be 33a7 813e 583e 95be 0b38 953e

bn1.running_mean f4 [8]
0.34103784 0.84926337 0.4322505 0.46048266 0.08345573 0.23348589 0.28845772 0.36760098
00000000: 839c ae3e 5369 593f f04f dd3e 62c4 eb3e
00000010: d6ea aa3d ed16 6f3e bbb0 933e 3236 bc3e

bn1.running_var f4 [8]
0.283165 1.3548477 0.375374 0.5881894 0.05292046 0.17796114 0.13630256 0.21634409
00000000: 01fb 903e a66b ad3f 0531 c03e 9593 163f
00000010: 20c3 583d 723b 363e e692 0b3e 4e89 5d3e

conv2.weight f4 [32, 8, 5, 5]
0.07574745 0.0551186 0.20298344 0.19298922 0.05445607 0.031477347 0.0073270737 0.057352323
0.21412516 0.09330622 0.06991908 0.0799017 0.03427159 0.087123804 0.06009027 0.00035114778
0.0007255175 0.09952274 0.052710995 -0.00046205346 -0.076196365 -0.09114688 -0.06478286 0.067017436
-0.11540298 -0.026436837 0.13121326 0.10628733 0.054807942 0.03857834 -0.0013097017 0.13182777
0.06586331 0.11971582 -0.05365875 0.07150467 0.11183337 0.02006512 0.052040488 -0.04020066
-0.038377117 0.02361309 0.047688458 -0.010370808 -0.036881972 -0.15994053 -0.11252385 -0.04849414
-0.02032176 -0.16669516 -0.062249914 0.0553499 0.10750965 0.12064622 0.08455312 0.11883599
0.10256523 0.17751215 0.14217854 0.056042228 0.09599479 0.073658146 0.05098163 0.12676066
0.07636798 0.12456098 0.17967364 0.14331344 0.25458777 0.22132711 -0.018173082 0.0051442278
0.054262534 0.11535205 0.07001615 0.0018404386 0.013137877 -0.05620606 -0.054724358 0.058579993
0.004544578 0.047417626 0.022033814 -0.044579457 0.089705944 0.0754744 0.079900354 0.030960778
-0.043219317 0.085509695 0.05994342 0.005902044 -0.031923465 0.046613175 0.037945602 0.09403138
0.030872798 0.008007625 0.040050864 -0.0030388054 -0.12629141 -0.07955458 -0.031837672 0.033748932
-0.08156083 -0.18028744 -0.014826817 -0.107456066 0.035998687 -0.059227638 -0.025804749 -0.05601855
0.088648014 0.21955739 0.0001814258 -0.096187204 0.0016825092 -0.0290131 -0.064162195 0.07071933
-0.15863232 -0.11167237 0.023739459 0.0698025 0.0036356628 0.113337286 0.09945947 0.16194901
0.2503803 0.15118194 -0.005484957 0.10965684 0.17937289 0.14810322 -0.021638148 0.14526789
0.17170078 0.14773594 0.19111434 0.12476545 0.014147342 0.044748407 0.18525831 0.14426324
0.06265285 -0.070229694 -0.047569443 -0.030554801 0.027959093 -0.07651449 0.021154385 0.045893952
0.033737548 0.125569 0.13997473 0.07094514 0.12920083 0.089098334 0.14417188 0.19656472
0.013878341 0.039239503 0.028683154 0.09366662 0.11275019 -0.006199613 -0.06330945 -0.033035047
-0.012464265 0.061784994 -0.028238742 -0.10618867 0.0021520737 0.03200192 0.1221917 -0.09568529
-0.024158716 -0.015400583 0.034953564 0.0017812952 0.02043189 0.0495344 0.037866477 -0.025051448
0.02309119 0.00045679588 -0.10130033 0.032050975 0.015215635 -0.007893404 0.034314696 0.010855814
0.08216032 0.079824045 0.02463654 -0.047436528 -0.04538828 -0.082056314 -0.0855963 -0.03580632
0.034919772 -0.071612485 -0.11826423 0.06986892 0.047256716 0.055890292 -0.05118708 -0.08950292
-0.075117216 -0.02055191 0.07223388 -0.12146027 -0.12664847 -0.06734979 0.027602443 -0.1449607
-0.19640017 -0.11191167 -0.0944656 -0.07911427 0.04400455 -0.0018286549 -0.105721064 -0.08468289
-0.1247952 -0.03157158 -0.026539944 0.030705547 -0.061168876 0.03360005 -0.04020108 -0.088359825
-0.024065116 0.03331562 0.021840362 -0.05343926 0.025648069 0.023302853 0.009624223 0.00097597606
0.035797898 0.0648063 -0.06650868 -0.061639145 -0.02001087 0.06750741 0.0212617 -0.0766065
-0.15599836 -0.12605372 0.01975877 -0.09161662 0.034905408 0.03122903 0.049648315 -0.015086978
00000000: 7b21 9b3d 0bc4 613d e4da 4f3e f79e 453e
00000010: 540d 5f3d 64ee 003d f317 f03b 45ea 6a3d
00000020: a043 5b3e 5517 bf3d bc31 8f3d 81a3 a33d
00000030: 5e60 0c3d f76d b23d 3721 763d 421a b839
00000040: a830 3e3a 94d2 cb3d 7ce7 573d c43f f2b9
00000050: d70c 9cbd 37ab babd e0ac 84bd 7040 893d
00000060: 6658 ecbd 1192 d8bc c55c 063e 2cad d93d
00000070: 4b7e 603d 5204 1e3d 4caa abba dcfd 063e
00000080: 58e3 863d 912d f53d 47c9 5bbd 0a71 923d
00000090: e508 e53d 9b5f a43c 6828 553d 72a9 24bd
000000a0: 5331 1dbd 3d70 c13c f954 433d 52ea 29bc
000000b0: 8d11 17bd 73c7 23be e772 e6bd cba1 46bd
000000c0: d279 a6bc 23b2 2abe c4f9 7ebd 94b6 623d
000000d0: 052e dc3d 5e15 f73d 302a ad3d 4960 f33d
000000e0: b80d d23d bfc5 353e 4097 113e 898c 653d
000000f0: eb98 c43d 15da 963d 1dd2 503d 8ccd 013e
00000100: d166 9c3d d419 ff3d 5efc 373e c2c0 123e
00000110: 5459 823e 93a3 623e b7df 94bc e990 a83b
00000120: 6442 5e3d b23d ec3d a164 8f3d df3a f13a
00000130: 4040 573c 5338 66bd a626 60bd 93f1 6f3d
00000140: afea 943b fc38 423d 4280 b43c f398 36bd
00000150: c0b7 b73d 5292 9a3d cca2 a33d 75a1 fd3c
00000160: bd06 31bd b51f af3d 3b87 753d ef65 c13b
00000170: 2ec2 02bd 75ed 3e3d d96c 1b3d 8693 c03d
00000180: f3e8 fc3c 6a32 033c 600c 243d b226 47bb
00000190: 8952 01be 83ed a2bd 3868 02bd 523c 0a3d
000001a0: 5d09 a7bd 459d 38be 2eec 72bc ed11 dcbd
000001b0: 5c73 133d ae98 72bd 7b64 d3bc b573 65bd
000001c0: 178d b53d a7d3 603e 1e3d 3e39 ccfd c4bd
000001d0: a487 dc3a e1ac edbc 7867 83bd 4cd5 903d
000001e0: 8370 22be 7cb4 e4bd 4179 c23c 9df4 8e3d
000001f0: 4d44 6e3b 611d e83d 68b1 cb3d f6d5 253e
00000200: d931 803e 70cf 1a3e 27bb b3bb c493 e03d
00000210: 87ad 373e 5fa8 173e 7c42 b1bc 1bc1 143e
00000220: 54d2 2f3e 1748 173e 7ab3 433e 0785 ff3d
00000230: 41ca 673c 1b4a 373d 5bb4 3d3e beb9 133e
00000240: 2350 803d 96d4 8fbd 2dd8 42bd 104e fabc
00000250: 780a e53c a1b3 9cbd f64b ad3c 4cfb 3b3d
00000260: 6230 0a3d 2995 003e 8955 0f3e b04b 913d
00000270: 394d 043e 3079 b63d cba1 133e 4348 493e
00000280: fb61 633c 9ab9 203d eff8 ea3c 49d4 bf3d
00000290: 92e9 e63d 2026 cbbb 63a8 81bd c24f 07bd
000002a0: eb36 4cbc 4312 7d3d ef54 e7bc 7279 d9bd
000002b0: ce09 0d3b 7214 033d a43f fa3d a6f6 c3bd
000002c0: 80e8 c5bc ba52 7cbc 782b 0f3d 597a e93a
000002d0: c760 a73c 95e4 4a3d e119 1b3d b238 cdbc
000002e0: bc29 bd3c 1b7e ef39 8c76 cfbd e247 033d
000002f0: 004b 793c 5653 01bc 918d 0c3d 96dc 313c
00000300: ab43 a83d ca7a a33d 92d2 c93c ce4c 42bd
00000310: 10e9 39bd 240d a8bd 1d4d afbd a6a9 12bd
00000320: 0908 0f3d 91a9 92bd 8434 f2bd 7017 8f3d
00000330: 4290 413d 38ed 643d 8ba9 51bd 4f4d b7bd
00000340: 0ed7 99bd 7b5c a8bc 5bef 933d 29c0 f8bd
00000350: 23b0 01be b0ee 89bd 851e e23c 9470 14be
00000360: 201d 49be f231 e5bd 2e77 c1bd aa06 a2bd
00000370: 1d3e 343d 7aaf efba 4984 d8bd 396e adbd
00000380: a094 ffbd 3351 01bd 4c6a d9bc 338a fb3c
00000390: 378c 7abd 35a0 093d e3a9 24bd fff5 b4bd
000003a0: 3524 c5bc f675 083d 8fea b23c 20e3 5abd
000003b0: e61b d23c a0e5 be3c ebae 1d3c a5d8 7f3a
000003c0: d1a0 123d 2ab9 843d b435 88bd 5479 7cbd
000003d0: d6ed a3bc 5341 8a3d 042d ae3c dee3 9cbd
000003e0: 09be 1fbe 3a14 01be 25dd a13c 7fa1 bbbd
000003f0: f9f8 0e3d 06d4 ff3c 085c 4b3d 5f2f 77bc

conv2.bias f4 [32]
-0.26477957 -0.19331014 -0.3557823 -0.28755784 -0.096591294 -0.16663721 -0.055295173 -0.114246406
-0.23174176 -0.15932456 -0.18880033 -0.1958614 -0.25549784 -0.17874557 -0.17385118 -0.08161986
-0.089460455 -0.29265466 -0.18270852 -0.18881331 -0.15517142 -0.14275086 -0.14568786 -0.100783065
-0.22221065 -0.15697779 -0.18397032 -0.016907401 -0.2023888 -0.1636797 -0.03833892 -0.24314709
00000000: 3091 87be 18f3 45be 1929 b6be c83a 93be
00000010: a8d1 c5bd f2a2 2abe 317d 62bd 05fa e9bd
00000020: b64d 6dbe fa25 23be e054 41be e48f 48be
00000030: 9dd0 82be 1409 37be 0b06 32be 5028 a7bd
00000040: 0b37 b7bd d5d6 95be f117 3bbe 4758 41be
00000050: 42e5 1ebe 482d 12be 332f 15be 5a67 cebd
00000060: 308b 63be c9be 20be b762 3cbe 6481 8abc
00000070: 023f 4fbe a79b 27be 4509 1dbd 8dfb 78be

bn2.weight f4 [32]
0.81908125 1.1567025 0.79572093 1.2027361 0.9894816 1.0775696 0.92441 0.8852768
1.0268123 0.89881974 1.0632414 0.9667192 0.72817194 0.84358126 0.8018414 0.9984711
0.75353 1.1065369 1.1341072 1.004586 0.78736895 1.1942793 0.9405497 1.0071086
1.0149904 0.7153926 0.95145905 0.9709093 1.0793264 0.98751926 0.949948 0.864513
00000000: 4faf 513f d40e 943f 5eb4 4b3f 42f3 993f
00000010: ab4e 7d3f cded 893f 22a6 6c3f 80a1 623f
00000020: 966e 833f 0d19 663f 4b18 883f e97a 773f
00000030: 7a69 3a3f f1f4 573f 7a45 4d3f cd9b 7f3f
00000040: 58e7 403f 00a3 8d3f 6d2a 913f 4696 803f
00000050: 0391 493f 25de 983f ddc7 703f efe8 803f
00000060: 35eb 813f f823 373f d292 733f 838d 783f
00000070: 5e27 8a3f 10ce 7c3f cb2f 733f b950 5d3f

bn2.bias f4 [32]
-0.015429374 0.0828894 0.05729238 -0.0010606677 -0.09727406 -0.02892136 -0.07046772 -0.09140407
-0.03930118 -0.002414983 0.00963965 -0.06325155 0.078739405 -0.032846306 0.10472769 0.094950885
0.092363164 0.054372523 0.009998206 0.17672753 0.018826867 0.123943955 -0.005517046 0.008037606
0.15993059 0.079867296 -0.024772672 0.06915158 0.011041614 -0.08215699 -0.08048063 -0.022127496
00000000: 7ccb 7cbc ebc1 a93d 6aab 6a3d 1a06 8bba
00000010: 9f37 c7bd 7dec ecbc 6151 90bd 0f32 bbbd
00000020: 46fa 20bd b144 1ebb 9fef 1d3c 078a 81bd
00000030: 2042 a13d d989 06bd 797b d63d 9c75 c23d
00000040: e628 bd3d b9b5 5e3d 84cf 233c 10f8 343e
00000050: cd3a 9a3c 54d6 fd3d 56c8 b4bb 2ab0 033c
00000060: d8c4 233e 7791 a33d 0ff0 cabc 589f 8d3d
00000070: e3e7 343c ed41 a8bd 07d3 a4bd b944 b5bc

bn2.running_mean f4 [32]
1.7338554 0.12018382 0.27371764 0.32975388 1.0965853 0.27554142 1.1519928 0.18118621
0.2215925 1.2050062 0.19062173 0.4922987 0.5062837 0.48354533 0.8847151 0.59894335
1.8596954 0.13855271 0.12933777 0.83566153 0.49217543 0.3898003 0.42948273 0.3367747
0.30310917 0.5895521 1.1580937 0.6779666 0.16689503 0.40151814 0.835529 1.3047796
00000000: f9ee dd3f ef22 f63d b824 8c3e 80d5 a83e
00000010: e85c 8c3f c413 8d3e 8074 933f e188 393e
00000020: 25e9 623e a53d 9a3f 5832 433e 930e fc3e
00000030: cf9b 013f 4193 f73e b07c 623f 5a54 193f
00000040: 800a ee3f c3e0 0d3e 1f71 043e eaed 553f
00000050: 6bfe fb3e e893 c73e 29e5 db3e bc6d ac3e
00000060: 2031 9b3e e3ec 163f 6a3c 943f 388f 2d3f
00000070: 88e6 2a3e c993 cd3e 3be5 553f 0503 a73f

bn2.running_var f4 [32]
12.166115 0.176126 0.73032695 0.47277117 4.7018023 0.43057054 3.7602177 0.20735165
0.30286977 5.237327 0.35207242 0.562091 1.2428924 1.2280183 3.6600268 0.801162
6.1686106 0.22246498 0.16895868 1.3536624 1.4745466 0.76034284 1.2400408 0.64058584
0.8021842 1.8556684 2.2428355 0.97130394 0.31619573 1.1943333 1.3430731 7.7289734
00000000: 68a8 4241 605a 343e b5f6 3a3f 100f f23e
00000010: 2a75 9640 be73 dc3e 68a7 7040 fe53 543e
00000020: bf11 9b3e 2f98 a740 d642 b43e 32e5 0f3f
00000030: 1917 9f3f b42f 9d3f e13d 6a40 f418 4d3f
00000040: 4265 c540 dccd 633e 8103 2d3e cf44 ad3f
00000050: f1bd bc3f d4a5 423f a8b9 9e3f 6ffd 233f
00000060: f25b 4d3f 8b86 ed3f 9e8a 0f40 60a7 783f
00000070: 68e4 a13e eadf 983f d2e9 ab3f c053 f740

conv3.weight f4 [64, 32, 5, 5]
0.028135234 0.049459714 0.002429063 -0.029189408 0.0035580941 0.048946366 0.037211154 -0.012069652
0.016151695 -0.0058220415 0.023272026 0.07408988 0.030961944 -0.047483478 -0.021322798 0.039350435
0.049562883 0.06693649 0.018978193 -0.022389054 0.012097222 0.05175119 0.025240941 -0.024253266
0.015753264 -0.012209179 0.091099896 0.0033235566 0.0323638 0.075023666 0.1085266 -0.06824294
0.015424791 -0.06667468 0.12559469 -0.010135575 0.009254331 -0.035252597 -0.022112545 -0.042283293
0.020571535 0.04175901 0.08376167 0.078949414 0.12750797 -0.042257894 -0.05815966 -0.058127627
0.05364595 -0.007435352 0.06359118 0.0006634039 0.050014175 0.013432059 0.08308224 0.057510786
0.07126223 -0.013075512 0.06016417 0.023700636 0.04102144 0.08716377 0.001306148 0.011613716
0.12946828 0.053005625 0.07605192 -0.05231944 -0.007636171 0.009526539 0.017832126 0.04378096
-0.022037191 -0.013496656 -0.029015746 0.2674191 0.1845406 0.23228827 0.20947507 0.18546663
-0.0066096047 -0.06657489 0.009472403 -0.0003366963 0.05251917 0.04405343 -0.019737229 0.03929527
0.03795133 -0.027450055 -0.0028540888 -0.02456107 0.13294613 0.1274902 0.1910272 -0.0001264861
0.058102116 0.122629166 0.08263751 0.05982813 -0.16010344 -0.16620137 -0.22001475 -0.15983866
-0.112392016 -0.19599366 -0.15613754 -0.18427974 -0.18846333 -0.13953684 -0.075238235 -0.045032654
-0.06165265 -0.09407147 -0.0481896 -0.055107363 -0.019875221 -0.08842544 -0.046018597 -0.047647793
-0.043828007 -0.061247714 -0.053113945 -0.0970196 -0.051688146 0.010341736 0.06572572 -0.001551471
0.03387949 0.0056191143 -0.062258467 -0.030529393 -0.039924696 0.014189585 0.08466458 -0.008541051
0.012033681 0.011112397 0.014463761 0.037329637 -0.0012730052 0.027417125 -0.014576527 -0.019056363
-0.028771052 -0.014617263 0.086072624 -0.031061497 -0.08003846 -0.012466889 -0.071289845 -0.13446204
-0.025863346 -0.053683493 -0.049273852 0.006218583 0.09145599 0.036475766 0.053417947 0.018851684
-0.007097135 0.08231081 0.0138555365 0.026209772 0.03386665 0.019130982 0.0544839 0.09077634
0.028581284 0.043189906 -0.056216974 0.0036316738 -0.028174564 -0.0016219844 -0.014028723 -0.049027216
-0.024913855 0.021856552 0.04440251 -0.028771324 -0.069927 -0.04920461 -0.03708119 -0.093904175
-0.1209853 -0.032696586 -0.0287964 -0.0075622373 0.015769359 -0.013168909 -0.10850199 -0.032168575
-0.020922536 -0.045119155 -0.0065318416 -0.01559449 -0.05074501 -0.0013880747 0.013372752 0.0512011
0.04575617 0.07276763 0.031216614 0.11854598 0.019640949 0.030863365 0.12200032 0.048528295
0.06783242 -0.027405655 0.051571287 0.03400712 -0.013229429 0.025073573 0.07022607 0.082460284
0.015752645 -0.014893278 0.01277823 0.140967 -0.08180768 -0.123480044 -0.14914052 -0.013824655
-0.109444804 0.019824238 -0.015570311 -0.031346973 0.026101813 0.020409398 0.073177114 0.099400364
0.07174762 0.04482617 0.08829803 0.046258204 0.07856888 0.062439002 0.032189697 0.08257958
-0.021578666 0.059428733 0.006960251 -0.0028470822 -0.02443871 0.03392672 0.053427044 0.046371613
0.048836306 0.04546778 -0.08620778 -0.048442967 -0.08296739 -0.15199912 -0.002125273 -0.17067689
00000000: dd7b e63c 4596 4a3d ea30 1f3b a01e efbc
00000010: ea2e 693b fc7b 483d b96a 183d cabf 45bc
00000020: 8f50 843c d3c6 bebb faa4 be3c 6fbc 973d
00000030: e7a3 fd3c 097e 42bd 26ad aebc ec2d 213d
00000040: 7302 4b3d 0016 893d 2878 9b3c 4069 b7bc
00000050: 6d33 463c 0ef9 533d 17c6 ce3c c9ae c6bc
00000060: fd0c 813c 0209 48bc 9592 ba3d 07d0 593b
00000070: e78f 043d 02a6 993d 3243 de3d f4c2 8bbd
00000080: 43b8 7c3c bc8c 88bd e59b 003e af0f 26bc
00000090: 7a9f 173c 0765 10bd 5e25 b5bc 3f31 2dbd
000000a0: a385 a83c 7f0b 2b3d 3d8b ab3d 3bb0 a13d
000000b0: 7391 023e 9d16 2dbd d338 6ebd 3c17 6ebd
000000c0: dbbb 5b3d 41a4 f3bb 183c 823d 48e8 2d3a
000000d0: aadb 4c3d 2412 5c3c 0527 aa3d 6e90 6b3d
000000e0: eff1 913d ac3a 56bc b46e 763d d627 c23c
000000f0: 1906 283d eb82 b23d 0e33 ab3a 7547 3e3c
00000100: 5593 043e 6d1c 593d 1cc1 9b3d e94c 56bd
00000110: d838 fabb 3315 1c3c ae14 923c aa53 333d
00000120: 5787 b4bc 1421 5dbc 6eb2 edbc 28eb 883e
00000130: 36f8 3c3e fadc 6d3e a280 563e f7ea 3d3e
00000140: 6295 d8bb 6a58 88bd 2332 1b3c 9d86 b0b9
00000150: 571e 573d 5f71 343d f8af a1bc 14f4 203d
00000160: db72 1b3d f0de e0bc aa0b 3bbb 4c34 c9bc
00000170: 0823 083e ca8c 023e a29c 433e 5ba1 04b9
00000180: 7cfc 6d3d 0025 fb3d db3d a93d 570e 753d
00000190: 28f2 23be b130 2abe 8c4b 61be bfac 23be
000001a0: c92d e6bd 90b2 48be 85e2 1fbe d4b3 3cbe
000001b0: 88fc 40be bfe2 0ebe 8116 9abd 2974 38bd
000001c0: 7d87 7cbd 8ba8 c0bd 7562 45bd 42b8 61bd
000001d0: 5cd1 a2bc 6618 b5bd ff7d 3cbd 552a 43bd
000001e0: ff84 33bd e2de 7abd 028e 59bd 36b2 c6bd
000001f0: f3b6 53bd 6270 293c 359b 863d ba5a cbba
00000200: 38c5 0a3d 8c20 b83b bc02 7fbd c718 fabc
00000210: 1488 23bd 6f7b 683c a064 ad3d c4ef 0bbc
00000220: eb28 453c c510 363c 69f9 6c3c f6e6 183d
00000230: f7da a6ba e199 e03c 63d2 6ebc 171c 9cbc
00000240: 45b1 ebbc 3f7d 6fbc d846 b03d ae74 febc
00000250: 34eb a3bd ec41 4cbc 6900 92bd 6bb0 09be
00000260: 5edf d3bc 39e3 5bbd 61d3 49bd 41c5 cb3b
00000270: 474d bb3d 9d67 153d c7cc 5a3d d96e 9a3c
00000280: 158f e8bb 9292 a83d 5502 633c e0b5 d63c
00000290: c2b7 0a3d 94b8 9c3c 832a 5f3d f2e8 b93d
000002a0: 4c23 ea3c e6e7 303d c543 66bd 6001 6e3b
000002b0: 58ce e6bc c498 d4ba bbd8 65bc c3d0 48bd
000002c0: 2418 ccbc 830c b33c 68df 353d d7b1 ebbc
000002d0: e335 8fbd c68a 49bd 72e2 17bd d550 c0bd
000002e0: 24c7 f7bd dbec 05bd 6ee6 ebbc a5cc f7bb
000002f0: be2e 813c 68c2 57bc 4b36 debd 32c3 03bd
00000300: bd65 abbc ddce 38bd 0f09 d6bb 0880 7fbc
00000310: 00da 4fbd 0ff0 b5ba 6319 5b3c 3fb8 513d
00000320: d26a 3b3d 3207 953d fcb9 ff3c 3cc8 f23d
00000330: 0ee6 a03c 2bd5 fc3c 4edb f93d 9bc5 463d
00000340: b9eb 8a3d d381 e0bc 6a3c 533d 0d4b 0b3d
00000350: 3fc0 58bc 1867 cd3c b0d2 8f3d f0e0 a83d
00000360: b10b 813c ef02 74bc c85b 513c a759 103e
00000370: c98a a7bd 1be3 fcbd 4bb8 18be ce80 62bc
00000380: 9924 e0bd 7166 a23c 9e1a 7fbc af65 00bd
00000390: 78d3 d53c 9c31 a73c e2dd 953d 6b92 cb3d
000003a0: 6bf0 923d a59b 373d 99d5 b43d 3e79 3d3d
000003b0: b9e8 a03d 0ac0 7f3d 58d9 033d 7c1f a93d
000003c0: bec5 b0bc 8b6b 733d d112 e43b 1d96 3abb
000003d0: b133 c8bc bff6 0a3d 51d6 5a3d 29f0 3d3d
000003e0: 9408 483d 6c3c 3a3d b48d b0bd 226c 46bd
000003f0: cfea a9bd a8a5 1bbe 2a48 0bbb ecc5 2ebe

conv3.bias f4 [64]
0.16275148 0.13385557 0.12978226 -0.08367176 0.15876248 0.11005307 -0.055807393 0.06473017
0.024161547 -0.1473399 0.13225776 0.10405393 -0.05104951 -0.04670291 -0.03444481 0.17901066
-0.042637885 0.04117439 0.0028106973 -0.0607683 -0.13080591 -0.22628851 -0.3058186 0.008306862
-0.123645775 -0.36221358 -0.21762119 -0.18338335 -0.017445995 0.09599932 0.0694928 -0.12308786
-0.12957224 0.0025100608 -0.17265466 0.103263296 -0.025105936 0.06730098 -0.018180002 0.026828157
-0.082297675 -0.30391032 -0.045394294 0.077394165 0.10450517 -0.04830988 0.20698966 -0.0036893252
0.079553716 0.067065 0.270956 0.25684756 -0.1634053 -0.10081679 -0.00465859 -0.038985573
-0.024547217 0.07391736 0.031558614 -0.12803526 -0.13156338 -0.08573624 -0.018738272 0.009387691
00000000: 53a8 263e 6f11 093e a4e5 043e 1a5c abbd
00000010: a292 223e 8163 e13d 4b96 64bd 4091 843d
00000020: 70ee c53c 45e0 16be 946e 073e 3a1a d53d
00000030: 4a19 51bd 8d4b 3fbd 0016 0dbd 924e 373e
00000040: 10a5 2ebd 7aa6 283d ad33 383b 2ee8 78bd
00000050: fcf1 05be 2db8 67be 4194 9cbe 8119 083c
00000060: ff39 fdbd 0f74 b9be 17d8 5ebe d8c8 3bbe
00000070: e7ea 8ebc 4b9b c43d 3e52 8e3d 7d15 fcbd
00000080: 96ae 04be d57f 243b 62cc 30be b57b d33d
00000090: f7aa cdbc 19d5 893d 3aee 94bc b9c6 db3c
000000a0: af8b a8bd 229a 9bbe 5eef 39bd d580 9e3d
000000b0: ce06 d63d 95e0 45bd 19f5 533e 9bc8 71bb
000000c0: 0fed a23d 6059 893d bfba 8a3e 8681 833e
000000d0: b853 27be 0879 cebd 16a7 98bb 56af 1fbd
000000e0: 3f17 c9bc fc61 973d 9b43 013d ad1b 03be
000000f0: 8db8 06be 7b96 afbd 0181 99bc d4ce 193c

bn3.weight f4 [64]
1.0434248 1.0787843 0.997589 1.044832 0.87721765 0.9742768 1.0745653 1.1949619
1.009817 1.067565 0.8163238 0.8514081 1.1636225 0.94908404 1.0809257 0.98139304
1.1651789 1.0600384 0.91535944 1.0594851 0.8585033 0.915615 1.1239464 0.8136287
0.74953055 1.0449641 1.0168186 1.093474 0.8456176 0.97228616 0.98137397 0.9909793
0.8422866 0.9526849 1.19396 1.1355795 1.0030848 1.0645516 0.93252325 0.85659665
0.9812543 0.8807949 1.0297811 0.95876014 0.9328394 1.0471312 1.056152 1.0194931
0.97467536 0.87974864 1.0339587 1.0106406 0.8883821 1.0119394 1.0983768 0.8955143
0.8350396 0.9810766 1.0798838 0.93634355 0.87308174 0.90337014 1.1464883 1.239678
00000000: f28e 853f 9b15 8a3f fe61 7f3f 0ebd 853f
00000010: 5691 603f 346a 793f 5b8b 893f 83f4 983f
00000020: af41 813f f8a5 883f 99fa 503f e2f5 593f
00000030: 95f1 943f 2cf7 723f c65b 8a3f 933c 7b3f
00000040: 9524 953f 57af 873f ff54 6a3f 359d 873f
00000050: dfc6 5b3f bf65 6a3f 7add 8f3f f849 503f
00000060: 3ce1 3f3f 62c1 853f 1d27 823f f5f6 8b3f
00000070: 657a 583f bfe7 783f 533b 7b3f d2b0 7d3f
00000080: 18a0 573f 28e3 733f aed3 983f ab5a 913f
00000090: 1565 803f 3a43 883f d8b9 6e3f eb49 5b3f
000000a0: 7b33 7b3f c67b 613f decf 833f 4e71 753f
000000b0: 90ce 6e3f 6508 863f fd2f 873f c07e 823f
000000c0: 5384 793f 3537 613f c258 843f ac5c 813f
000000d0: 026d 633f 3b87 813f 9c97 8c3f 6d40 653f
000000e0: 28c5 553f d627 7b3f a239 8a3f 36b4 6f3f
000000f0: 4982 5f3f 4443 673f 21c0 923f c5ad 9e3f

bn3.bias f4 [64]
-0.03398451 -0.0065975906 -0.079924 -0.044426434 -0.08130615 -0.027488535 0.016606435 0.039619032
0.01481117 0.0285898 -0.039900526 -0.03846175 -0.1379336 -0.13459076 -0.13325973 -0.056956775
-0.14907329 -0.05404137 -0.03304918 0.002779393 -0.0365516 0.056775883 0.035248574 0.044003323
0.1396573 0.04843647 0.15570872 0.055644196 0.14337012 0.12093254 0.07348473 0.04625811
0.039179966 -0.07413564 0.11369914 0.12399752 0.01193616 0.03273217 0.09829738 0.14045826
0.08095228 0.14759995 0.09618477 0.013049599 0.0745346 -0.04177265 0.022152653 -0.0174281
-0.10655184 -0.05020771 -0.092002146 0.008820625 -0.076632805 -0.15384802 -0.28755328 -0.04634791
-0.16453627 -0.18256842 -0.1858359 -0.101624176 -0.1632781 -0.090501584 -0.15297504 -0.066405036
00000000: 5733 0bbd 9a30 d8bb 32af a3bd 7ef8 35bd
00000010: d783 a6bd a32f e1bc 380a 883c 9147 223d
00000020: 8daa 723c 2835 ea3c bc6e 23bd 118a 1dbd
00000030: 773e 0dbe 29d2 09be 3d75 08be 824b 69bd
00000040: aba6 18be 7c5a 5dbd 945e 07bd 7a26 363b
00000050: 21b7 15bd d48d 683d cf60 103d d43c 343d
00000060: 5302 0f3e 5265 463d 1b72 1f3e 2beb 633d
00000070: 9ecf 123e 7bab f73d 2a7f 963d 2579 3d3d
00000080: 2c7b 203d 6dd4 97bd 18db e83d 69f2 fd3d
00000090: e28f 433c 2b12 063d 2350 c93d 4ad4 0f3e
000000a0: 4fca a53d 7124 173e 85fc c43d fccd 553c
000000b0: 99a5 983d cc19 2bbd 7b79 b53c 60c5 8ebc
000000c0: da37 dabd 9aa6 4dbd 9f6b bcbd 6284 103c
000000d0: a9f1 9cbd 568a 1dbe 2f3a 93be 4ed7 3dbd
000000e0: 327c 28be 37f3 3abe c44b 3ebe 5620 d0bd
000000f0: 6032 27be e558 b9bd 7da5 1cbe 5dff 87bd

bn3.running_mean f4 [64]
3.3856645 2.3505414 2.3607256 0.99019647 1.8416065 2.5302298 2.3762667 2.9290261
2.2781885 2.243523 3.0581052 3.3226705 1.9622552 1.9493384 1.4604869 3.8663666
2.356295 2.2122958 2.5124102 2.2102215 2.2292883 1.3586006 1.3936149 2.1866672
1.259788 1.6000835 1.6399789 1.2127382 2.2556317 2.2537954 2.139463 1.4828552
2.384749 2.374182 2.6025949 3.1027853 2.7590039 3.3106914 3.0228593 4.007839
2.7206132 2.0975716 3.1728005 2.9268923 3.521569 3.5814755 4.093248 2.4295204
3.1226103 3.3760302 4.0641203 3.8403275 1.8738235 2.2275124 2.2276556 2.3994622
1.9488747 2.4956913 1.5524874 2.9178972 4.405278 2.286909 3.3846033 3.7674735
00000000: baae 5840 456f 1640 2116 1740 847d 7d3f
00000010: c3b9 eb3f 49ef 2140 c114 1840 2a75 3b40
00000020: d7cd 1140 e195 0f40 ffb7 4340 a2a6 5440
00000030: 2e2b fb3f ec83 f93f 3cf1 ba3f 8d72 7740
00000040: 8acd 1640 4196 0d40 54cb 2040 4574 0d40
00000050: a9ac 0e40 a0e6 ad3f f961 b23f 5bf2 0b40
00000060: bc40 a13f 89cf cc3f d4ea d13f 013b 9b3f
00000070: 455c 1040 2f3e 1040 f6ec 0840 33ce bd3f
00000080: ba9f 1840 99f2 1740 ea90 2640 0994 4640
00000090: 8593 3040 5ee2 5340 8776 4140 3840 8040
000000a0: 871e 2e40 9d3e 0640 2a0f 4b40 3452 3b40
000000b0: 6361 6140 e536 6540 e3fb 8240 437d 1b40
000000c0: d9d8 4740 e110 5840 460d 8240 edc7 7540
000000d0: 73d9 ef3f 908f 0e40 e991 0e40 ca90 1940
000000e0: ba74 f93f 68b9 1f40 e8b7 c63f d4be 3a40
000000f0: 0af8 8c40 b85c 1240 579d 5840 491e 7140

bn3.running_var f4 [64]
15.976704 16.239609 7.9384675 3.6312752 14.076016 8.436636 15.842143 13.51366
23.164465 9.803038 30.28067 11.775066 18.65217 12.174784 9.663337 22.236612
23.264822 24.860712 18.768562 17.052782 9.795455 6.5655594 6.745178 21.320662
5.75985 15.756496 10.913519 5.460498 10.016693 8.132056 6.433556 8.109184
20.594852 15.866965 12.718328 13.348357 28.300259 36.26245 24.695814 23.530073
26.47758 8.333706 30.7176 30.604448 31.426104 17.765627 23.397951 10.078826
13.376267 16.02703 18.32296 27.01253 8.551881 13.90655 15.660701 14.882508
11.729524 8.438974 9.845415 16.117983 96.55616 8.43811 17.195293 24.213787
00000000: 94a0 7f41 b8ea 8141 ed07 fe40 d066 6840
00000010: 5d37 6141 76fc 0641 6b79 7d41 f437 5841
00000020: d350 b941 3ed9 1c41 d03e f241 ac66 3c41
00000030: a537 9541 eacb 4241 079d 1a41 95e4 b141
00000040: 5b1e ba41 bde2 c641 0426 9641 196c 8841
00000050: 2fba 1c41 1019 d240 80d8 d740 b790 aa41
00000060: b150 b840 9c1a 7c41 c69d 2e41 66bc ae40
00000070: 6044 2041 e71c 0241 b1df cd40 38bf 0141
00000080: 42c2 a441 17df 7d41 467e 4b41 df92 5541
00000090: ee66 e241 c00c 1142 0791 c541 973d bc41
000000a0: 15d2 d341 dc56 0541 a5bd f541 e9d5 f441
000000b0: a968 fb41 0120 8e41 012f bb41 df42 2141
000000c0: 3105 5641 5c37 8041 6c95 9241 a919 d841
000000d0: 81d4 0841 3b81 5e41 3b92 7a41 c11e 6e41
000000e0: 21ac 3b41 0a06 0741 d286 1d41 a1f1 8041
000000f0: c11c c142 8002 0741 f68f 8941 d6b5 c141

cnn.0.weight f4 [8, 2, 5, 5]
0.09699411 0.06225811 -0.1547888 -0.050440867 0.013273986 -0.18942605 -0.09434354 -0.13090585
-0.2664907 -0.12619989 -0.16223778 -0.0480091 -0.004711565 0.012228422 0.0052156253 -0.07746665
0.071501605 0.060745113 -0.041837487 -0.018211301 0.11909263 0.16588722 0.03306048 -0.10043948
0.05325469 -0.0027805497 0.002207727 -0.08625589 -0.19529438 0.21817069 -0.17381614 0.056062784
-0.05529931 -0.11045105 -0.09774753 -0.13916945 -0.021310592 -0.059225578 -0.16044234 -0.011804561
0.070046574 0.17114954 0.03001989 -0.053480748 -0.002676729 0.17882912 0.013077967 0.1533989
0.047989074 -0.11055663 0.06346182 0.1246603 0.02417965 -0.024903664 0.033052836 -0.019419443
0.11857979 0.0056869294 -0.12117622 -0.0689983 -0.033377774 0.053914774 -0.010127325 0.11572146
0.0013435546 0.03160982 -0.09233822 -0.17179441 -0.17901802 -0.13402054 -0.20823948 -0.14803334
-0.095471345 -0.27652177 -0.22938533 0.19679013 0.053690214 0.10334876 -0.02096817 0.07429184
-0.037572328 0.027232002 0.0412118 0.04192527 -0.12545645 0.08519388 -0.08063872 -0.07997027
-0.08012554 0.00983976 -0.18719277 -0.070287 -0.14135787 -0.032378472 -0.19510509 -0.15224996
-0.21377815 -0.09179178 -0.085829325 -0.22834882 0.27083516 -0.06165244 0.10198106 -0.056529135
-0.14215448 0.17085007 0.06042729 -0.19086437 -0.15445937 0.08695848 0.11964185 -0.16347413
-0.23207112 -0.22793841 -0.08150308 0.008193442 -0.018007023 -0.11809348 -0.06513538 0.113384746
-0.058801528 0.08704878 0.015536586 0.12218729 0.17144623 0.099238485 -0.10417741 -0.14516832
-0.18563047 -0.14477858 0.03541782 0.08308845 -0.05526969 -0.024928344 -0.0043273647 0.014052289
-0.16107675 -0.22978333 -0.07358673 -0.12159975 -0.0015878982 0.0628623 0.036912374 -0.19059525
-0.06898636 0.089016296 0.17233916 0.05855848 0.104187444 -0.017197905 -0.16287217 -0.05619854
-0.030355552 -0.076321095 0.009669601 -0.035482496 0.08105492 0.13920939 0.19169322 0.036109798
0.048234783 0.091182806 0.25102353 0.23733798 0.13010454 -0.086410545 -0.10251431 0.050912704
0.11612146 0.036892723 0.11649324 0.1049284 -0.11643295 -0.13738653 -0.13176703 -0.24634439
-0.034756258 -0.19869602 -0.02798249 0.047950733 0.059878755 0.0130296005 0.16467807 0.297534
0.119356684 0.10410534 0.01316394 0.219354 0.17682353 0.017050352 0.043580554 -0.09694723
0.04522863 -0.10712493 -0.17815234 0.052885298 0.02720133 -0.027635613 0.091987856 -0.04915823
0.19962925 0.2198164 -0.021125937 -0.037376896 0.015760576 0.108427115 0.20737235 -0.02361772
-0.22827557 -0.1373036 0.15664884 0.038961794 -0.15033706 0.03969893 0.047001835 -0.08315517
-0.11282572 -0.07440566 0.09777192 0.10980822 -0.1536034 -0.13933837 7.201323e-06 0.10965539
0.09204209 0.0664285 0.060318064 0.053575654 -0.06590422 -0.12131473 0.12702301 0.11092584
0.062329184 -0.19435348 -0.16029964 -0.014300926 0.040440165 -0.088923216 -0.094949886 0.08603315
-0.085681915 -0.12110691 -0.10585131 0.21772398 0.26997307 0.08983379 -0.14422461 -0.03768667
0.116036944 -0.04582597 -0.101983875 -0.1645237 -0.1852919 -0.15014805 -0.01057393 0.10366763
00000000: d9a4 c63d 5c02 7f3d f580 1ebe 159b 4ebd
00000010: 227b 593c e7f8 41be 3037 c1bd 2f0c 06be
00000020: 7871 88be 8b3a 01be a921 26be 31a5 44bd
00000030: 7963 9abb b859 483c d6e7 aa3b d6a6 9ebd
00000040: 6f6f 923d decf 783d c95d 2bbd de2f 95bc
00000050: d6e6 f33d 57de 293e 6d6a 073d 37b3 cdbd
00000060: 9721 5a3d e239 36bb 83af 103b eea6 b0bd
00000070: 40fb 47be 2368 5f3e dcfc 31be 17a2 653d
00000080: 8781 62bd 2934 e2bd db2f c8bd 7082 0ebe
00000090: 8d93 aebc 8596 72bd ff4a 24be eb67 41bc
000000a0: 9474 8f3d d341 2f3e 46ec f53c a10e 5bbd
000000b0: 106c 2fbb fb1e 373e f844 563c 9a14 1d3e
000000c0: 3190 443d 846b e2bd 45f8 813d e64d ff3d
000000d0: 6714 c63c c502 ccbc 6962 073d 8615 9fbc
000000e0: f6d9 f23d 6c59 ba3b 3d2b f8bd fb4e 8dbd
000000f0: 22b7 08bd bdd5 5c3d 14ed 25bc 5fff ec3d
00000100: 361a b03a 4c79 013d d21b bdbd e0ea 2fbe
00000110: 8050 37be ae3c 09be bb3c 55be 0d96 17be
00000120: 7b86 c3bd 4394 8dbe fde3 6abe 5a83 493e
00000130: 45ea 5b3d 84a8 d33d 71c5 abbc 5226 983d
00000140: 71e5 19bd a615 df3c b4cd 283d d5b9 2b3d
00000150: a877 00be 217a ae3d ea25 a5bd 74c7 a3bd
00000160: dc18 a4bd f236 213c 76af 3fbe a1f2 8fbd
00000170: 1ec0 10be 4a9f 04bd a1c9 47be 6ae7 1bbe
00000180: a9e8 5abe 54fd bbbd 49c7 afbd 46d4 69be
00000190: e8aa 8a3e 4587 7cbd 72db d03d 188b 67bd
000001a0: f290 11be 52f3 2e3e 9b82 773d f371 43be
000001b0: 992a 1ebe 4a17 b23d c906 f53d c365 27be
000001c0: 0da4 6dbe b068 69be 16eb a6bd c93d 063c
000001d0: 7783 93bc ffda f1bd b365 85bd 4336 e83d
000001e0: dfd9 70bd a146 b23d 2a8d 7e3c 543d fa3d
000001f0: 9a8f 2f3e 8c3d cb3d f75a d5bd 01a7 14be
00000200: ea15 3ebe d640 14be 4712 113d 472a aa3d
00000210: 7862 62bd 8736 ccbc 91cc 8dbb 923b 663c
00000220: 4ef1 24be 524c 6bbe a4b4 96bd 4a09 f9bd
00000230: 0621 d0ba f3bd 803d 6e31 173d 672b 43be
00000240: b948 8dbd 2d4e b63d ad79 303e 04db 6f3d
00000250: 3a60 d53d 9fe2 8cbc f6c7 26be 7130 66bd
00000260: 35ac f8bc 3c4e 9cbd 3f6d 1e3c 1856 11bd
00000270: 1f00 a63d e88c 0e3e 3a4b 443e dee7 133d
00000280: d691 453d 0dbe ba3d 2886 803e ba08 733e
00000290: 203a 053e 03f8 b0bd 06f3 d1bd d789 503d
000002a0: 17d1 ed3d d31c 173d 0294 ee3d b3e4 d63d
000002b0: 6674 eebd 0eaf 0cbe f0ed 06be b441 7cbe
000002c0: 945c 0ebd f876 4bbe 893b e5bc fd67 443d
000002d0: 6d43 753d 1b7a 553c 5ea1 283e 6056 983e
000002e0: 4771 f43d 2e35 d53d 91ad 573c 569e 603e
000002f0: 3a11 353e 2ead 8b3c 8681 323d 458c c6bd
00000300: a841 393d 5164 dbbd 916d 36be 419e 583d
00000310: 53d5 de3c 1564 e2bc 2164 bc3d 245a 49bd
00000320: 9c6b 4c3e 8d17 613e 4d10 adbc 8418 19bd
00000330: 531c 813c 090f de3d 6b59 543e f379 c1bc
00000340: 12c1 69be 5199 0cbe 8e68 203e 6796 1f3d
00000350: f5f1 19be 589b 223d ff84 403d 424d aabd
00000360: 2c11 e7bd ff61 98bd a53c c83d 22e3 e03d
00000370: 364a 1dbe b8ae 0ebe e5a2 f136 0193 e03d
00000380: 9080 bc3d aa0b 883d 1310 773d 2572 5b3d
00000390: cbf8 86bd db73 f8bd 5212 023e 162d e33d
000003a0: e34c 7f3d 9904 47be 9725 24be 6e4e 6abc
000003b0: 96a4 253d 601d b6bd 1675 c2bd 2632 b03d
000003c0: 007a afbd e606 f8bd 92c8 d8bd 09f3 5e3e
000003d0: e939 8a3e c7fa b73d 9eaf 13be 565d 1abd
000003e0: c7a4 ed3d 03b4 3bbd ecdc d0bd e778 28be
000003f0: 29bd 3dbe 69c0 19be 473e 2dbc b24f d43d

cnn.0.bias f4 [8]
-0.17510672 -0.114546314 -0.037092675 -0.08108998 -0.3097838 -0.34454596 0.045730088 0.14808467
00000000: 2d4f 33be 4297 eabd 7dee 17bd 8112 a6bd
00000010: fb9b 9ebe 5468 b0be 794f 3b3d 82a3 173e

cnn.2.weight f4 [8]
0.7571452 0.67793477 0.8076082 1.2907958 0.99977624 0.78317004 1.0661272 0.74473935
00000000: 45d4 413f 228d 2d3f 69bf 4e3f cc38 a53f
00000010: 56f1 7f3f d57d 483f db76 883f 3da7 3e3f

cnn.2.bias f4 [8]
0.42359015 0.42522296 -0.009640764 -0.047511514 -0.19248834 0.25322875 -0.29149127 0.2914432
00000000: cfe0 d83e d3b6 d93e 4cf4 1dbc 6f9b 42bd
00000010: aa1b 45be 33a7 813e 583e 95be 0b38 953e

cnn.2.running_mean f4 [8]
0.34103784 0.84926337 0.4322505 0.46048266 0.08345573 0.23348589 0.28845772 0.36760098
00000000: 839c ae3e 5369 593f f04f dd3e 62c4 eb3e
00000010: d6ea aa3d ed16 6f3e bbb0 933e 3236 bc3e

cnn.2.running_var f4 [8]
0.283165 1.3548477 0.375374 0.5881894 0.05292046 0.17796114 0.13630256 0.21634409
00000000: 01fb 903e a66b ad3f 0531 c03e 9593 163f
00000010: 20c3 583d 723b 363e e692 0b3e 4e89 5d3e

cnn.3.weight f4 [32, 8, 5, 5]
0.07574745 0.0551186 0.20298344 0.19298922 0.05445607 0.031477347 0.0073270737 0.057352323
0.21412516 0.09330622 0.06991908 0.0799017 0.03427159 0.087123804 0.06009027 0.00035114778
0.0007255175 0.09952274 0.052710995 -0.00046205346 -0.076196365 -0.09114688 -0.06478286 0.067017436
-0.11540298 -0.026436837 0.13121326 0.10628733 0.054807942 0.03857834 -0.0013097017 0.13182777
0.06586331 0.11971582 -0.05365875 0.07150467 0.11183337 0.02006512 0.052040488 -0.04020066
-0.038377117 0.02361309 0.047688458 -0.010370808 -0.036881972 -0.15994053 -0.11252385 -0.04849414
-0.02032176 -0.16669516 -0.062249914 0.0553499 0.10750965 0.12064622 0.08455312 0.11883599
0.10256523 0.17751215 0.14217854 0.056042228 0.09599479 0.073658146 0.05098163 0.12676066
0.07636798 0.12456098 0.17967364 0.14331344 0.25458777 0.22132711 -0.018173082 0.0051442278
0.054262534 0.11535205 0.07001615 0.0018404386 0.013137877 -0.05620606 -0.054724358 0.058579993
0.004544578 0.047417626 0.022033814 -0.044579457 0.089705944 0.0754744 0.079900354 0.030960778
-0.043219317 0.085509695 0.05994342 0.005902044 -0.031923465 0.046613175 0.037945602 0.09403138
0.030872798 0.008007625 0.040050864 -0.0030388054 -0.12629141 -0.07955458 -0.031837672 0.033748932
-0.08156083 -0.18028744 -0.014826817 -0.107456066 0.035998687 -0.059227638 -0.025804749 -0.05601855
0.088648014 0.21955739 0.0001814258 -0.096187204 0.0016825092 -0.0290131 -0.064162195 0.07071933
-0.15863232 -0.11167237 0.023739459 0.0698025 0.0036356628 0.113337286 0.09945947 0.16194901
0.2503803 0.15118194 -0.005484957 0.10965684 0.17937289 0.14810322 -0.021638148 0.14526789
0.17170078 0.14773594 0.19111434 0.12476545 0.014147342 0.044748407 0.18525831 0.14426324
0.06265285 -0.070229694 -0.047569443 -0.030554801 0.027959093 -0.07651449 0.021154385 0.045893952
0.033737548 0.125569 0.13997473 0.07094514 0.12920083 0.089098334 0.14417188 0.19656472
0.013878341 0.039239503 0.028683154 0.09366662 0.11275019 -0.006199613 -0.06330945 -0.033035047
-0.012464265 0.061784994 -0.028238742 -0.10618867 0.0021520737 0.03200192 0.1221917 -0.09568529
-0.024158716 -0.015400583 0.034953564 0.0017812952 0.02043189 0.0495344 0.037866477 -0.025051448
0.02309119 0.00045679588 -0.10130033 0.032050975 0.015215635 -0.007893404 0.034314696 0.010855814
0.08216032 0.079824045 0.02463654 -0.047436528 -0.04538828 -0.082056314 -0.0855963 -0.03580632
0.034919772 -0.071612485 -0.11826423 0.06986892 0.047256716 0.055890292 -0.05118708 -0.08950292
-0.075117216 -0.02055191 0.07223388 -0.12146027 -0.12664847 -0.06734979 0.027602443 -0.1449607
-0.19640017 -0.11191167 -0.0944656 -0.07911427 0.04400455 -0.0018286549 -0.105721064 -0.08468289
-0.1247952 -0.03157158 -0.026539944 0.030705547 -0.061168876 0.03360005 -0.04020108 -0.088359825
-0.024065116 0.03331562 0.021840362 -0.05343926 0.025648069 0.023302853 0.009624223 0.00097597606
0.035797898 0.0648063 -0.06650868 -0.061639145 -0.02001087 0.06750741 0.0212617 -0.0766065
-0.15599836 -0.12605372 0.01975877 -0.09161662 0.034905408 0.03122903 0.049648315 -0.015086978
00000000: 7b21 9b3d 0bc4 613d e4da 4f3e f79e 453e
00000010: 540d 5f3d 64ee 003d f317 f03b 45ea 6a3d
00000020: a043 5b3e 5517 bf3d bc31 8f3d 81a3 a33d
00000030: 5e60 0c3d f76d b23d 3721 763d 421a b839
00000040: a830 3e3a 94d2 cb3d 7ce7 573d c43f f2b9
00000050: d70c 9cbd 37ab babd e0ac 84bd 7040 893d
00000060: 6658 ecbd 1192 d8bc c55c 063e 2cad d93d
00000070: 4b7e 603d 5204 1e3d 4caa abba dcfd 063e
00000080: 58e3 863d 912d f53d 47c9 5bbd 0a71 923d
00000090: e508 e53d 9b5f a43c 6828 553d 72a9 24bd
000000a0: 5331 1dbd 3d70 c13c f954 433d 52ea 29bc
000000b0: 8d11 17bd 73c7 23be e772 e6bd cba1 46bd
000000c0: d279 a6bc 23b2 2abe c4f9 7ebd 94b6 623d
000000d0: 052e dc3d 5e15 f73d 302a ad3d 4960 f33d
000000e0: b80d d23d bfc5 353e 4097 113e 898c 653d
000000f0: eb98 c43d 15da 963d 1dd2 503d 8ccd 013e
00000100: d166 9c3d d419 ff3d 5efc 373e c2c0 123e
00000110: 5459 823e 93a3 623e b7df 94bc e990 a83b
00000120: 6442 5e3d b23d ec3d a164 8f3d df3a f13a
00000130: 4040 573c 5338 66bd a626 60bd 93f1 6f3d
00000140: afea 943b fc38 423d 4280 b43c f398 36bd
00000150: c0b7 b73d 5292 9a3d cca2 a33d 75a1 fd3c
00000160: bd06 31bd b51f af3d 3b87 753d ef65 c13b
00000170: 2ec2 02bd 75ed 3e3d d96c 1b3d 8693 c03d
00000180: f3e8 fc3c 6a32 033c 600c 243d b226 47bb
00000190: 8952 01be 83ed a2bd 3868 02bd 523c 0a3d
000001a0: 5d09 a7bd 459d 38be 2eec 72bc ed11 dcbd
000001b0: 5c73 133d ae98 72bd 7b64 d3bc b573 65bd
000001c0: 178d b53d a7d3 603e 1e3d 3e39 ccfd c4bd
000001d0: a487 dc3a e1ac edbc 7867 83bd 4cd5 903d
000001e0: 8370 22be 7cb4 e4bd 4179 c23c 9df4 8e3d
000001f0: 4d44 6e3b 611d e83d 68b1 cb3d f6d5 253e
00000200: d931 803e 70cf 1a3e 27bb b3bb c493 e03d
00000210: 87ad 373e 5fa8 173e 7c42 b1bc 1bc1 143e
00000220: 54d2 2f3e 1748 173e 7ab3 433e 0785 ff3d
00000230: 41ca 673c 1b4a 373d 5bb4 3d3e beb9 133e
00000240: 2350 803d 96d4 8fbd 2dd8 42bd 104e fabc
00000250: 780a e53c a1b3 9cbd f64b ad3c 4cfb 3b3d
00000260: 6230 0a3d 2995 003e 8955 0f3e b04b 913d
00000270: 394d 043e 3079 b63d cba1 133e 4348 493e
00000280: fb61 633c 9ab9 203d eff8 ea3c 49d4 bf3d
00000290: 92e9 e63d 2026 cbbb 63a8 81bd c24f 07bd
000002a0: eb36 4cbc 4312 7d3d ef54 e7bc 7279 d9bd
000002b0: ce09 0d3b 7214 033d a43f fa3d a6f6 c3bd
000002c0: 80e8 c5bc ba52 7cbc 782b 0f3d 597a e93a
000002d0: c760 a73c 95e4 4a3d e119 1b3d b238 cdbc
000002e0: bc29 bd3c 1b7e ef39 8c76 cfbd e247 033d
000002f0: 004b 793c 5653 01bc 918d 0c3d 96dc 313c
00000300: ab43 a83d ca7a a33d 92d2 c93c ce4c 42bd
00000310: 10e9 39bd 240d a8bd 1d4d afbd a6a9 12bd
00000320: 0908 0f3d 91a9 92bd 8434 f2bd 7017 8f3d
00000330: 4290 413d 38ed 643d 8ba9 51bd 4f4d b7bd
00000340: 0ed7 99bd 7b5c a8bc 5bef 933d 29c0 f8bd
00000350: 23b0 01be b0ee 89bd 851e e23c 9470 14be
00000360: 201d 49be f231 e5bd 2e77 c1bd aa06 a2bd
00000370: 1d3e 343d 7aaf efba 4984 d8bd 396e adbd
00000380: a094 ffbd 3351 01bd 4c6a d9bc 338a fb3c
00000390: 378c 7abd 35a0 093d e3a9 24bd fff5 b4bd
000003a0: 3524 c5bc f675 083d 8fea b23c 20e3 5abd
000003b0: e61b d23c a0e5 be3c ebae 1d3c a5d8 7f3a
000003c0: d1a0 123d 2ab9 843d b435 88bd 5479 7cbd
000003d0: d6ed a3bc 5341 8a3d 042d ae3c dee3 9cbd
000003e0: 09be 1fbe 3a14 01be 25dd a13c 7fa1 bbbd
000003f0: f9f8 0e3d 06d4 ff3c 085c 4b3d 5f2f 77bc

cnn.3.bias f4 [32]
-0.26477957 -0.19331014 -0.3557823 -0.28755784 -0.096591294 -0.16663721 -0.055295173 -0.114246406
-0.23174176 -0.15932456 -0.18880033 -0.1958614 -0.25549784 -0.17874557 -0.17385118 -0.08161986
-0.089460455 -0.29265466 -0.18270852 -0.18881331 -0.15517142 -0.14275086 -0.14568786 -0.100783065
-0.22221065 -0.15697779 -0.18397032 -0.016907401 -0.2023888 -0.1636797 -0.03833892 -0.24314709
00000000: 3091 87be 18f3 45be 1929 b6be c83a 93be
00000010: a8d1 c5bd f2a2 2abe 317d 62bd 05fa e9bd
00000020: b64d 6dbe fa25 23be e054 41be e48f 48be
00000030: 9dd0 82be 1409 37be 0b06 32be 5028 a7bd
00000040: 0b37 b7bd d5d6 95be f117 3bbe 4758 41be
00000050: 42e5 1ebe 482d 12be 332f 15be 5a67 cebd
00000060: 308b 63be c9be 20be b762 3cbe 6481 8abc
00000070: 023f 4fbe a79b 27be 4509 1dbd 8dfb 78be

cnn.5.weight f4 [32]
0.81908125 1.1567025 0.79572093 1.2027361 0.9894816 1.0775696 0.92441 0.8852768
1.0268123 0.89881974 1.0632414 0.9667192 0.72817194 0.84358126 0.8018414 0.9984711
0.75353 1.1065369 1.1341072 1.004586 0.78736895 1.1942793 0.9405497 1.0071086
1.0149904 0.7153926 0.95145905 0.9709093 1.0793264 0.98751926 0.949948 0.864513
00000000: 4faf 513f d40e 943f 5eb4 4b3f 42f3 993f
00000010: ab4e 7d3f cded 893f 22a6 6c3f 80a1 623f
00000020: 966e 833f 0d19 663f 4b18 883f e97a 773f
00000030: 7a69 3a3f f1f4 573f 7a45 4d3f cd9b 7f3f
00000040: 58e7 403f 00a3 8d3f 6d2a 913f 4696 803f
00000050: 0391 493f 25de 983f ddc7 703f efe8 803f
00000060: 35eb 813f f823 373f d292 733f 838d 783f
00000070: 5e27 8a3f 10ce 7c3f cb2f 733f b950 5d3f

cnn.5.bias f4 [32]
-0.015429374 0.0828894 0.05729238 -0.0010606677 -0.09727406 -0.02892136 -0.07046772 -0.09140407
-0.03930118 -0.002414983 0.00963965 -0.06325155 0.078739405 -0.032846306 0.10472769 0.094950885
0.092363164 0.054372523 0.009998206 0.17672753 0.018826867 0.123943955 -0.005517046 0.008037606
0.15993059 0.079867296 -0.024772672 0.06915158 0.011041614 -0.08215699 -0.08048063 -0.022127496
00000000: 7ccb 7cbc ebc1 a93d 6aab 6a3d 1a06 8bba
00000010: 9f37 c7bd 7dec ecbc 6151 90bd 0f32 bbbd
00000020: 46fa 20bd b144 1ebb 9fef 1d3c 078a 81bd
00000030: 2042 a13d d989 06bd 797b d63d 9c75 c23d
00000040: e628 bd3d b9b5 5e3d 84cf 233c 10f8 343e
00000050: cd3a 9a3c 54d6 fd3d 56c8 b4bb 2ab0 033c
00000060: d8c4 233e 7791 a33d 0ff0 cabc 589f 8d3d
00000070: e3e7 343c ed41 a8bd 07d3 a4bd b944 b5bc

cnn.5.running_mean f4 [32]
1.7338554 0.12018382 0.27371764 0.32975388 1.0965853 0.27554142 1.1519928 0.18118621
0.2215925 1.2050062 0.19062173 0.4922987 0.5062837 0.48354533 0.8847151 0.59894335
1.8596954 0.13855271 0.12933777 0.83566153 0.49217543 0.3898003 0.42948273 0.3367747
0.30310917 0.5895521 1.1580937 0.6779666 0.16689503 0.40151814 0.835529 1.3047796
00000000: f9ee dd3f ef22 f63d b824 8c3e 80d5 a83e
00000010: e85c 8c3f c413 8d3e 8074 933f e188 393e
00000020: 25e9 623e a53d 9a3f 5832 433e 930e fc3e
00000030: cf9b 013f 4193 f73e b07c 623f 5a54 193f
00000040: 800a ee3f c3e0 0d3e 1f71 043e eaed 553f
00000050: 6bfe fb3e e893 c73e 29e5 db3e bc6d ac3e
00000060: 2031 9b3e e3ec 163f 6a3c 943f 388f 2d3f
00000070: 88e6 2a3e c993 cd3e 3be5 553f 0503 a73f

cnn.5.running_var f4 [32]
12.166115 0.176126 0.73032695 0.47277117 4.7018023 0.43057054 3.7602177 0.20735165
0.30286977 5.237327 0.35207242 0.562091 1.2428924 1.2280183 3.6600268 0.801162
6.1686106 0.22246498 0.16895868 1.3536624 1.4745466 0.76034284 1.2400408 0.64058584
0.8021842 1.8556684 2.2428355 0.97130394 0.31619573 1.1943333 1.3430731 7.7289734
00000000: 68a8 4241 605a 343e b5f6 3a3f 100f f23e
00000010: 2a75 9640 be73 dc3e 68a7 7040 fe53 543e
00000020: bf11 9b3e 2f98 a740 d642 b43e 32e5 0f3f
00000030: 1917 9f3f b42f 9d3f e13d 6a40 f418 4d3f
00000040: 4265 c540 dccd 633e 8103 2d3e cf44 ad3f
00000050: f1bd bc3f d4a5 423f a8b9 9e3f 6ffd 233f
00000060: f25b 4d3f 8b86 ed3f 9e8a 0f40 60a7 783f
00000070: 68e4 a13e eadf 983f d2e9 ab3f c053 f740
