models/optimized-speech_1s.model (torch, 183517 bytes, 78 tensors)

conv1.weight f4 [8, 2, 5, 5]
00000000: 0825 53bd 93e3 573e 7c15 2f3e 4e8b b8bc
00000010: 0126 49be 0334 493e 23a8 6c3e d81d 2b3d
00000020: b69a 9abe 0180 b5be 3410 bc3d 018f 973e
00000030: 6c55 403e 701c 4abe d860 7abd 650f 243e
00000040: f622 903e 52f8 dbbc 9a3f 86be dae8 c3be
00000050: 05dc a43d 6a39 923e b80a 24bd 7a98 bfbe
00000060: 6079 fcbd f492 5f3d 1889 6f3e 9ab8 8b3e
00000070: d42a 77be 3aa6 43be 0672 1a3e 8410 b83e
00000080: 790e 653e 6223 7abe 029e 8abe 8620 b13d
00000090: 0f37 3c3e 485b 833d 14f1 90be 8e85 0dbe
000000a0: 7153 553e b54e 463e 57e4 da3a 3605 dabe
000000b0: fb0e 99be 0d03 c23d 0027 8e3e 3bd0 7f3b
000000c0: 2a23 9dbe 8202 e0bd 3dc1 32bd 532a b3bd
000000d0: bfcf b93e 8511 343d f41f 853e b83b c0bd
000000e0: c757 693d b8a6 c43e b72d bb3d 1a0d 703d
000000f0: 7d41 883e e4ab 013f cc19 7a3e 63b1 df3d
00000100: 7955 4dbd e9a4 80bd 4b3a 1e3d 5f55 8cbe
00000110: f12c b6be 8c99 c3be 3d30 8c3c 6a33 71bd
00000120: 08e1 99be f55a eabe 6242 b2bd 1fb4 523b
00000130: af4d 87bd fced 7b3e a2bc 2f3e ff7a 843e
00000140: 70ad e03d 452c 013e ec8e d33e 6684 2e3e
00000150: 81de c53d e63b d23e cda0 163f 4cf4 f73e
00000160: e7e1 333e 97fc 113d 65f3 183d 32cc 08be
00000170: 60a3 6dbe 785b 01bf e93f 23be d639 6a3d
00000180: 1bbd b8bd 30a5 53be 7137 b5be 6d6b 88bd
00000190: 570f 003e d212 1abc 2f6b e83d a413 c1bd
000001a0: 39a6 733e 0479 83be 7d6c 77be 7891 83be
000001b0: 8cb8 6cbe cd30 02be 5389 b3be b2cb aabd
000001c0: d30e 213e 18b4 853e f94c 243e fbff 8d3d
000001d0: 951f cf3e 5cec a23e a5c1 c13e caa6 963e
000001e0: 04c4 e3bc f16b 93be f9f1 46be 30a1 53be
000001f0: eb92 bebe 858b 783e 47b4 813e 3434 b7bc
00000200: 85cb 9dbd 45a0 4a3d 5780 c1bd 1f2a 8bbe
00000210: 1d9d 98be 511c 9cbe 6ac4 84be f464 a3be
00000220: 919b 41be a5c6 873e 7bd4 b03e 6aa1 603e
00000230: a8cc c73d ffc5 bb3e a1aa 043f 1a0d db3e
00000240: 70bf 543e 8395 e43c cf20 abbe f8ce a9be
00000250: c9cf 88be c50d a8be ac72 9d3e 2657 833e
00000260: afaa 723d 9179 bc3d 6e1d 4c3e 5275 a23d
00000270: 1e06 65bc e9ba 7dbe 606d 33be 8aff 893b
00000280: a987 d63e f12c 683e 9986 593e 7299 3a3e
00000290: 29b5 503e a7e1 e23b 6f33 7cbe ccf1 9bbe
000002a0: b7e8 8abe 8f83 7ebe 3e61 08bf e057 81be
000002b0: 97d9 30bf b6f2 47be e218 ebbe 4e68 903e
000002c0: 231b 9e3e 3acf dc3d 89b1 683e d4df 923e
000002d0: 6bd9 3e3e 1d02 eebd 30c5 97bc e12f 46bd
000002e0: 309b 843d f249 af3e fa9b e73d e4ff e83c
000002f0: c109 1c3e c3de 153e b978 47bc eac1 b5be
00000300: bb15 ebbe 943b 59be 0b95 1dbd e239 fbbe
00000310: 1e2d 1dbf 2e5b 63bf b5f4 cabe 77c0 c7be
00000320: 9e6d 3fbd 7c1a 01be 4c49 babe f8a0 6f3e
00000330: 37d7 a5bc 704b 5abe 2907 94bd b7c9 293e
00000340: 08e5 343f 8712 483e 273b 42be 061b f3bd
00000350: dc21 3b3b b7b1 a13e 7f67 be3c 3194 3a3c
00000360: e92b 3cbc 5e3d a2bd 0dbd 8e3d 4ccf 85be
00000370: 4587 0b3e 490f 6e3d 6770 8bbd e711 50be
00000380: 9d94 5cbe 85bf 9b3d 6728 61bd 5e63 adbe
00000390: bbdc 7a3e 2011 103d f0e2 63be 10e6 11be
000003a0: c20a d6b9 41de 4e3f 4d53 3f3d 6e33 1cbe
000003b0: 4f4f 04be c922 133e 6bd9 b53e 44c1 903d
000003c0: b5cf 1a3e 6e89 a1bd 29cc 0c3d 423c 063d
000003d0: ca49 52be a528 89bd 0add c23d 7e9f c23b
000003e0: 0b87 98be 5091 9cbe 2c19 ffbd fbec 30be
000003f0: 8041 cf3c 6d5c bdbd bdc7 51be 063d 06bd
-0.051548988 0.21082906 0.1709804 -0.022527363 -0.19643404 0.19648747 0.23111014 0.041776508
-0.3019616 -0.35449222 0.09182778 0.2960129 0.18782586 -0.1973741 -0.061127514 0.16021498
0.28151673 -0.026851807 -0.262204 -0.3826359 0.08049778 0.28559428 -0.040049285 -0.37421018
-0.12327838 0.054583505 0.23392141 0.27289277 -0.24137431 -0.19106379 0.15082559 0.359501
0.22368802 -0.2442756 -0.27073675 0.086487815 0.18380378 0.06413895 -0.28308928 -0.13820478
0.20832612 0.19365962 0.0016700131 -0.425821 -0.29894242 0.09473238 0.2776413 0.0039034027
-0.3069089 -0.10937978 -0.043641318 -0.08748307 0.3629131 0.04396202 0.2600094 -0.093863904
0.056968477 0.38408446 0.09139579 0.058606245 0.26612464 0.5065291 0.24423903 0.10922506
-0.05013034 -0.06281454 0.03862981 -0.27408883 -0.35581163 -0.38203084 0.017112846 -0.058886923
-0.30054498 -0.4577252 -0.08704068 0.0032150818 -0.06606614 0.24602503 0.17161801 0.2587509
0.109705806 0.12614544 0.41319978 0.17042693 0.0966158 0.41061324 0.5883911 0.4842857
0.17566644 0.03564128 0.037341494 -0.13359144 -0.23206854 -0.50530195 -0.15942349 0.057184063
-0.09020444 -0.20668483 -0.3539386 -0.06661115 0.12505852 -0.009403901 0.11348569 -0.09427574
0.23793878 -0.25678265 -0.24162479 -0.2569692 -0.23117274 -0.12713929 -0.35065708 -0.08339633
0.15728311 0.26113963 0.16044988 0.0693359 0.40453783 0.31820953 0.37843052 0.29424125
-0.027803428 -0.2879329 -0.19428243 -0.20666957 -0.37221465 0.24271972 0.25332853 -0.02236376
-0.07704834 0.04946925 -0.09448307 -0.27180573 -0.29807368 -0.30490354 -0.25931102 -0.3191296
-0.18907 0.2651874 0.3453711 0.21936575 0.09755832 0.36674497 0.5182286 0.42783433
0.20776153 0.027903324 -0.33423468 -0.33165717 -0.26721027 -0.32823005 0.3075155 0.25652426
0.059244808 0.092028745 0.19933102 0.07932533 -0.013978509 -0.24778332 -0.17522192 0.004211371
0.41900375 0.22673394 0.21242751 0.18222597 0.20381607 0.0069238725 -0.24628995 -0.30457914
-0.27130672 -0.24854873 -0.5327338 -0.25262356 -0.69082016 -0.1952618 -0.45917422 0.28204578
0.3088008 0.10781713 0.22723974 0.28686392 0.18637626 -0.11621497 -0.018526644 -0.048385505
0.06474912 0.34236103 0.11309047 0.02844233 0.15238096 0.14635758 -0.012174779 -0.35499507
-0.45915017 -0.21214134 -0.038472217 -0.490676 -0.6139697 -0.88811004 -0.39639822 -0.39014027
-0.0467354 -0.12607759 -0.36384046 0.23401248 -0.020244224 -0.2131784 -0.07227928 0.16580854
0.70661974 0.19538318 -0.18967877 -0.11870389 0.0028554117 0.31580898 0.02324271 0.011387871
-0.011485078 -0.07921861 0.06969652 -0.26134717 0.1362582 0.058120046 -0.068085484 -0.20319329
-0.21541066 0.07604889 -0.05497017 -0.33864874 0.24498264 0.03517258 -0.22254539 -0.14247918
-0.00040825276 0.8080788 0.0467103 -0.15253994 -0.12920879 0.14368738 0.3551744 0.070681125
0.15118296 -0.07887541 0.03437439 0.03277231 -0.20535961 -0.066972055 0.09514816 0.005939423
-0.2979053 -0.30579615 -0.12455973 -0.17277901 0.025299788 -0.092461444 -0.2048635 -0.03277304

conv1.bias f4 [8]
00000000: 6409 18bf 078a c5be da41 33be c6ad fd3d
00000010: 010c 75bf 48dc 56bd f90a f83e a7ee c4be
-0.5938933 -0.3858187 -0.17505589 0.1238666 -0.9572144 -0.05245617 0.4844587 -0.38463327

bn1.weight f4 [8]
00000000: 5c88 8a3f 2807 863f 80f2 773f e093 7e3f
00000010: 5acb 523f 206a 913f dd80 8e3f 629f 6e3f
1.0822864 1.0470934 0.968544 0.9944439 0.8234154 1.1360512 1.1133076 0.9321195

bn1.bias f4 [8]
00000000: 0931 51be 72d2 bcbd 3887 2d3e 2b29 e73e
00000010: 3b0a 413c 4c9a 9e3e 8384 613e 1df7 923e
-0.20428862 -0.09219827 0.16946113 0.45148596 0.011782224 0.30977094 0.22023205 0.28704157

bn1.running_mean f4 [8]
00000000: 7207 1f3f fe81 343f ca7a 903e adcf be3f
00000010: be56 253e 1b34 1a3f c8b6 4b3f b622 323f
0.62120736 0.7051085 0.2821868 1.4907128 0.16146371 0.60235757 0.7957578 0.69584215

bn1.running_var f4 [8]
00000000: 1002 f13f b622 d03f cd77 b03e 57d8 7840
00000010: bda3 873e 4e71 a43f 830d b63f 85e5 0b40
1.8828754 1.6260593 0.344664 3.8882043 0.2649211 1.2847078 1.4222873 2.1858838

conv2.weight f4 [32, 8, 5, 5]
00000000: 0cd6 27be 71a5 fa3d 8dea 08bf f18b 183e
00000010: 8462 0fbd ebe9 a5be 0dfb 34be dfb4 09bf
00000020: a2d3 723e b6bd bebc 57c7 c7bd 8fee 15be
00000030: 166e b5be 5238 1b3e 24a4 31bd 43a8 4fbe
00000040: 0479 d4bd 812a 0ebf 6be8 083e 2e51 17be
00000050: eee5 5fbe 9f93 e7bd a3ab debe 1d6a a13e
00000060: f5d5 77ba 0d97 d6bd a487 ce3d 19c8 04be
00000070: e30d 803e d5f8 413d 5840 ecbc 8809 dfbd
00000080: 7e21 203c fd27 243e 9579 1f3e 3eb7 22bc
00000090: 54af 483e 814d 4f3e fa5a 003f 9f70 c43e
000000a0: 8743 05be b732 953d 81ad 063e 0ef1 5d3e
000000b0: 19df 4f3e f83b 81bd 9924 09be 96ab 73be
000000c0: eb72 343e 852e 763e 8b6c 27be 5c0a 5bbe
000000d0: 3fa1 55bd 0b76 133d dd16 52bb 5a54 c83c
000000e0: ecd0 ce3d 043e f63c 5831 ae3d dbd8 493e
000000f0: 9962 9bbe d4de fbbd 1623 e3bd 3a6a 99be
00000100: 4750 efbe bc77 9a3e acf4 273f eb8a b43e
00000110: 76ef 1c3f 2f9f 1d3f a5d1 a0be f35a ddbe
00000120: ee7d 89be 1d7a c7be 83c9 c23c bf1d 3c3c
00000130: 552a 403d 81dc 1b3e c0e8 433d 4404 debd
00000140: c0af 80be 67b8 b3be 0f8d 94be 2e70 3dbe
00000150: f226 69be be97 803c 5577 07be 036c 3dbe
00000160: 36d8 5bbe 48c1 6cbe b9a2 03be 74fd 1fbe
00000170: 4a95 2e3c 6788 ff3d 3de3 b53c a022 2abd
00000180: 14a8 7fbe 19dd a0be 71d5 91be eda6 03be
00000190: 808e c83d 9dcd 4fbe 9ada bebb ac84 65bd
000001a0: 4ab1 9ebe 5473 6b3d 6860 bfbe b15e 003c
000001b0: 414b 01be d458 c83d 918c 9c3e 969c e13d
000001c0: a629 d4bd 3ccd 6f3e c5ec d03d 4e8f b03e
000001d0: a771 973d db05 36bc b158 febd b0e7 603e
000001e0: 6695 29bd fc55 323d 16b4 18be 9b91 203d
000001f0: 4a33 293e 63a8 a7be e9d4 ebbe a9f9 26be
00000200: 2063 00be 5e0d a4be ea84 613e b98e 9d3e
00000210: e89c 713e 13ac 043f 04e7 cc3e b8dc c13c
00000220: b8da 81bd 015b e6bd 7b4c 8e3e af76 2d3e
00000230: 7ddd 21be f1d6 ccbe 6c57 dfbe fd99 d6bd
00000240: 1648 a6bd 1e3f 5f3e a61a af3e e6fd 253f
00000250: 1cff f13e c723 cc3e 44df d9bb f4ed ba3d
00000260: 53bd 213e 5186 04bd 1223 75bc e4b7 8fb8
00000270: ad7d 533d 1ff0 833e 11a8 273e deff 85bc
00000280: 6f17 a0bd d14c 953d fdcd 0e3e 6180 213d
00000290: 70b0 653e 747e 98be f102 cbbe f707 04bf
000002a0: 764f d7be 0dc6 5bbe 61a7 a63d a8ea ae3e
000002b0: b3b2 ce3e c0d9 ee3e 7cb2 cf3e b87b dbbc
000002c0: 80ab 3cbf 8e7c d9be 4b45 f1be 09d6 0cbf
000002d0: 0f65 8a3e e29e b9be 208f 95be 8812 febd
000002e0: 4f89 8bbe a057 a23e 6065 2bbe a604 85be
000002f0: 64db a5be bec5 c7bd adc6 4f3e 6178 0dbe
00000300: 5355 c0be 0584 babe 773d 62be 8523 253e
00000310: ecc7 213e 9ba2 6bbe b683 f5bd 3b94 55bd
00000320: f2f8 d3be 47a7 97bd 47ad 26bd 28b0 033f
00000330: 0f14 da3e 73df 83be da62 c93e 3cb6 113e
00000340: 975b 523f 6e79 dd3e 93ee 4ebe 16b0 be3e
00000350: 9100 0a3e bdff 8b3e 1cc5 8e3e b12d f6bc
00000360: 3367 bb3e 39d1 8abd 1229 3f3b 8818 e7bc
00000370: d9f3 db3d 5e9f 8a3e a6a5 92bd d3b3 2abe
00000380: a13c 41be da09 3bbe a3a1 4dbe 2bfe fc3b
00000390: c27b b23e d16c 963e 4045 9bbd eeac ef3e
000003a0: 6955 123f 8284 2f3f 46d7 463e ec07 00bd
000003b0: cd7f 053e 11cc 943e 54c0 d0bc b2f3 2fbe
000003c0: 7ae2 bf3d dce1 b53e 21ea 3f3e b790 b23c
000003d0: 4776 56be cf60 023e da3b b43d 3f82 e8bd
000003e0: d63d 44be a644 7fbe 563e b0bc 1e4a 9f3e
000003f0: 5cf0 b63e 7804 663e e21f 3bbd 29b4 b83e
-0.16390246 0.12238587 -0.53482896 0.14897133 -0.03500606 -0.32405028 -0.17673893 -0.5379161
0.23713544 -0.02328382 -0.09754818 -0.14641784 -0.3543555 0.15158203 -0.043369427 -0.2027903
-0.103746444 -0.55533606 0.1336991 -0.14777061 -0.21865055 -0.11307453 -0.43490323 0.3152627
-0.00094541843 -0.104780294 0.10084465 -0.12966956 0.25010595 0.047356445 -0.028839275 -0.1089049
0.00977361 0.1603088 0.15573724 -0.009931384 0.19598132 0.20244409 0.5013882 0.38367173
-0.13014041 0.07285064 0.13152124 0.21673986 0.20299949 -0.06310266 -0.13392867 -0.23795924
0.17621963 0.24041183 -0.1635 -0.2139067 -0.05215573 0.036001246 -0.0032057085 0.024454284
0.100984424 0.030058868 0.08505505 0.1971163 -0.30348662 -0.122983605 -0.110906765 -0.29963857
-0.46740934 0.30169475 0.65607715 0.35262236 0.6130289 0.6157102 -0.31409946 -0.4323345
-0.2685389 -0.38960353 0.023777729 0.011481701 0.04691537 0.15220834 0.04782939 -0.10840657
-0.25134087 -0.35101625 -0.2901387 -0.18499824 -0.22768763 0.015697356 -0.13229115 -0.18498234
-0.21469197 -0.23120606 -0.12855043 -0.15624028 0.0106557105 0.124771886 0.022203082 -0.041536927
-0.2496646 -0.31418684 -0.28483155 -0.12856646 0.09792805 -0.20293279 -0.005824399 -0.05603473
-0.30994636 0.057483032 -0.3737824 0.007835076 -0.12626363 0.097825676 0.30575994 0.110161945
-0.10359506 0.23418134 0.1020141 0.34484333 0.07394724 -0.0111097945 -0.1241926 0.21963382
-0.041402243 0.043539032 -0.14912447 0.03920136 0.16523471 -0.32745656 -0.46060875 -0.16306175
-0.12537813 -0.32041448 0.22023359 0.3077295 0.23595011 0.51825064 0.4002 0.023664817
-0.063405454 -0.11247826 0.27792725 0.16939805 -0.15807147 -0.40007737 -0.43621385 -0.1047859
-0.08119218 0.21801421 0.3420002 0.64840543 0.47264946 0.39871046 -0.00664893 0.09127417
0.15794878 -0.032354657 -0.014961975 -6.853024e-05 0.051633526 0.25769135 0.16372706 -0.016357359
-0.078169696 0.07290042 0.13945766 0.039429072 0.22430587 -0.29783976 -0.39650682 -0.51574653
-0.4205281 -0.21462269 0.08137394 0.34163404 0.40370712 0.46650505 0.4056586 -0.026792392
-0.7369919 -0.4247784 -0.4712318 -0.5501409 0.27030227 -0.3625403 -0.29210758 -0.12405878
-0.27253196 0.31707478 -0.1673789 -0.2598011 -0.32393944 -0.09754513 0.20290633 -0.13815452
-0.37565097 -0.36428848 -0.2209376 0.16126831 0.1579892 -0.23011248 -0.119880125 -0.052143317
-0.41400868 -0.074049525 -0.040692594 0.5144067 0.42593428 -0.25756416 0.3933323 0.14229673
0.82171005 0.43256706 -0.20208196 0.37243718 0.13476779 0.2734355 0.27884758 -0.030051084
0.36602172 -0.06778187 0.0029168767 -0.02820994 0.107398696 0.27074713 -0.07160501 -0.1667016
-0.18870784 -0.18265477 -0.20081191 0.007720729 0.34860045 0.29379895 -0.07581568 0.46811622
0.57161576 0.68561566 0.19418058 -0.031257555 0.13037033 0.2906194 -0.025482334 -0.17182806
0.09369369 0.3552388 0.18741657 0.021797521 -0.20943557 0.12732242 0.08800478 -0.113529675
-0.19164214 -0.24928531 -0.0215141 0.31111234 0.35730255 0.22462642 -0.045684703 0.3607495

conv2.bias f4 [32]
00000000: db0b b6be 220e 60bf 1d81 5dbf 88d1 9ebe
00000010: 5370 a6be bc16 23bf 3368 8dbf ff9c 8fbe
00000020: 3ca2 b5be d218 07bf abb4 b13d b1a1 09bf
00000030: 2b1c a2be 5c05 2dbf f7a4 a5be abda bcbe
00000040: b914 0abf 71d2 5dbe 7ebf 2dbe 4e63 5ebe
00000050: 0ee2 0dbf d2da 60be 532f 1bbf 66c2 163f
00000060: 8271 11bf d1ac a43e a41c 36bf 414b 2bbc
00000070: 597b 9fbe 0460 3fbf 1ae7 9fbe 26df e2be
-0.3555592 -0.87521565 -0.86525136 -0.31019235 -0.32507572 -0.63706565 -1.1047424 -0.28049466
-0.35475338 -0.5277225 0.08677038 -0.53762347 -0.31662115 -0.675863 -0.3235242 -0.3688558
-0.5393787 -0.21662308 -0.1696758 -0.21717569 -0.5542306 -0.21958473 -0.60619086 0.5889038
-0.56813824 0.32163098 -0.7113745 -0.010454954 -0.31148794 -0.74755883 -0.31231004 -0.44310874

bn2.weight f4 [32]
00000000: fa3f 993f 87ce ab3f bcfa 8a3f 44ed 663f
00000010: cb89 843f b530 b13f d5fc 9c3f e0cd 663f
00000020: cc31 803f cd7e b53f e354 1b3f a438 8d3f
00000030: e033 823f 97fc a03f 9407 813f 94a1 173f
00000040: 7edb 8a3f 0b09 6a3f 6cb0 9c3f 0777 883f
00000050: b82c 8d3f 5d36 713f 12ca 9f3f 26bd 8b3f
00000060: 53db 403f d64a 863f a42b 9b3f 851f a33f
00000070: 49a6 833f 97f3 243f b241 443f 7434 0f3f
1.1972649 1.3422402 1.0857768 0.9020579 1.0354551 1.3842989 1.2264658 0.9015789
1.0015197 1.4179322 0.606764 1.103291 1.0172081 1.2577084 1.0080438 0.59230924
1.0848234 0.9142005 1.224134 1.0661324 1.1029272 0.94223577 1.2483542 1.0917099
0.7533466 1.0491588 1.2122693 1.2743994 1.0285121 0.6443419 0.76662743 0.5593941

bn2.bias f4 [32]
00000000: cec7 763e 5e20 17be 148e 0abd 4f70 413d
00000010: 0958 0fbf 18e5 debe 526e f13d e255 853d
00000020: 902c 76bd d6c0 b63e 08b2 bdbc 3395 65be
00000030: 1e8a 8bbd 3cb2 a0bd 9335 8e3d 07e0 37be
00000040: 7ccf aabd dad9 3e3e 9799 18bc cce1 74be
00000050: 7cc2 9b3e 3c61 103e e3ad 013f b660 633c
00000060: fbd5 a6be adcf ccbd 199c 10bf 0661 01be
00000070: 84f7 c53e 0d0f 923e b997 bfbd e89d 58bd
0.24099657 -0.14758441 -0.033826903 0.047226246 -0.55993706 -0.4353416 0.1178862 0.065105215
-0.06010109 0.35693997 -0.023156181 -0.22420196 -0.06813453 -0.078464955 0.06943812 -0.17956553
-0.08340356 0.18637791 -0.009313962 -0.2391426 0.30421817 0.14099592 0.50655955 0.013878038
-0.3258513 -0.100005485 -0.56488186 -0.12634668 0.38665402 0.28527108 -0.09355111 -0.052884966

bn2.running_mean f4 [32]
00000000: 96d4 cf3f 9de0 b53f 798a c63f 4cf0 a53f
00000010: 2724 813f 08f8 4e3f 755f 323f 809a f03f
00000020: e46b a03f dcf6 a13f 362d 9240 d079 4f40
00000030: d6f2 ca3f f98d 7c3f 1bc3 9d3f 3a09 1f40
00000040: 9c68 c63f b384 5440 031f 843f a6fd c03f
00000050: 85d5 1640 e1b7 1c40 6504 793f f34c e23f
00000060: 7f15 833f 722b 2140 2559 b83f fda8 1440
00000070: 5119 0640 54a9 d03f 1c66 1e40 ae02 5e3f
1.6236751 1.4209172 1.5511009 1.2963958 1.0089158 0.80847216 0.69676906 1.879715
1.2532926 1.265346 4.568019 3.2418098 1.5855358 0.98654133 1.2325166 2.4849381
1.5500674 3.3205993 1.0321964 1.5077407 2.3567822 2.448723 0.9727233 1.7679733
1.0240935 2.5182767 1.4402205 2.3228142 2.0952952 1.6301675 2.4749823 0.8672284

bn2.running_var f4 [32]
00000000: 7ee8 3d41 1501 2c41 2ad9 5c41 d7e7 9240
00000010: bea4 8240 b044 7c40 b70b 9640 8bcb 2641
00000020: 2c6a be40 7971 ff40 3b35 c341 6a07 8a41
00000030: e493 af40 2ba6 ab40 85c9 b140 ea68 5541
00000040: 5f23 f840 69f9 c341 f0f0 c540 a06f ab40
00000050: fb5a 5641 2a6d 2041 752d b740 6431 d540
00000060: 599a 0a41 7e67 5141 d3e1 2741 4b59 8c41
00000070: 4b42 1241 7a10 2741 567b 8941 ab77 b540
11.869261 10.750264 13.803019 4.590801 4.08261 3.9416924 4.68893 10.424693
5.9504604 7.9826016 24.400991 17.25362 5.486803 5.364034 5.5558496 13.338114
7.7543178 24.496782 6.1856613 5.357376 13.397212 10.026651 5.724299 6.662279
8.662683 13.087767 10.492633 17.5436 9.141185 10.441523 17.185223 5.670858

conv3.weight f4 [32, 32, 5, 5]
00000000: 1969 d43d c296 de3d a792 17bd eefd 81bd
00000010: 2116 22bd fbad b7bc 471f 8a3a b89b 3a3d
00000020: fbda fbbd f286 aabd cd8a fa3d 809c a43c
00000030: 9dad 94bc 1b91 36bd 22dc 633e 18fa e03d
00000040: 16f7 ed3c 7c32 bdbc 0171 823b 43eb 72bd
00000050: 5246 cd3e 0aa2 b13e b45c 8a3e 507e 6c3e
00000060: 3565 0f3e b30a 913e 36f2 debd 5ed6 debe
00000070: dcd6 16be eb2f 3abf 10d1 cb3d 28c7 21bd
00000080: fbb1 50be a180 63be 3c98 ddbe 2adc 203e
00000090: 38a9 0ebe e4ed f6bd b7ec 513d dc20 36be
000000a0: 7406 a43e 926d 203d 769e 093e 4a04 633e
000000b0: cd74 873c fb00 0cbe 1d7d fd3c 9d45 8dbd
000000c0: 725a 5d3d f541 173b ee4e 953e d94a bc3d
000000d0: 1588 2b3e 8c9f 22be 60e3 83be 86dc 2f3d
000000e0: 62be 013e d2fd af3d e18f 1cbd 9ee2 63be
000000f0: 5e1d 773e c688 9e3e 58f9 133e be4b 603e
00000100: 36f4 10be 0733 9f3e ef31 413d 2512 93bd
00000110: b430 8bbe 0d62 87be b02d 263e ed9e 753e
00000120: 0579 d13b 3cff d73d aadf cabc 08e9 78be
00000130: a4f9 453c 43c0 dfbd 39fb a0be 82fe 8bbe
00000140: 180e 6bbe d217 943d 9bff a7bd 91c0 aebe
00000150: 6ae3 c5bd ace2 873e cdb3 a43e bb7f 973e
00000160: 5c5d 5d3e 3ba1 dc3e 13d2 813e 1ec5 523e
00000170: 5964 7f3e c9f5 a03e fd40 853e 1280 1c3d
00000180: 417e 533e 2494 c73d 3490 673e d6e7 31bd
00000190: 7a59 c7bd 9419 d83d b6e7 e03e 291d af3e
000001a0: 722b a13e 9662 60be 944d adbe d45f 0c3e
000001b0: 6d4f 273e ca54 0fbd e0c7 d5be 5170 8fbe
000001c0: eeba 62bd 1b04 68be 7133 8fbc aa6a e53d
000001d0: 39f5 233d a0c3 aebe 4daa c6be ff00 92bd
000001e0: 1941 4abe 5d91 8dbe c790 aebe 174b afbe
000001f0: 5bba 54bc ae3d 3b3e 5d1c 463e d9ce 41be
00000200: 8760 3dbe 5aaa d53c ca67 303d a445 7c3d
00000210: 9e49 1dbc 5fb5 013e 1999 2c3e cd79 a4be
00000220: 7c31 72be 127c fe3c 0b9c 28be 8c5d f33d
00000230: 8f71 5a3e 4b90 4dbe 9a4d 8dbe 47a4 b0be
00000240: 5e52 dfbe 8218 923e 9165 f33c ac6a 8bbd
00000250: f033 cc3d d612 083e 5ca8 bb3d 4c3c 9abe
00000260: 6f4a 36be 1ee8 98bd 18fe 3ebe e63c f03d
00000270: fabb 4ebe f204 d5be 384f 22bc c9d1 c8be
00000280: 122d d13d a819 5d3e c598 61be 773c 3c3e
00000290: f060 16bf 1047 cc3e 35ce 793e 0a73 e43e
000002a0: acb1 233f a02f d63e 9e34 64bd 5067 a2be
000002b0: 90eb babc 377f b0bc 78dc 7a3e 16f7 043f
000002c0: d72d d6bd 88ed 59be ced3 9c3d 28ba 1fbf
000002d0: 695c a53e d442 3abe 19ec 81be 4e24 a4be
000002e0: 6505 d1be ad85 ecbd 44bf b33b b6ad ddbe
000002f0: 4170 26be c8cd d9be 164f c53e ea3f c23e
00000300: 7f02 3f3e f2ed a73e d7af cc3e c869 333e
00000310: b705 25bc 15c8 94bd b258 913e 1970 6b3e
00000320: 5030 1b3e 156f e83d e29b 2f3e 1e3a 01bf
00000330: 080b 8abd 1e35 08be 21c0 993c 296a febd
00000340: 510e a4be f5ed 7e3d 2d78 90bc 7591 da3d
00000350: da52 04be 7c45 d9be a9fa 0ebd da42 673e
00000360: 7036 09be 3768 0fbe e121 debe 8019 a9be
00000370: 104e fbbc b89b cdbc 3d53 6cbd 73c9 a13e
00000380: 26a4 303e e505 533e a7b3 8b3d e4a4 59be
00000390: a970 77be 97e4 fabe f17f 9ebe 6155 543e
000003a0: 9399 7c3e a884 253e 9678 b7bd 40b7 623e
000003b0: 1d17 ae3d 4155 e63d be80 6cbe 8954 bf3e
000003c0: 3c07 8b3e dbe2 5a3e 5114 733d a640 bc3d
000003d0: 73e2 f53e f7cd fe3e 56bb d73e ff7e 063f
000003e0: a334 dc3d 398c c13e 9798 e63d 2137 00be
000003f0: f6cc a6bd eedc 5a3e 88b8 9c3e eed7 703d
0.10371608 0.108685985 -0.037005093 -0.06347261 -0.039571885 -0.022421828 0.0010537886 0.04555866
-0.122976266 -0.0832652 0.122335054 0.020094156 -0.018149192 -0.044571977 0.22251943 0.109852016
0.029048484 -0.023095362 0.0039807563 -0.059306394 0.40092713 0.34693938 0.27023852 0.2309506
0.14003451 0.28328475 -0.10886042 -0.43522924 -0.147304 -0.72729367 0.09951985 -0.03949657
-0.20380394 -0.22217037 -0.43280208 0.15708986 -0.1393174 -0.12057093 0.05125114 -0.17785972
0.32036173 0.039166994 0.13439354 0.22169605 0.016535187 -0.13672249 0.030943448 -0.06898043
0.054041333 0.0023080085 0.2916178 0.091939636 0.1675113 -0.15881175 -0.2575941 0.042934917
0.12670282 0.08593334 -0.03822315 -0.22254416 0.24132296 0.30963725 0.14450586 0.21903893
-0.14155659 0.31093618 0.04716676 -0.07181195 -0.27185595 -0.26441994 0.16228366 0.23986407
0.0063926005 0.10546729 -0.024764854 -0.24307644 0.012083445 -0.10925343 -0.31441668 -0.27342612
-0.22954595 0.07231106 -0.0820305 -0.34131292 -0.096625164 0.26540124 0.32168427 0.29589638
0.21617645 0.4309176 0.25355586 0.20583007 0.24940623 0.3143752 0.26026145 0.038208075
0.20653631 0.097450525 0.22613603 -0.043433987 -0.09733863 0.10551754 0.4392678 0.34201935
0.3147846 -0.21912608 -0.3384825 0.1370843 0.16338892 -0.03499297 -0.41754055 -0.28015378
-0.05535405 -0.22657816 -0.017480584 0.11201985 0.040028784 -0.34133625 -0.38801804 -0.07129096
-0.19751395 -0.27649966 -0.3409483 -0.34236977 -0.012983884 0.18285248 0.19346757 -0.18926562
-0.18493854 0.026082207 0.04306773 0.061589852 -0.009600071 0.12666844 0.16855277 -0.32124177
-0.2365169 0.03106502 -0.16465776 0.11883077 0.21332382 -0.20074575 -0.27598268 -0.34500334
-0.4361753 0.28534323 0.029711517 -0.068074554 0.09970844 0.13288435 0.091629714 -0.30124128
-0.17801832 -0.07466148 -0.18651617 0.117303655 -0.20188895 -0.41605335 -0.0099065825 -0.39222553
0.102136746 0.21591818 -0.22030933 0.1838244 -0.58741665 0.39897966 0.24395068 0.44619018
0.6394298 0.4183321 -0.055714242 -0.31719446 -0.022817403 -0.021545036 0.24498165 0.51939523
-0.10457962 -0.21282017 0.07657586 -0.62393427 0.32297066 -0.18189555 -0.2537544 -0.32058948
-0.40824428 -0.11548934 0.005485447 -0.43296593 -0.16253759 -0.4253981 0.385369 0.37939388
0.18653296 0.32798725 0.39977905 0.17520821 -0.010072163 -0.07264725 0.28387982 0.2299198
0.15155149 0.11349312 0.17149308 -0.50479305 -0.06740385 -0.13301513 0.018768372 -0.12422592
-0.32042173 0.062238652 -0.01763543 0.10672275 -0.1292223 -0.42435825 -0.034907017 0.22584096
-0.13399673 -0.14004599 -0.43385223 -0.33027267 -0.030676872 -0.025098667 -0.05769657 0.31599006
0.17250118 0.20607717 0.06821375 -0.21254307 -0.2416407 -0.49002525 -0.30956987 0.20735694
0.24667959 0.16163886 -0.08958547 0.22140217 0.08500502 0.1124673 -0.23095986 0.37369183
0.27153957 0.21375601 0.059345547 0.09192018 0.4802433 0.49766514 0.42135113 0.5253753
0.10752227 0.37802294 0.11259573 -0.1252103 -0.08144562 0.2137334 0.30609536 0.058799677

conv3.bias f4 [32]
00000000: eee5 df3e f0ed 143f f293 0d3f 464c e23e
00000010: 2129 a53e 833a a43e cac0 1f3e 262e 013e
00000020: c4bb d33e 611a 6bbd f34a f6bd 27d3 d73d
00000030: 91e9 463e 2430 9c3e bcdd aabb 4c76 b7be
00000040: 52af e13e bf95 25bf 69f9 be3d e4f1 733e
00000050: 9370 143d 5cc0 3ebd b7fc 743e 7f4f ebbd
00000060: 2174 c93d 5909 84be e41c 1fbe a742 043d
00000070: 4f9e 5b3e cc83 373e 4ad6 963e d970 1cbd
0.4373011 0.58175564 0.5530387 0.44198817 0.3225794 0.3207589 0.15600887 0.1261526
0.4135419 -0.057398204 -0.12026014 0.10538321 0.19425036 0.30505478 -0.005214421 -0.3583244
0.4407907 -0.6468162 0.09324915 0.23822743 0.03624017 -0.046570167 0.23924528 -0.11489772
0.09836603 -0.25788382 -0.15538365 0.032290127 0.21447109 0.1792137 0.29460365 -0.038193557

bn3.weight f4 [32]
00000000: f05e 2e3f fea4 693f 451c 783f 6bbb 483f
00000010: 12ee 6d3f cecc ad3f 9c82 933f 5a82 613f
00000020: 7c03 1a3f 7a93 733f fdb9 3b3f 8043 6a3f
00000030: 1892 cb3f 2ee4 873f 5a7c b53f 196b 863f
00000040: 25de 5b3f b5e3 503f 4794 6c3f 70fb a83f
00000050: 39f1 c13f 5cc7 a63f ffc8 9c3f d157 b03f
00000060: 896b 843f dca9 693f 1e9c 9a3f 89b6 ba3f
00000070: b35f da3f 3c50 a03f e125 9d3f e081 463f
0.68113613 0.91267383 0.96918136 0.7841098 0.9294139 1.3578126 1.1524234 0.88089526
0.60161567 0.95146906 0.7333067 0.91509247 1.5903959 1.061651 1.4178574 1.0501434
0.8588584 0.81597453 0.92413753 1.3201733 1.515174 1.302959 1.2248839 1.37768
1.0345317 0.9127481 1.2078893 1.4586955 1.7060455 1.2524486 1.2277185 0.77541924

bn3.bias f4 [32]
00000000: cc8d 58bd 00c2 35be 09b7 473e 157a ff3d
00000010: 0760 0f3d 006b 363e 8952 b93d 4fd2 c23d
00000020: eaad 253e f1e1 e8bd 828a 573e 1ae2 4e3e
00000030: 1bd6 b73c 073e cc3e ab85 5c3e c5fe 9d3e
00000040: 7ac3 243e 6df4 afbe 526b 7f3e b754 323e
00000050: 1d11 67bd f1cc babd f16e eebd f994 e83d
00000060: 946f 30bd f569 27bf 008c 943c 1358 513d
00000070: 6e1b 543d beff 61be 71cc a03d 5a98 063e
-0.052869603 -0.17749786 0.19503416 0.12474457 0.03500369 0.17814255 0.090489455 0.095127694
0.16179624 -0.1137122 0.2104893 0.20203438 0.02244096 0.39891073 0.21535365 0.30858436
0.16090193 -0.3436617 0.24943283 0.17415129 -0.056412805 -0.09121121 -0.11642254 0.11356539
-0.04307516 -0.6539605 0.018133163 0.051109385 0.05178397 -0.22070214 0.07851494 0.13144055

bn3.running_mean f4 [32]
00000000: ad9b fb40 fd9b 4241 a938 cd40 7f48 5841
00000010: 7adf e440 d804 c140 a29f 1941 8f82 0041
00000020: bb7e 6f41 dbe9 c840 971e 1241 73b3 3941
00000030: 553a 2b41 82ee 6041 407c 2241 ffee 6940
00000040: 2a72 5341 7c5c 8440 b454 3441 3a22 3b41
00000050: 4e8e 1541 735d e540 9ada 1f41 51d8 7640
00000060: 1d08 0541 b5ce 1540 a2b7 7c40 7912 1941
00000070: fd9f 2541 d327 0441 1ab1 3041 c89a 0441
7.8627534 12.163083 6.4131665 13.517699 7.15228 6.0318413 9.601473 8.031875
14.96844 6.278547 9.132468 11.606311 10.701741 14.058229 10.155334 3.6552122
13.215372 4.1362896 11.270679 11.695856 9.347242 7.1676574 9.9908695 3.856953
8.314481 2.3407414 3.948708 9.56701 10.35156 8.259723 11.043238 8.287788

bn3.running_var f4 [32]
00000000: b98f a542 9a5d 0343 1d56 9642 61c4 2d43
00000010: b92d 9442 0eac aa42 8549 0a43 d4a5 0a43
00000020: cd7f 4243 1181 7a42 f6b3 fe42 fa2e 6143
00000030: 9a8c 2143 552a 3243 f5aa 0d43 aa71 e741
00000040: 2f6c 1c43 51a1 a042 2c1e ff42 9081 ec42
00000050: 3822 be42 a499 9f42 9526 2543 68fc 4142
00000060: bb3e 8742 d8f0 0642 b8f1 5542 aadf ca42
00000070: 9b49 b642 78df c842 9808 0243 b723 cd42
82.78071 131.36563 75.16819 173.7671 74.0893 85.336044 138.28719 138.64777
194.49922 62.62604 127.35149 225.1835 161.54922 178.16536 141.6678 28.9305
156.42259 80.31507 127.55893 118.25305 95.06683 79.80008 165.15071 48.49649
67.62252 33.7352 53.486053 101.436844 91.14376 100.43646 130.03357 102.569756

cnn.0.weight f4 [8, 2, 5, 5]
00000000: 0825 53bd 93e3 573e 7c15 2f3e 4e8b b8bc
00000010: 0126 49be 0334 493e 23a8 6c3e d81d 2b3d
00000020: b69a 9abe 0180 b5be 3410 bc3d 018f 973e
00000030: 6c55 403e 701c 4abe d860 7abd 650f 243e
00000040: f622 903e 52f8 dbbc 9a3f 86be dae8 c3be
00000050: 05dc a43d 6a39 923e b80a 24bd 7a98 bfbe
00000060: 6079 fcbd f492 5f3d 1889 6f3e 9ab8 8b3e
00000070: d42a 77be 3aa6 43be 0672 1a3e 8410 b83e
00000080: 790e 653e 6223 7abe 029e 8abe 8620 b13d
00000090: 0f37 3c3e 485b 833d 14f1 90be 8e85 0dbe
000000a0: 7153 553e b54e 463e 57e4 da3a 3605 dabe
000000b0: fb0e 99be 0d03 c23d 0027 8e3e 3bd0 7f3b
000000c0: 2a23 9dbe 8202 e0bd 3dc1 32bd 532a b3bd
000000d0: bfcf b93e 8511 343d f41f 853e b83b c0bd
000000e0: c757 693d b8a6 c43e b72d bb3d 1a0d 703d
000000f0: 7d41 883e e4ab 013f cc19 7a3e 63b1 df3d
00000100: 7955 4dbd e9a4 80bd 4b3a 1e3d 5f55 8cbe
00000110: f12c b6be 8c99 c3be 3d30 8c3c 6a33 71bd
00000120: 08e1 99be f55a eabe 6242 b2bd 1fb4 523b
00000130: af4d 87bd fced 7b3e a2bc 2f3e ff7a 843e
00000140: 70ad e03d 452c 013e ec8e d33e 6684 2e3e
00000150: 81de c53d e63b d23e cda0 163f 4cf4 f73e
00000160: e7e1 333e 97fc 113d 65f3 183d 32cc 08be
00000170: 60a3 6dbe 785b 01bf e93f 23be d639 6a3d
00000180: 1bbd b8bd 30a5 53be 7137 b5be 6d6b 88bd
00000190: 570f 003e d212 1abc 2f6b e83d a413 c1bd
000001a0: 39a6 733e 0479 83be 7d6c 77be 7891 83be
000001b0: 8cb8 6cbe cd30 02be 5389 b3be b2cb aabd
000001c0: d30e 213e 18b4 853e f94c 243e fbff 8d3d
000001d0: 951f cf3e 5cec a23e a5c1 c13e caa6 963e
000001e0: 04c4 e3bc f16b 93be f9f1 46be 30a1 53be
000001f0: eb92 bebe 858b 783e 47b4 813e 3434 b7bc
00000200: 85cb 9dbd 45a0 4a3d 5780 c1bd 1f2a 8bbe
00000210: 1d9d 98be 511c 9cbe 6ac4 84be f464 a3be
00000220: 919b 41be a5c6 873e 7bd4 b03e 6aa1 603e
00000230: a8cc c73d ffc5 bb3e a1aa 043f 1a0d db3e
00000240: 70bf 543e 8395 e43c cf20 abbe f8ce a9be
00000250: c9cf 88be c50d a8be ac72 9d3e 2657 833e
00000260: afaa 723d 9179 bc3d 6e1d 4c3e 5275 a23d
00000270: 1e06 65bc e9ba 7dbe 606d 33be 8aff 893b
00000280: a987 d63e f12c 683e 9986 593e 7299 3a3e
00000290: 29b5 503e a7e1 e23b 6f33 7cbe ccf1 9bbe
000002a0: b7e8 8abe 8f83 7ebe 3e61 08bf e057 81be
000002b0: 97d9 30bf b6f2 47be e218 ebbe 4e68 903e
000002c0: 231b 9e3e 3acf dc3d 89b1 683e d4df 923e
000002d0: 6bd9 3e3e 1d02 eebd 30c5 97bc e12f 46bd
000002e0: 309b 843d f249 af3e fa9b e73d e4ff e83c
000002f0: c109 1c3e c3de 153e b978 47bc eac1 b5be
00000300: bb15 ebbe 943b 59be 0b95 1dbd e239 fbbe
00000310: 1e2d 1dbf 2e5b 63bf b5f4 cabe 77c0 c7be
00000320: 9e6d 3fbd 7c1a 01be 4c49 babe f8a0 6f3e
00000330: 37d7 a5bc 704b 5abe 2907 94bd b7c9 293e
00000340: 08e5 343f 8712 483e 273b 42be 061b f3bd
00000350: dc21 3b3b b7b1 a13e 7f67 be3c 3194 3a3c
00000360: e92b 3cbc 5e3d a2bd 0dbd 8e3d 4ccf 85be
00000370: 4587 0b3e 490f 6e3d 6770 8bbd e711 50be
00000380: 9d94 5cbe 85bf 9b3d 6728 61bd 5e63 adbe
00000390: bbdc 7a3e 2011 103d f0e2 63be 10e6 11be
000003a0: c20a d6b9 41de 4e3f 4d53 3f3d 6e33 1cbe
000003b0: 4f4f 04be c922 133e 6bd9 b53e 44c1 903d
000003c0: b5cf 1a3e 6e89 a1bd 29cc 0c3d 423c 063d
000003d0: ca49 52be a528 89bd 0add c23d 7e9f c23b
000003e0: 0b87 98be 5091 9cbe 2c19 ffbd fbec 30be
000003f0: 8041 cf3c 6d5c bdbd bdc7 51be 063d 06bd
-0.051548988 0.21082906 0.1709804 -0.022527363 -0.19643404 0.19648747 0.23111014 0.041776508
-0.3019616 -0.35449222 0.09182778 0.2960129 0.18782586 -0.1973741 -0.061127514 0.16021498
0.28151673 -0.026851807 -0.262204 -0.3826359 0.08049778 0.28559428 -0.040049285 -0.37421018
-0.12327838 0.054583505 0.23392141 0.27289277 -0.24137431 -0.19106379 0.15082559 0.359501
0.22368802 -0.2442756 -0.27073675 0.086487815 0.18380378 0.06413895 -0.28308928 -0.13820478
0.20832612 0.19365962 0.0016700131 -0.425821 -0.29894242 0.09473238 0.2776413 0.0039034027
-0.3069089 -0.10937978 -0.043641318 -0.08748307 0.3629131 0.04396202 0.2600094 -0.093863904
0.056968477 0.38408446 0.09139579 0.058606245 0.26612464 0.5065291 0.24423903 0.10922506
-0.05013034 -0.06281454 0.03862981 -0.27408883 -0.35581163 -0.38203084 0.017112846 -0.058886923
-0.30054498 -0.4577252 -0.08704068 0.0032150818 -0.06606614 0.24602503 0.17161801 0.2587509
0.109705806 0.12614544 0.41319978 0.17042693 0.0966158 0.41061324 0.5883911 0.4842857
0.17566644 0.03564128 0.037341494 -0.13359144 -0.23206854 -0.50530195 -0.15942349 0.057184063
-0.09020444 -0.20668483 -0.3539386 -0.06661115 0.12505852 -0.009403901 0.11348569 -0.09427574
0.23793878 -0.25678265 -0.24162479 -0.2569692 -0.23117274 -0.12713929 -0.35065708 -0.08339633
0.15728311 0.26113963 0.16044988 0.0693359 0.40453783 0.31820953 0.37843052 0.29424125
-0.027803428 -0.2879329 -0.19428243 -0.20666957 -0.37221465 0.24271972 0.25332853 -0.02236376
-0.07704834 0.04946925 -0.09448307 -0.27180573 -0.29807368 -0.30490354 -0.25931102 -0.3191296
-0.18907 0.2651874 0.3453711 0.21936575 0.09755832 0.36674497 0.5182286 0.42783433
0.20776153 0.027903324 -0.33423468 -0.33165717 -0.26721027 -0.32823005 0.3075155 0.25652426
0.059244808 0.092028745 0.19933102 0.07932533 -0.013978509 -0.24778332 -0.17522192 0.004211371
0.41900375 0.22673394 0.21242751 0.18222597 0.20381607 0.0069238725 -0.24628995 -0.30457914
-0.27130672 -0.24854873 -0.5327338 -0.25262356 -0.69082016 -0.1952618 -0.45917422 0.28204578
0.3088008 0.10781713 0.22723974 0.28686392 0.18637626 -0.11621497 -0.018526644 -0.048385505
0.06474912 0.34236103 0.11309047 0.02844233 0.15238096 0.14635758 -0.012174779 -0.35499507
-0.45915017 -0.21214134 -0.038472217 -0.490676 -0.6139697 -0.88811004 -0.39639822 -0.39014027
-0.0467354 -0.12607759 -0.36384046 0.23401248 -0.020244224 -0.2131784 -0.07227928 0.16580854
0.70661974 0.19538318 -0.18967877 -0.11870389 0.0028554117 0.31580898 0.02324271 0.011387871
-0.011485078 -0.07921861 0.06969652 -0.26134717 0.1362582 0.058120046 -0.068085484 -0.20319329
-0.21541066 0.07604889 -0.05497017 -0.33864874 0.24498264 0.03517258 -0.22254539 -0.14247918
-0.00040825276 0.8080788 0.0467103 -0.15253994 -0.12920879 0.14368738 0.3551744 0.070681125
0.15118296 -0.07887541 0.03437439 0.03277231 -0.20535961 -0.066972055 0.09514816 0.005939423
-0.2979053 -0.30579615 -0.12455973 -0.17277901 0.025299788 -0.092461444 -0.2048635 -0.03277304

cnn.0.bias f4 [8]
00000000: 6409 18bf 078a c5be da41 33be c6ad fd3d
00000010: 010c 75bf 48dc 56bd f90a f83e a7ee c4be
-0.5938933 -0.3858187 -0.17505589 0.1238666 -0.9572144 -0.05245617 0.4844587 -0.38463327

cnn.2.weight f4 [8]
00000000: 5c88 8a3f 2807 863f 80f2 773f e093 7e3f
00000010: 5acb 523f 206a 913f dd80 8e3f 629f 6e3f
1.0822864 1.0470934 0.968544 0.9944439 0.8234154 1.1360512 1.1133076 0.9321195

cnn.2.bias f4 [8]
00000000: 0931 51be 72d2 bcbd 3887 2d3e 2b29 e73e
00000010: 3b0a 413c 4c9a 9e3e 8384 613e 1df7 923e
-0.20428862 -0.09219827 0.16946113 0.45148596 0.011782224 0.30977094 0.22023205 0.28704157

cnn.2.running_mean f4 [8]
00000000: 7207 1f3f fe81 343f ca7a 903e adcf be3f
00000010: be56 253e 1b34 1a3f c8b6 4b3f b622 323f
0.62120736 0.7051085 0.2821868 1.4907128 0.16146371 0.60235757 0.7957578 0.69584215

cnn.2.running_var f4 [8]
00000000: 1002 f13f b622 d03f cd77 b03e 57d8 7840
00000010: bda3 873e 4e71 a43f 830d b63f 85e5 0b40
1.8828754 1.6260593 0.344664 3.8882043 0.2649211 1.2847078 1.4222873 2.1858838

cnn.3.weight f4 [32, 8, 5, 5]
00000000: 0cd6 27be 71a5 fa3d 8dea 08bf f18b 183e
00000010: 8462 0fbd ebe9 a5be 0dfb 34be dfb4 09bf
00000020: a2d3 723e b6bd bebc 57c7 c7bd 8fee 15be
00000030: 166e b5be 5238 1b3e 24a4 31bd 43a8 4fbe
00000040: 0479 d4bd 812a 0ebf 6be8 083e 2e51 17be
00000050: eee5 5fbe 9f93 e7bd a3ab debe 1d6a a13e
00000060: f5d5 77ba 0d97 d6bd a487 ce3d 19c8 04be
00000070: e30d 803e d5f8 413d 5840 ecbc 8809 dfbd
00000080: 7e21 203c fd27 243e 9579 1f3e 3eb7 22bc
00000090: 54af 483e 814d 4f3e fa5a 003f 9f70 c43e
000000a0: 8743 05be b732 953d 81ad 063e 0ef1 5d3e
000000b0: 19df 4f3e f83b 81bd 9924 09be 96ab 73be
000000c0: eb72 343e 852e 763e 8b6c 27be 5c0a 5bbe
000000d0: 3fa1 55bd 0b76 133d dd16 52bb 5a54 c83c
000000e0: ecd0 ce3d 043e f63c 5831 ae3d dbd8 493e
000000f0: 9962 9bbe d4de fbbd 1623 e3bd 3a6a 99be
00000100: 4750 efbe bc77 9a3e acf4 273f eb8a b43e
00000110: 76ef 1c3f 2f9f 1d3f a5d1 a0be f35a ddbe
00000120: ee7d 89be 1d7a c7be 83c9 c23c bf1d 3c3c
00000130: 552a 403d 81dc 1b3e c0e8 433d 4404 debd
00000140: c0af 80be 67b8 b3be 0f8d 94be 2e70 3dbe
00000150: f226 69be be97 803c 5577 07be 036c 3dbe
00000160: 36d8 5bbe 48c1 6cbe b9a2 03be 74fd 1fbe
00000170: 4a95 2e3c 6788 ff3d 3de3 b53c a022 2abd
00000180: 14a8 7fbe 19dd a0be 71d5 91be eda6 03be
00000190: 808e c83d 9dcd 4fbe 9ada bebb ac84 65bd
000001a0: 4ab1 9ebe 5473 6b3d 6860 bfbe b15e 003c
000001b0: 414b 01be d458 c83d 918c 9c3e 969c e13d
000001c0: a629 d4bd 3ccd 6f3e c5ec d03d 4e8f b03e
000001d0: a771 973d db05 36bc b158 febd b0e7 603e
000001e0: 6695 29bd fc55 323d 16b4 18be 9b91 203d
000001f0: 4a33 293e 63a8 a7be e9d4 ebbe a9f9 26be
00000200: 2063 00be 5e0d a4be ea84 613e b98e 9d3e
00000210: e89c 713e 13ac 043f 04e7 cc3e b8dc c13c
00000220: b8da 81bd 015b e6bd 7b4c 8e3e af76 2d3e
00000230: 7ddd 21be f1d6 ccbe 6c57 dfbe fd99 d6bd
00000240: 1648 a6bd 1e3f 5f3e a61a af3e e6fd 253f
00000250: 1cff f13e c723 cc3e 44df d9bb f4ed ba3d
00000260: 53bd 213e 5186 04bd 1223 75bc e4b7 8fb8
00000270: ad7d 533d 1ff0 833e 11a8 273e deff 85bc
00000280: 6f17 a0bd d14c 953d fdcd 0e3e 6180 213d
00000290: 70b0 653e 747e 98be f102 cbbe f707 04bf
000002a0: 764f d7be 0dc6 5bbe 61a7 a63d a8ea ae3e
000002b0: b3b2 ce3e c0d9 ee3e 7cb2 cf3e b87b dbbc
000002c0: 80ab 3cbf 8e7c d9be 4b45 f1be 09d6 0cbf
000002d0: 0f65 8a3e e29e b9be 208f 95be 8812 febd
000002e0: 4f89 8bbe a057 a23e 6065 2bbe a604 85be
000002f0: 64db a5be bec5 c7bd adc6 4f3e 6178 0dbe
00000300: 5355 c0be 0584 babe 773d 62be 8523 253e
00000310: ecc7 213e 9ba2 6bbe b683 f5bd 3b94 55bd
00000320: f2f8 d3be 47a7 97bd 47ad 26bd 28b0 033f
00000330: 0f14 da3e 73df 83be da62 c93e 3cb6 113e
00000340: 975b 523f 6e79 dd3e 93ee 4ebe 16b0 be3e
00000350: 9100 0a3e bdff 8b3e 1cc5 8e3e b12d f6bc
00000360: 3367 bb3e 39d1 8abd 1229 3f3b 8818 e7bc
00000370: d9f3 db3d 5e9f 8a3e a6a5 92bd d3b3 2abe
00000380: a13c 41be da09 3bbe a3a1 4dbe 2bfe fc3b
00000390: c27b b23e d16c 963e 4045 9bbd eeac ef3e
000003a0: 6955 123f 8284 2f3f 46d7 463e ec07 00bd
000003b0: cd7f 053e 11cc 943e 54c0 d0bc b2f3 2fbe
000003c0: 7ae2 bf3d dce1 b53e 21ea 3f3e b790 b23c
000003d0: 4776 56be cf60 023e da3b b43d 3f82 e8bd
000003e0: d63d 44be a644 7fbe 563e b0bc 1e4a 9f3e
000003f0: 5cf0 b63e 7804 663e e21f 3bbd 29b4 b83e
-0.16390246 0.12238587 -0.53482896 0.14897133 -0.03500606 -0.32405028 -0.17673893 -0.5379161
0.23713544 -0.02328382 -0.09754818 -0.14641784 -0.3543555 0.15158203 -0.043369427 -0.2027903
-0.103746444 -0.55533606 0.1336991 -0.14777061 -0.21865055 -0.11307453 -0.43490323 0.3152627
-0.00094541843 -0.104780294 0.10084465 -0.12966956 0.25010595 0.047356445 -0.028839275 -0.1089049
0.00977361 0.1603088 0.15573724 -0.009931384 0.19598132 0.20244409 0.5013882 0.38367173
-0.13014041 0.07285064 0.13152124 0.21673986 0.20299949 -0.06310266 -0.13392867 -0.23795924
0.17621963 0.24041183 -0.1635 -0.2139067 -0.05215573 0.036001246 -0.0032057085 0.024454284
0.100984424 0.030058868 0.08505505 0.1971163 -0.30348662 -0.122983605 -0.110906765 -0.29963857
-0.46740934 0.30169475 0.65607715 0.35262236 0.6130289 0.6157102 -0.31409946 -0.4323345
-0.2685389 -0.38960353 0.023777729 0.011481701 0.04691537 0.15220834 0.04782939 -0.10840657
-0.25134087 -0.35101625 -0.2901387 -0.18499824 -0.22768763 0.015697356 -0.13229115 -0.18498234
-0.21469197 -0.23120606 -0.12855043 -0.15624028 0.0106557105 0.124771886 0.022203082 -0.041536927
-0.2496646 -0.31418684 -0.28483155 -0.12856646 0.09792805 -0.20293279 -0.005824399 -0.05603473
-0.30994636 0.057483032 -0.3737824 0.007835076 -0.12626363 0.097825676 0.30575994 0.110161945
-0.10359506 0.23418134 0.1020141 0.34484333 0.07394724 -0.0111097945 -0.1241926 0.21963382
-0.041402243 0.043539032 -0.14912447 0.03920136 0.16523471 -0.32745656 -0.46060875 -0.16306175
-0.12537813 -0.32041448 0.22023359 0.3077295 0.23595011 0.51825064 0.4002 0.023664817
-0.063405454 -0.11247826 0.27792725 0.16939805 -0.15807147 -0.40007737 -0.43621385 -0.1047859
-0.08119218 0.21801421 0.3420002 0.64840543 0.47264946 0.39871046 -0.00664893 0.09127417
0.15794878 -0.032354657 -0.014961975 -6.853024e-05 0.051633526 0.25769135 0.16372706 -0.016357359
-0.078169696 0.07290042 0.13945766 0.039429072 0.22430587 -0.29783976 -0.39650682 -0.51574653
-0.4205281 -0.21462269 0.08137394 0.34163404 0.40370712 0.46650505 0.4056586 -0.026792392
-0.7369919 -0.4247784 -0.4712318 -0.5501409 0.27030227 -0.3625403 -0.29210758 -0.12405878
-0.27253196 0.31707478 -0.1673789 -0.2598011 -0.32393944 -0.09754513 0.20290633 -0.13815452
-0.37565097 -0.36428848 -0.2209376 0.16126831 0.1579892 -0.23011248 -0.119880125 -0.052143317
-0.41400868 -0.074049525 -0.040692594 0.5144067 0.42593428 -0.25756416 0.3933323 0.14229673
0.82171005 0.43256706 -0.20208196 0.37243718 0.13476779 0.2734355 0.27884758 -0.030051084
0.36602172 -0.06778187 0.0029168767 -0.02820994 0.107398696 0.27074713 -0.07160501 -0.1667016
-0.18870784 -0.18265477 -0.20081191 0.007720729 0.34860045 0.29379895 -0.07581568 0.46811622
0.57161576 0.68561566 0.19418058 -0.031257555 0.13037033 0.2906194 -0.025482334 -0.17182806
0.09369369 0.3552388 0.18741657 0.021797521 -0.20943557 0.12732242 0.08800478 -0.113529675
-0.19164214 -0.24928531 -0.0215141 0.31111234 0.35730255 0.22462642 -0.045684703 0.3607495

cnn.3.bias f4 [32]
00000000: db0b b6be 220e 60bf 1d81 5dbf 88d1 9ebe
00000010: 5370 a6be bc16 23bf 3368 8dbf ff9c 8fbe
00000020: 3ca2 b5be d218 07bf abb4 b13d b1a1 09bf
00000030: 2b1c a2be 5c05 2dbf f7a4 a5be abda bcbe
00000040: b914 0abf 71d2 5dbe 7ebf 2dbe 4e63 5ebe
00000050: 0ee2 0dbf d2da 60be 532f 1bbf 66c2 163f
00000060: 8271 11bf d1ac a43e a41c 36bf 414b 2bbc
00000070: 597b 9fbe 0460 3fbf 1ae7 9fbe 26df e2be
-0.3555592 -0.87521565 -0.86525136 -0.31019235 -0.32507572 -0.63706565 -1.1047424 -0.28049466
-0.35475338 -0.5277225 0.08677038 -0.53762347 -0.31662115 -0.675863 -0.3235242 -0.3688558
-0.5393787 -0.21662308 -0.1696758 -0.21717569 -0.5542306 -0.21958473 -0.60619086 0.5889038
-0.56813824 0.32163098 -0.7113745 -0.010454954 -0.31148794 -0.74755883 -0.31231004 -0.44310874

cnn.5.weight f4 [32]
00000000: fa3f 993f 87ce ab3f bcfa 8a3f 44ed 663f
00000010: cb89 843f b530 b13f d5fc 9c3f e0cd 663f
00000020: cc31 803f cd7e b53f e354 1b3f a438 8d3f
00000030: e033 823f 97fc a03f 9407 813f 94a1 173f
00000040: 7edb 8a3f 0b09 6a3f 6cb0 9c3f 0777 883f
00000050: b82c 8d3f 5d36 713f 12ca 9f3f 26bd 8b3f
00000060: 53db 403f d64a 863f a42b 9b3f 851f a33f
00000070: 49a6 833f 97f3 243f b241 443f 7434 0f3f
1.1972649 1.3422402 1.0857768 0.9020579 1.0354551 1.3842989 1.2264658 0.9015789
1.0015197 1.4179322 0.606764 1.103291 1.0172081 1.2577084 1.0080438 0.59230924
1.0848234 0.9142005 1.224134 1.0661324 1.1029272 0.94223577 1.2483542 1.0917099
0.7533466 1.0491588 1.2122693 1.2743994 1.0285121 0.6443419 0.76662743 0.5593941

cnn.5.bias f4 [32]
00000000: cec7 763e 5e20 17be 148e 0abd 4f70 413d
00000010: 0958 0fbf 18e5 debe 526e f13d e255 853d
00000020: 902c 76bd d6c0 b63e 08b2 bdbc 3395 65be
00000030: 1e8a 8bbd 3cb2 a0bd 9335 8e3d 07e0 37be
00000040: 7ccf aabd dad9 3e3e 9799 18bc cce1 74be
00000050: 7cc2 9b3e 3c61 103e e3ad 013f b660 633c
00000060: fbd5 a6be adcf ccbd 199c 10bf 0661 01be
00000070: 84f7 c53e 0d0f 923e b997 bfbd e89d 58bd
0.24099657 -0.14758441 -0.033826903 0.047226246 -0.55993706 -0.4353416 0.1178862 0.065105215
-0.06010109 0.35693997 -0.023156181 -0.22420196 -0.06813453 -0.078464955 0.06943812 -0.17956553
-0.08340356 0.18637791 -0.009313962 -0.2391426 0.30421817 0.14099592 0.50655955 0.013878038
-0.3258513 -0.100005485 -0.56488186 -0.12634668 0.38665402 0.28527108 -0.09355111 -0.052884966

cnn.5.running_mean f4 [32]
00000000: 96d4 cf3f 9de0 b53f 798a c63f 4cf0 a53f
00000010: 2724 813f 08f8 4e3f 755f 323f 809a f03f
00000020: e46b a03f dcf6 a13f 362d 9240 d079 4f40
00000030: d6f2 ca3f f98d 7c3f 1bc3 9d3f 3a09 1f40
00000040: 9c68 c63f b384 5440 031f 843f a6fd c03f
00000050: 85d5 1640 e1b7 1c40 6504 793f f34c e23f
00000060: 7f15 833f 722b 2140 2559 b83f fda8 1440
00000070: 5119 0640 54a9 d03f 1c66 1e40 ae02 5e3f
1.6236751 1.4209172 1.5511009 1.2963958 1.0089158 0.80847216 0.69676906 1.879715
1.2532926 1.265346 4.568019 3.2418098 1.5855358 0.98654133 1.2325166 2.4849381
1.5500674 3.3205993 1.0321964 1.5077407 2.3567822 2.448723 0.9727233 1.7679733
1.0240935 2.5182767 1.4402205 2.3228142 2.0952952 1.6301675 2.4749823 0.8672284

cnn.5.running_var f4 [32]
00000000: 7ee8 3d41 1501 2c41 2ad9 5c41 d7e7 9240
00000010: bea4 8240 b044 7c40 b70b 9640 8bcb 2641
00000020: 2c6a be40 7971 ff40 3b35 c341 6a07 8a41
00000030: e493 af40 2ba6 ab40 85c9 b140 ea68 5541
00000040: 5f23 f840 69f9 c341 f0f0 c540 a06f ab40
00000050: fb5a 5641 2a6d 2041 752d b740 6431 d540
00000060: 599a 0a41 7e67 5141 d3e1 2741 4b59 8c41
00000070: 4b42 1241 7a10 2741 567b 8941 ab77 b540
11.869261 10.750264 13.803019 4.590801 4.08261 3.9416924 4.68893 10.424693
5.9504604 7.9826016 24.400991 17.25362 5.486803 5.364034 5.5558496 13.338114
7.7543178 24.496782 6.1856613 5.357376 13.397212 10.026651 5.724299 6.662279
8.662683 13.087767 10.492633 17.5436 9.141185 10.441523 17.185223 5.670858

cnn.6.weight f4 [32, 32, 5, 5]
00000000: 1969 d43d c296 de3d a792 17bd eefd 81bd
00000010: 2116 22bd fbad b7bc 471f 8a3a b89b 3a3d
00000020: fbda fbbd f286 aabd cd8a fa3d 809c a43c
00000030: 9dad 94bc 1b91 36bd 22dc 633e 18fa e03d
00000040: 16f7 ed3c 7c32 bdbc 0171 823b 43eb 72bd
00000050: 5246 cd3e 0aa2 b13e b45c 8a3e 507e 6c3e
00000060: 3565 0f3e b30a 913e 36f2 debd 5ed6 debe
00000070: dcd6 16be eb2f 3abf 10d1 cb3d 28c7 21bd
00000080: fbb1 50be a180 63be 3c98 ddbe 2adc 203e
00000090: 38a9 0ebe e4ed f6bd b7ec 513d dc20 36be
000000a0: 7406 a43e 926d 203d 769e 093e 4a04 633e
000000b0: cd74 873c fb00 0cbe 1d7d fd3c 9d45 8dbd
000000c0: 725a 5d3d f541 173b ee4e 953e d94a bc3d
000000d0: 1588 2b3e 8c9f 22be 60e3 83be 86dc 2f3d
000000e0: 62be 013e d2fd af3d e18f 1cbd 9ee2 63be
000000f0: 5e1d 773e c688 9e3e 58f9 133e be4b 603e
00000100: 36f4 10be 0733 9f3e ef31 413d 2512 93bd
00000110: b430 8bbe 0d62 87be b02d 263e ed9e 753e
00000120: 0579 d13b 3cff d73d aadf cabc 08e9 78be
00000130: a4f9 453c 43c0 dfbd 39fb a0be 82fe 8bbe
00000140: 180e 6bbe d217 943d 9bff a7bd 91c0 aebe
00000150: 6ae3 c5bd ace2 873e cdb3 a43e bb7f 973e
00000160: 5c5d 5d3e 3ba1 dc3e 13d2 813e 1ec5 523e
00000170: 5964 7f3e c9f5 a03e fd40 853e 1280 1c3d
00000180: 417e 533e 2494 c73d 3490 673e d6e7 31bd
00000190: 7a59 c7bd 9419 d83d b6e7 e03e 291d af3e
000001a0: 722b a13e 9662 60be 944d adbe d45f 0c3e
000001b0: 6d4f 273e ca54 0fbd e0c7 d5be 5170 8fbe
000001c0: eeba 62bd 1b04 68be 7133 8fbc aa6a e53d
000001d0: 39f5 233d a0c3 aebe 4daa c6be ff00 92bd
000001e0: 1941 4abe 5d91 8dbe c790 aebe 174b afbe
000001f0: 5bba 54bc ae3d 3b3e 5d1c 463e d9ce 41be
00000200: 8760 3dbe 5aaa d53c ca67 303d a445 7c3d
00000210: 9e49 1dbc 5fb5 013e 1999 2c3e cd79 a4be
00000220: 7c31 72be 127c fe3c 0b9c 28be 8c5d f33d
00000230: 8f71 5a3e 4b90 4dbe 9a4d 8dbe 47a4 b0be
00000240: 5e52 dfbe 8218 923e 9165 f33c ac6a 8bbd
00000250: f033 cc3d d612 083e 5ca8 bb3d 4c3c 9abe
00000260: 6f4a 36be 1ee8 98bd 18fe 3ebe e63c f03d
00000270: fabb 4ebe f204 d5be 384f 22bc c9d1 c8be
00000280: 122d d13d a819 5d3e c598 61be 773c 3c3e
00000290: f060 16bf 1047 cc3e 35ce 793e 0a73 e43e
000002a0: acb1 233f a02f d63e 9e34 64bd 5067 a2be
000002b0: 90eb babc 377f b0bc 78dc 7a3e 16f7 043f
000002c0: d72d d6bd 88ed 59be ced3 9c3d 28ba 1fbf
000002d0: 695c a53e d442 3abe 19ec 81be 4e24 a4be
000002e0: 6505 d1be ad85 ecbd 44bf b33b b6ad ddbe
000002f0: 4170 26be c8cd d9be 164f c53e ea3f c23e
00000300: 7f02 3f3e f2ed a73e d7af cc3e c869 333e
00000310: b705 25bc 15c8 94bd b258 913e 1970 6b3e
00000320: 5030 1b3e 156f e83d e29b 2f3e 1e3a 01bf
00000330: 080b 8abd 1e35 08be 21c0 993c 296a febd
00000340: 510e a4be f5ed 7e3d 2d78 90bc 7591 da3d
00000350: da52 04be 7c45 d9be a9fa 0ebd da42 673e
00000360: 7036 09be 3768 0fbe e121 debe 8019 a9be
00000370: 104e fbbc b89b cdbc 3d53 6cbd 73c9 a13e
00000380: 26a4 303e e505 533e a7b3 8b3d e4a4 59be
00000390: a970 77be 97e4 fabe f17f 9ebe 6155 543e
000003a0: 9399 7c3e a884 253e 9678 b7bd 40b7 623e
000003b0: 1d17 ae3d 4155 e63d be80 6cbe 8954 bf3e
000003c0: 3c07 8b3e dbe2 5a3e 5114 733d a640 bc3d
000003d0: 73e2 f53e f7cd fe3e 56bb d73e ff7e 063f
000003e0: a334 dc3d 398c c13e 9798 e63d 2137 00be
000003f0: f6cc a6bd eedc 5a3e 88b8 9c3e eed7 703d
0.10371608 0.108685985 -0.037005093 -0.06347261 -0.039571885 -0.022421828 0.0010537886 0.04555866
-0.122976266 -0.0832652 0.122335054 0.020094156 -0.018149192 -0.044571977 0.22251943 0.109852016
0.029048484 -0.023095362 0.0039807563 -0.059306394 0.40092713 0.34693938 0.27023852 0.2309506
0.14003451 0.28328475 -0.10886042 -0.43522924 -0.147304 -0.72729367 0.09951985 -0.03949657
-0.20380394 -0.22217037 -0.43280208 0.15708986 -0.1393174 -0.12057093 0.05125114 -0.17785972
0.32036173 0.039166994 0.13439354 0.22169605 0.016535187 -0.13672249 0.030943448 -0.06898043
0.054041333 0.0023080085 0.2916178 0.091939636 0.1675113 -0.15881175 -0.2575941 0.042934917
0.12670282 0.08593334 -0.03822315 -0.22254416 0.24132296 0.30963725 0.14450586 0.21903893
-0.14155659 0.31093618 0.04716676 -0.07181195 -0.27185595 -0.26441994 0.16228366 0.23986407
0.0063926005 0.10546729 -0.024764854 -0.24307644 0.012083445 -0.10925343 -0.31441668 -0.27342612
-0.22954595 0.07231106 -0.0820305 -0.34131292 -0.096625164 0.26540124 0.32168427 0.29589638
0.21617645 0.4309176 0.25355586 0.20583007 0.24940623 0.3143752 0.26026145 0.038208075
0.20653631 0.097450525 0.22613603 -0.043433987 -0.09733863 0.10551754 0.4392678 0.34201935
0.3147846 -0.21912608 -0.3384825 0.1370843 0.16338892 -0.03499297 -0.41754055 -0.28015378
-0.05535405 -0.22657816 -0.017480584 0.11201985 0.040028784 -0.34133625 -0.38801804 -0.07129096
-0.19751395 -0.27649966 -0.3409483 -0.34236977 -0.012983884 0.18285248 0.19346757 -0.18926562
-0.18493854 0.026082207 0.04306773 0.061589852 -0.009600071 0.12666844 0.16855277 -0.32124177
-0.2365169 0.03106502 -0.16465776 0.11883077 0.21332382 -0.20074575 -0.27598268 -0.34500334
-0.4361753 0.28534323 0.029711517 -0.068074554 0.09970844 0.13288435 0.091629714 -0.30124128
-0.17801832 -0.07466148 -0.18651617 0.117303655 -0.20188895 -0.41605335 -0.0099065825 -0.39222553
0.102136746 0.21591818 -0.22030933 0.1838244 -0.58741665 0.39897966 0.24395068 0.44619018
0.6394298 0.4183321 -0.055714242 -0.31719446 -0.022817403 -0.021545036 0.24498165 0.51939523
-0.10457962 -0.21282017 0.07657586 -0.62393427 0.32297066 -0.18189555 -0.2537544 -0.32058948
-0.40824428 -0.11548934 0.005485447 -0.43296593 -0.16253759 -0.4253981 0.385369 0.37939388
0.18653296 0.32798725 0.39977905 0.17520821 -0.010072163 -0.07264725 0.28387982 0.2299198
0.15155149 0.11349312 0.17149308 -0.50479305 -0.06740385 -0.13301513 0.018768372 -0.12422592
-0.32042173 0.062238652 -0.01763543 0.10672275 -0.1292223 -0.42435825 -0.034907017 0.22584096
-0.13399673 -0.14004599 -0.43385223 -0.33027267 -0.030676872 -0.025098667 -0.05769657 0.31599006
0.17250118 0.20607717 0.06821375 -0.21254307 -0.2416407 -0.49002525 -0.30956987 0.20735694
0.24667959 0.16163886 -0.08958547 0.22140217 0.08500502 0.1124673 -0.23095986 0.37369183
0.27153957 0.21375601 0.059345547 0.09192018 0.4802433 0.49766514 0.42135113 0.5253753
0.10752227 0.37802294 0.11259573 -0.1252103 -0.08144562 0.2137334 0.30609536 0.058799677
