models/optimized-speaker_1s.model (torch, 184029 bytes, 78 tensors)

conv1.weight f4 [8, 2, 5, 5]
00000000: 033f b4be cfad a0be 3b50 8cbe 6abe a3be
00000010: d407 1ebe 130d 1cbe 22b0 e1bd e5d0 f83d
00000020: c938 933d a11e 8a3d e420 7d3d 05b0 bf3c
00000030: e94a 6d3d c49a 5f3e cd98 013e 090a 663d
00000040: 1a3d af3c e6a3 6c3d dd0d d13d 3b76 8d3e
00000050: 9689 08be bc60 9a3d 13f0 53bd f3a8 c2bd
00000060: cad9 96bd ea23 c0be f2fc d5bd b9e8 93be
00000070: bcfd debd 383b 48be 2ad8 13be 25d6 e7bc
00000080: 8c2e 9e3d 8dc3 de3c da67 c6bc ff84 abbd
00000090: 904c 003e 462b bd3d 26db f33d 0a84 993e
000000a0: 2015 f6bc 9dfb 433d 64ba 853e bc4b ba3d
000000b0: d9d7 253e 68c2 15be de69 47bd 70a7 8a3c
000000c0: 9d66 113d 8c50 b53c 313a 6d3d ee80 403c
000000d0: 65a2 c03c 6dbe 613d 5e88 87bd 6a56 4a3e
000000e0: 4a7a df3d 993a 333d 9678 f0bc fa81 7cbe
000000f0: 72a9 ac3d 3982 553d c0f6 643e f3b6 0dbe
00000100: 99f2 33be 0da4 253e 5957 993d 7c26 3fbc
00000110: f916 5dbd 0905 1dbe fcc3 a73d 34b7 a43d
00000120: 86dd 533c 306b 4ebe 1bdc 4bbe 47f4 473e
00000130: 9681 b43d 245b 5dbd 2791 cfbd 7683 7bbe
00000140: f245 973d 9a21 ad3c 1dd2 3dbc 3b05 8bbd
00000150: f522 d0bd 4b4f 5fbd de89 edbc 88b7 793e
00000160: e7b1 49bd 84e5 96be 22b8 363e b87e ba3d
00000170: 1623 473e ccac cbbd 70da 18be 0d5e 443e
00000180: 0175 713e 30aa 453e 32ee f1bd e6f5 76be
00000190: c38a c63d 2621 1e3d ea98 b3bd cd49 56be
000001a0: 7293 6dbc d93b cebd 6040 4fbe 8a63 a4bd
000001b0: 1d8c 58be 5b06 24be cc6a f1bd 9808 1cbe
000001c0: 3268 f1bd 46b9 d1bd 87c6 8dbd 2cfd 5a3e
000001d0: e34f 013e 7aa7 9a3e 02b0 8e3e 8714 9b3e
000001e0: 4452 d5bd 1078 25bd 6970 243d 268b 433e
000001f0: 5417 803d 0eaf c93d 8c4a 883d 4a1b 523c
00000200: c20c 88bd 045f 61be 66fe 05be 4a51 14bd
00000210: 7412 83be 3c30 6abe 5a3d 1ebe d04d cdbd
00000220: ef06 853c cc92 e8bd 4864 e4bd 9da4 a43d
00000230: a8e2 333e bfcc 9e3e 7e27 453e 5950 b33e
00000240: 0710 c93d ebca d3bd 9a0a a53d e163 963d
00000250: 8440 ff3c 7450 a23d 29a8 b43d 194d 67bc
00000260: 1a20 8c3d c0b2 8dba aabe 943c a428 1abe
00000270: dc8a 1f3e 1fd0 c73d db59 3f3e cf0c 023e
00000280: 7629 39be f8ee 87be 5360 7ebe 7387 57be
00000290: b665 fabd 6839 a63a 37f7 503e bea2 d93c
000002a0: bbbc 55bc 56bb 1dbe bb1c de3d 59e2 873e
000002b0: 1b77 023e 0cc7 7d3e b783 d63d e7d1 0d3e
000002c0: a382 47bd 686d 1b3d fca2 443e ce66 0b3d
000002d0: 5b45 00be 5458 a63d 9043 adbd 60f6 963d
000002e0: 4610 e83c 65ce 16be be53 99bd 017e 12be
000002f0: c13b 35be 6e0e 56bd 924c b23d 946e 583e
00000300: 34ed 0f3e 75fa e8bd 9f0c afbc 014a 5f3e
00000310: 05c0 e23d 612d c63d 5dd2 673d e6cc 493c
00000320: 79af f6bd 51e2 f4bd 1fbe 25be 4707 50bd
00000330: 9844 1a3e 742c 3e3b 8cf4 54be d7b2 97b9
00000340: d21f c83d 0575 a83d 2ca0 89bd c48c a8bd
00000350: 4bb2 0fbd 93b4 863d 01c7 bd3d 8d6c 9fbc
00000360: c1f8 80be be47 c63d ebb8 b93d be07 9bbc
00000370: 5624 5dbe 1624 0abe f7d1 2a3e ec3c 613e
00000380: 145d 21bd 9fb4 78be f0f6 3fbc 5a69 653d
00000390: ba19 273e e115 6f3e 3085 20be 09c2 fdbd
000003a0: e09a 6dbd da6d 553e 48bb eb3d 7e56 00bd
000003b0: 9f0e 62be 3711 86bd 5c48 593e f6ba cf3c
000003c0: 1b12 d1bd 5bc6 44be d01a 0e3e 7bef d13d
000003d0: ef62 c23d 1eab 20bd 5f34 fabd 267f 593e
000003e0: abf4 0f3e ed47 993d dbd5 e83c d52e f23d
000003f0: ea96 2b3e cf1a 30be 427b 073d 74c3 243e
-0.35204324 -0.31382605 -0.2740496 -0.31981212 -0.15432674 -0.15239362 -0.11019923 0.121492185
0.07188565 0.06744123 0.061798945 0.023399362 0.057932768 0.21836382 0.12655945 0.056161914
0.02139144 0.057773493 0.10207722 0.27629265 -0.13333735 0.07537982 -0.051742624 -0.09504881
-0.07365759 -0.375274 -0.10448636 -0.2888849 -0.1088824 -0.1955384 -0.14437929 -0.028300354
0.07723722 0.027192855 -0.024219442 -0.08374976 0.12529206 0.092367694 0.119070336 0.2998355
-0.03003937 0.04784738 0.26118767 0.090964764 0.1619562 -0.14624941 -0.048684947 0.016925544
0.03549825 0.022133134 0.057916824 0.011749489 0.023514936 0.055113245 -0.06617807 0.19759527
0.10911997 0.043757055 -0.029354375 -0.24658957 0.08430757 0.052126143 0.22359753 -0.13839321
-0.17573012 0.16175862 0.07487363 -0.01166689 -0.053976987 -0.15333952 0.08191678 0.08042756
0.012931233 -0.20158076 -0.19908182 0.19526778 0.08813779 -0.054041997 -0.101351075 -0.24561867
0.07386388 0.021134187 -0.011585739 -0.06788107 -0.101629175 -0.05451898 -0.028996404 0.24386418
-0.049241927 -0.29471982 0.17843679 0.09106201 0.19446978 -0.09945068 -0.14927077 0.19176503
0.2357979 0.19303203 -0.1181301 -0.2411724 0.096944354 0.03860583 -0.087694004 -0.2092659
-0.014500486 -0.10070009 -0.20239401 -0.08026798 -0.21147199 -0.1601805 -0.11787948 -0.15237653
-0.11787452 -0.10240416 -0.06922632 0.2138564 0.1262813 0.302059 0.27868658 0.302891
-0.104160815 -0.040397704 0.040146265 0.1909605 0.062544495 0.09847842 0.06654844 0.012823889
-0.06643058 -0.22008902 -0.13085327 -0.036210336 -0.25600016 -0.22869962 -0.15453091 -0.10024607
0.016238658 -0.11356124 -0.1115194 0.0803921 0.17566931 0.31015584 0.19253346 0.35022238
0.0981751 -0.10341438 0.08058663 0.07343269 0.031158693 0.079255015 0.088211365 -0.014117503
0.068420604 -0.0010810718 0.018157322 -0.15054566 0.15580314 0.09756493 0.18686621 0.12700199
-0.18082222 -0.26549506 -0.24841432 -0.21047764 -0.12226431 0.0012681903 0.20406805 0.02656686
-0.013045485 -0.15403494 0.10845324 0.26539877 0.12740748 0.24782962 0.10474341 0.13849603
-0.04870857 0.037946135 0.19202799 0.03403359 -0.12526457 0.08122316 -0.08460152 0.07371211
0.028328072 -0.14727171 -0.07486676 -0.14305879 -0.17698576 -0.052259855 0.08706011 0.21135932
0.1405533 -0.11375896 -0.021368323 0.21805574 0.11071781 0.09676624 0.056597102 0.012316918
-0.120451875 -0.11957229 -0.16185807 -0.05078819 0.15065229 0.0029018195 -0.20796412 -0.0002893421
0.09771694 0.08225445 -0.067200035 -0.08229974 -0.035082143 0.065774105 0.092664726 -0.01946094
-0.25189784 0.096816525 0.090684734 -0.01892459 -0.21595892 -0.13490328 0.16681658 0.21995896
-0.039395407 -0.24287651 -0.011716589 0.056008674 0.16318408 0.2334819 -0.15675807 -0.12390525
-0.05800903 0.20842686 0.115103304 -0.031332485 -0.2207589 -0.06546252 0.21219009 0.025357705
-0.102085315 -0.19216292 0.13877416 0.102507554 0.09491526 -0.03922569 -0.1221702 0.2123991
0.14058177 0.07484422 0.028422287 0.11825339 0.16756788 -0.17197727 0.033076532 0.16090184

conv1.bias f4 [8]
00000000: 2903 48be 739b aabe 2764 ca3e 7e94 d5be
00000010: fcf9 87be 6ae0 94be 32e5 9abe 8ae6 98be
-0.19532456 -0.33321723 0.39529535 -0.41714853 -0.2655791 -0.29077464 -0.30252987 -0.29863387

bn1.weight f4 [8]
00000000: 0455 1b3f 45a1 903f de38 9b3f ecdb 323f
00000010: efbe 6c3f 1b87 633f 275a 563f a03c 943f
0.606766 1.1299216 1.212673 0.69866824 0.9247884 0.8887803 0.8373131 1.1581001

bn1.bias f4 [8]
00000000: 779a 9d3e c63b 62be 3625 1ebc d459 56be
00000010: d00a 78be ecc5 1b3d 3770 00be 7ef7 69be
0.3078191 -0.22093114 -0.0096524265 -0.20932704 -0.24222875 0.03803055 -0.12542807 -0.22848317

bn1.running_mean f4 [8]
00000000: c9b3 b83e ad37 a53e c80d ed3e 283c 5e3e
00000010: 0517 9d3e 5556 023f 415f 1b3f 6aaf 603e
0.36074665 0.3226904 0.46299577 0.21702635 0.30681625 0.5091298 0.6069222 0.21941915

bn1.running_var f4 [8]
00000000: d662 cd3e 5e1c 0f3f f725 c83e 4bc2 6a3e
00000010: dcd0 0e3f 9731 203f 3fed 863f c050 653e
0.40114468 0.5590266 0.39091465 0.2292568 0.55787444 0.6257567 1.0541152 0.22394085

conv2.weight f4 [32, 8, 5, 5]
00000000: 3e3c 30be ac09 f4bd f705 fabd 87e7 febd
00000010: c68b d2bd d10e 2dbe 173f 26be 9d4d 58be
00000020: fa0b bebd d174 fabd 8411 edbc 1492 4cbc
00000030: f66f af3d 6584 a73d ccb9 ff3c aad0 643e
00000040: b9cd 8d3e 7011 753e 9db2 5c3e 1892 55bc
00000050: 8d7e 543b ee3a 153e 191a f73d ab22 84bd
00000060: 1a16 c0bd 297b adbd 1755 c9bc d5ff 6bbe
00000070: 1f1f 23be 49e0 eabd 8cdf 88bd ba1f ccbd
00000080: 5c17 00be fcd9 67be 0142 17be 0b23 523d
00000090: c840 aebd 5f8e ca3c 4607 00bd bb87 ea3d
000000a0: 8202 5d3d 21db c23d a442 883e 4732 d53e
000000b0: c0e3 133e 003c 85bd c014 bd3d 3f0f a43e
000000c0: dce6 bd3e 7482 873d 54bc 1cbd 6243 8ebd
000000d0: 57df 7fbd bc19 77bd 6ae5 773d 83e0 5abe
000000e0: 98b6 19be 0ff7 07be 6c9e 03be e2ca 52bd
000000f0: bc19 843d 4b37 1b3e 05a5 063e 982a 503d
00000100: fcc5 943d 8128 5d3d e1a9 a53d 39f5 193e
00000110: 7611 f0bc 9f50 3fbe 8e3d 263e 4a64 cf3d
00000120: 4d52 ad3b c63c e0bd f10e 50be 2327 04be
00000130: fa72 62bd d586 eebd ab64 a7bb 83ee 0bbb
00000140: fe57 9d3d 6f37 87bd b23a 19bc c63c 8c39
00000150: c4a2 87bc e759 263e 5b41 383d ce58 883d
00000160: d0e3 9a3d 8b0a 543e cf7f bc3d 6cf9 5f3d
00000170: c134 f83d 90d7 4d3e 1bde 553d 9988 e4bd
00000180: a0eb 15bd 78dd b0bd d7c0 1ebe c6b6 6ebe
00000190: 366f 37be b2bf 173c d3b2 8a3c 8193 543d
000001a0: dbc7 983d 8fec 14be c202 26be aed0 83bd
000001b0: 3efc 963d ee12 f53c b9b0 fb3a 2331 f93d
000001c0: 8a2b 663c 28f6 483e a937 283e 3767 1c3e
000001d0: a958 bd3e ef0a 7f3e bf48 4f3e c57e 5d3e
000001e0: 7ab2 be3d 1dd5 843e 78bc a23d 8e50 b13d
000001f0: 8203 f73d 43a6 25bd fe34 13bc ca76 21be
00000200: 22f1 2ebe 9e8a 25be 69b4 073e 7a44 e83c
00000210: 2eb8 1c3d b79f 8439 79fe adbd 0515 423e
00000220: 04fa 363e c1a3 d03d a563 143d 1138 d53d
00000230: 9c32 8a3e 4c06 663e 4afe 033e e580 273e
00000240: e311 123e 8325 9f3c 8b9a 233d 6fd5 853c
00000250: a9e8 29bd b309 833d 108f c2bc 0fb8 fe3b
00000260: 17ae a83c 1b9c e03b ebf5 663c 2abb 84bd
00000270: 9a30 e1bd cac1 1fbe ff3b c8bd a097 adbd
00000280: a741 8f3c 3a30 ce3b 521e 8ebd 47ec 24bd
00000290: 5f04 c53d d48c 493e c224 273e f5b4 463d
000002a0: 077b 143e 6d1f 363e f187 5ebd 32e9 dcbc
000002b0: 376d a53d 9080 533d d9d3 aa3d 5055 bdbd
000002c0: 2e44 58be 74b4 b3bd 821b eebc ab18 febb
000002d0: 107f 01be b358 22be 1b94 4fbe 16f0 32bd
000002e0: 6d3a 01be 750a e23d bafd 693e 4aa9 623d
000002f0: 122b d63d 8f42 003d dab4 043e 93f8 17bd
00000300: aa4e 07bd 4103 233e 011d 773d b32d aebc
00000310: 216c 623d 40e3 ff3d 00ac 373e 488f 2d3e
00000320: da4a 9d3c d85d 89bd 8037 bbbc 9c91 f6bc
00000330: 588c 92bd 18e0 d9bb 2442 49bd d1cf b8bd
00000340: d9d3 b0bc 71c1 4bbe 1cf7 f2bb 0c80 2d3c
00000350: 213f 0fbd a19c 89bd a0f2 f93c c8c3 bbbc
00000360: 0e57 40be 3bfb 52bd 696e 8abd ce1f 18be
00000370: d827 433c dabf b83c b248 1c3d 2b58 21be
00000380: 0892 25be 6b14 fe3d e5bc cf3d 4d43 ca3d
00000390: aa65 a53d d8ae 0e3e 3c87 3a3e e8cd 0e3e
000003a0: 0d01 f03a c80f 9f3c af90 0a3d d42b b43c
000003b0: 842f f8bd 3e3b 1cbe 54d2 c83a 449d 45bd
000003c0: 952b 403e 7ae5 14be 649d 793d de75 e83d
000003d0: 4ae5 893d 1eeb 703e f960 b53c 89eb 803e
000003e0: 4038 4d3e e220 313e a912 b13d b405 043e
000003f0: c1e9 ec3c d96b 183e 2878 7f3d e91a 5e3d
-0.1721048 -0.11915907 -0.12208169 -0.12446504 -0.10280566 -0.16900183 -0.16235004 -0.21123357
-0.09279628 -0.12229312 -0.028939016 -0.012486 0.08566277 0.08179549 0.031216525 0.22345224
0.27696016 0.23932433 0.2155251 -0.01303532 0.0032424063 0.14573261 0.120655246 -0.06451925
-0.093792155 -0.084707566 -0.024576707 -0.23046811 -0.1592984 -0.1146856 -0.06683263 -0.09966989
-0.12508911 -0.22641748 -0.14771272 0.05130295 -0.0850845 0.024726091 -0.031256936 0.1145167
0.05395747 0.09514452 0.26613343 0.4163992 0.14442348 -0.06505585 0.092324734 0.32042882
0.37090194 0.06616679 -0.03826554 -0.06946446 -0.062468853 -0.060327277 0.06052152 -0.21374707
-0.1501106 -0.13277839 -0.12853402 -0.051463015 0.06450221 0.15157811 0.13148887 0.05082187
0.07264325 0.053993706 0.080890425 0.15034951 -0.029305201 -0.18683098 0.16234419 0.101265505
0.005289352 -0.109490916 -0.203182 -0.12905554 -0.05528543 -0.11646811 -0.005108436 -0.002135188
0.07682799 -0.0660237 -0.009352373 0.0002674816 -0.016557105 0.16245233 0.044984203 0.06657563
0.07562983 0.20707147 0.09204065 0.054681227 0.12119437 0.20101762 0.05221377 -0.111588664
-0.036601663 -0.08635992 -0.1550325 -0.2331191 -0.17913517 0.009262012 0.016930973 0.051898483
0.074599944 -0.14543365 -0.1621199 -0.06436287 0.0737233 0.029916253 0.0019202448 0.12167575
0.014048466 0.19625151 0.16427483 0.15273748 0.36981705 0.24906515 0.20242594 0.2163039
0.093113855 0.25943843 0.07946104 0.08657943 0.12061216 -0.040441763 -0.008984802 -0.1576797
-0.17084172 -0.1616616 0.13252415 0.028352965 0.038261585 0.00025296 -0.084958024 0.18953331
0.17868811 0.101874836 0.03622784 0.104110844 0.26991737 0.2246334 0.12889972 0.16357763
0.14264636 0.019427067 0.039942306 0.016337125 -0.041481648 0.06398334 -0.023749858 0.0077734063
0.020590825 0.0068545467 0.014096717 -0.06481011 -0.10995598 -0.15601268 -0.09777068 -0.08476186
0.01748736 0.00629237 -0.06939377 -0.040264394 0.09619974 0.19682628 0.16322616 0.048512418
0.14500056 0.17785425 -0.054328863 -0.026966665 0.08077472 0.05163628 0.08341188 -0.09244788
-0.21119758 -0.08774653 -0.029065851 -0.0077544055 -0.12646127 -0.15854149 -0.20271342 -0.043685995
-0.12619944 0.11037151 0.22850695 0.055337228 0.10457434 0.031313475 0.12959614 -0.037102293
-0.033034004 0.1591921 0.060330395 -0.021262025 0.0552789 0.124945164 0.17936707 0.16949189
0.019200731 -0.067073524 -0.022853613 -0.030098729 -0.07155675 -0.0066490285 -0.049135342 -0.09024013
-0.021585392 -0.19898011 -0.0074147116 0.010589611 -0.034972314 -0.06719328 0.0305112 -0.022920504
-0.18783209 -0.051509123 -0.0675934 -0.14855883 0.011911355 0.02255242 0.038155265 -0.1575629
-0.16168988 0.12406238 0.10143451 0.09876118 0.080760315 0.13933885 0.1821565 0.13945735
0.001831086 0.019416705 0.033829387 0.021993555 -0.12118438 -0.15256974 0.0015321472 -0.048245683
0.18766625 -0.14540663 0.060941115 0.113506064 0.067331865 0.2352719 0.022140967 0.251797
0.20040989 0.172977 0.08646137 0.128928 0.028920056 0.1488489 0.06237045 0.054224882

conv2.bias f4 [32]
00000000: 69a6 c2be 542d d8be fb78 373e 1f9a 95be
00000010: fd17 c8be 4892 2d3e d38d af3d 0edd 94be
00000020: 4e16 29bf fbe0 50be 4723 abbd 8505 a0bd
00000030: 85b9 91be 7406 1ebf ac0b 05bf 475e 8bbe
00000040: edcb b03c da8a cabe 4c4f 8cbe 4326 bcbe
00000050: 0194 c3be 9a58 27be 1a86 8bbe 2c62 053d
00000060: 09e3 9bbd 87d7 69bd 283f a6bd 7cf3 80bd
00000070: 503a 85be 54d7 a3be 4cb1 eebd 89a0 85be
-0.38017586 -0.42222083 0.17917244 -0.29219148 -0.39080802 0.16950333 0.08571973 -0.290749
-0.6604966 -0.20398323 -0.08356338 -0.07813553 -0.28461853 -0.61728597 -0.51970935 -0.27220365
0.021581614 -0.3955906 -0.2740425 -0.3674794 -0.38198856 -0.16342393 -0.2725075 0.032564327
-0.07611663 -0.05709031 -0.08117515 -0.06296441 -0.2602105 -0.3200022 -0.116549104 -0.2609904

bn2.weight f4 [32]
00000000: 65d9 6e3f 4cf9 703f 90d1 803f e177 733f
00000010: fda2 903f f6a5 8a3f 784b 5f3f df29 823f
00000020: dc14 603f f967 7c3f ad38 453f 113e 6b3f
00000030: bd01 843f 500f 653f 2b6c 623f 8382 703f
00000040: 2b6e 7a3f 4f94 893f 8483 833f cf63 393f
00000050: 0583 5b3f a2b7 4e3f 4410 5e3f 357d 933f
00000060: 0573 823f 44d2 593f a712 733f b9e8 933f
00000070: a780 423f 9ee3 973f a2c7 a23f b50a 793f
0.9330047 0.94130397 1.0063953 0.95104796 1.129974 1.0831897 0.8722453 1.0169028
0.8753183 0.9859615 0.77039605 0.9189158 1.031303 0.8947649 0.884463 0.93949145
0.9782435 1.0748385 1.027451 0.7241792 0.85746795 0.8074895 0.8674357 1.1522585
1.0191351 0.85086465 0.94950336 1.1555396 0.7597756 1.1866338 1.2717173 0.9728196

bn2.bias f4 [32]
00000000: 6635 143d 4f11 483e 1549 f9bc c8ce 35be
00000010: 73e3 e13c dc3d a9be 2de3 00be a74f c4be
00000020: dc0b 123c a4ee 823e c8e3 03be 4865 b4bd
00000030: e793 013e bd84 073e 89e9 fe3d 7abf b83d
00000040: ff0f 913e b1f8 a33e 1423 febd 64de 2abe
00000050: 772f a43e f861 7b3e 3b6f 923e cd79 34be
00000060: e571 a6be fdaa 24bd d92a c63d 63c1 533e
00000070: 12f2 1a3f e868 ecbd 943a 943e 6c07 523c
0.036183737 0.19537853 -0.030430356 -0.17754662 0.027574277 -0.33055007 -0.1258666 -0.3834202
0.00891396 0.25572693 -0.1287986 -0.0880838 0.12654077 0.1323423 0.12446887 0.09020896
0.28332517 0.32025674 -0.12409034 -0.16686398 0.32067463 0.24549091 0.28600487 -0.17624588
-0.3250877 -0.04020213 0.09676141 0.2067924 0.6052562 -0.11543447 0.28950942 0.012819152

bn2.running_mean f4 [32]
00000000: 5024 f43e 9ad4 5f3f fed6 d23f cf4c 343f
00000010: 2484 ce3f eaaa 0740 8004 a03f 0897 923f
00000020: 3af0 373f 0391 1a40 72af ef3f cfb5 7f3f
00000030: 1361 783f 8491 3c3f 3338 863f 0626 483f
00000040: e1ca 4b40 0f42 553f 9370 103f b27d 863f
00000050: 0a12 043f 610d 9d3f 0fda 793f 2978 1b40
00000060: 7b6d 453f 3fca a03f 44d2 633f 8ae9 853f
00000070: f382 0040 9616 973f d52b eb3f a452 0d3f
0.47683954 0.8743378 1.647186 0.704297 1.6134076 2.1198068 1.2501373 1.1452341
0.7185093 2.4151008 1.8725417 0.9988679 0.97023124 0.7365954 1.0485901 0.7818302
3.1842577 0.8330392 0.56421775 1.0507109 0.51590025 1.2269708 0.97598356 2.429209
0.7712018 1.2561721 0.88992715 1.0461895 2.0079925 1.1803768 1.8372751 0.55204225

bn2.running_var f4 [32]
00000000: 3add c43f 2ecb 9340 774a 3140 a4f2 3940
00000010: 3873 7640 03da a640 6886 a240 e3f8 0740
00000020: 2961 7a40 1491 e140 7508 ce40 3cad 7140
00000030: 2043 8b40 20b3 a940 7767 e440 0e75 8d40
00000040: 114b 1b41 9598 2440 b77e e33f c2f5 3240
00000050: c774 2940 14f7 7f40 163e 8b40 91e9 b040
00000060: 4c76 e43f 52aa 6940 e779 6c40 6a8b 8140
00000070: 7024 1541 a551 4d40 725d 9240 a20d 0640
1.5380013 4.618552 2.77017 2.9054346 3.8507824 5.2141128 5.078907 2.1245658
3.9121802 7.0489597 6.4385324 3.7761984 4.351944 5.303116 7.13763 4.420539
9.705827 2.5718129 1.7773045 2.7962499 2.6477525 3.9994555 4.351329 5.5285115
1.7848601 3.6510205 3.6949403 4.0482683 9.321396 3.2081082 4.573907 2.094582

conv3.weight f4 [32, 32, 5, 5]
00000000: d1ad 2e3d ea18 1b3e 6e3f 0d3e 552b 1e3e
00000010: d7ed 5a3d 871a f8bd f013 2ebd 47f5 f4bc
00000020: 905a cf3c a23f d4bd 0186 3b3d 8ba9 b63b
00000030: 9c8d 013d bbfc f6ba 8d8f 3ebc 8e8d a1bd
00000040: f0a5 f13c 56d4 4ebd 4b80 42bd fa38 1cbe
00000050: 3e00 573d 121c 4f3d 39fe 903d d5d3 b6bd
00000060: 33b4 603c 483a 10bd 402a 723d 84cb 5abb
00000070: 6fb1 fc3c d717 323c a4bd 22bc 418d be3d
00000080: 3d5f ad3c 332e a43d 5e1d 113d a094 a93c
00000090: 7262 fd3c 3bee f73c 005b ddbb 497c b2bb
000000a0: de52 053e 72bf 0a3e 0ef7 0e3e 0554 b53d
000000b0: b335 143d 2736 a83d b6b7 7e3c d98f eb3d
000000c0: c7d1 e43d 9c67 d33d 2d07 85bd c406 bc3d
000000d0: 3750 9ebc a874 76bc 23c9 0b3d b9a2 cebd
000000e0: 9689 a0bd 2364 acbd c934 f7bd 4d5c aebc
000000f0: 2ff0 1b3d 48e8 af3d a4a7 4c3d a6b3 043d
00000100: e442 72bd e575 343c 395c c4bd 1352 6ebe
00000110: 53d0 1fbe 7c05 76bb 9a65 a53e 7aba 0e3e
00000120: 6ac8 f93d b6d6 213e 910c 583e 5705 573e
00000130: 848c 993d def4 fe3d 8d57 923d 9ace 12bd
00000140: 75bd a3bd 846e a5bd 9bf3 95bd a40f 8a3d
00000150: 04ed c33d 62d2 89bd 4593 74bd 174e 14be
00000160: dffa 13bd 1c55 dfbc 9f34 12be a2ae e53c
00000170: 1b6d afbc eaa3 cd3a c1ea b13c 2430 5ebe
00000180: 670b 0abe 766b 8bbe 205b 81be 2f66 98be
00000190: 25b4 ccbd 91a7 ffbd fb7c 84be a087 a6bc
000001a0: e042 e2bd decc bc3e e21d 133e 4e7f d73d
000001b0: 0bb0 2b3e 08cf 823e fb9c 44bd fe98 95bd
000001c0: 7d27 67bd 5fc9 1e3d 2006 1a3d 85b9 31bc
000001d0: 9457 a43a 7bdb 93bd 8724 d93b 3bd6 45bd
000001e0: 8c1a a73d f780 ab3d 1091 bd3d c624 c73d
000001f0: 4435 dc3d 29b1 69be 8049 0bbe 3df9 b7be
00000200: 28e7 d6be 735c c3be f1bc ac3d 9b24 ffbb
00000210: 9458 f5bd 45f8 0ebe b87d dcbd 9d4d 4abd
00000220: 77cc f43c e7c4 783d 6130 993d 813d 063e
00000230: 824a 803e 7884 d63d 8fe3 8f3d df6c b33c
00000240: 4399 113e 01ee 3dbd 4ad3 20be 50da 65be
00000250: c524 4cbe 64b7 26be 5517 31bd 6d78 ffbd
00000260: ef2a bdbd 922f 69be cd99 92be 3662 92bc
00000270: 03ca b03c ec53 6e3d 795e 4b3d fc80 32be
00000280: 1b18 52bd 2196 b13d 9b99 453d f7f3 703d
00000290: ac94 293c 2172 f53a 8e47 703c cd79 053c
000002a0: a6d1 723d 2954 b9bd 0686 01bc 7131 98bd
000002b0: 877e 113c e690 b0bd e78f 5ebe d6ac 37bd
000002c0: defa d23d 38e3 c8bc 2443 a5bd f908 34be
000002d0: ea95 e73c b637 4e3e 6f8c 0c3e 535b 1a3c
000002e0: 5b16 dcbd 61d4 113e e5cc 823e 0508 a23e
000002f0: 7447 0bbd 1017 563d 7d52 673d 1090 7a3c
00000300: b392 823c 63f2 dfbd 5256 17be 33e7 5c3d
00000310: 8e87 cabd d7a0 5cbc 9363 2dbd 2974 3cbd
00000320: b820 30bd ef4d 1bbb 844d 48bd 7430 6fbd
00000330: 8c14 c4bd b97b ccbd 2e22 2e3c 3934 973c
00000340: 6760 1b3d 79a0 20bc 8a30 71bd 550d 11bc
00000350: 045c debd 6ca0 d1bb f09a 79bd 6fc8 a4bc
00000360: ac80 08bd 9f80 f43c b7bc 7d3d 1568 a93c
00000370: 0a81 babd 79c7 d93c 9149 5ebd 32ff 593d
00000380: 7875 773d 4cae 9c3d 45a4 b43d 23d3 d93d
00000390: e87e ca3d 03d6 093e 7da8 243e 4815 2d3e
000003a0: 93c0 493e 0041 333e 3606 383e 8504 64bd
000003b0: 7f36 1d3b 166b 373d 06ae 34bc 114a 4fbc
000003c0: 333d 52be 4b6d 84bd 1450 90bd 587c b9bd
000003d0: 0e75 b3bd 9aca 14bd a6cf c13c 93f6 ad3d
000003e0: 4d88 903d 2608 dd3d 2e11 e33d c41d 2a3e
000003f0: 3855 c1ba 8ff1 47bc 0eb0 cd3c 646e 163e
0.042646233 0.15146223 0.13793728 0.15446217 0.053449478 -0.12114435 -0.042499483 -0.029902114
0.025311738 -0.103636995 0.045782093 0.0055744103 0.03162919 -0.001884363 -0.011630905 -0.078883275
0.02949807 -0.050495468 -0.04748563 -0.1525611 0.052490465 0.05056388 0.07079739 -0.089271225
0.013714838 -0.03521183 0.059122324 -0.0033385465 0.030846326 0.010869942 -0.009932909 0.09304286
0.021163577 0.08016624 0.035428397 0.020700753 0.030930731 0.030264964 -0.006755233 -0.005446945
0.13019893 0.13549593 0.13961431 0.08853916 0.036184024 0.08213454 0.01554673 0.11502046
0.11172824 0.10322496 -0.06495509 0.09180978 -0.019325359 -0.015042461 0.034127366 -0.10089631
-0.078387424 -0.08417537 -0.12070615 -0.021284247 0.038070854 0.08589226 0.049964562 0.03239789
-0.059145823 0.011014436 -0.095879026 -0.23273496 -0.15606813 -0.003753989 0.32304078 0.13938323
0.12196429 0.15804562 0.21098544 0.2099813 0.07497504 0.124490485 0.07145605 -0.03584156
-0.079951204 -0.0807772 -0.07321855 0.067412645 0.095666915 -0.067295805 -0.05971076 -0.14482914
-0.03612792 -0.027262263 -0.14277886 0.028037373 -0.02141433 0.0015689109 0.021718385 -0.21698052
-0.13480912 -0.27230424 -0.25264835 -0.2976546 -0.09995297 -0.12483133 -0.25876603 -0.020328343
-0.11047912 0.3687505 0.14366868 0.10522328 0.16766374 0.25548577 -0.04800127 -0.073045716
-0.056434143 0.03876626 0.037603498 -0.010847454 0.0012538307 -0.07219597 0.006626669 -0.04830001
0.0815936 0.083742075 0.09256184 0.09723811 0.10752347 -0.22821487 -0.13602257 -0.3593234
-0.41973233 -0.3815647 0.08434475 -0.007786346 -0.119797856 -0.13961895 -0.107661664 -0.049390424
0.029882653 0.060734656 0.07479931 0.131094 0.25056845 0.10474485 0.07025825 0.0219025
0.14218621 -0.046369556 -0.157056 -0.22446561 -0.19935901 -0.16280895 -0.04323514 -0.12474141
-0.092367046 -0.22772053 -0.28632966 -0.017869096 0.021580702 0.058185503 0.049650643 -0.17432016
-0.05129252 0.08671213 0.048242193 0.058826413 0.010350388 0.001872603 0.0146654975 0.008146715
0.059281968 -0.090492554 -0.007905489 -0.07431305 0.008880264 -0.08621387 -0.21734582 -0.044842564
0.10301755 -0.024522409 -0.08069447 -0.17581548 0.028269727 0.2013844 0.13725446 0.009421187
-0.107464515 0.14241172 0.25546947 0.31646743 -0.03400369 0.052268088 0.05647515 0.015293136
0.015939092 -0.109349035 -0.14779022 0.053931426 -0.09889136 -0.013466082 -0.04233129 -0.046009216
-0.042999953 -0.0023697575 -0.04890205 -0.058395818 -0.095742315 -0.09984536 0.010628266 0.018457519
0.037933733 -0.009803885 -0.05888418 -0.008853276 -0.10857394 -0.0063972976 -0.060938776 -0.020115105
-0.033325836 0.029846488 0.06194755 0.020679513 -0.091066435 0.026584374 -0.054269377 0.05322189
0.06041476 0.07650432 0.088203944 0.10635974 0.09887487 0.13460545 0.16079898 0.1690265
0.19702367 0.17505264 0.1797112 -0.055668373 0.002398878 0.04477986 -0.011027819 -0.012651936
-0.20531158 -0.064661585 -0.07046524 -0.0905692 -0.08762561 -0.03632603 0.023658585 0.08494296
0.07057247 0.1079257 0.11087261 0.16612917 -0.0014750129 -0.012203588 0.025108363 0.14690548

conv3.bias f4 [32]
00000000: 33da db3e 6e1c b03e cbbf 41be 8ce0 d53d
00000010: b1c3 dfbd 90bd 873e 97cd e0bd ffed c13d
00000020: 7ec9 193e e0b4 d13d d2e4 c43e d1cd be3e
00000030: c3eb 293e 11ad cd3d 6d15 593e 6783 3e3e
00000040: 06c2 b83e 3306 85bd 5f76 563e 5e47 8a3e
00000050: 80d9 30bd d860 133e 318c 443e 7e7c 973e
00000060: 6b85 043e e63f 763f 31fb 433e 3791 0bbe
00000070: 83e7 323e 6bc6 6dbe f905 1d3d c8f6 d6bd
0.4293991 0.3439669 -0.1892082 0.104432195 -0.10925997 0.26511812 -0.10976713 0.09469222
0.1501827 0.10239577 0.38455826 0.372664 0.16593842 0.100427754 0.2119958 0.18604814
0.36085528 -0.06495323 0.20943592 0.27007574 -0.043176174 0.14392412 0.19194104 0.29587168
0.1294152 0.9619125 0.1913879 -0.13629614 0.17471127 -0.23220222 0.038335774 -0.104962885

bn3.weight f4 [32]
00000000: ac70 883f d932 843f dfd3 8c3f e802 ae3f
00000010: 4724 7e3f 59f7 9b3f fe8e 4f3f 6712 873f
00000020: a823 913f 562b 7d3f de11 8f3f 6cbf a53f
00000030: d518 7c3f 2491 373f 8147 883f 0c89 5a3f
00000040: b286 5f3f bde2 843f 79a1 623f 3763 9a3f
00000050: 84ec 873f ec6a 9d3f e908 583f fbc1 ae3f
00000060: fa3b 9e3f 8c8a 8c3f c525 8d3f 2950 493f
00000070: 437e 143f 68dd 833f 9065 563f a370 5f3f
1.0659385 1.0328017 1.1002158 1.3594637 0.99274105 1.218486 0.81077564 1.0552491
1.1339006 0.9889425 1.1177328 1.2949042 0.9847539 0.7170584 1.0646821 0.85365367
0.87314904 1.0381695 0.8852764 1.2061528 1.0619054 1.2298255 0.84388596 1.3652948
1.2362053 1.0979781 1.1027151 0.7863794 0.5800516 1.0301943 0.8374872 0.87281245

bn3.bias f4 [32]
00000000: aa16 023e 0529 e43b da89 26be 68dd ebbd
00000010: 2e44 32bd 073d 25bd 1690 c63c d1a8 c8bd
00000020: 7bd8 8e3d d91f 4fbc 9921 ab3d 76d8 563e
00000030: b524 bd3e 01fb 543e af1e 4a3e d1c1 8b3d
00000040: 7405 7abd f9a3 82bd c866 e9bd cf4d f1bd
00000050: cf7d b2bd 359b d1bd d0f2 66be 556f afbd
00000060: eedc 5ebd b4b9 6fbc f126 e7bb 1f9d 683e
00000070: a992 f33e 02dd df3e 86a0 263e e006 033e
0.12703958 0.0069628977 -0.16263524 -0.11516839 -0.043522052 -0.040341403 0.024238627 -0.09797824
0.06974884 -0.01264187 0.083560176 0.20981011 0.36942068 0.20798875 0.19738267 0.06824077
-0.061040357 -0.063789316 -0.11396557 -0.11782419 -0.08715402 -0.102346815 -0.22553563 -0.08566157
-0.054409914 -0.014631677 -0.0070542027 0.22716187 0.4757283 0.43723303 0.16272172 0.12795591

bn3.running_mean f4 [32]
00000000: 35f7 cc40 3b7a b740 6f2b ad40 6779 7840
00000010: ba7e 8340 7216 c540 12f6 ed3f 6962 3a40
00000020: 3aca 2140 6d4e 8b40 d782 cc40 3fcb 8240
00000030: 9a76 6e40 7f93 f840 104f 6340 4048 0c41
00000040: 26c9 1441 53ed 3a40 9983 a940 fcbf f540
00000050: ffb4 2d40 362d cc40 5f44 8840 0da9 4e40
00000060: bae8 a440 5862 2941 a9b4 8e40 d850 4440
00000070: 53ae 1841 f381 4f40 78d1 8940 41da 6e40
6.4051766 5.7336707 5.411552 3.8824098 4.1092196 6.15899 1.859072 2.9122565
2.527968 4.3533235 6.3909717 4.0873103 3.7259889 7.768005 3.5517006 8.767639
9.2991085 2.9207351 5.297314 7.6796856 2.7141721 6.380519 4.258346 3.229068
5.153409 10.58651 4.4595532 3.0674343 9.54256 3.2423065 4.30682 3.7320712

bn3.running_var f4 [32]
00000000: 6878 4742 72ac 4e42 d4e3 1f42 f2ad 2642
00000010: 9e5a de41 2f19 bf42 1ec3 7241 da4a fb41
00000020: 3a01 a841 bbb7 e741 b515 2b42 7040 b841
00000030: 17a1 ec41 d26f 7c42 f2f3 be41 5999 c942
00000040: 5988 a742 6fdf b741 fdeb 6a42 02dd 6642
00000050: 6e14 f141 6886 8e42 78ba 0942 d019 0342
00000060: 56b8 7542 7023 1143 c2a2 3042 edcc c241
00000070: a145 2743 439e 1742 637b 4742 657f 0742
49.867584 51.668404 39.97249 41.66987 27.794247 95.54919 15.172636 31.411549
21.000599 28.964712 42.7712 23.031464 29.578657 63.1092 23.869114 100.79951
83.766304 22.984098 58.730457 57.715828 30.134975 71.26251 34.4321 32.775208
61.430016 145.13843 44.158943 24.350061 167.27199 37.904552 49.870495 33.87441

cnn.0.weight f4 [8, 2, 5, 5]
00000000: 033f b4be cfad a0be 3b50 8cbe 6abe a3be
00000010: d407 1ebe 130d 1cbe 22b0 e1bd e5d0 f83d
00000020: c938 933d a11e 8a3d e420 7d3d 05b0 bf3c
00000030: e94a 6d3d c49a 5f3e cd98 013e 090a 663d
00000040: 1a3d af3c e6a3 6c3d dd0d d13d 3b76 8d3e
00000050: 9689 08be bc60 9a3d 13f0 53bd f3a8 c2bd
00000060: cad9 96bd ea23 c0be f2fc d5bd b9e8 93be
00000070: bcfd debd 383b 48be 2ad8 13be 25d6 e7bc
00000080: 8c2e 9e3d 8dc3 de3c da67 c6bc ff84 abbd
00000090: 904c 003e 462b bd3d 26db f33d 0a84 993e
000000a0: 2015 f6bc 9dfb 433d 64ba 853e bc4b ba3d
000000b0: d9d7 253e 68c2 15be de69 47bd 70a7 8a3c
000000c0: 9d66 113d 8c50 b53c 313a 6d3d ee80 403c
000000d0: 65a2 c03c 6dbe 613d 5e88 87bd 6a56 4a3e
000000e0: 4a7a df3d 993a 333d 9678 f0bc fa81 7cbe
000000f0: 72a9 ac3d 3982 553d c0f6 643e f3b6 0dbe
00000100: 99f2 33be 0da4 253e 5957 993d 7c26 3fbc
00000110: f916 5dbd 0905 1dbe fcc3 a73d 34b7 a43d
00000120: 86dd 533c 306b 4ebe 1bdc 4bbe 47f4 473e
00000130: 9681 b43d 245b 5dbd 2791 cfbd 7683 7bbe
00000140: f245 973d 9a21 ad3c 1dd2 3dbc 3b05 8bbd
00000150: f522 d0bd 4b4f 5fbd de89 edbc 88b7 793e
00000160: e7b1 49bd 84e5 96be 22b8 363e b87e ba3d
00000170: 1623 473e ccac cbbd 70da 18be 0d5e 443e
00000180: 0175 713e 30aa 453e 32ee f1bd e6f5 76be
00000190: c38a c63d 2621 1e3d ea98 b3bd cd49 56be
000001a0: 7293 6dbc d93b cebd 6040 4fbe 8a63 a4bd
000001b0: 1d8c 58be 5b06 24be cc6a f1bd 9808 1cbe
000001c0: 3268 f1bd 46b9 d1bd 87c6 8dbd 2cfd 5a3e
000001d0: e34f 013e 7aa7 9a3e 02b0 8e3e 8714 9b3e
000001e0: 4452 d5bd 1078 25bd 6970 243d 268b 433e
000001f0: 5417 803d 0eaf c93d 8c4a 883d 4a1b 523c
00000200: c20c 88bd 045f 61be 66fe 05be 4a51 14bd
00000210: 7412 83be 3c30 6abe 5a3d 1ebe d04d cdbd
00000220: ef06 853c cc92 e8bd 4864 e4bd 9da4 a43d
00000230: a8e2 333e bfcc 9e3e 7e27 453e 5950 b33e
00000240: 0710 c93d ebca d3bd 9a0a a53d e163 963d
00000250: 8440 ff3c 7450 a23d 29a8 b43d 194d 67bc
00000260: 1a20 8c3d c0b2 8dba aabe 943c a428 1abe
00000270: dc8a 1f3e 1fd0 c73d db59 3f3e cf0c 023e
00000280: 7629 39be f8ee 87be 5360 7ebe 7387 57be
00000290: b665 fabd 6839 a63a 37f7 503e bea2 d93c
000002a0: bbbc 55bc 56bb 1dbe bb1c de3d 59e2 873e
000002b0: 1b77 023e 0cc7 7d3e b783 d63d e7d1 0d3e
000002c0: a382 47bd 686d 1b3d fca2 443e ce66 0b3d
000002d0: 5b45 00be 5458 a63d 9043 adbd 60f6 963d
000002e0: 4610 e83c 65ce 16be be53 99bd 017e 12be
000002f0: c13b 35be 6e0e 56bd 924c b23d 946e 583e
00000300: 34ed 0f3e 75fa e8bd 9f0c afbc 014a 5f3e
00000310: 05c0 e23d 612d c63d 5dd2 673d e6cc 493c
00000320: 79af f6bd 51e2 f4bd 1fbe 25be 4707 50bd
00000330: 9844 1a3e 742c 3e3b 8cf4 54be d7b2 97b9
00000340: d21f c83d 0575 a83d 2ca0 89bd c48c a8bd
00000350: 4bb2 0fbd 93b4 863d 01c7 bd3d 8d6c 9fbc
00000360: c1f8 80be be47 c63d ebb8 b93d be07 9bbc
00000370: 5624 5dbe 1624 0abe f7d1 2a3e ec3c 613e
00000380: 145d 21bd 9fb4 78be f0f6 3fbc 5a69 653d
00000390: ba19 273e e115 6f3e 3085 20be 09c2 fdbd
000003a0: e09a 6dbd da6d 553e 48bb eb3d 7e56 00bd
000003b0: 9f0e 62be 3711 86bd 5c48 593e f6ba cf3c
000003c0: 1b12 d1bd 5bc6 44be d01a 0e3e 7bef d13d
000003d0: ef62 c23d 1eab 20bd 5f34 fabd 267f 593e
000003e0: abf4 0f3e ed47 993d dbd5 e83c d52e f23d
000003f0: ea96 2b3e cf1a 30be 427b 073d 74c3 243e
-0.35204324 -0.31382605 -0.2740496 -0.31981212 -0.15432674 -0.15239362 -0.11019923 0.121492185
0.07188565 0.06744123 0.061798945 0.023399362 0.057932768 0.21836382 0.12655945 0.056161914
0.02139144 0.057773493 0.10207722 0.27629265 -0.13333735 0.07537982 -0.051742624 -0.09504881
-0.07365759 -0.375274 -0.10448636 -0.2888849 -0.1088824 -0.1955384 -0.14437929 -0.028300354
0.07723722 0.027192855 -0.024219442 -0.08374976 0.12529206 0.092367694 0.119070336 0.2998355
-0.03003937 0.04784738 0.26118767 0.090964764 0.1619562 -0.14624941 -0.048684947 0.016925544
0.03549825 0.022133134 0.057916824 0.011749489 0.023514936 0.055113245 -0.06617807 0.19759527
0.10911997 0.043757055 -0.029354375 -0.24658957 0.08430757 0.052126143 0.22359753 -0.13839321
-0.17573012 0.16175862 0.07487363 -0.01166689 -0.053976987 -0.15333952 0.08191678 0.08042756
0.012931233 -0.20158076 -0.19908182 0.19526778 0.08813779 -0.054041997 -0.101351075 -0.24561867
0.07386388 0.021134187 -0.011585739 -0.06788107 -0.101629175 -0.05451898 -0.028996404 0.24386418
-0.049241927 -0.29471982 0.17843679 0.09106201 0.19446978 -0.09945068 -0.14927077 0.19176503
0.2357979 0.19303203 -0.1181301 -0.2411724 0.096944354 0.03860583 -0.087694004 -0.2092659
-0.014500486 -0.10070009 -0.20239401 -0.08026798 -0.21147199 -0.1601805 -0.11787948 -0.15237653
-0.11787452 -0.10240416 -0.06922632 0.2138564 0.1262813 0.302059 0.27868658 0.302891
-0.104160815 -0.040397704 0.040146265 0.1909605 0.062544495 0.09847842 0.06654844 0.012823889
-0.06643058 -0.22008902 -0.13085327 -0.036210336 -0.25600016 -0.22869962 -0.15453091 -0.10024607
0.016238658 -0.11356124 -0.1115194 0.0803921 0.17566931 0.31015584 0.19253346 0.35022238
0.0981751 -0.10341438 0.08058663 0.07343269 0.031158693 0.079255015 0.088211365 -0.014117503
0.068420604 -0.0010810718 0.018157322 -0.15054566 0.15580314 0.09756493 0.18686621 0.12700199
-0.18082222 -0.26549506 -0.24841432 -0.21047764 -0.12226431 0.0012681903 0.20406805 0.02656686
-0.013045485 -0.15403494 0.10845324 0.26539877 0.12740748 0.24782962 0.10474341 0.13849603
-0.04870857 0.037946135 0.19202799 0.03403359 -0.12526457 0.08122316 -0.08460152 0.07371211
0.028328072 -0.14727171 -0.07486676 -0.14305879 -0.17698576 -0.052259855 0.08706011 0.21135932
0.1405533 -0.11375896 -0.021368323 0.21805574 0.11071781 0.09676624 0.056597102 0.012316918
-0.120451875 -0.11957229 -0.16185807 -0.05078819 0.15065229 0.0029018195 -0.20796412 -0.0002893421
0.09771694 0.08225445 -0.067200035 -0.08229974 -0.035082143 0.065774105 0.092664726 -0.01946094
-0.25189784 0.096816525 0.090684734 -0.01892459 -0.21595892 -0.13490328 0.16681658 0.21995896
-0.039395407 -0.24287651 -0.011716589 0.056008674 0.16318408 0.2334819 -0.15675807 -0.12390525
-0.05800903 0.20842686 0.115103304 -0.031332485 -0.2207589 -0.06546252 0.21219009 0.025357705
-0.102085315 -0.19216292 0.13877416 0.102507554 0.09491526 -0.03922569 -0.1221702 0.2123991
0.14058177 0.07484422 0.028422287 0.11825339 0.16756788 -0.17197727 0.033076532 0.16090184

cnn.0.bias f4 [8]
00000000: 2903 48be 739b aabe 2764 ca3e 7e94 d5be
00000010: fcf9 87be 6ae0 94be 32e5 9abe 8ae6 98be
-0.19532456 -0.33321723 0.39529535 -0.41714853 -0.2655791 -0.29077464 -0.30252987 -0.29863387

cnn.2.weight f4 [8]
00000000: 0455 1b3f 45a1 903f de38 9b3f ecdb 323f
00000010: efbe 6c3f 1b87 633f 275a 563f a03c 943f
0.606766 1.1299216 1.212673 0.69866824 0.9247884 0.8887803 0.8373131 1.1581001

cnn.2.bias f4 [8]
00000000: 779a 9d3e c63b 62be 3625 1ebc d459 56be
00000010: d00a 78be ecc5 1b3d 3770 00be 7ef7 69be
0.3078191 -0.22093114 -0.0096524265 -0.20932704 -0.24222875 0.03803055 -0.12542807 -0.22848317

cnn.2.running_mean f4 [8]
00000000: c9b3 b83e ad37 a53e c80d ed3e 283c 5e3e
00000010: 0517 9d3e 5556 023f 415f 1b3f 6aaf 603e
0.36074665 0.3226904 0.46299577 0.21702635 0.30681625 0.5091298 0.6069222 0.21941915

cnn.2.running_var f4 [8]
00000000: d662 cd3e 5e1c 0f3f f725 c83e 4bc2 6a3e
00000010: dcd0 0e3f 9731 203f 3fed 863f c050 653e
0.40114468 0.5590266 0.39091465 0.2292568 0.55787444 0.6257567 1.0541152 0.22394085

cnn.3.weight f4 [32, 8, 5, 5]
00000000: 3e3c 30be ac09 f4bd f705 fabd 87e7 febd
00000010: c68b d2bd d10e 2dbe 173f 26be 9d4d 58be
00000020: fa0b bebd d174 fabd 8411 edbc 1492 4cbc
00000030: f66f af3d 6584 a73d ccb9 ff3c aad0 643e
00000040: b9cd 8d3e 7011 753e 9db2 5c3e 1892 55bc
00000050: 8d7e 543b ee3a 153e 191a f73d ab22 84bd
00000060: 1a16 c0bd 297b adbd 1755 c9bc d5ff 6bbe
00000070: 1f1f 23be 49e0 eabd 8cdf 88bd ba1f ccbd
00000080: 5c17 00be fcd9 67be 0142 17be 0b23 523d
00000090: c840 aebd 5f8e ca3c 4607 00bd bb87 ea3d
000000a0: 8202 5d3d 21db c23d a442 883e 4732 d53e
000000b0: c0e3 133e 003c 85bd c014 bd3d 3f0f a43e
000000c0: dce6 bd3e 7482 873d 54bc 1cbd 6243 8ebd
000000d0: 57df 7fbd bc19 77bd 6ae5 773d 83e0 5abe
000000e0: 98b6 19be 0ff7 07be 6c9e 03be e2ca 52bd
000000f0: bc19 843d 4b37 1b3e 05a5 063e 982a 503d
00000100: fcc5 943d 8128 5d3d e1a9 a53d 39f5 193e
00000110: 7611 f0bc 9f50 3fbe 8e3d 263e 4a64 cf3d
00000120: 4d52 ad3b c63c e0bd f10e 50be 2327 04be
00000130: fa72 62bd d586 eebd ab64 a7bb 83ee 0bbb
00000140: fe57 9d3d 6f37 87bd b23a 19bc c63c 8c39
00000150: c4a2 87bc e759 263e 5b41 383d ce58 883d
00000160: d0e3 9a3d 8b0a 543e cf7f bc3d 6cf9 5f3d
00000170: c134 f83d 90d7 4d3e 1bde 553d 9988 e4bd
00000180: a0eb 15bd 78dd b0bd d7c0 1ebe c6b6 6ebe
00000190: 366f 37be b2bf 173c d3b2 8a3c 8193 543d
000001a0: dbc7 983d 8fec 14be c202 26be aed0 83bd
000001b0: 3efc 963d ee12 f53c b9b0 fb3a 2331 f93d
000001c0: 8a2b 663c 28f6 483e a937 283e 3767 1c3e
000001d0: a958 bd3e ef0a 7f3e bf48 4f3e c57e 5d3e
000001e0: 7ab2 be3d 1dd5 843e 78bc a23d 8e50 b13d
000001f0: 8203 f73d 43a6 25bd fe34 13bc ca76 21be
00000200: 22f1 2ebe 9e8a 25be 69b4 073e 7a44 e83c
00000210: 2eb8 1c3d b79f 8439 79fe adbd 0515 423e
00000220: 04fa 363e c1a3 d03d a563 143d 1138 d53d
00000230: 9c32 8a3e 4c06 663e 4afe 033e e580 273e
00000240: e311 123e 8325 9f3c 8b9a 233d 6fd5 853c
00000250: a9e8 29bd b309 833d 108f c2bc 0fb8 fe3b
00000260: 17ae a83c 1b9c e03b ebf5 663c 2abb 84bd
00000270: 9a30 e1bd cac1 1fbe ff3b c8bd a097 adbd
00000280: a741 8f3c 3a30 ce3b 521e 8ebd 47ec 24bd
00000290: 5f04 c53d d48c 493e c224 273e f5b4 463d
000002a0: 077b 143e 6d1f 363e f187 5ebd 32e9 dcbc
000002b0: 376d a53d 9080 533d d9d3 aa3d 5055 bdbd
000002c0: 2e44 58be 74b4 b3bd 821b eebc ab18 febb
000002d0: 107f 01be b358 22be 1b94 4fbe 16f0 32bd
000002e0: 6d3a 01be 750a e23d bafd 693e 4aa9 623d
000002f0: 122b d63d 8f42 003d dab4 043e 93f8 17bd
00000300: aa4e 07bd 4103 233e 011d 773d b32d aebc
00000310: 216c 623d 40e3 ff3d 00ac 373e 488f 2d3e
00000320: da4a 9d3c d85d 89bd 8037 bbbc 9c91 f6bc
00000330: 588c 92bd 18e0 d9bb 2442 49bd d1cf b8bd
00000340: d9d3 b0bc 71c1 4bbe 1cf7 f2bb 0c80 2d3c
00000350: 213f 0fbd a19c 89bd a0f2 f93c c8c3 bbbc
00000360: 0e57 40be 3bfb 52bd 696e 8abd ce1f 18be
00000370: d827 433c dabf b83c b248 1c3d 2b58 21be
00000380: 0892 25be 6b14 fe3d e5bc cf3d 4d43 ca3d
00000390: aa65 a53d d8ae 0e3e 3c87 3a3e e8cd 0e3e
000003a0: 0d01 f03a c80f 9f3c af90 0a3d d42b b43c
000003b0: 842f f8bd 3e3b 1cbe 54d2 c83a 449d 45bd
000003c0: 952b 403e 7ae5 14be 649d 793d de75 e83d
000003d0: 4ae5 893d 1eeb 703e f960 b53c 89eb 803e
000003e0: 4038 4d3e e220 313e a912 b13d b405 043e
000003f0: c1e9 ec3c d96b 183e 2878 7f3d e91a 5e3d
-0.1721048 -0.11915907 -0.12208169 -0.12446504 -0.10280566 -0.16900183 -0.16235004 -0.21123357
-0.09279628 -0.12229312 -0.028939016 -0.012486 0.08566277 0.08179549 0.031216525 0.22345224
0.27696016 0.23932433 0.2155251 -0.01303532 0.0032424063 0.14573261 0.120655246 -0.06451925
-0.093792155 -0.084707566 -0.024576707 -0.23046811 -0.1592984 -0.1146856 -0.06683263 -0.09966989
-0.12508911 -0.22641748 -0.14771272 0.05130295 -0.0850845 0.024726091 -0.031256936 0.1145167
0.05395747 0.09514452 0.26613343 0.4163992 0.14442348 -0.06505585 0.092324734 0.32042882
0.37090194 0.06616679 -0.03826554 -0.06946446 -0.062468853 -0.060327277 0.06052152 -0.21374707
-0.1501106 -0.13277839 -0.12853402 -0.051463015 0.06450221 0.15157811 0.13148887 0.05082187
0.07264325 0.053993706 0.080890425 0.15034951 -0.029305201 -0.18683098 0.16234419 0.101265505
0.005289352 -0.109490916 -0.203182 -0.12905554 -0.05528543 -0.11646811 -0.005108436 -0.002135188
0.07682799 -0.0660237 -0.009352373 0.0002674816 -0.016557105 0.16245233 0.044984203 0.06657563
0.07562983 0.20707147 0.09204065 0.054681227 0.12119437 0.20101762 0.05221377 -0.111588664
-0.036601663 -0.08635992 -0.1550325 -0.2331191 -0.17913517 0.009262012 0.016930973 0.051898483
0.074599944 -0.14543365 -0.1621199 -0.06436287 0.0737233 0.029916253 0.0019202448 0.12167575
0.014048466 0.19625151 0.16427483 0.15273748 0.36981705 0.24906515 0.20242594 0.2163039
0.093113855 0.25943843 0.07946104 0.08657943 0.12061216 -0.040441763 -0.008984802 -0.1576797
-0.17084172 -0.1616616 0.13252415 0.028352965 0.038261585 0.00025296 -0.084958024 0.18953331
0.17868811 0.101874836 0.03622784 0.104110844 0.26991737 0.2246334 0.12889972 0.16357763
0.14264636 0.019427067 0.039942306 0.016337125 -0.041481648 0.06398334 -0.023749858 0.0077734063
0.020590825 0.0068545467 0.014096717 -0.06481011 -0.10995598 -0.15601268 -0.09777068 -0.08476186
0.01748736 0.00629237 -0.06939377 -0.040264394 0.09619974 0.19682628 0.16322616 0.048512418
0.14500056 0.17785425 -0.054328863 -0.026966665 0.08077472 0.05163628 0.08341188 -0.09244788
-0.21119758 -0.08774653 -0.029065851 -0.0077544055 -0.12646127 -0.15854149 -0.20271342 -0.043685995
-0.12619944 0.11037151 0.22850695 0.055337228 0.10457434 0.031313475 0.12959614 -0.037102293
-0.033034004 0.1591921 0.060330395 -0.021262025 0.0552789 0.124945164 0.17936707 0.16949189
0.019200731 -0.067073524 -0.022853613 -0.030098729 -0.07155675 -0.0066490285 -0.049135342 -0.09024013
-0.021585392 -0.19898011 -0.0074147116 0.010589611 -0.034972314 -0.06719328 0.0305112 -0.022920504
-0.18783209 -0.051509123 -0.0675934 -0.14855883 0.011911355 0.02255242 0.038155265 -0.1575629
-0.16168988 0.12406238 0.10143451 0.09876118 0.080760315 0.13933885 0.1821565 0.13945735
0.001831086 0.019416705 0.033829387 0.021993555 -0.12118438 -0.15256974 0.0015321472 -0.048245683
0.18766625 -0.14540663 0.060941115 0.113506064 0.067331865 0.2352719 0.022140967 0.251797
0.20040989 0.172977 0.08646137 0.128928 0.028920056 0.1488489 0.06237045 0.054224882

cnn.3.bias f4 [32]
00000000: 69a6 c2be 542d d8be fb78 373e 1f9a 95be
00000010: fd17 c8be 4892 2d3e d38d af3d 0edd 94be
00000020: 4e16 29bf fbe0 50be 4723 abbd 8505 a0bd
00000030: 85b9 91be 7406 1ebf ac0b 05bf 475e 8bbe
00000040: edcb b03c da8a cabe 4c4f 8cbe 4326 bcbe
00000050: 0194 c3be 9a58 27be 1a86 8bbe 2c62 053d
00000060: 09e3 9bbd 87d7 69bd 283f a6bd 7cf3 80bd
00000070: 503a 85be 54d7 a3be 4cb1 eebd 89a0 85be
-0.38017586 -0.42222083 0.17917244 -0.29219148 -0.39080802 0.16950333 0.08571973 -0.290749
-0.6604966 -0.20398323 -0.08356338 -0.07813553 -0.28461853 -0.61728597 -0.51970935 -0.27220365
0.021581614 -0.3955906 -0.2740425 -0.3674794 -0.38198856 -0.16342393 -0.2725075 0.032564327
-0.07611663 -0.05709031 -0.08117515 -0.06296441 -0.2602105 -0.3200022 -0.116549104 -0.2609904

cnn.5.weight f4 [32]
00000000: 65d9 6e3f 4cf9 703f 90d1 803f e177 733f
00000010: fda2 903f f6a5 8a3f 784b 5f3f df29 823f
00000020: dc14 603f f967 7c3f ad38 453f 113e 6b3f
00000030: bd01 843f 500f 653f 2b6c 623f 8382 703f
00000040: 2b6e 7a3f 4f94 893f 8483 833f cf63 393f
00000050: 0583 5b3f a2b7 4e3f 4410 5e3f 357d 933f
00000060: 0573 823f 44d2 593f a712 733f b9e8 933f
00000070: a780 423f 9ee3 973f a2c7 a23f b50a 793f
0.9330047 0.94130397 1.0063953 0.95104796 1.129974 1.0831897 0.8722453 1.0169028
0.8753183 0.9859615 0.77039605 0.9189158 1.031303 0.8947649 0.884463 0.93949145
0.9782435 1.0748385 1.027451 0.7241792 0.85746795 0.8074895 0.8674357 1.1522585
1.0191351 0.85086465 0.94950336 1.1555396 0.7597756 1.1866338 1.2717173 0.9728196

cnn.5.bias f4 [32]
00000000: 6635 143d 4f11 483e 1549 f9bc c8ce 35be
00000010: 73e3 e13c dc3d a9be 2de3 00be a74f c4be
00000020: dc0b 123c a4ee 823e c8e3 03be 4865 b4bd
00000030: e793 013e bd84 073e 89e9 fe3d 7abf b83d
00000040: ff0f 913e b1f8 a33e 1423 febd 64de 2abe
00000050: 772f a43e f861 7b3e 3b6f 923e cd79 34be
00000060: e571 a6be fdaa 24bd d92a c63d 63c1 533e
00000070: 12f2 1a3f e868 ecbd 943a 943e 6c07 523c
0.036183737 0.19537853 -0.030430356 -0.17754662 0.027574277 -0.33055007 -0.1258666 -0.3834202
0.00891396 0.25572693 -0.1287986 -0.0880838 0.12654077 0.1323423 0.12446887 0.09020896
0.28332517 0.32025674 -0.12409034 -0.16686398 0.32067463 0.24549091 0.28600487 -0.17624588
-0.3250877 -0.04020213 0.09676141 0.2067924 0.6052562 -0.11543447 0.28950942 0.012819152

cnn.5.running_mean f4 [32]
00000000: 5024 f43e 9ad4 5f3f fed6 d23f cf4c 343f
00000010: 2484 ce3f eaaa 0740 8004 a03f 0897 923f
00000020: 3af0 373f 0391 1a40 72af ef3f cfb5 7f3f
00000030: 1361 783f 8491 3c3f 3338 863f 0626 483f
00000040: e1ca 4b40 0f42 553f 9370 103f b27d 863f
00000050: 0a12 043f 610d 9d3f 0fda 793f 2978 1b40
00000060: 7b6d 453f 3fca a03f 44d2 633f 8ae9 853f
00000070: f382 0040 9616 973f d52b eb3f a452 0d3f
0.47683954 0.8743378 1.647186 0.704297 1.6134076 2.1198068 1.2501373 1.1452341
0.7185093 2.4151008 1.8725417 0.9988679 0.97023124 0.7365954 1.0485901 0.7818302
3.1842577 0.8330392 0.56421775 1.0507109 0.51590025 1.2269708 0.97598356 2.429209
0.7712018 1.2561721 0.88992715 1.0461895 2.0079925 1.1803768 1.8372751 0.55204225

cnn.5.running_var f4 [32]
00000000: 3add c43f 2ecb 9340 774a 3140 a4f2 3940
00000010: 3873 7640 03da a640 6886 a240 e3f8 0740
00000020: 2961 7a40 1491 e140 7508 ce40 3cad 7140
00000030: 2043 8b40 20b3 a940 7767 e440 0e75 8d40
00000040: 114b 1b41 9598 2440 b77e e33f c2f5 3240
00000050: c774 2940 14f7 7f40 163e 8b40 91e9 b040
00000060: 4c76 e43f 52aa 6940 e779 6c40 6a8b 8140
00000070: 7024 1541 a551 4d40 725d 9240 a20d 0640
1.5380013 4.618552 2.77017 2.9054346 3.8507824 5.2141128 5.078907 2.1245658
3.9121802 7.0489597 6.4385324 3.7761984 4.351944 5.303116 7.13763 4.420539
9.705827 2.5718129 1.7773045 2.7962499 2.6477525 3.9994555 4.351329 5.5285115
1.7848601 3.6510205 3.6949403 4.0482683 9.321396 3.2081082 4.573907 2.094582
