models/paragon_speech.model (torch, 291933 bytes, 78 tensors)

conv1.weight f4 [8, 2, 5, 5]
000000 9a 63 00 3e c2 89 cf 3d 19 9f 17 3c e0 e5 13 bc
       0.12537995 0.10133697 0.00925424 -0.009026974
000010 93 64 16 bc c8 d1 59 3e 40 3d 81 bc 57 08 87 3c
       -0.009179252 0.21271431 -0.015776277 0.016483469
000020 1c ae 96 bd a4 4a d5 3d c4 36 58 bd ce f7 8a be
       -0.073574275 0.10414627 -0.052786604 -0.27142185
000030 f7 2d 86 be b5 6f 01 be 58 ee 0e be 8f c7 67 bd
       -0.26206943 -0.12640269 -0.13958108 -0.0565868
000040 07 5c 56 bd 0a d0 b0 3c d2 0f 8d 3c d6 86 76 3b
       -0.052333858 0.021583576 0.017219458 0.003761699
000050 8a c7 40 bd 58 62 8d 3d 2e dc 43 be 49 73 16 be
       -0.047065295 0.06903523 -0.1912696 -0.14692415
000060 e5 96 4c bd 1f 1b e2 3d 43 d9 44 3e 29 dc c0 bd
       -0.04994859 0.11040329 0.19223504 -0.09416992
000070 47 1d 27 3e 3c ab 08 3d 89 8f 28 3e 5f 37 29 bb
       0.16319762 0.033366427 0.16461004 -0.0025820357
000080 3b 53 7b bd b2 09 61 bd 09 44 76 3d 79 6b 32 be
       -0.06135867 -0.054940887 0.060123477 -0.1742381
000090 d7 a7 38 be 8a d5 93 be 97 76 d9 bc 5d 2a 0f 3d
       -0.18032776 -0.28873855 -0.026545806 0.03495251
0000a0 15 8a 98 bd 49 d6 d5 bd 74 c0 cd bc 51 57 c7 3d
       -0.07448212 -0.10441262 -0.025116183 0.09733451
0000b0 7a 9a c2 bd 1f 9e 26 be d7 4e 09 3d b6 15 51 be
       -0.0950212 -0.16271256 0.033522453 -0.20418438
0000c0 97 24 61 bd 4f 45 4c 3d 5f b3 19 3d 20 b7 ce bd
       -0.054966535 0.049870785 0.037524577 -0.10093522
0000d0 f2 4f e2 3c d9 0e 09 be 7c 23 9f 3d ed 5d d7 3d
       0.027626012 -0.1338457 0.0777044 0.10515962
0000e0 07 5d 8f 3d f4 5a 39 bd 50 07 d2 bc a1 3f 1e 3d
       0.070001654 -0.045252755 -0.025638252 0.0386349
0000f0 b7 5b 04 3e 37 8d de bd f2 7a 64 bd 1d 60 4d be
       0.12925611 -0.10866778 -0.055781312 -0.20056196
000100 17 d8 8c 3d 65 a5 8d 3e 15 bb bd 3d ef a6 75 bd
       0.06877153 0.2766525 0.09264199 -0.059973653
000110 ab 30 f4 bd ac c5 0c be 80 5e 94 3d f6 74 d7 3d
       -0.11923345 -0.13747281 0.07244587 0.105203554
000120 fa 06 0a be 86 18 a6 bc e8 fc 5e 3d f0 43 16 3e
       -0.13479224 -0.020275366 0.05444041 0.14674354
000130 b6 7c 8f 3d 3d 9d 0b be bd 88 ce bd 5b 8a e2 bd
       0.070062086 -0.136342 -0.100846745 -0.110615455
000140 0f 4d ab 3b ee 58 4d bd 35 6c f4 bd bf 6b 68 bd
       0.005227692 -0.050133638 -0.11934701 -0.05674338
000150 00 46 e7 3c 25 23 03 3e 22 ec 22 bd e8 70 6e 3d
       0.02823162 0.12806375 -0.039775975 0.058213145
000160 be 8f 02 be 6b eb a8 3d 6a b7 3d 3e 6f d8 bf 3d
       -0.12750146 0.082480274 0.18526998 0.09367453
000170 2c 27 1a be ac ca 31 3c aa 2e aa bc d0 f9 0d 3e
       -0.15054005 0.010851543 -0.020774204 0.13864827
000180 4b af dc 3d 12 c0 0b be 43 04 ad bd a2 b8 14 3d
       0.10775622 -0.13647488 -0.084480785 0.036308892
000190 42 03 40 be 88 e8 11 be 22 75 a2 bc a2 79 ab bb
       -0.18751243 -0.1424886 -0.019831244 -0.0052330056
0001a0 f9 2c 33 bd 09 13 f4 3d a7 9a 5c 3d 02 f1 c9 3d
       -0.04374406 0.11917693 0.053858425 0.09860422
0001b0 83 c2 cc 3d 14 28 16 3d c3 11 34 bd 35 ec c5 3d
       0.09998038 0.036659315 -0.04396225 0.096641935
0001c0 22 66 19 3e 66 54 4e bd bc f6 e2 3d 1f bf 73 be
       0.14980367 -0.050373457 0.11082217 -0.23803376
0001d0 3a f5 47 be 37 9b 22 3d c8 67 d1 bd 1f 56 05 bd
       -0.1952714 0.039698806 -0.10224873 -0.032552835
0001e0 e7 0e 9e be 0f 2d 76 be 48 55 f5 bd 71 87 18 3d
       -0.30870745 -0.24040626 -0.11979157 0.037238542
0001f0 2a 3a ee 3c ce 17 74 bd 8c 2b f7 bd 27 dc 53 bd
       0.02908047 -0.059593014 -0.12068853 -0.051723626
000200 19 27 55 3b 4b c4 21 3d fd 91 d1 3c 5c a2 6f bd
       0.0032524525 0.03949384 0.025582308 -0.058504447
000210 db 25 11 3e ea fd 62 bd 67 5a 2f 3e 19 d1 1d 3b
       0.14174597 -0.055417933 0.1712433 0.002408093
000220 30 f4 85 bb 35 b8 79 3d 93 c5 f5 bd a9 6a ef 3d
       -0.0040879473 0.06096669 -0.12000575 0.11690266
000230 a2 d6 5e be c2 19 98 3c e5 26 fd bd be ce 85 bc
       -0.21761563 0.01856697 -0.12360934 -0.016333934
000240 9b 26 b6 3b de cd ad bd b8 81 34 3d 7d 42 05 be
       0.0055588013 -0.08486532 0.044069022 -0.13013645
000250 77 01 9d 3c 46 4c e6 3d 12 dd 71 bd 4a 36 fb bd
       0.019165738 0.11245017 -0.05904872 -0.12266214
000260 1c 04 6c bd 41 40 8f bd 5c dc 7a 3d e0 89 0c be
       -0.057621107 -0.06994677 0.061245307 -0.1372447
000270 e9 66 8f bd a6 d1 e1 bd 30 a2 27 3e 9f f9 66 3e
       -0.070020504 -0.110263154 0.16370463 0.2255616
000280 2b 24 6b 3c c1 d5 c0 bd 4a 1c a0 bd af 7f 30 3e
       0.014351885 -0.0941577 -0.07817896 0.17236207
000290 84 65 8d 3d 0b 18 05 be f4 30 3f 3d 13 9b 3e 3c
       0.06904128 -0.12997453 0.046677545 0.011633652
0002a0 96 06 56 3d d6 37 f0 3d 66 ce 24 be 03 db 13 be
       0.052252375 0.117294 -0.1609436 -0.14439015
0002b0 42 32 84 bc ae 63 a3 3c 23 a1 de 3d a8 ab c5 3d
       -0.016137246 0.019944992 0.10870578 0.096518815
0002c0 f0 77 a0 bd d7 1c 3e 3d 17 0a 0a 3c 7e 0d b6 3d
       -0.07835376 0.046414223 0.008425257 0.08889292
0002d0 c9 47 e8 bd 24 56 d8 bd 0c c1 92 3b 7e 3e 1f 3e
       -0.11341817 -0.10563305 0.0044785794 0.15551183
0002e0 d9 09 3d 3e 20 5e 1e be bf 07 ef bc a6 b0 a9 bc
       0.18460788 -0.15465593 -0.029178498 -0.020714115
0002f0 fe 1f a8 3c 53 84 71 bc 45 db 34 be d0 96 29 bd
       0.020523068 -0.014741021 -0.1766177 -0.04140359
000300 1f 4e 4b 3c 8b 00 54 3d dc 41 14 3d a3 a2 12 3d
       0.012408762 0.05175833 0.03619562 0.035799634
000310 cc 20 01 bd e0 14 00 be b4 36 18 3e 0c 27 b0 bd
       -0.03152542 -0.12507963 0.14864618 -0.086011976
000320 0f b6 3a 3e 87 38 0d 3e 33 62 87 3e 20 17 10 3e
       0.18233512 0.13791095 0.26442108 0.14071321
000330 44 25 fd 3c 12 a8 9a 3d e9 2b 96 3d a2 83 f6 bc
       0.030901559 0.07551588 0.07332594 -0.030092064
000340 61 fb 7c 3c 7a 49 68 bd c7 88 39 bd 33 3f ba 3d
       0.015440793 -0.056710698 -0.045296457 0.090940855
000350 76 71 1e 3e 72 1b a4 bb 69 78 bb 3b 50 e5 d0 3d
       0.1547297 -0.0050081545 0.005721141 0.10199988
000360 c1 d8 89 bd d3 d5 2a bd f7 08 91 bd 94 a7 75 bd
       -0.06730796 -0.041707825 -0.07081788 -0.059974268
000370 03 28 3e bd 30 11 45 be d6 1f 0f be 5e 63 0c be
       -0.046424877 -0.19244838 -0.13976988 -0.1370978
000380 ed c4 21 be c7 18 0a 3d 24 0e 51 3e 7c 1b e8 3d
       -0.15797777 0.033715036 0.2041555 0.11333367
000390 98 e5 0b 3e 73 2c 41 3d aa f9 be 3d d4 48 db 3d
       0.13661802 0.04716153 0.093249634 0.1070725
0003a0 fe 6c f8 bc 02 ff 0a 3d 94 5b 8a 3d 77 61 1f 3e
       -0.030325409 0.0339346 0.067557484 0.15564524
0003b0 eb 87 cf 3d 4f 6c 10 bd 88 01 6c bd b1 cf 50 be
       0.10133346 -0.03525954 -0.057618648 -0.20391728
0003c0 b8 28 75 bd 61 2c 18 be 7e e9 84 bd 39 ab 4f be
       -0.059853286 -0.14860679 -0.064898476 -0.2028016
0003d0 8d 41 f6 bd a3 0b 32 be f8 15 e8 bc 43 b6 ed bd
       -0.120242216 -0.17387252 -0.028330788 -0.11607029
0003e0 c2 dd d8 bd 42 74 f4 bd ee ff 65 3e be ca 36 3e
       -0.10589172 -0.11936237 0.2246091 0.17850778
0003f0 87 4f ec bc c5 53 b2 3d 36 e3 d3 bd 38 89 90 3a
       -0.028846515 0.08707384 -0.103460714 0.0011027222

conv1.bias f4 [8]
000000 ce cd 7a 3d 59 9c 80 be 3e c9 21 be 62 fd 1a be
       0.061231427 -0.25119284 -0.15799424 -0.1513572
000010 a2 18 30 3e 1e d1 9e be f7 cc 9c 3c 79 57 2b be
       0.17196897 -0.3101892 0.019140704 -0.16732587

bn1.weight f4 [8]
000000 e4 77 58 3f 7c a6 7a 3f 0e f2 5e 3f 50 f1 7d 3f
       0.8455794 0.97910285 0.87088096 0.9919634
000010 fe 14 80 3f 58 bb 87 3f 60 9f 8f 3f 6a 5a 38 3f
       1.0006406 1.0604048 1.1220512 0.7201296

bn1.bias f4 [8]
000000 cd 7b b7 3e 2c 38 c8 bd 73 63 be 3e 4e 03 80 be
       0.3583664 -0.09776339 0.3718525 -0.2500252
000010 9a e5 c0 bb 63 1a 69 bd 92 cd 3f 3e 87 c4 6b 3e
       -0.0058867456 -0.05690993 0.18730763 0.23024188

bn1.running_mean f4 [8]
000000 ea 66 23 3f 31 d3 5e 3e 14 0d d4 3e 3e 80 9a 3e
       0.6382891 0.2176025 0.41416228 0.30175966
000010 b0 19 fa 3e 34 99 87 3d 28 1d e7 3e 88 b8 14 3e
       0.48847723 0.06621018 0.45139432 0.14523518

bn1.running_var f4 [8]
000000 52 0c 39 3f 82 e8 6f 3e 5f 83 cc 3e cc 62 c1 3e
       0.72284424 0.23428538 0.39943978 0.3777069
000010 33 8d c4 3e c3 70 25 3d 0d 10 01 3f 1e 6e c0 3d
       0.38388976 0.04039074 0.50415117 0.09396003

conv2.weight f4 [32, 8, 5, 5]
000000 19 bb 17 be 6c ca 18 be d3 c4 bc bd 3e 80 13 be
       -0.14817466 -0.14920968 -0.09217229 -0.1440439
000010 58 c3 6e be 87 4a 49 bd 15 5c 1b be a7 a1 11 be
       -0.23316705 -0.04914334 -0.15171845 -0.14221822
000020 01 6a 3b be a8 e4 a1 bd c0 2f f3 bc e4 09 a0 bd
       -0.18302156 -0.07904941 -0.029685855 -0.078143865
000030 44 b8 21 3d 72 4e 5d bc 94 69 ca bd 2a bc 01 3e
       0.03948237 -0.013507472 -0.09883419 0.12669435
000040 be f4 14 3d 07 d3 79 3d a9 15 da 3d a5 8f 97 3c
       0.036366217 0.060992267 0.106486626 0.018501112
000050 1b ba c4 bd d4 43 f6 bd bc 5d 90 bd 6c 13 0a be
       -0.09605809 -0.12024656 -0.070491284 -0.13483971
000060 fd 86 30 be aa 6c 18 3e 87 6d 09 3e f9 0e 00 bd
       -0.17238994 0.14885202 0.13420688 -0.03126428
000070 a9 4c 35 3e 84 f9 05 be 32 79 f5 3d 45 a3 94 ba
       0.17705025 -0.13083464 0.11986007 -0.0011340162
000080 f4 9c 54 3c 10 c0 3b 3d 8c aa 12 be 2b b4 f6 3a
       0.012976874 0.045837462 -0.14322871 0.0018822005
000090 44 99 01 3d 54 79 ee 3d d6 26 8e 3d 62 d9 5b bd
       0.031640306 0.11644235 0.06941001 -0.05367411
0000a0 49 30 37 bd fc 2c 6c 3c 0d 9f ca ba 74 59 f8 3b
       -0.044723783 0.014415022 -0.0015458778 0.007579023
0000b0 96 18 8d bd 7d 1c 94 bd 7d bc bf 3d ae e3 84 3d
       -0.06889455 -0.07231996 0.09362123 0.06488739
0000c0 37 83 e1 3d d9 98 e2 bc ac f4 7a 3c 51 bb 05 3c
       0.11011355 -0.027660774 0.015317123 0.0081623355
0000d0 b8 95 68 3c c8 2f b9 3d c8 1b 43 bd f0 f0 b6 3d
       0.014195852 0.09042317 -0.047633916 0.08932674
0000e0 23 68 21 bd 66 23 8f bc 07 92 03 3c 59 94 85 bd
       -0.039405953 -0.017472934 0.008030421 -0.06522436
0000f0 7a 22 18 3e 15 ad d8 3c 81 2c 5a bd 3d 2a 81 3d
       0.14856902 0.02644972 -0.0532651 0.063068844
000100 ba b8 22 bd d3 06 94 3d 2b 76 30 bd 83 e6 7b 3c
       -0.03972695 0.07227864 -0.043081444 0.0153747825
000110 fb 36 56 bd 67 c1 75 bd a4 15 9e 3d 67 77 d7 3d
       -0.052298527 -0.059998896 0.07718971 0.10520821
000120 49 61 2f 3d e0 01 97 3d 49 08 af bc 9d 54 ab bd
       0.042817388 0.073734045 -0.021366255 -0.08365748
000130 b6 5e 6f 3c fe ef c2 bd 99 69 02 3d b9 51 a6 bd
       0.014609983 -0.09518431 0.031838987 -0.08121056
000140 d2 1a b5 bc 37 0d a6 bd 25 3c 15 be 5b dd 25 3d
       -0.022107515 -0.08107989 -0.14573725 0.040494304
000150 e2 8b d7 bd 2a 75 9d bd 00 87 3b 3b 0b 91 ea bd
       -0.105247274 -0.07688363 0.0028614402 -0.11453446
000160 e3 de 29 3d 4b 50 1f 3b ad fd 33 bc 1c 47 00 3e
       0.041472327 0.0024309333 -0.010985774 0.12527126
000170 22 cc 03 bd 5b db d7 3d 79 6d 25 3e b0 1b 80 bc
       -0.032177098 0.105398856 0.16155042 -0.015638202
000180 9f bc 8e 3c 40 bb ce bb 8e 56 9a bb 47 b7 68 bc
       0.017423926 -0.006308943 -0.004710025 -0.014203853
000190 ce 4c d4 bd f0 9e fb bd 06 fc ab bd 90 af 46 bd
       -0.10366212 -0.12286174 -0.08397679 -0.048507273
0001a0 4d e2 b1 3c 74 b0 32 3c da 68 bf 3c 98 51 b9 3d
       0.021714354 0.0109063275 0.023365427 0.09048766
0001b0 41 ff 14 3c 92 b6 e8 3c dc fc 81 3d 08 2e a1 b9
       0.00909406 0.028407369 0.06347057 -0.0003074261
0001c0 20 3e f6 bb 66 08 b5 bd 23 18 3e 3c 77 02 91 bd
       -0.00751473 -0.088394925 0.011602434 -0.07080548
0001d0 d2 f9 a2 bd 3c d5 4a bc 65 ff 4c be 5c 5c 3c be
       -0.07957806 -0.012379941 -0.200193 -0.18394607
0001e0 11 c5 19 be 38 ca 79 be 3c 71 5d be c2 75 c3 be
       -0.15016581 -0.24393547 -0.21625227 -0.3817578
0001f0 27 20 15 be af c5 24 be 3d 1f 09 3d 13 7a c3 bd
       -0.14563046 -0.16091035 0.033477057 -0.09544768
000200 ab a5 26 be e3 d0 ca bd 27 8f 3b bd 67 50 ba bd
       -0.16274135 -0.09903123 -0.045790818 -0.09097367
000210 48 31 dd bb 2b 17 f6 bd d3 02 88 3d 01 95 46 be
       -0.0067502595 -0.12016138 0.06641164 -0.19392778
000220 8f b0 30 be df c1 13 be 9e 00 95 bd a1 9e 7d bb
       -0.17254852 -0.14429425 -0.07275508 -0.0038699287
000230 7b 98 91 bc 1c 28 55 bb 07 e9 04 3d 7d 85 38 3d
       -0.017772904 -0.0032525128 0.032448795 0.04504918
000240 6b 3a 49 3d a5 95 f1 bd 50 1a bb bd 57 5b ce bd
       0.049127977 -0.117961206 -0.09135878 -0.100760154
000250 00 55 b7 bd 69 87 44 bd 45 7c 7a 3d 8c c8 56 bd
       -0.08951759 -0.0479807 0.06115367 -0.05243735
000260 17 d4 d1 bb aa 91 c1 3d fc 12 bc 3d a7 7b 01 bd
       -0.006403457 0.09451611 0.091833085 -0.031612065
000270 41 f7 81 bd 9b 2e 77 bd 15 6d 0d be a5 6a b0 bc
       -0.06345988 -0.06034718 -0.13811143 -0.021535227
000280 2a ae bb 3d be c5 18 3d 15 a6 99 bc 68 e1 07 be
       0.091640785 0.037297957 -0.018755952 -0.1326958
000290 a9 9b 74 bc 61 bf a5 bd 71 cd 97 be 7c 11 24 be
       -0.01492969 -0.08093143 -0.29648927 -0.16022295
0002a0 fd cb 60 be ae ab b3 3c 00 86 95 bd 1c 8c 27 bd
       -0.21952815 0.02193245 -0.07300949 -0.040905103
0002b0 ce 2f 3e bc cc 31 a1 bd 6a d3 a2 bd fd 6e e8 3d
       -0.011608077 -0.07870826 -0.0795048 0.11349294
0002c0 f8 36 84 3d 7f 1c 06 bd 3d 07 96 3c 88 bf 2f bb
       0.06455797 -0.03274202 0.018313998 -0.0026817042
0002d0 5c 3a 9b 3d 04 5f ab bd 34 53 83 bd e0 bf 02 be
       0.075794905 -0.08367732 -0.06412354 -0.12768507
0002e0 42 b6 e4 bd b8 87 cd bb b0 db 58 bd 41 7b d7 ba
       -0.111675754 -0.0062722825 -0.052943885 -0.0016439931
0002f0 30 b9 e9 bd 85 49 88 bc 3f 1f 65 3d 95 2f 7d bb
       -0.11412275 -0.01663662 0.055938 -0.0038633097
000300 29 ae b8 3d e1 46 cc 3d 41 9f 28 3d 1e e1 dd 3c
       0.090175934 0.099744566 0.0411675 0.027084883
000310 49 cc 1e bd d2 e7 30 bd 01 f9 41 bd 2e 0c 7b 3b
       -0.03876904 -0.04318983 -0.04735661 0.003830682
000320 fc 0a a4 3b b2 4d 4f 3a 7d d8 1e 3e 31 d2 54 3d
       0.0050061923 0.0007908001 0.15512271 0.051958267
000330 0f 65 ff 3d 02 82 f1 3d dc 79 54 3d e9 bc d1 3d
       0.12470447 0.11792375 0.051874027 0.1024111
000340 21 81 61 3d 9a 1d 76 3d 6a 3b 6b bc cb 90 00 3e
       0.055054788 0.060086824 -0.014357427 0.12555234
000350 b4 71 45 3d c0 1a df 3b 08 20 e9 3d 25 a2 a9 3d
       0.04820414 0.006808609 0.113830626 0.0828288
000360 60 fa 23 3d 47 af 09 3e 99 26 70 bc ad e5 f0 3d
       0.040033698 0.13445769 -0.01465764 0.11762557
000370 b3 0c b6 3d fc 8c c1 3d 17 5d 93 3d 6b 6b 1b 3d
       0.08889141 0.09450719 0.0719549 0.03794424
000380 41 e8 2d 3e fb 96 64 bd 3a 1c 3c 3e 32 30 c3 bd
       0.16983129 -0.05580805 0.18370143 -0.09530677
000390 f6 b7 c4 bd 0e 99 0f bd 15 3d 17 3d 70 3a 5d 3d
       -0.096054 -0.035058074 0.036923487 0.05401081
0003a0 2f 00 72 bd de 21 3c bd 30 98 07 bd 54 31 90 3a
       -0.059082206 -0.045930736 -0.03310412 0.0011001029
0003b0 56 48 82 3e e6 b0 24 3e cd c0 00 3e 19 f8 fd 3d
       0.25445813 0.16083106 0.12573548 0.124008365
0003c0 7e 40 f6 bc 51 b6 de 3c 32 33 f1 3d ef b3 85 3d
       -0.03006005 0.027186545 0.11777343 0.0652846
0003d0 4f 27 39 3d 4d d8 56 ba c2 57 ea bc fa 42 96 3a
       0.045203503 -0.00081956835 -0.0286063 0.0011464052
0003e0 e1 fe d2 bc 80 0c 93 bc 66 73 76 3c 11 dc 25 39
       -0.025756301 -0.017950296 0.015042162 0.00015817607
0003f0 c6 35 e8 3d f1 65 dd 3d bc 42 20 3d 03 ca 8f 3c
       0.113383815 0.108104594 0.039126143 0.017552381

conv2.bias f4 [32]
000000 3f 6c bc 3d d9 ee 7b be ad 45 d2 bd 26 fd 53 be
       0.09200334 -0.24602832 -0.10267196 -0.20702037
000010 58 59 88 be b5 66 5c be fa df a6 bd bb 60 0e be
       -0.26630664 -0.21523555 -0.08148189 -0.13904087
000020 09 25 3f be eb 4a 9b bd 67 2d 75 bd a4 1a ea be
       -0.18666472 -0.07582649 -0.059857752 -0.4572345
000030 ae 97 a4 be 8e c6 6e be be a7 1b be 9e 80 c7 bd
       -0.32146972 -0.2331793 -0.15200707 -0.09741329
000040 1f c7 f5 bd f2 5b 69 be 97 91 95 be 39 2d ad be
       -0.1200087 -0.2278898 -0.2921264 -0.33823565
000050 f3 f5 e5 bd d2 f7 6d be 2f ba cb bd 97 19 2b be
       -0.11228552 -0.23239067 -0.09947621 -0.1670898
000060 2a af 86 be 53 15 0b be 4d 3f 46 be 45 6e b7 ba
       -0.26305515 -0.13582353 -0.19360085 -0.0013994655
000070 cf b7 9d be 7f 5e 67 be d0 90 7d bd 42 26 96 be
       -0.30804297 -0.22594641 -0.061905682 -0.29326063

bn2.weight f4 [32]
000000 ac 74 7e 3f 14 ea 76 3f 6d cd 58 3f 0c 04 87 3f
       0.9939678 0.96450925 0.84688455 1.054811
000010 a1 5f 67 3f 0a 7e 9a 3f be 50 6b 3f 3b b5 67 3f
       0.90380293 1.2069714 0.9192008 0.9051091
000020 11 7e 83 3f c5 13 60 3f d5 06 88 3f 99 c3 b3 3f
       1.0272847 0.87530166 1.0627085 1.4044067
000030 fe c1 8f 3f d5 b0 a7 3f 2a 12 7b 3f cb 36 82 3f
       1.1231077 1.310084 0.9807459 1.0172971
000040 02 02 80 3f 27 de 81 3f eb f6 86 3f 7b 3c 8e 3f
       1.0000613 1.014592 1.0544103 1.1112207
000050 28 50 84 3f 2b df 5a 3f 2e 39 81 3f 92 3d 51 3f
       1.0336962 0.8549678 1.0095575 0.81734574
000060 5f 74 84 3f 38 94 70 3f 35 40 80 3f a3 4b 61 3f
       1.0348014 0.93976164 1.0019594 0.8800604
000070 8b 03 8a 3f 27 e4 64 3f 24 f2 58 3f 27 72 9d 3f
       1.0782331 0.8941063 0.8474448 1.2300462

bn2.bias f4 [32]
000000 1c c1 10 3d ab 49 84 bc 65 37 f4 bc ce 27 9a bc
       0.035340413 -0.016148409 -0.02981157 -0.018817808
000010 30 f6 c1 3d c5 db f6 bb 7c 65 89 3c d8 24 50 3c
       0.09470785 -0.007533523 0.016772024 0.012704097
000020 21 e8 27 3d 05 8d 86 3b 89 7c f7 3c 7b 4e ac bc
       0.04099286 0.0041061663 0.03021075 -0.021033516
000030 41 88 5d bc fe c4 f8 bc 89 f5 14 3e 11 18 82 bc
       -0.013521255 -0.03036737 0.14546789 -0.015880616
000040 1c 3b d7 3d ae 4e 74 ba 94 79 a9 bc 90 aa 11 bb
       0.10509321 -0.00093195855 -0.020687856 -0.0022226907
000050 18 53 4d bd cd 82 4d 3d 96 91 d8 3d 75 37 d4 3c
       -0.050128073 0.05017357 0.10574643 0.02590535
000060 b9 9d 63 bd 0c d0 b0 3d b8 4d 46 3d 97 f2 c0 bc
       -0.055570338 0.08633432 0.048413962 -0.023553176
000070 0d ca 92 3d 26 c9 bc bc f8 d5 3c 3d 9f e0 f4 bb
       0.071674444 -0.023045134 0.046102494 -0.007473066

bn2.running_mean f4 [32]
000000 05 b3 17 3f 93 9f 94 3f e1 14 07 40 27 15 bb 3e
       0.5925754 1.1611198 2.1106493 0.36539575
000010 f1 76 0e 3f 89 b6 19 3e fe 03 0b 3f aa 85 8f 3f
       0.5565024 0.15011038 0.54302967 1.1212666
000020 1e e4 d6 3e af ef 07 3f 4e dd e8 3e 80 cd 17 3e
       0.41970915 0.53100103 0.45481342 0.14824486
000030 c5 58 3e 3e 3d cb 9b 3e 6d e9 1c 3f 74 0f ba 3e
       0.1858855 0.30428496 0.6129368 0.36339915
000040 ff f2 7d 3e 5d 89 94 3e c7 41 d2 3e 95 70 53 3e
       0.24799727 0.2901105 0.4106581 0.20648415
000050 75 02 86 3f f1 b5 ac 3e 51 ea 10 3f 5f 88 45 3f
       1.04695 0.3373256 0.5660754 0.7716121
000060 95 a8 d0 3e 92 48 a1 3f c2 58 ce 3e 91 64 a6 3f
       0.40753618 1.2600272 0.40302092 1.299944
000070 93 c6 c2 3e f1 d5 31 3f 9d 52 9a 3f 55 5f 57 3e
       0.38042125 0.69467074 1.2056462 0.2103246

bn2.running_var f4 [32]
000000 a0 ae 36 3f c8 ef 5c 40 89 a4 15 41 7f 80 80 3f
       0.71360207 3.452135 9.35267 1.0039214
000010 b1 58 ad 3f 2b cb 49 3e 60 0d 4d 3f de 29 12 40
       1.3542691 0.19706409 0.80098534 2.2838054
000020 a7 4d 3d 3f 2d 0c 8c 3f ad e1 71 3f 2b d8 88 3e
       0.73946613 1.0941216 0.9448498 0.26727423
000030 83 47 a5 3e cc 9c 37 3f 45 86 71 3f ef b5 dd 3e
       0.32281122 0.7172363 0.94345504 0.43302867
000040 82 64 c2 3e 85 50 ea 3e 5d 77 71 3f 32 8b d5 3e
       0.37967306 0.45764557 0.9432276 0.4170776
000050 9c 6f 07 40 93 40 20 3f 3c 4b 6d 3f cd c7 0e 40
       2.116187 0.6259853 0.92692924 2.2309449
000060 16 c2 73 3f b6 74 3e 40 c6 49 5a 3f 6a d0 47 40
       0.95218027 2.9758735 0.8526882 3.1220956
000070 7a 0f 95 3f 95 13 bb 3f 96 6e 2a 40 b7 7a d0 3e
       1.1645348 1.4615351 2.6629996 0.40718624

conv3.weight f4 [64, 32, 5, 5]
000000 d4 0c b5 bd 25 ec bf 3a 6d 49 ec 3d 5c 4b e0 3d
       -0.088403374 0.001464252 0.11537442 0.10951874
000010 19 4a ea 3d 86 d3 34 be 0d 26 ef bc 6b bf 55 3d
       0.11439914 -0.17658815 -0.029192949 0.052184504
000020 c7 28 52 3d a7 70 ef 3d f1 d0 83 bd df c5 70 bc
       0.05130842 0.116914086 -0.06436337 -0.014695614
000030 84 c7 9d 3c 6b 0b bd 3b 7f 32 39 3d 5d 2a de bd
       0.019260176 0.0057691834 0.045214172 -0.10847924
000040 bd c1 36 bc 2f 9c 59 3b 70 6d c1 3c 44 de 1b 3d
       -0.011154589 0.0033204665 0.023611754 0.038053766
000050 e4 98 1e be b6 46 5f bd 4f 55 81 bd 52 4d 1b bd
       -0.1548801 -0.054510795 -0.063150994 -0.037915535
000060 8f 67 63 3d cb 65 61 ba 25 28 a3 3b d8 47 14 bd
       0.055518683 -0.0008598237 0.004979151 -0.036201328
000070 e8 e5 a3 3b 88 46 52 3d b3 83 10 3b a5 3d 46 3d
       0.005001772 0.051336795 0.0022051155 0.048398633
000080 b7 3c 37 bd ee ec 6a bd e6 6e 1d bd 2b 52 5a 3d
       -0.044735637 -0.05735486 -0.03843584 0.053301018
000090 3f 48 e1 bb 0c c9 ba 3d 4d aa 42 bd e1 22 f2 bb
       -0.0068750675 0.09120378 -0.047525693 -0.007389412
0000a0 33 00 9f 3d de cc 22 3c fd f2 62 3d 53 2c 1c 3d
       0.0776371 0.009936539 0.055407513 0.03812821
0000b0 50 9a 69 3d 41 8b 2f 3e 4a 6c a7 3d d7 b6 e7 3d
       0.05703193 0.17142965 0.081749514 0.11314171
0000c0 ca c8 c3 3d 97 ac 55 3e 73 66 25 bd 54 3c c8 3b
       0.09559782 0.20866619 -0.040380906 0.0061107073
0000d0 5c 06 e6 bc 69 76 2a bd 8e 1e 80 bc c9 f0 01 bd
       -0.028079204 -0.04161683 -0.01563957 -0.03172377
0000e0 d1 4c 91 bc e9 ed ef 3c 2f 86 1c bc 64 a5 a3 bc
       -0.017736824 0.02928825 -0.009553476 -0.019976325
0000f0 15 9c 33 bc 71 e2 03 bc c7 f1 f7 3c ba 41 10 3c
       -0.010962506 -0.008049593 0.030266656 0.008804733
000100 45 40 ba 3c 53 64 7b bc 7d 50 64 3c 84 10 d3 3c
       0.022735724 -0.015343743 0.0139352055 0.025764711
000110 8e 38 e3 3c 44 ca 8e 3d 4c 9d 91 3d f0 cd 39 3d
       0.027736928 0.06972173 0.0711008 0.045362413
000120 46 46 96 3d 26 5d 91 3d 72 4b f0 3d da 01 7b 3d
       0.07337622 0.07097845 0.1173314 0.061281063
000130 b0 a5 1b 3d 96 2d 2a bd 92 f9 fa bc 77 57 6b 3c
       0.03799981 -0.04154738 -0.030636583 0.014364115
000140 ba c5 9e ba 96 4c 04 bd 67 a3 8a bd 05 92 07 be
       -0.001211337 -0.0322996 -0.06769448 -0.13239296
000150 a6 1b b7 bd ab 1b bd 3c da 44 e3 bc 27 9c 6a bd
       -0.089408204 0.023084482 -0.027742792 -0.057277825
000160 4f 35 e3 bd 08 27 7a bc ed 2a 5a 3d c9 07 fb bb
       -0.11094152 -0.015268095 0.053263593 -0.00766084
000170 f0 c6 16 bd b7 d7 0d 3d a3 1c 7d 3d d6 9a 3f 3d
       -0.036810815 0.03462955 0.06179489 0.046778522
000180 5f 28 82 bd 1f aa b1 bd 4f 2e c3 bd 8b fd e7 3c
       -0.063553564 -0.08675026 -0.09530317 0.02831914
000190 30 a9 f3 3d cc 28 1b 3e 30 04 8a 3d 9d 59 a8 3d
       0.11897504 0.15152282 0.0673908 0.082202174
0001a0 25 e9 0e 3e da f0 86 3d cd 74 8e 3d 3b e2 8d 3d
       0.13956125 0.065889075 0.06955872 0.06927916
0001b0 87 fe 2e 3d e3 9e 0f 3e 52 52 b4 3d e0 8d 3f 3e
       0.042723205 0.14025454 0.08804764 0.18706465
0001c0 d5 f6 24 3e 82 19 d1 3d be 2a 9a 3d 9c 59 d5 3d
       0.16109784 0.10209943 0.07527684 0.10417482
0001d0 0e 4d da 3d 4c ac 01 3e 28 86 e5 3d ec dd a7 3d
       0.10659228 0.12663382 0.11207229 0.08196625
0001e0 ce fa 87 3d 44 28 dc 3d de 01 03 3e 7d 16 a0 3d
       0.06639634 0.107498676 0.12793681 0.07816789
0001f0 ea 00 09 3d c9 6d be bd d4 0c 18 be 9b 5b 70 bc
       0.033448137 -0.092982836 -0.14848644 -0.014670278
000200 54 87 27 3a 3d de 0b 3e 40 0a 67 be 02 e3 6d be
       0.000639071 0.13658996 -0.22562504 -0.23231128
000210 03 01 6b bd bf 3c b7 bd ea ef 1c 3e b2 24 6e be
       -0.05737401 -0.08947133 0.15325895 -0.23256186
000220 b8 7a 65 be b0 1d 50 be 6b df 20 be 43 fa 07 3d
       -0.22410095 -0.20323825 -0.15710227 0.033197653
000230 4a ed 4f bd 2a 2a b2 bd dd 5b 87 bd 93 7f 5a bd
       -0.050763406 -0.086994484 -0.066093184 -0.05334432
000240 b0 cb 5f 3c 6f da 8b bd 18 b9 4b bd 3f 52 00 be
       0.013659403 -0.06828772 -0.049737066 -0.12531374
000250 d9 66 4a bc a4 26 82 3c 84 16 d8 3d b2 40 0e 3e
       -0.012353622 0.015887566 0.105511695 0.13891867
000260 f8 be 00 3e 3e bc 73 3c 9a f8 60 3d 92 08 27 3d
       0.12572849 0.014876423 0.054924585 0.040779658
000270 48 51 ee 3d 0a 5c 14 3e f9 11 4c 3d 2e 7f 01 3d
       0.11636597 0.14488235 0.049821828 0.03161543
000280 64 29 79 3d 3a ce ba 3d 9b da 86 3d 26 06 25 3d
       0.06083049 0.09121366 0.065846644 0.040289067
000290 94 bc 69 3c 2d f1 5d bd 27 78 23 bc ba e9 22 3d
       0.014266152 -0.05418508 -0.009977377 0.03977368
0002a0 0c 62 a9 bd 75 4c 31 bd a4 64 cc bd 24 d7 bd bd
       -0.08270654 -0.043285806 -0.09980133 -0.092695504
0002b0 2a be 3e 3b 07 d4 0e bd f0 bf 52 3b 9e 5b 59 3d
       0.0029105046 -0.034870174 0.003215786 0.05306589
0002c0 9e dc 83 3d 34 61 bd 3c 0c 41 cb 3b 05 3f c8 ba
       0.06438564 0.02311764 0.0062028226 -0.001527757
0002d0 7d 5d e1 3d 55 4b 2d 3d ff f7 0e 3d 13 4a e0 bc
       0.110041596 0.04230817 0.034904476 -0.027379071
0002e0 43 69 d3 3c ce e1 46 3d 9e 54 99 3d 4f 2d e5 3d
       0.025807029 0.048555188 0.074868426 0.111902826
0002f0 bb d1 99 3c 4d 1b 45 3b d1 9c 8a 3b 9b 7f d0 3c
       0.018776765 0.0030076087 0.0042301198 0.025451472
000300 68 d6 a7 3d c6 1e 66 bd 13 f2 bd bd 5b 41 db 3c
       0.081951916 -0.05618169 -0.092746876 0.026764562
000310 cd b3 94 3d 97 a2 a4 3d 63 43 e2 3c 6a 01 91 bd
       0.07260857 0.08038824 0.027620023 -0.07080348
000320 2e 1a 44 3e 86 34 04 3e 17 1a f6 3d d5 0d a3 3d
       0.19150612 0.12910661 0.12016695 0.079616226
000330 f2 e9 0a 3e d3 27 07 3d 36 3f 65 3d b9 e2 f2 3b
       0.13565806 0.032996964 0.055968486 0.0074122814
000340 29 67 33 bc 73 55 0e 3d d6 ef df 37 29 8c 89 3d
       -0.010949888 0.03474946 2.6695354e-05 0.067161866
000350 6d bb e3 3c b1 ff d6 3c 0b d1 af 3c 27 89 66 3d
       0.027799333 0.02624497 0.021461984 0.056283142
000360 a1 40 e0 3d f9 fa 3c 3d 1d 8c a4 3c ce 2f 16 3c
       0.10949827 0.046137784 0.020086342 0.009166671
000370 b4 e0 24 bd 94 7b 72 bb 7c 68 84 3c 98 c1 49 3b
       -0.040253356 -0.0036999928 0.016163103 0.0030785557
000380 62 d0 0b 3d 55 af f7 bd 2f 36 c1 bd 9d cb d4 3c
       0.034134276 -0.12093989 -0.09434163 0.025975997
000390 97 ca 6d bd a9 72 d1 bd cc cc 39 bd 98 b7 8d bd
       -0.058054533 -0.10226948 -0.045361325 -0.06919783
0003a0 d0 5d 05 3d 16 9b ca 3c 9a 17 29 bd 58 de f0 bd
       0.03256017 0.024732154 -0.041282274 -0.11761159
0003b0 20 85 5c bd 98 42 c1 3c 05 98 8a 3d a6 1e d2 3a
       -0.053837895 0.023591325 0.06767277 0.0016030862
0003c0 ec 73 0d bd 0c 0b 76 bc 18 40 b6 3d b6 c3 29 3e
       -0.03453438 -0.015017282 0.08898944 0.16578564
0003d0 5b bf e4 3d 99 af 14 3d 14 c4 e4 3a 04 c2 04 3d
       0.11169311 0.036300275 0.0017453455 0.03241159
0003e0 b8 c8 0e 3e c3 0c 59 3d f9 a0 6a bc 92 21 0c bd
       0.13943756 0.052990686 -0.014320605 -0.034211703
0003f0 89 02 4d bd 59 87 82 3d 2f 22 26 3c 54 a2 f0 bd
       -0.050051246 0.06373472 0.010139986 -0.11749712

conv3.bias f4 [64]
000000 d5 00 22 3d d6 d9 f4 3d 8e 4a 27 3d 9b 70 ff bd
       0.039551575 0.119556114 0.040842585 -0.1247265
000010 91 b5 6f bd 49 3c a7 3d ef 87 16 3e 7e d6 42 3e
       -0.058522765 0.08165795 0.14700292 0.19027135
000020 09 86 0f 3d 26 bc 7e 3e 08 2b 90 3d f6 9f 84 3d
       0.035039935 0.2487646 0.070394576 0.06475823
000030 7d 49 ce 3d 97 17 f7 3c 95 b8 d8 3d de 60 52 3e
       0.100726105 0.030162616 0.10582081 0.20544764
000040 0a 66 77 3d fd 20 04 3d 16 20 08 bd 30 7c f6 bc
       0.060400046 0.032258023 -0.033233725 -0.030088514
000050 6d 46 de 3c 21 e8 9d 3d 27 c1 2f be 16 b9 7a 3d
       0.027133191 0.07710291 -0.17163526 0.061211668
000060 9e 8d 38 bd d9 89 4c 3d 86 b6 93 3d 8a 35 05 3e
       -0.04505693 0.04993615 0.07212548 0.13008705
000070 53 4a 22 3d 9a b7 5d 3e cb e8 3e 3e aa 9c d8 bd
       0.039621662 0.2165207 0.18643491 -0.10576756
000080 5b 6d 04 3e 61 7c da 3c bd d9 74 3e 76 c7 22 3e
       0.12932341 0.026670637 0.23911186 0.15896401
000090 4b 10 5a 3d 4d 07 59 3e d1 fd 94 3d 1a 08 b9 3d
       0.053238194 0.21194191 0.07274974 0.090347484
0000a0 cc ca 97 bd 36 48 17 3d 00 d9 cf 3d 3d b3 57 bd
       -0.07411727 0.0369341 0.10148811 -0.05266117
0000b0 f1 c1 8b bc 19 fc 1e bd d6 a3 33 be ae c2 2c bd
       -0.017060252 -0.038814638 -0.17542967 -0.04217785
0000c0 66 98 cc bd 1e f7 8d 3d 5a ed 87 3d 1e ce e5 3b
       -0.09990005 0.069318995 0.06637068 0.0070130965
0000d0 40 95 76 be 4e 97 bd bd 8e 1a d4 3d f4 91 3c 3d
       -0.24080372 -0.09257375 0.103566274 0.04603763
0000e0 7a e6 e0 bd b1 6c 8a bc 19 f2 92 3d e1 c1 38 3e
       -0.1098146 -0.016897531 0.07175083 0.18042709
0000f0 af 40 68 be b6 ae 59 3e 2c b7 9a 3c 64 a2 e0 3b
       -0.22680925 0.21258053 0.018886171 0.006855296

bn3.weight f4 [64]
000000 8c 4c 90 3f 00 29 8d 3f 86 f9 9a 3f 0d b9 80 3f
       1.127336 1.1028137 1.2107399 1.0056473
000010 64 0f 8d 3f cc cd 90 3f 69 1a 94 3f 70 73 9c 3f
       1.1020322 1.1312804 1.157056 1.2222729
000020 fc 94 93 3f 6a 7e 75 3f 30 10 85 3f 8e ec 98 3f
       1.1529841 0.9589602 1.0395565 1.1947191
000030 f4 6c 6f 3f f7 28 90 3f 91 da 8b 3f 02 0f 93 3f
       0.93525624 1.1262501 1.0926076 1.1488955
000040 49 ac 8e 3f 31 67 81 3f 1f 55 89 3f 8c 7d 95 3f
       1.1146327 1.0109617 1.0729102 1.1678939
000050 5e c8 95 3f b4 00 86 3f d0 e0 8b 3f f9 c1 8d 3f
       1.1701772 1.0468965 1.0927982 1.1074821
000060 f8 e3 7e 3f d0 8d 80 3f 07 3a 80 3f 63 15 98 3f
       0.995666 1.0043278 1.0017709 1.1881527
000070 14 73 93 3f 7f d5 71 3f bb 7d 80 3f fd d8 6f 3f
       1.1519494 0.94466394 1.003837 0.9369047
000080 68 21 81 3f 20 65 62 3f 18 c3 84 3f e9 f8 76 3f
       1.008832 0.88435555 1.0372038 0.96473557
000090 50 1a 60 3f 99 50 91 3f 95 f7 96 3f a7 0c 68 3f
       0.8754015 1.1352721 1.1794306 0.90644306
0000a0 34 7a 78 3f 5f ef 84 3f b5 17 90 3f 79 ba 8a 3f
       0.9706147 1.038555 1.1257235 1.0838157
0000b0 10 6a 84 3f b9 48 67 3f 66 f2 6f 3f 7a 2f 85 3f
       1.0344868 0.9034534 0.93729246 1.0405114
0000c0 cb 5a 8a 3f 8d 8c 85 3f 6c 6a 84 3f 0f a8 88 3f
       1.0808958 1.0433518 1.0344977 1.0676287
0000d0 7f a3 8e 3f ab e8 6f 3f 42 39 9f 3f 7a c3 92 3f
       1.1143645 0.937144 1.2439349 1.1465905
0000e0 24 c4 81 3f c6 33 70 3f e0 69 9c 3f d8 11 79 3f
       1.0137982 0.93829 1.221981 0.9729285
0000f0 ed 72 89 3f 60 4a 7d 3f 63 44 6d 3f 7b c7 74 3f
       1.0738198 0.9894161 0.92682475 0.95616883

bn3.bias f4 [64]
000000 01 51 e0 3b 39 ab 88 3d 83 50 e2 3d 69 68 95 bd
       0.006845594 0.06673283 0.11050513 -0.07295305
000010 d4 5a ae bc 44 05 2e bd f0 0c 14 be 41 01 d2 bd
       -0.021283545 -0.04248549 -0.1445806 -0.102541454
000020 bb b7 a6 3a 69 44 0c 3d 57 18 9e 3c 25 ed 9f bc
       0.0012719551 0.03424493 0.019298716 -0.019522259
000030 67 5c 86 3d 2c 94 cb 3d 1f 70 66 bc 22 e0 81 bc
       0.06560593 0.09940371 -0.014064818 -0.015853945
000040 59 c5 70 bd 89 96 01 be 15 20 a0 3d c9 f2 58 3c
       -0.058781955 -0.12655081 0.07818619 0.013241478
000050 a7 f6 16 bc a6 88 07 bd 62 5d b9 3d 23 87 4b bd
       -0.00921408 -0.033089302 0.090510145 -0.049689423
000060 70 9d 25 3d d9 a1 9b 3d 9e bd cf bc bd b5 14 bd
       0.040433347 0.07599229 -0.025358971 -0.03630613
000070 10 85 95 bd 14 92 d4 bd 6a 11 08 bd f6 58 bd 3d
       -0.0730077 -0.10379425 -0.033219732 0.092454836
000080 e9 89 87 3c 37 61 cb 3d b7 95 08 3e 0d 08 87 3d
       0.016545253 0.09930652 0.13338362 0.065933324
000090 06 2e e8 3d 8f 85 1f 3e 11 d4 04 3e 15 a8 6d 3e
       0.11336903 0.15578292 0.12971522 0.2320865
0000a0 d6 99 d4 3b db b5 23 3e 4d 33 59 3e c0 a5 fb 3d
       0.0064880652 0.15987341 0.21210976 0.12287474
0000b0 c0 7e 12 3e b3 1a 33 bb 1a fc 0d 3e f6 f3 b2 3d
       0.14306164 -0.0027329146 0.138657 0.08737938
0000c0 ac 7e ff 3d 70 ec b6 bc 6e 72 bb bd 28 02 f4 3b
       0.124753326 -0.022329539 -0.09152685 0.007446546
0000d0 5f 02 4d bd 47 42 3a 3d 39 2b e3 3d a7 de 03 3e
       -0.05005109 0.045473363 0.110922284 0.12877904
0000e0 6a 46 04 be e9 32 59 be 37 38 57 bd 0a 8d 40 be
       -0.12917486 -0.21210827 -0.052543845 -0.18803802
0000f0 9a b3 9b be af 0e 4f be bd 49 4f be 65 9b 53 be
       -0.30410463 -0.20220445 -0.20242973 -0.20664747

bn3.running_mean f4 [64]
000000 63 08 10 40 c2 63 35 40 c0 2c 1c 40 61 e9 fd 3f
       2.250512 2.8342137 2.4402313 1.9836847
000010 fa 79 e2 3f 1d df 32 40 52 8c 30 40 e2 73 40 40
       1.7693474 2.7948678 2.7585645 3.007073
000020 75 b4 2f 40 53 2f 5d 40 28 d6 4b 40 3e 0e 18 40
       2.7453892 3.4560134 3.184946 2.3758693
000030 b3 65 57 40 15 00 0b 40 92 62 25 40 e1 a8 40 40
       3.3655822 2.17188 2.5841413 3.0103076
000040 3a 59 10 40 9a f5 27 40 df 1c 43 40 69 f9 f7 3f
       2.255446 2.6243653 3.0486372 1.9372989
000050 11 12 39 40 e6 c7 2a 40 4d d7 ee 3f 09 e7 12 40
       2.8917277 2.6684508 1.8659455 2.2953513
000060 59 72 25 40 45 92 18 40 50 8f 32 40 d9 66 21 40
       2.5851042 2.3839276 2.789997 2.5219023
000070 5a c7 23 40 bc 9a 2b 40 f7 c9 2c 40 88 13 29 40
       2.5590425 2.6813192 2.699827 2.641817
000080 a8 67 12 40 69 cc 17 40 6a 9f 43 40 99 3c 55 40
       2.2875767 2.3718512 3.0566049 3.3318236
000090 73 10 4c 40 10 34 62 40 46 36 44 40 9e 11 2c 40
       3.188504 3.5344276 3.0658126 2.6885753
0000a0 6d 48 32 40 35 cf 55 40 4d 5f 4f 40 bb 34 04 40
       2.7856705 3.340772 3.2401917 2.0657184
0000b0 9a a5 1c 40 97 b4 23 40 de c9 18 40 86 8e f2 3f
       2.4476075 2.5578973 2.387321 1.8949745
0000c0 1e 52 0a 40 93 89 54 40 41 76 25 40 b5 40 3d 40
       2.161262 3.3208969 2.5853426 2.9570744
0000d0 80 ad 0a 40 c8 df 29 40 27 70 47 40 43 bd 45 40
       2.1668396 2.6542835 3.1162202 3.0896766
0000e0 66 07 31 40 c6 30 5a 40 fd b9 4d 40 9a 8c 75 40
       2.7660766 3.409227 3.2144768 3.8367066
0000f0 09 7a 21 40 92 09 5b 40 1d ec 45 40 c6 68 54 40
       2.5230734 3.4224591 3.0925362 3.3188949

bn3.running_var f4 [64]
000000 f8 ad 33 41 4a 1c 73 41 98 ff 13 41 31 fd 16 41
       11.229973 15.1944065 9.249901 9.436814
000010 9b f5 13 41 d6 27 69 41 83 b0 40 41 4c 11 58 41
       9.247462 14.572226 12.043094 13.504223
000020 c3 e5 19 41 75 de 79 41 ca 83 4c 41 9f ed 1f 41
       9.618594 15.616811 12.782175 9.995513
000030 3a 26 62 41 f7 cd 00 41 20 bc 19 41 47 2a 55 41
       14.134333 8.050284 9.608429 13.322822
000040 32 79 27 41 93 06 2a 41 a4 4f 4b 41 17 71 26 41
       10.467089 10.626605 12.7069435 10.40261
000050 66 f9 a1 41 b8 40 85 41 74 11 15 41 16 c9 36 41
       20.246777 16.6566 9.316761 11.424093
000060 7e 53 33 41 83 9e 1f 41 7d 93 5f 41 92 7f 30 41
       11.207884 9.976199 13.973508 11.031145
000070 65 45 82 41 29 da 15 41 8a bd 12 41 f3 9b 77 41
       16.283884 9.365762 9.171274 15.475574
000080 96 a9 ff 40 1b 56 84 41 0d 29 3e 41 2a 80 78 41
       7.9894514 16.542044 11.885022 15.53129
000090 7d 3a b2 41 92 d3 91 41 92 ba 76 41 63 84 92 41
       22.278559 18.228306 15.420549 18.314642
0000a0 00 c8 c2 41 76 23 e1 41 31 5b 7a 41 2c fd 38 41
       24.347656 28.142315 15.647264 11.56181
0000b0 20 3c 6f 41 95 40 80 41 5d f8 29 41 f6 1e f0 40
       14.952179 16.031534 10.623136 7.5037794
0000c0 b9 4c 4c 41 83 4a 95 41 f8 36 47 41 5e 6d 6e 41
       12.768731 18.661383 12.45092 14.901701
0000d0 26 d9 9d 41 0b b5 aa 41 aa ee 76 41 21 d0 b0 41
       19.73103 21.3384 15.433268 22.101625
0000e0 bf 5a 5a 41 dd 90 cf 41 ce fe 05 42 78 35 b3 41
       13.647155 25.945734 33.498833 22.401108
0000f0 40 e4 93 41 06 56 7e 41 43 80 5f 41 1c 34 b8 41
       18.48645 15.896002 13.968814 23.025444

cnn.0.weight f4 [8, 2, 5, 5]
000000 9a 63 00 3e c2 89 cf 3d 19 9f 17 3c e0 e5 13 bc
       0.12537995 0.10133697 0.00925424 -0.009026974
000010 93 64 16 bc c8 d1 59 3e 40 3d 81 bc 57 08 87 3c
       -0.009179252 0.21271431 -0.015776277 0.016483469
000020 1c ae 96 bd a4 4a d5 3d c4 36 58 bd ce f7 8a be
       -0.073574275 0.10414627 -0.052786604 -0.27142185
000030 f7 2d 86 be b5 6f 01 be 58 ee 0e be 8f c7 67 bd
       -0.26206943 -0.12640269 -0.13958108 -0.0565868
000040 07 5c 56 bd 0a d0 b0 3c d2 0f 8d 3c d6 86 76 3b
       -0.052333858 0.021583576 0.017219458 0.003761699
000050 8a c7 40 bd 58 62 8d 3d 2e dc 43 be 49 73 16 be
       -0.047065295 0.06903523 -0.1912696 -0.14692415
000060 e5 96 4c bd 1f 1b e2 3d 43 d9 44 3e 29 dc c0 bd
       -0.04994859 0.11040329 0.19223504 -0.09416992
000070 47 1d 27 3e 3c ab 08 3d 89 8f 28 3e 5f 37 29 bb
       0.16319762 0.033366427 0.16461004 -0.0025820357
000080 3b 53 7b bd b2 09 61 bd 09 44 76 3d 79 6b 32 be
       -0.06135867 -0.054940887 0.060123477 -0.1742381
000090 d7 a7 38 be 8a d5 93 be 97 76 d9 bc 5d 2a 0f 3d
       -0.18032776 -0.28873855 -0.026545806 0.03495251
0000a0 15 8a 98 bd 49 d6 d5 bd 74 c0 cd bc 51 57 c7 3d
       -0.07448212 -0.10441262 -0.025116183 0.09733451
0000b0 7a 9a c2 bd 1f 9e 26 be d7 4e 09 3d b6 15 51 be
       -0.0950212 -0.16271256 0.033522453 -0.20418438
0000c0 97 24 61 bd 4f 45 4c 3d 5f b3 19 3d 20 b7 ce bd
       -0.054966535 0.049870785 0.037524577 -0.10093522
0000d0 f2 4f e2 3c d9 0e 09 be 7c 23 9f 3d ed 5d d7 3d
       0.027626012 -0.1338457 0.0777044 0.10515962
0000e0 07 5d 8f 3d f4 5a 39 bd 50 07 d2 bc a1 3f 1e 3d
       0.070001654 -0.045252755 -0.025638252 0.0386349
0000f0 b7 5b 04 3e 37 8d de bd f2 7a 64 bd 1d 60 4d be
       0.12925611 -0.10866778 -0.055781312 -0.20056196
000100 17 d8 8c 3d 65 a5 8d 3e 15 bb bd 3d ef a6 75 bd
       0.06877153 0.2766525 0.09264199 -0.059973653
000110 ab 30 f4 bd ac c5 0c be 80 5e 94 3d f6 74 d7 3d
       -0.11923345 -0.13747281 0.07244587 0.105203554
000120 fa 06 0a be 86 18 a6 bc e8 fc 5e 3d f0 43 16 3e
       -0.13479224 -0.020275366 0.05444041 0.14674354
000130 b6 7c 8f 3d 3d 9d 0b be bd 88 ce bd 5b 8a e2 bd
       0.070062086 -0.136342 -0.100846745 -0.110615455
000140 0f 4d ab 3b ee 58 4d bd 35 6c f4 bd bf 6b 68 bd
       0.005227692 -0.050133638 -0.11934701 -0.05674338
000150 00 46 e7 3c 25 23 03 3e 22 ec 22 bd e8 70 6e 3d
       0.02823162 0.12806375 -0.039775975 0.058213145
000160 be 8f 02 be 6b eb a8 3d 6a b7 3d 3e 6f d8 bf 3d
       -0.12750146 0.082480274 0.18526998 0.09367453
000170 2c 27 1a be ac ca 31 3c aa 2e aa bc d0 f9 0d 3e
       -0.15054005 0.010851543 -0.020774204 0.13864827
000180 4b af dc 3d 12 c0 0b be 43 04 ad bd a2 b8 14 3d
       0.10775622 -0.13647488 -0.084480785 0.036308892
000190 42 03 40 be 88 e8 11 be 22 75 a2 bc a2 79 ab bb
       -0.18751243 -0.1424886 -0.019831244 -0.0052330056
0001a0 f9 2c 33 bd 09 13 f4 3d a7 9a 5c 3d 02 f1 c9 3d
       -0.04374406 0.11917693 0.053858425 0.09860422
0001b0 83 c2 cc 3d 14 28 16 3d c3 11 34 bd 35 ec c5 3d
       0.09998038 0.036659315 -0.04396225 0.096641935
0001c0 22 66 19 3e 66 54 4e bd bc f6 e2 3d 1f bf 73 be
       0.14980367 -0.050373457 0.11082217 -0.23803376
0001d0 3a f5 47 be 37 9b 22 3d c8 67 d1 bd 1f 56 05 bd
       -0.1952714 0.039698806 -0.10224873 -0.032552835
0001e0 e7 0e 9e be 0f 2d 76 be 48 55 f5 bd 71 87 18 3d
       -0.30870745 -0.24040626 -0.11979157 0.037238542
0001f0 2a 3a ee 3c ce 17 74 bd 8c 2b f7 bd 27 dc 53 bd
       0.02908047 -0.059593014 -0.12068853 -0.051723626
000200 19 27 55 3b 4b c4 21 3d fd 91 d1 3c 5c a2 6f bd
       0.0032524525 0.03949384 0.025582308 -0.058504447
000210 db 25 11 3e ea fd 62 bd 67 5a 2f 3e 19 d1 1d 3b
       0.14174597 -0.055417933 0.1712433 0.002408093
000220 30 f4 85 bb 35 b8 79 3d 93 c5 f5 bd a9 6a ef 3d
       -0.0040879473 0.06096669 -0.12000575 0.11690266
000230 a2 d6 5e be c2 19 98 3c e5 26 fd bd be ce 85 bc
       -0.21761563 0.01856697 -0.12360934 -0.016333934
000240 9b 26 b6 3b de cd ad bd b8 81 34 3d 7d 42 05 be
       0.0055588013 -0.08486532 0.044069022 -0.13013645
000250 77 01 9d 3c 46 4c e6 3d 12 dd 71 bd 4a 36 fb bd
       0.019165738 0.11245017 -0.05904872 -0.12266214
000260 1c 04 6c bd 41 40 8f bd 5c dc 7a 3d e0 89 0c be
       -0.057621107 -0.06994677 0.061245307 -0.1372447
000270 e9 66 8f bd a6 d1 e1 bd 30 a2 27 3e 9f f9 66 3e
       -0.070020504 -0.110263154 0.16370463 0.2255616
000280 2b 24 6b 3c c1 d5 c0 bd 4a 1c a0 bd af 7f 30 3e
       0.014351885 -0.0941577 -0.07817896 0.17236207
000290 84 65 8d 3d 0b 18 05 be f4 30 3f 3d 13 9b 3e 3c
       0.06904128 -0.12997453 0.046677545 0.011633652
0002a0 96 06 56 3d d6 37 f0 3d 66 ce 24 be 03 db 13 be
       0.052252375 0.117294 -0.1609436 -0.14439015
0002b0 42 32 84 bc ae 63 a3 3c 23 a1 de 3d a8 ab c5 3d
       -0.016137246 0.019944992 0.10870578 0.096518815
0002c0 f0 77 a0 bd d7 1c 3e 3d 17 0a 0a 3c 7e 0d b6 3d
       -0.07835376 0.046414223 0.008425257 0.08889292
0002d0 c9 47 e8 bd 24 56 d8 bd 0c c1 92 3b 7e 3e 1f 3e
       -0.11341817 -0.10563305 0.0044785794 0.15551183
0002e0 d9 09 3d 3e 20 5e 1e be bf 07 ef bc a6 b0 a9 bc
       0.18460788 -0.15465593 -0.029178498 -0.020714115
0002f0 fe 1f a8 3c 53 84 71 bc 45 db 34 be d0 96 29 bd
       0.020523068 -0.014741021 -0.1766177 -0.04140359
000300 1f 4e 4b 3c 8b 00 54 3d dc 41 14 3d a3 a2 12 3d
       0.012408762 0.05175833 0.03619562 0.035799634
000310 cc 20 01 bd e0 14 00 be b4 36 18 3e 0c 27 b0 bd
       -0.03152542 -0.12507963 0.14864618 -0.086011976
000320 0f b6 3a 3e 87 38 0d 3e 33 62 87 3e 20 17 10 3e
       0.18233512 0.13791095 0.26442108 0.14071321
000330 44 25 fd 3c 12 a8 9a 3d e9 2b 96 3d a2 83 f6 bc
       0.030901559 0.07551588 0.07332594 -0.030092064
000340 61 fb 7c 3c 7a 49 68 bd c7 88 39 bd 33 3f ba 3d
       0.015440793 -0.056710698 -0.045296457 0.090940855
000350 76 71 1e 3e 72 1b a4 bb 69 78 bb 3b 50 e5 d0 3d
       0.1547297 -0.0050081545 0.005721141 0.10199988
000360 c1 d8 89 bd d3 d5 2a bd f7 08 91 bd 94 a7 75 bd
       -0.06730796 -0.041707825 -0.07081788 -0.059974268
000370 03 28 3e bd 30 11 45 be d6 1f 0f be 5e 63 0c be
       -0.046424877 -0.19244838 -0.13976988 -0.1370978
000380 ed c4 21 be c7 18 0a 3d 24 0e 51 3e 7c 1b e8 3d
       -0.15797777 0.033715036 0.2041555 0.11333367
000390 98 e5 0b 3e 73 2c 41 3d aa f9 be 3d d4 48 db 3d
       0.13661802 0.04716153 0.093249634 0.1070725
0003a0 fe 6c f8 bc 02 ff 0a 3d 94 5b 8a 3d 77 61 1f 3e
       -0.030325409 0.0339346 0.067557484 0.15564524
0003b0 eb 87 cf 3d 4f 6c 10 bd 88 01 6c bd b1 cf 50 be
       0.10133346 -0.03525954 -0.057618648 -0.20391728
0003c0 b8 28 75 bd 61 2c 18 be 7e e9 84 bd 39 ab 4f be
       -0.059853286 -0.14860679 -0.064898476 -0.2028016
0003d0 8d 41 f6 bd a3 0b 32 be f8 15 e8 bc 43 b6 ed bd
       -0.120242216 -0.17387252 -0.028330788 -0.11607029
0003e0 c2 dd d8 bd 42 74 f4 bd ee ff 65 3e be ca 36 3e
       -0.10589172 -0.11936237 0.2246091 0.17850778
0003f0 87 4f ec bc c5 53 b2 3d 36 e3 d3 bd 38 89 90 3a
       -0.028846515 0.08707384 -0.103460714 0.0011027222

cnn.0.bias f4 [8]
000000 ce cd 7a 3d 59 9c 80 be 3e c9 21 be 62 fd 1a be
       0.061231427 -0.25119284 -0.15799424 -0.1513572
000010 a2 18 30 3e 1e d1 9e be f7 cc 9c 3c 79 57 2b be
       0.17196897 -0.3101892 0.019140704 -0.16732587

cnn.2.weight f4 [8]
000000 e4 77 58 3f 7c a6 7a 3f 0e f2 5e 3f 50 f1 7d 3f
       0.8455794 0.97910285 0.87088096 0.9919634
000010 fe 14 80 3f 58 bb 87 3f 60 9f 8f 3f 6a 5a 38 3f
       1.0006406 1.0604048 1.1220512 0.7201296

cnn.2.bias f4 [8]
000000 cd 7b b7 3e 2c 38 c8 bd 73 63 be 3e 4e 03 80 be
       0.3583664 -0.09776339 0.3718525 -0.2500252
000010 9a e5 c0 bb 63 1a 69 bd 92 cd 3f 3e 87 c4 6b 3e
       -0.0058867456 -0.05690993 0.18730763 0.23024188

cnn.2.running_mean f4 [8]
000000 ea 66 23 3f 31 d3 5e 3e 14 0d d4 3e 3e 80 9a 3e
       0.6382891 0.2176025 0.41416228 0.30175966
000010 b0 19 fa 3e 34 99 87 3d 28 1d e7 3e 88 b8 14 3e
       0.48847723 0.06621018 0.45139432 0.14523518

cnn.2.running_var f4 [8]
000000 52 0c 39 3f 82 e8 6f 3e 5f 83 cc 3e cc 62 c1 3e
       0.72284424 0.23428538 0.39943978 0.3777069
000010 33 8d c4 3e c3 70 25 3d 0d 10 01 3f 1e 6e c0 3d
       0.38388976 0.04039074 0.50415117 0.09396003

cnn.3.weight f4 [32, 8, 5, 5]
000000 19 bb 17 be 6c ca 18 be d3 c4 bc bd 3e 80 13 be
       -0.14817466 -0.14920968 -0.09217229 -0.1440439
000010 58 c3 6e be 87 4a 49 bd 15 5c 1b be a7 a1 11 be
       -0.23316705 -0.04914334 -0.15171845 -0.14221822
000020 01 6a 3b be a8 e4 a1 bd c0 2f f3 bc e4 09 a0 bd
       -0.18302156 -0.07904941 -0.029685855 -0.078143865
000030 44 b8 21 3d 72 4e 5d bc 94 69 ca bd 2a bc 01 3e
       0.03948237 -0.013507472 -0.09883419 0.12669435
000040 be f4 14 3d 07 d3 79 3d a9 15 da 3d a5 8f 97 3c
       0.036366217 0.060992267 0.106486626 0.018501112
000050 1b ba c4 bd d4 43 f6 bd bc 5d 90 bd 6c 13 0a be
       -0.09605809 -0.12024656 -0.070491284 -0.13483971
000060 fd 86 30 be aa 6c 18 3e 87 6d 09 3e f9 0e 00 bd
       -0.17238994 0.14885202 0.13420688 -0.03126428
000070 a9 4c 35 3e 84 f9 05 be 32 79 f5 3d 45 a3 94 ba
       0.17705025 -0.13083464 0.11986007 -0.0011340162
000080 f4 9c 54 3c 10 c0 3b 3d 8c aa 12 be 2b b4 f6 3a
       0.012976874 0.045837462 -0.14322871 0.0018822005
000090 44 99 01 3d 54 79 ee 3d d6 26 8e 3d 62 d9 5b bd
       0.031640306 0.11644235 0.06941001 -0.05367411
0000a0 49 30 37 bd fc 2c 6c 3c 0d 9f ca ba 74 59 f8 3b
       -0.044723783 0.014415022 -0.0015458778 0.007579023
0000b0 96 18 8d bd 7d 1c 94 bd 7d bc bf 3d ae e3 84 3d
       -0.06889455 -0.07231996 0.09362123 0.06488739
0000c0 37 83 e1 3d d9 98 e2 bc ac f4 7a 3c 51 bb 05 3c
       0.11011355 -0.027660774 0.015317123 0.0081623355
0000d0 b8 95 68 3c c8 2f b9 3d c8 1b 43 bd f0 f0 b6 3d
       0.014195852 0.09042317 -0.047633916 0.08932674
0000e0 23 68 21 bd 66 23 8f bc 07 92 03 3c 59 94 85 bd
       -0.039405953 -0.017472934 0.008030421 -0.06522436
0000f0 7a 22 18 3e 15 ad d8 3c 81 2c 5a bd 3d 2a 81 3d
       0.14856902 0.02644972 -0.0532651 0.063068844
000100 ba b8 22 bd d3 06 94 3d 2b 76 30 bd 83 e6 7b 3c
       -0.03972695 0.07227864 -0.043081444 0.0153747825
000110 fb 36 56 bd 67 c1 75 bd a4 15 9e 3d 67 77 d7 3d
       -0.052298527 -0.059998896 0.07718971 0.10520821
000120 49 61 2f 3d e0 01 97 3d 49 08 af bc 9d 54 ab bd
       0.042817388 0.073734045 -0.021366255 -0.08365748
000130 b6 5e 6f 3c fe ef c2 bd 99 69 02 3d b9 51 a6 bd
       0.014609983 -0.09518431 0.031838987 -0.08121056
000140 d2 1a b5 bc 37 0d a6 bd 25 3c 15 be 5b dd 25 3d
       -0.022107515 -0.08107989 -0.14573725 0.040494304
000150 e2 8b d7 bd 2a 75 9d bd 00 87 3b 3b 0b 91 ea bd
       -0.105247274 -0.07688363 0.0028614402 -0.11453446
000160 e3 de 29 3d 4b 50 1f 3b ad fd 33 bc 1c 47 00 3e
       0.041472327 0.0024309333 -0.010985774 0.12527126
000170 22 cc 03 bd 5b db d7 3d 79 6d 25 3e b0 1b 80 bc
       -0.032177098 0.105398856 0.16155042 -0.015638202
000180 9f bc 8e 3c 40 bb ce bb 8e 56 9a bb 47 b7 68 bc
       0.017423926 -0.006308943 -0.004710025 -0.014203853
000190 ce 4c d4 bd f0 9e fb bd 06 fc ab bd 90 af 46 bd
       -0.10366212 -0.12286174 -0.08397679 -0.048507273
0001a0 4d e2 b1 3c 74 b0 32 3c da 68 bf 3c 98 51 b9 3d
       0.021714354 0.0109063275 0.023365427 0.09048766
0001b0 41 ff 14 3c 92 b6 e8 3c dc fc 81 3d 08 2e a1 b9
       0.00909406 0.028407369 0.06347057 -0.0003074261
0001c0 20 3e f6 bb 66 08 b5 bd 23 18 3e 3c 77 02 91 bd
       -0.00751473 -0.088394925 0.011602434 -0.07080548
0001d0 d2 f9 a2 bd 3c d5 4a bc 65 ff 4c be 5c 5c 3c be
       -0.07957806 -0.012379941 -0.200193 -0.18394607
0001e0 11 c5 19 be 38 ca 79 be 3c 71 5d be c2 75 c3 be
       -0.15016581 -0.24393547 -0.21625227 -0.3817578
0001f0 27 20 15 be af c5 24 be 3d 1f 09 3d 13 7a c3 bd
       -0.14563046 -0.16091035 0.033477057 -0.09544768
000200 ab a5 26 be e3 d0 ca bd 27 8f 3b bd 67 50 ba bd
       -0.16274135 -0.09903123 -0.045790818 -0.09097367
000210 48 31 dd bb 2b 17 f6 bd d3 02 88 3d 01 95 46 be
       -0.0067502595 -0.12016138 0.06641164 -0.19392778
000220 8f b0 30 be df c1 13 be 9e 00 95 bd a1 9e 7d bb
       -0.17254852 -0.14429425 -0.07275508 -0.0038699287
000230 7b 98 91 bc 1c 28 55 bb 07 e9 04 3d 7d 85 38 3d
       -0.017772904 -0.0032525128 0.032448795 0.04504918
000240 6b 3a 49 3d a5 95 f1 bd 50 1a bb bd 57 5b ce bd
       0.049127977 -0.117961206 -0.09135878 -0.100760154
000250 00 55 b7 bd 69 87 44 bd 45 7c 7a 3d 8c c8 56 bd
       -0.08951759 -0.0479807 0.06115367 -0.05243735
000260 17 d4 d1 bb aa 91 c1 3d fc 12 bc 3d a7 7b 01 bd
       -0.006403457 0.09451611 0.091833085 -0.031612065
000270 41 f7 81 bd 9b 2e 77 bd 15 6d 0d be a5 6a b0 bc
       -0.06345988 -0.06034718 -0.13811143 -0.021535227
000280 2a ae bb 3d be c5 18 3d 15 a6 99 bc 68 e1 07 be
       0.091640785 0.037297957 -0.018755952 -0.1326958
000290 a9 9b 74 bc 61 bf a5 bd 71 cd 97 be 7c 11 24 be
       -0.01492969 -0.08093143 -0.29648927 -0.16022295
0002a0 fd cb 60 be ae ab b3 3c 00 86 95 bd 1c 8c 27 bd
       -0.21952815 0.02193245 -0.07300949 -0.040905103
0002b0 ce 2f 3e bc cc 31 a1 bd 6a d3 a2 bd fd 6e e8 3d
       -0.011608077 -0.07870826 -0.0795048 0.11349294
0002c0 f8 36 84 3d 7f 1c 06 bd 3d 07 96 3c 88 bf 2f bb
       0.06455797 -0.03274202 0.018313998 -0.0026817042
0002d0 5c 3a 9b 3d 04 5f ab bd 34 53 83 bd e0 bf 02 be
       0.075794905 -0.08367732 -0.06412354 -0.12768507
0002e0 42 b6 e4 bd b8 87 cd bb b0 db 58 bd 41 7b d7 ba
       -0.111675754 -0.0062722825 -0.052943885 -0.0016439931
0002f0 30 b9 e9 bd 85 49 88 bc 3f 1f 65 3d 95 2f 7d bb
       -0.11412275 -0.01663662 0.055938 -0.0038633097
000300 29 ae b8 3d e1 46 cc 3d 41 9f 28 3d 1e e1 dd 3c
       0.090175934 0.099744566 0.0411675 0.027084883
000310 49 cc 1e bd d2 e7 30 bd 01 f9 41 bd 2e 0c 7b 3b
       -0.03876904 -0.04318983 -0.04735661 0.003830682
000320 fc 0a a4 3b b2 4d 4f 3a 7d d8 1e 3e 31 d2 54 3d
       0.0050061923 0.0007908001 0.15512271 0.051958267
000330 0f 65 ff 3d 02 82 f1 3d dc 79 54 3d e9 bc d1 3d
       0.12470447 0.11792375 0.051874027 0.1024111
000340 21 81 61 3d 9a 1d 76 3d 6a 3b 6b bc cb 90 00 3e
       0.055054788 0.060086824 -0.014357427 0.12555234
000350 b4 71 45 3d c0 1a df 3b 08 20 e9 3d 25 a2 a9 3d
       0.04820414 0.006808609 0.113830626 0.0828288
000360 60 fa 23 3d 47 af 09 3e 99 26 70 bc ad e5 f0 3d
       0.040033698 0.13445769 -0.01465764 0.11762557
000370 b3 0c b6 3d fc 8c c1 3d 17 5d 93 3d 6b 6b 1b 3d
       0.08889141 0.09450719 0.0719549 0.03794424
000380 41 e8 2d 3e fb 96 64 bd 3a 1c 3c 3e 32 30 c3 bd
       0.16983129 -0.05580805 0.18370143 -0.09530677
000390 f6 b7 c4 bd 0e 99 0f bd 15 3d 17 3d 70 3a 5d 3d
       -0.096054 -0.035058074 0.036923487 0.05401081
0003a0 2f 00 72 bd de 21 3c bd 30 98 07 bd 54 31 90 3a
       -0.059082206 -0.045930736 -0.03310412 0.0011001029
0003b0 56 48 82 3e e6 b0 24 3e cd c0 00 3e 19 f8 fd 3d
       0.25445813 0.16083106 0.12573548 0.124008365
0003c0 7e 40 f6 bc 51 b6 de 3c 32 33 f1 3d ef b3 85 3d
       -0.03006005 0.027186545 0.11777343 0.0652846
0003d0 4f 27 39 3d 4d d8 56 ba c2 57 ea bc fa 42 96 3a
       0.045203503 -0.00081956835 -0.0286063 0.0011464052
0003e0 e1 fe d2 bc 80 0c 93 bc 66 73 76 3c 11 dc 25 39
       -0.025756301 -0.017950296 0.015042162 0.00015817607
0003f0 c6 35 e8 3d f1 65 dd 3d bc 42 20 3d 03 ca 8f 3c
       0.113383815 0.108104594 0.039126143 0.017552381
