models/session_speaker-1s.model (torch, 183901 bytes, 78 tensors)

conv1.weight f4 [8, 2, 5, 5]
000000 00 33 0d 3e ea b4 76 bc 8a dc 5e bc 6a f9 7f 3d
       0.13788986 -0.015057782 -0.013602385 0.06249372
000010 3b 3e c3 3d d4 e5 a6 bc 1f 82 cb 3d 7f d5 03 3e
       0.09533354 -0.020373262 0.09936928 0.12874411
000020 ff cc af bd e2 b5 55 3e 12 48 95 3d d8 ef 8b bd
       -0.08584022 0.20870164 0.07289137 -0.06832856
000030 7d be 2d be c8 5d e3 bc 0f 30 e1 3d 4c 15 99 bd
       -0.16967197 -0.02775468 0.109954946 -0.07474765
000040 03 b7 32 be bf 12 56 3d 22 e4 79 be f3 de 06 be
       -0.17452626 0.05226397 -0.24403432 -0.13170986
000050 1a be c2 3d b2 4c 33 bd a6 eb 7b 3d f4 81 05 be
       0.09508915 -0.043774314 0.06150403 -0.13037854
000060 ee 64 c8 bc 40 37 37 3e f6 b3 78 bd 30 04 47 3e
       -0.02446219 0.1789217 -0.0607185 0.19435191
000070 46 03 38 3d 76 43 56 3e c5 16 2f 3c 58 67 3c bd
       0.044924997 0.20924172 0.010686581 -0.045996994
000080 9f 44 8d 3d 63 41 f5 bd ed a0 df 3c 6b be fc bd
       0.06897854 -0.11975362 0.027298415 -0.12341007
000090 d0 b4 9c 3d 54 d1 cc bd 52 e0 da bd d0 ba b3 bd
       0.07651675 -0.10000864 -0.10687317 -0.08775866
0000a0 38 ac 0e be bb 2a 8a 3c 1d 6c a1 bd 8c 52 0c be
       -0.13932884 0.016866079 -0.07881949 -0.13703364
0000b0 24 b4 43 be 87 41 1b 3d 21 26 b0 bd 2d ba 8f bd
       -0.19111687 0.03790429 -0.086010225 -0.07017932
0000c0 7f 6d b8 bd 5d d7 c2 bd b7 87 a8 3c d3 36 1e 3e
       -0.0900526 -0.095137335 0.020572526 0.15450601
0000d0 ea c7 fd 3c 81 a2 f1 3d 51 d8 05 3c 11 64 e0 3d
       0.030979116 0.11798573 0.00816925 0.10956586
0000e0 76 ed da bd cb 04 31 3c 67 bb 05 be 97 30 6b bd
       -0.10689823 0.010804365 -0.1305977 -0.057419386
0000f0 75 6b 7d 3d b1 c0 99 bd cd 8a 18 be ce 7b 51 be
       0.061870057 -0.07507456 -0.14896698 -0.20457384
000100 46 72 97 bd 26 d8 0d 3e a4 03 cf bd e5 df b5 bc
       -0.07394843 0.13851985 -0.10108116 -0.022201488
000110 66 6e b6 bd 8a ee cf 3d 4e ae 9a 3d 5a 73 eb 3d
       -0.089077756 0.101529196 0.07552777 0.11496611
000120 0a 79 a6 bb 2b e0 b6 bd 53 08 71 bd 4d 22 0c 3e
       -0.005080347 -0.089294754 -0.05884583 0.1368496
000130 82 bd 63 3e 5e 4e 0c 3e c3 71 a9 3c a5 f9 27 3e
       0.2224026 0.1370177 0.020684129 0.16403826
000140 de 5a 48 bc b8 36 45 bd 0b 17 49 bc 5d ba 2e be
       -0.012228696 -0.048147887 -0.01227356 -0.1706328
000150 4c f6 70 3d ec ab 11 bd 69 16 9b bd 6d 8f 72 bd
       0.058828637 -0.035564348 -0.07572634 -0.059218813
000160 f8 aa 92 bb e3 8d a7 bd a6 39 b3 3d ac 51 fa 3c
       -0.0044759475 -0.081813596 0.0875123 0.030556522
000170 ac 82 e9 bd 5e b8 17 bd 34 86 cc bc 91 fb 5a 3d
       -0.11401877 -0.03704106 -0.024966337 0.05346257
000180 61 96 31 3e 9d 7f 8c 3d f5 df de bd a9 52 23 3d
       0.17342521 0.06860278 -0.1088256 0.039873753
000190 f3 68 7d bc 1d 37 1e be e3 20 97 3d 3c 8e 82 3d
       -0.015466916 -0.15450712 0.073793195 0.06374785
0001a0 0d 3f 98 3d d9 af e9 3c 36 07 a0 39 f4 81 60 3d
       0.07433901 0.028526234 0.0003052295 0.054811433
0001b0 be 4c 69 3d f1 24 47 3e 70 9c 4e 3e 9a b4 c5 3d
       0.056957953 0.19447686 0.20176864 0.09653588
0001c0 02 65 25 3e 19 2d b7 3c 4b 70 07 bd b0 9c ce bb
       0.16151813 0.022360371 -0.033066075 -0.0063052997
0001d0 88 eb 12 3e 7d f2 f8 3d 88 7f 4e 3e fc 3e 23 3d
       0.1434766 0.12155626 0.20165837 0.03985499
0001e0 0c 1c 88 3d b1 52 6b 3d 79 bc d2 bd 85 ea 9b 3d
       0.066459745 0.057451908 -0.102898546 0.076130904
0001f0 81 5e 2c 3e 09 63 85 3c db ef bb 3d 31 87 5d 3d
       0.16832925 0.016282575 0.09176608 0.054084007
000200 c4 2b a4 3d 91 09 fd 3d 09 2c 27 3d 77 d4 d5 3d
       0.0801616 0.1235534 0.04081348 0.10440915
000210 da 5b 1c 3e e9 2d 1f 3e 0c 59 31 3e a8 41 87 bd
       0.15269414 0.15544857 0.17319125 -0.0660432
000220 5a 81 31 3d 0c 17 80 3d 71 d1 2c 3b 61 9c 18 3e
       0.04333625 0.06254396 0.0026369954 0.14903404
000230 bb e3 a2 3d db 7a de 3d 84 2e 32 3e 8d 70 33 3e
       0.079535924 0.108632766 0.17400557 0.17523403
000240 d5 7a 0d 3d ab 35 a1 3d ad a1 f7 bd 1a d8 e8 bd
       0.03454097 0.078715645 -0.12091384 -0.11369343
000250 06 12 03 be cd 36 dd 3d 94 27 5a bd ac ae ad bc
       -0.12799844 0.10801468 -0.0532604 -0.021201454
000260 f6 99 a7 3b 3b 54 bb 3d bd 21 ef bd 21 24 0c be
       0.005114789 0.09146925 -0.11676357 -0.13685657
000270 a6 5a ec 3c 98 d1 03 3e cf fc b2 bd c9 61 e2 3c
       0.028851818 0.12872922 -0.08739626 0.027634518
000280 67 75 63 be d7 23 12 be 38 cf d4 3d 43 3d e9 bd
       -0.22212754 -0.14271484 0.10391086 -0.11388638
000290 11 6d 72 be cb e2 e5 bd 9e 20 c0 bd c1 b7 da 3d
       -0.23674418 -0.11224898 -0.09381221 0.106795795
0002a0 69 f2 6b bd 36 3a 7b 3d 20 56 0e 3e b1 a1 41 3c
       -0.057604227 0.06133481 0.13900042 0.011818335
0002b0 a7 66 5b 3e 84 43 96 3d 73 14 fe 3d d2 4e 32 be
       0.21425878 0.07337096 0.12406244 -0.1741288
0002c0 4d f2 05 3e a7 b5 cf 3d 31 85 fd 3c b7 29 14 bd
       0.13080712 0.10142069 0.0309473 -0.036172595
0002d0 c1 94 07 be 95 80 2e be 05 88 3a 3c 9f 80 c5 bb
       -0.13240339 -0.17041238 0.011384969 -0.0060272957
0002e0 3e 50 ce 3b c4 31 35 be c7 0b 34 be db 25 0e bd
       0.0062961867 -0.17694765 -0.17582618 -0.03470407
0002f0 57 8e bd bd c8 36 30 3d 9a 5c e2 bb 02 e1 c0 3d
       -0.09255665 0.043020993 -0.0069080116 0.09417917
000300 b0 23 ad 3d 76 44 e9 3d 67 8b fd bc 35 1f 17 3e
       0.084540725 0.11390011 -0.030950261 0.14757998
000310 64 60 ee 3c 99 93 df bc 8b ab e8 3d 93 01 67 3c
       0.029098697 -0.02729206 0.11360844 0.014099496
000320 2d 81 df 3d 7d 0e c2 bd fc 64 77 bd 8c a9 df 3d
       0.1091331 -0.0947542 -0.06039904 0.109210104
000330 42 55 92 bd 01 f5 3c be 2b 5f 6e 3d 0c d6 82 bb
       -0.07145168 -0.18452837 0.058196228 -0.0039928015
000340 24 ba 24 bd 38 ef 07 be 7b 0b e0 bd d2 52 b5 bc
       -0.04021658 -0.13274848 -0.1093969 -0.022134218
000350 dd 63 00 3e d0 d0 22 bd ef 8f 8f 3d eb 1f dd bb
       0.12538095 -0.03974992 0.07009875 -0.0067481897
000360 9b 72 5d bd 76 ab bc bd 54 b0 45 be 09 a5 01 be
       -0.054064374 -0.09212391 -0.19305545 -0.12660612
000370 dc 7a f5 3c eb b8 2e be 9c d8 c8 bd cb db 20 be
       0.02996581 -0.17062728 -0.0980694 -0.15708844
000380 ba 57 8c 3c 92 57 cd 3c b6 4a e1 bd 89 af ce 3d
       0.017131675 0.02506617 -0.11000578 0.100920744
000390 f8 02 4a 3d 0f 3c 00 3c 25 be 1d 3d cf 80 f9 bd
       0.049319237 0.007826819 0.038511414 -0.121827714
0003a0 31 c2 e1 3d 30 dc 15 be fe 39 8c 3b 0d ba e7 bd
       0.11023367 -0.14634776 0.004279374 -0.11314783
0003b0 1e 5f fc bd 62 38 c5 3d 35 10 cd 3b a4 99 54 3c
       -0.1232283 0.09629895 0.0062580355 0.012976084
0003c0 b8 34 0b be 4d a7 fc bd 7c 3c 82 3d 62 57 06 be
       -0.1359433 -0.123365976 0.06359193 -0.13119271
0003d0 d0 ab 0b 3d 30 c9 76 be 94 fc 48 bd 59 e4 5b bc
       0.0340994 -0.24100184 -0.049069002 -0.013421142
0003e0 93 7b 42 be b2 a9 ad bd 85 e8 51 be 40 78 b7 bd
       -0.18992452 -0.084796324 -0.20498855 -0.08958483
0003f0 cc 6b 0c 3e a9 37 b1 3d b4 0b 4b bd 7f 6f 65 bc
       0.13712996 0.086531945 -0.049571708 -0.0140036335

conv1.bias f4 [8]
000000 75 1a 0e 3c 4d ad da 3d f9 6e 75 3c 5f 08 f9 3d
       0.0086733 0.10677586 0.014980071 0.121598
000010 13 02 9f 3c be 6f 97 3b 01 50 4c bd 33 90 94 bc
       0.019410169 0.004621475 -0.049880985 -0.018135166

bn1.weight f4 [8]
000000 bf f0 78 3f d6 51 91 3f b9 66 83 3f 44 70 90 3f
       0.9724235 1.1353099 1.0265723 1.1284261
000010 c8 15 63 3f d1 87 6c 3f 22 3a 7d 3f ec 62 6a 3f
       0.8870511 0.9239474 0.9891683 0.9155719

bn1.bias f4 [8]
000000 61 86 80 3d 4c 98 39 3d 55 1a 2a bd 43 05 1f 3d
       0.06275631 0.045311257 -0.04152902 0.038823377
000010 58 9d eb 3d 39 45 35 3d d2 c0 1c bc 5c e6 93 3d
       0.1150462 0.04425547 -0.009567456 0.07221672

bn1.running_mean f4 [8]
000000 e9 c2 bf 3e 3f bc 92 3e 96 5d 8d 3f 72 40 a7 3e
       0.37453392 0.28659245 1.1044185 0.32666355
000010 d6 82 3e 3f 1c dc 53 3f bc c1 00 3f 4e d7 8b 3f
       0.7441839 0.82757735 0.50295615 1.0925081

bn1.running_var f4 [8]
000000 f7 e3 94 3e 2f 35 19 3e 4a 31 0a 40 83 ba 45 3e
       0.29080173 0.14961694 2.1592584 0.1930943
000010 f5 94 c1 3f 33 27 fe 3f 51 60 03 3f 4f 22 5b 40
       1.5123583 1.9855713 0.5131884 3.423969

conv2.weight f4 [32, 8, 5, 5]
000000 6d b2 aa 3b f5 c7 22 3c 86 8c 3b bd e6 2c 33 3d
       0.0052092583 0.009935369 -0.04578831 0.04374399
000010 b2 a4 cf bd 5a 0a 95 bd d1 2d 76 bd d4 3a 01 be
       -0.10138835 -0.07277365 -0.060102288 -0.12620097
000020 93 b4 d3 bd 4c 3b e5 bd d1 ae 7f bd f8 2c b1 39
       -0.10337176 -0.111929506 -0.062422577 0.00033793575
000030 73 4f a5 bd 6b 13 59 3d 74 25 ac bc 78 87 07 3b
       -0.08071794 0.052997034 -0.021013953 0.002068011
000040 0e da ce bd b5 57 0a be 77 2f 66 bc 32 bc 1d be
       -0.101001844 -0.1351002 -0.014049402 -0.15403822
000050 b3 0c ac bc 20 e9 90 bc 0a 6c 9c bd 9d a9 d7 bd
       -0.02100215 -0.017689288 -0.07637794 -0.10530398
000060 ca 03 02 be 39 b1 09 be 2a 86 1f be 4f 68 f1 bd
       -0.12696758 -0.13446511 -0.15578523 -0.117874734
000070 e3 ce f7 bd 82 7a 3b be f5 9d 32 be e7 01 04 be
       -0.121000074 -0.18308452 -0.17443068 -0.1289135
000080 5d e0 39 be 68 43 ec bd eb af df bd ec 81 74 bd
       -0.18151994 -0.11536294 -0.109222256 -0.059694216
000090 2a d8 66 bd 9e 9b 8f bc 8b 5b a4 bc ab 19 e7 bd
       -0.056358494 -0.017530259 -0.020063182 -0.11284193
0000a0 d3 dc 2e bd 47 68 6a bd 9c 31 2c be 51 40 a7 bd
       -0.042691063 -0.057228353 -0.168158 -0.08166564
0000b0 ce 9f 35 be 4f 11 aa 3d a0 6e cb bd 6e 6d 11 3d
       -0.17736742 0.083040826 -0.099332094 0.03550475
0000c0 af 62 2b 3b 8f 28 62 3d e3 78 a4 bd 7e 65 4e 3c
       0.002615135 0.05521446 -0.0803087 0.01259744
0000d0 de e0 0e be d4 d7 13 be 98 ed 1f be b8 71 3f be
       -0.13952968 -0.144378 -0.15617979 -0.18695724
0000e0 a2 5b 8e bd dc 05 d4 bd 34 52 9b bd 5f 69 39 be
       -0.06951071 -0.1035268 -0.075840384 -0.18106602
0000f0 25 f7 f9 bd 13 64 61 bd e3 d0 0e 3d 74 a4 da bb
       -0.12205342 -0.05502708 0.03486718 -0.0066724364
000100 f2 7c 04 be 13 11 d2 bc 0a f2 d0 3d e3 60 8a 3d
       -0.12938288 -0.025642907 0.10202415 0.06756761
000110 03 be ce bc 5f 55 93 bd 6c 72 13 bd c6 c9 b6 3c
       -0.025237089 -0.071940176 -0.035997793 0.02231301
000120 1f 1a 7c 3c 54 43 19 3d 90 56 39 bd 08 64 3c 3c
       0.015387087 0.037417725 -0.045248568 0.011498459
000130 10 f1 52 bc f2 0c 86 3d 00 2d c5 bd 33 a6 c7 bd
       -0.012874857 0.06545438 -0.09627724 -0.09748497
000140 18 e9 d0 3d 39 38 e8 3d 37 c2 ba bc 27 34 4c 3d
       0.10200709 0.113388486 -0.022797687 0.049854424
000150 a6 ab ea bc 65 a4 82 3d 93 76 44 3d 52 3b 7f 3c
       -0.028646301 0.06379012 0.047964644 0.015578108
000160 fe 98 b1 3c 66 59 0e bb 28 2d 59 bd 11 67 b3 bc
       0.021679398 -0.0021720766 -0.05302158 -0.021899732
000170 74 43 c6 bd 17 6b cb bb 22 93 df bd 60 c3 a2 3b
       -0.096808344 -0.0062078345 -0.10916735 0.004967138
000180 f8 d0 bb bc d9 19 06 bd 30 35 57 bd 3c 23 dd bb
       -0.022926793 -0.032739494 -0.052540958 -0.006748585
000190 ad 29 28 be e7 f1 11 be 03 45 14 bd cc 39 29 be
       -0.16422148 -0.14252435 -0.036198627 -0.16525954
0001a0 13 ed aa bd 61 73 12 be 99 c3 2e bc a2 65 be bd
       -0.083459996 -0.14301826 -0.010666751 -0.09296729
0001b0 64 04 1c be be 3f 88 bd 1c b5 bb bd 8c 16 dd bd
       -0.1523605 -0.06652783 -0.09165403 -0.10795316
0001c0 63 ce f1 bd fb ad 27 be 21 0f ea bd db 76 11 be
       -0.11806943 -0.16374962 -0.11428667 -0.14205496
0001d0 60 50 ba bd db 81 f6 bb 3b 88 39 bd 90 f8 15 bd
       -0.090973616 -0.007522804 -0.045295935 -0.036614
0001e0 e4 4d 8d bd 68 29 01 be 32 f8 8b bd 4c bb 02 be
       -0.06899622 -0.12613451 -0.06834449 -0.1276676
0001f0 e8 43 22 bd 07 ac b2 3c d7 8b d7 3c 40 4d 88 3c
       -0.03961554 0.021810545 0.026311798 0.016638398
000200 67 f0 22 bd b3 26 7f 3d 79 04 da 3d 54 97 d8 3c
       -0.039780047 0.062292766 0.10645384 0.026439346
000210 f6 ac 4e 3c 05 ea 5d 3d 69 2b 94 3d 16 81 eb bc
       0.012614479 0.054178257 0.07234842 -0.028748076
000220 86 45 bf 3c fe b8 55 3d e5 f7 20 3d 74 86 7f 3d
       0.023348581 0.052178375 0.03929891 0.062384084
000230 ad 60 48 3d da 85 2c 3d 30 3d e4 3d b7 f3 35 3d
       0.048920322 0.04211984 0.11144483 0.044421878
000240 6f c4 ae bc d8 17 9c 3c 66 ad bb 3d d9 7e 4e 3c
       -0.021333901 0.019054338 0.091639325 0.012603485
000250 2d e8 30 bd 00 da 81 bd d8 9c e3 bc 04 36 30 3b
       -0.04319017 -0.06340408 -0.02778475 0.0026887665
000260 eb 12 64 be 4a ac 55 be 22 6a 0a be 32 67 bb bd
       -0.22272842 -0.20866504 -0.13517049 -0.09150542
000270 45 b2 45 bc 7c f6 74 bd 59 3e fd 3b fb bb 08 bd
       -0.012066429 -0.05980538 0.0077283797 -0.033382397
000280 9d 05 53 be 92 e6 72 bd 24 2c ef bd 5e 3a ee bd
       -0.2060761 -0.05930192 -0.11678341 -0.116322264
000290 58 e5 32 be ca 2c c3 bd 97 9b d2 bd 54 93 ab bd
       -0.174703 -0.09530027 -0.10283583 -0.0837771
0002a0 80 4f 44 bc 16 80 42 bc bc e0 b5 3b aa 85 13 bd
       -0.011981845 -0.011871358 0.005550472 -0.036016144
0002b0 9d d6 53 bd 30 bd ae bd 5f 3b 5d bd bb b0 2c 3c
       -0.051718343 -0.085321784 -0.0540117 0.010540183
0002c0 ba b1 8a 3d e0 64 05 3d 26 97 e6 bc 65 49 75 3d
       0.0677218 0.032566905 -0.028148245 0.059884448
0002d0 a9 3e 32 3d 8b 54 f4 3d 6e 2b ab 3d 58 ff 6e 3d
       0.04351679 0.11930188 0.08357893 0.058348984
0002e0 46 d8 8b 3d 07 d3 f1 3b 95 2c 7d 3d bb d9 0e 3d
       0.0682836 0.0073798927 0.061810095 0.034875613
0002f0 34 27 2f 3d 57 aa 79 bd 1d f3 42 3d 51 ef 55 3d
       0.042761996 -0.060953464 0.047595132 0.052230183
000300 de 75 c5 3d c0 4e 3e 3b ce c1 0a bd 75 b5 96 bd
       0.09641622 0.0029038638 -0.033876233 -0.07358829
000310 63 02 b4 3d 99 81 7a bd 3c fe 81 bc b4 68 82 3c
       0.08789518 -0.06115875 -0.015868299 0.015919067
000320 82 27 96 bc dc 7f 36 bd f9 ef cc 3c d9 e1 b6 bd
       -0.018329386 -0.04455553 0.025016772 -0.08929796
000330 49 b7 ce bd cf 59 26 be 22 e8 61 bd 1f ca 01 bd
       -0.100935526 -0.16245197 -0.05515302 -0.0316869
000340 36 19 22 3b 90 0d c4 bd 86 21 43 bb f0 c9 b4 3c
       0.0024734265 -0.09572899 -0.002977462 0.022068948
000350 56 16 27 3d 78 b0 38 bd 92 c9 14 3c 8a 5c 1d be
       0.040792786 -0.04509017 0.009081261 -0.15367332
000360 5d ba 26 be 0f da b0 bd ab b6 03 be d9 d7 da bd
       -0.1628203 -0.086353414 -0.12862651 -0.10685701
000370 30 98 1f be 43 a5 3a bd 37 6b 44 be 48 1e 24 3c
       -0.15585399 -0.045567762 -0.19181524 0.010016985
000380 4f 69 bd bd 5c c0 36 3c 9a ef 8d bd f3 a1 7e bd
       -0.09248602 0.0111542605 -0.06930466 -0.062166166
000390 e7 aa 99 3d bf 82 87 bd 1d a3 b6 3d 6b 9b 70 3d
       0.075033 -0.06616735 0.0891783 0.058741968
0003a0 70 08 12 bd ad e4 b7 3d c0 bd 33 3d 45 b9 2e bc
       -0.035652578 0.08979163 0.04388213 -0.010664289
0003b0 b0 54 4b 3d 18 a6 a3 bd 9d eb 2e bd c5 7c cb bc
       0.04964131 -0.07990664 -0.042705167 -0.024839768
0003c0 3f d1 eb 3a 4b 76 2e 3d 84 bb e5 bd 5f cc 47 bc
       0.0017991437 0.04259328 -0.112174064 -0.012194722
0003d0 9b f0 c5 bd 30 56 c6 3c 5a 6c 61 3d 68 a4 df 3d
       -0.096650325 0.02421102 0.055034973 0.1092003
0003e0 a4 7a 83 3d 16 60 49 3d 5b 71 89 bd b4 81 f9 3a
       0.06419876 0.0491639 -0.06711074 0.0019035847
0003f0 e0 d0 40 3d 67 50 78 3c e5 88 a7 3b eb ec 1e bd
       0.0470742 0.015155888 0.0051127546 -0.03880016

conv2.bias f4 [32]
000000 07 7c 02 be 17 57 3c 3c fb 9b ec bd 9e 90 09 bd
       -0.12742625 0.011495373 -0.115531884 -0.033585183
000010 d4 fb 17 be 12 bf 30 bd b0 69 f6 bc 29 26 1b be
       -0.14842159 -0.04315097 -0.030079693 -0.15151276
000020 b9 7c e5 bc 68 0e 84 bc d0 1b ad bc db c8 d9 bd
       -0.028013574 -0.01612015 -0.021131426 -0.10634013
000030 f9 c1 32 bd ab 46 01 be 44 9b a4 bd b9 33 a7 bd
       -0.043642018 -0.12624614 -0.08037427 -0.08164162
000040 1b 08 75 bd 15 e4 b1 bd b8 92 9c bb 3c a4 61 3d
       -0.059822183 -0.08686081 -0.0047782324 0.055088267
000050 09 a3 10 be 35 da 00 bd 47 32 f8 bb a0 88 5e 3b
       -0.14124693 -0.0314581 -0.007574353 0.0033955947
000060 cd 08 09 3d 88 c9 1b be b9 8c 66 be 14 fa 2d be
       0.03345566 -0.15213597 -0.22514619 -0.16989928
000070 75 ec 9f bd 30 9b 4a be 6b f6 cd bd 5d c1 22 bd
       -0.078087725 -0.19785762 -0.10056766 -0.039735187

bn2.weight f4 [32]
000000 4b 9e 84 3f c0 df 83 3f cf 9e 72 3f 58 a0 65 3f
       1.0360807 1.0302658 0.9477357 0.8969779
000010 63 35 79 3f 6d 37 7d 3f 33 96 6c 3f 41 7b 98 3f
       0.97347087 0.989127 0.92416686 1.1912614
000020 3a ad 80 3f 3f 0c 78 3f fc b0 64 3f 85 de 87 3f
       1.0052865 0.96893686 0.89332557 1.0614783
000030 6d 89 8e 3f 09 af 82 3f 27 6d 83 3f c5 c8 78 3f
       1.1135689 1.0209666 1.0267686 0.9718135
000040 5a 20 72 3f 04 75 5f 3f 11 06 77 3f f9 1f 69 3f
       0.94580615 0.87287927 0.9649363 0.9106441
000050 07 60 6b 3f f3 1f 7e 3f 0b f2 68 3f 49 99 80 3f
       0.919434 0.992675 0.9099433 1.0046779
000060 3f 3b 73 3f f3 8b 90 3f 7d 4a 72 3f 91 dd 80 3f
       0.9501228 1.1292709 0.9464491 1.0067617
000070 60 9e 64 3f 20 18 9a 3f c5 66 67 3f 7b aa 71 3f
       0.8930416 1.2038612 0.9039119 0.9440076

bn2.bias f4 [32]
000000 09 01 9f bd c4 44 46 be 42 c4 cd bd d8 15 be bd
       -0.07763869 -0.1936217 -0.10047199 -0.0928151
000010 66 ed 63 bc 56 e1 38 bd e8 60 d4 bc a6 c4 b9 3d
       -0.013911581 -0.045136772 -0.025925115 0.09070711
000020 05 0d 15 be de dc 3b be 55 2d df 3d 06 da c4 bb
       -0.14555748 -0.18345973 0.10897318 -0.0060074357
000030 f8 e9 d2 bd ce 1a e5 bd a1 7d c1 bd dc 95 f8 bd
       -0.10298532 -0.11186753 -0.0944779 -0.121379584
000040 4c cd 3d bd 1c 00 2c be 1d 9b 7b bc 15 2a 26 bd
       -0.046338364 -0.16796917 -0.015356806 -0.040567476
000050 c6 12 33 3e 8f 73 68 bd 74 11 06 bd d7 51 d4 bd
       0.1748763 -0.05675083 -0.03273149 -0.10367172
000060 4d d7 9a bc 9d de df bd 13 f2 cb bd 5d 85 83 bd
       -0.018901492 -0.10931132 -0.09958281 -0.064219214
000070 b6 5a 13 be 01 63 9e bd a4 25 49 bd ba de 91 bb
       -0.14390072 -0.07733727 -0.049108163 -0.0044516

bn2.running_mean f4 [32]
000000 da b6 48 3f 65 35 01 40 b5 fb 6a 3f 69 bd 1a 40
       0.7840401 2.018884 0.91790324 2.4178107
000010 b5 d3 51 3f d8 e1 12 40 58 bb fb 3f 19 b3 db 3e
       0.81963664 2.2950344 1.9666548 0.42910078
000020 c1 5a ab 3f 45 b6 b5 3f 59 6c d8 3f e0 78 9c 3f
       1.3387071 1.4196249 1.6908065 1.2224388
000030 8f 88 97 3f 6b 58 8e 3f e7 a8 19 3f 4c 6e ab 3f
       1.1838549 1.1120733 0.6002335 1.3393035
000040 07 7b d8 3f 79 43 15 40 36 eb 21 40 57 f5 23 40
       1.6912545 2.3322432 2.5299811 2.5618494
000050 38 55 19 3f 6e 9e 64 3f 96 3d 1f 40 bb b0 6e 3f
       0.5989566 0.89304245 2.488134 0.9323842
000060 3a 9f a3 3f dd d1 20 3f e0 26 94 3f cc 09 20 3f
       1.2782967 0.62820226 1.1574364 0.6251495
000070 a4 be 9c 3f 36 56 3d 3f 3f ad f9 3f 90 eb f6 3f
       1.2245679 0.7395967 1.9505996 1.9290638

bn2.running_var f4 [32]
000000 06 dd 85 3f 5d 15 5b 40 e0 e0 ba 3f 51 80 a9 41
       1.0458076 3.423179 1.4599876 21.187654
000010 9b 4b 1c 40 ae a8 35 41 d4 8e 72 41 b6 85 72 3f
       2.4421146 11.353682 15.15987 0.94735277
000020 10 39 4d 40 bc 54 38 40 39 eb 22 41 b9 38 b9 40
       3.2066078 2.8801718 10.182427 5.788174
000030 1d 27 fe 3f 2d 90 53 40 57 80 5c 3f 74 e7 0a 41
       1.9855686 3.3056748 0.8613333 8.681507
000040 b8 e0 3e 40 f4 40 ba 41 5f 25 95 41 1e 87 cb 41
       2.9824657 23.281715 18.643248 25.440975
000050 d7 76 8c 3f 7a 16 92 3f 29 28 7e 41 aa 06 6e 40
       1.0973767 1.1413109 15.884805 3.7191567
000060 80 e2 b8 40 38 25 91 3f f6 d5 ad 40 9b 9e 92 3f
       5.777649 1.1339483 5.4323683 1.1454653
000070 fc 69 55 40 eb e1 19 40 74 7f 54 41 69 45 88 41
       3.3345938 2.404414 13.2811165 17.033892

conv3.weight f4 [32, 32, 5, 5]
000000 6a fa b2 bd 8d 23 21 3c f5 31 4d bd a0 28 a6 bc
       -0.08739169 0.009835136 -0.05009647 -0.020283043
000010 42 9d 6d 3b da 50 3d bd c5 19 f2 3d 23 96 f4 3c
       0.0036257063 -0.046219684 0.118213214 0.029856747
000020 0e 97 25 bc 45 39 65 3c 71 04 a0 3d 67 58 d8 3d
       -0.010106815 0.013990705 0.07813347 0.105637364
000030 69 36 07 3e 2a bc 9a 3c 5a 7f c8 3c aa a6 a7 3d
       0.1320435 0.018888552 0.024474788 0.081860855
000040 d5 28 02 3e 55 23 d7 3d 93 ea e2 3d 66 55 d9 3d
       0.12710889 0.10504786 0.11079898 0.106119916
000050 5a 19 1f 3c a3 0d e4 3d ca 41 b4 3d 8a a0 b1 3d
       0.009710634 0.111354135 0.08801611 0.086731985
000060 19 29 17 3e 06 f7 dc bd 66 ef 13 bb 49 f4 31 bd
       0.14761771 -0.107893035 -0.0022573113 -0.04344586
000070 d1 29 64 bd 11 1a 34 bd a1 01 a5 bd 3d 1f 4a 3d
       -0.05570394 -0.04397017 -0.08056951 0.049346197
000080 f8 7d 9e bd 0f 4f 99 bd a2 c2 a1 bd 0f 6e 55 bd
       -0.077388704 -0.07485782 -0.078984514 -0.052106913
000090 51 ae 5f bd b3 42 96 bd 15 64 ce bd bc 97 90 bd
       -0.0546096 -0.073369406 -0.10077683 -0.07060191
0000a0 d5 6a ab bd e7 41 73 bd fa 82 aa bd a1 bc fa bc
       -0.08369986 -0.05938902 -0.08325763 -0.030607523
0000b0 ec af 83 3c ea 70 b3 bd 51 ee 61 bd 82 bd 07 bc
       0.016075097 -0.08761771 -0.055158917 -0.008284928
0000c0 90 62 13 bd dc 66 1a 3d 74 fc 0e bd 52 70 d7 bc
       -0.03598267 0.03769575 -0.034908727 -0.026298676
0000d0 a3 78 27 bd 69 fa 8f bd ec fa 96 bd 91 8a 11 be
       -0.040886533 -0.07030184 -0.07372078 -0.14213015
0000e0 c2 2a d9 bd 42 c9 61 3c a5 e7 b6 bb 62 d3 92 bd
       -0.106038585 0.013780894 -0.0055818134 -0.07169224
0000f0 1f d1 16 be 92 91 28 be 01 b4 d0 bd e9 4f fa bd
       -0.14728211 -0.1646178 -0.10190583 -0.12222273
000100 6b 5d 24 bc 41 29 b0 bd 27 b7 0e bd a2 fd a0 bd
       -0.010032038 -0.086016186 -0.034842636 -0.078608766
000110 4d 08 0b be 1c b9 86 bd 92 cb e2 39 44 8e 54 bd
       -0.13577385 -0.065782756 0.0004325775 -0.051893488
000120 7c 73 a6 b9 1f 65 a9 bd 68 0d 9f bc 70 2e d1 bd
       -0.0003174803 -0.082712404 -0.019415572 -0.102139354
000130 8b 31 e2 bd 79 67 b4 3c 6a f1 39 bd ec f4 a6 bc
       -0.11044606 0.022021996 -0.045396246 -0.02038046
000140 a3 10 e7 3b 04 19 24 bc b5 e4 87 3d 70 8b 82 3d
       0.007051544 -0.01001573 0.06635419 0.06374252
000150 aa 05 ae 3d 6d de 55 3d 5e 1d 60 3d 32 cb 12 3d
       0.08497174 0.052214075 0.054715507 0.035838313
000160 ca e1 f3 3c 5d 7a 92 3d a8 bc 52 bd cc 1a 1c 3b
       0.02977075 0.07152245 -0.051449448 0.0023819683
000170 e0 3c 96 3d a6 ed 4f 3d 62 8d 98 3c bb 37 33 bd
       0.0733583 0.05076375 0.018622104 -0.04375432
000180 f5 97 25 3c c5 e6 32 3c d8 3f a3 bc ca c6 34 bc
       0.01010703 0.010919278 -0.019927904 -0.011033723
000190 52 a7 6b bd a1 83 ae bd 77 12 7e bd 0e 8a f0 bd
       -0.057532616 -0.085212 -0.06202933 -0.11745082
0001a0 91 95 bb bd d9 69 9f 3c 68 f5 ee ba e8 b1 36 bc
       -0.09159387 0.019459652 -0.0018231096 -0.011150815
0001b0 e7 56 c5 3c 2a 32 2f 3d 59 8b bf 3b 45 78 53 3c
       0.02408929 0.04277245 0.005845469 0.012907092
0001c0 11 4e a5 3d 79 13 8c 3c 36 53 47 bd a2 98 87 3d
       0.080715306 0.017099129 -0.04866334 0.06620909
0001d0 ca 75 6e 3c 69 fc 4f 3d 9d 89 06 3d 2f 9e 35 3d
       0.01455445 0.050777826 0.032846082 0.04434031
0001e0 e9 5f 47 bd 39 b5 9a bc bc 86 80 3d e6 b0 a4 3c
       -0.04867545 -0.018885242 0.062756985 0.020103883
0001f0 49 5e e9 3b 33 89 a1 bd 19 eb 15 3b 69 2a 1d bd
       0.0071218354 -0.07887497 0.0022875725 -0.038370524
000200 0c f2 ba 3c 6d 8e 0d 3d d5 73 73 3b 97 38 6d 3d
       0.022820495 0.034559656 0.0037147899 0.057915296
000210 35 1c c5 3d 98 26 8d 3d 8e 96 10 3d 5f a5 11 3c
       0.09624521 0.06892127 0.03529983 0.008889525
000220 11 37 c2 3d bd 38 84 3d 79 0a 8e 3d 43 b7 af 3d
       0.09483159 0.064561345 0.06935591 0.08579876
000230 1d 45 72 3b 3b 72 8d 3d 0a 53 b7 3d 2b 5f d1 3d
       0.0036967464 0.06906553 0.08951385 0.1022323
000240 0c 3d 91 3d 92 a2 eb ba 55 84 90 3d d6 d2 8c 3d
       0.07091722 -0.0017977527 0.0705649 0.06876151
000250 05 d6 43 3d 83 1c 37 3d 7c 3a eb bc 70 2e c7 bc
       0.047811527 0.044704925 -0.028714411 -0.024314135
000260 5e e0 31 bd 08 17 df bc ee 0c 05 3d b0 58 87 bd
       -0.043426864 -0.027232662 0.032483034 -0.06608713
000270 44 c3 45 bd 70 22 47 3d c8 7e 54 3d eb d7 b3 3a
       -0.048281923 0.048616827 0.05187872 0.0013720965
000280 38 d6 1e 3c 76 02 6c 3d b5 23 e8 3c 2c be 82 3d
       0.009694628 0.057619534 0.028337339 0.06383929
000290 3a dd c0 3d 92 db ba bc 97 2c 6f 3b da 6d 77 3d
       0.094171956 -0.022809777 0.0036495083 0.060407497
0002a0 c5 79 85 3d 41 85 9e 3d 3e e3 36 3c 40 48 a3 3b
       0.06517366 0.0774026 0.011162577 0.004982978
0002b0 e4 8c b5 bb aa 7f b7 ba 58 5d 74 bc 07 81 00 bd
       -0.005540477 -0.0013999839 -0.014914833 -0.03137305
0002c0 d3 ec 26 bc b4 2f 15 3d 08 05 8a bd 5d c3 2e 3d
       -0.010188299 0.036422446 -0.06739241 0.04266678
0002d0 e3 7b 12 be 4e 47 09 be 1f 21 10 bd b2 e6 c7 bd
       -0.14305072 -0.13406107 -0.035187837 -0.097607985
0002e0 0b 61 19 be ed 57 77 3d c8 ab 4d 3c 62 fd 64 3d
       -0.14978425 0.060386587 0.012553163 0.055905707
0002f0 e2 44 0a 3d 42 2c a3 3d fe d3 8e 3d a8 37 11 3d
       0.033757098 0.07967426 0.06974028 0.03545347
000300 6c 22 2b 3d 7b 8d 48 bd db 80 b3 bd 06 43 f6 3c
       0.041780874 -0.04896305 -0.087648116 0.030061256
000310 84 b2 c4 3c 3d 79 96 3d e4 b9 87 3c 69 57 81 3d
       0.024010904 0.07347343 0.016568132 0.063155
000320 9f c8 24 bd b7 8a a5 bc 16 9f 61 bd 28 86 c3 bc
       -0.04023039 -0.020207746 -0.055083357 -0.023867682
000330 05 db 67 3b b1 05 eb bd d9 4f b3 bd d8 e8 79 bd
       0.0035378349 -0.11475695 -0.08755464 -0.061013073
000340 2f 40 42 bc db 3b 0d 3c 6d f1 1e be 92 a9 0d be
       -0.011856123 0.008620228 -0.15521784 -0.13834217
000350 af a7 b3 bd 86 7a 52 bd d8 ff e4 bb c8 45 07 bc
       -0.087722175 -0.05138638 -0.0069885068 -0.008256383
000360 31 f1 97 bd 91 db 45 bd 82 ee 00 bb 29 1c 10 3c
       -0.074190505 -0.048305098 -0.0019673412 0.008795776
000370 d3 fd 96 bb 46 a7 d0 bb 3a 60 75 bd 45 c2 e9 bb
       -0.004607895 -0.006367597 -0.059906222 -0.0071337544
000380 0f 87 b5 bc 19 da c6 3c 01 0c 1b 3b 4f df 3b 3d
       -0.022159128 0.024273919 0.0023658278 0.04586726
000390 99 bd 9f 3c dc b6 54 3d 40 6a bf bc e5 3d 31 3c
       0.019499587 0.0519322 -0.023366094 0.010817979
0003a0 89 e1 04 3d a0 26 30 3d 21 26 8c 3d 1d 7e 09 be
       0.03244165 0.043005586 0.0684321 -0.13427015
0003b0 e2 9b 16 bd 4e 06 1b bd b0 be 2c bd d1 ab 00 bc
       -0.036769755 -0.03784781 -0.04217404 -0.007853464
0003c0 ce d6 d2 bc c2 06 f1 bc 91 32 b0 3b 86 37 d9 3c
       -0.025737192 -0.029422168 0.0053771217 0.026515733
0003d0 8b f6 98 3d fd ad c7 3c d0 a5 b5 bc 15 b8 93 3c
       0.07468899 0.024374956 -0.022173792 0.018032113
0003e0 86 8e 22 3d d3 71 ee 3c e3 49 a8 3d a9 3b 5d 3c
       0.039686702 0.02910701 0.08217218 0.013502994
0003f0 45 12 41 3d 56 67 3b 3d af bd 4a 3d ae 9e cd 3d
       0.047136564 0.045752846 0.049497303 0.100400314

conv3.bias f4 [32]
000000 fb 16 2c bc be 00 ad 3a d5 fd eb 3c 9a 22 f0 3d
       -0.010503526 0.0013199074 0.02880756 0.1172535
000010 33 73 fc 3d 52 bf 55 3e 71 4b 3e 3e 8f 09 44 3e
       0.1232666 0.20873764 0.18583466 0.19144271
000020 5a b8 b6 bc 9a 24 f0 3d eb 62 fd 3d 93 60 8c 3d
       -0.022304703 0.11725731 0.12372383 0.068543576
000030 b4 88 91 3d 2c ad 09 3e 9d 9f d5 3c b7 64 20 3e
       0.07106152 0.13444966 0.026077086 0.1566342
000040 a4 ee 78 3c 4f 7d 5d 3e 66 c2 84 3d 74 e5 de 3d
       0.015193615 0.21629833 0.06482391 0.108836085
000050 93 a4 0d 3e 01 de 77 3e 47 c5 7c 3e e6 4d 88 3d
       0.13832311 0.24205782 0.2468463 0.06655483
000060 d4 44 7a 3e aa e6 72 3d a3 da f4 3c 92 3d a0 bd
       0.24440318 0.05930201 0.02988941 -0.078242436
000070 d6 72 9a 3d ac 49 52 3e 99 3d f5 3d af 14 9b be
       0.075414345 0.20535916 0.119746394 -0.30289218

bn3.weight f4 [32]
000000 cb 42 9b 3f 19 68 92 3f ea 49 91 3f a3 bd 8e 3f
       1.2129759 1.1438018 1.1350682 1.1151623
000010 ce a1 a8 3f d9 fd 76 3f ae f4 90 3f c6 fe 91 3f
       1.3174379 0.9648109 1.132467 1.1405876
000020 1f 2f 8d 3f d0 8b 88 3f 14 b5 a5 3f 06 7f 7d 3f
       1.1030005 1.0667667 1.2945886 0.9902195
000030 da 68 81 3f 96 9d 97 3f 5c 9e 6e 3f d9 73 77 3f
       1.0110123 1.1844966 0.9321039 0.96661144
000040 92 eb 91 3f 65 d5 65 3f 5f 6f 8b 3f 5c 24 8d 3f
       1.1400015 0.8977874 1.0893363 1.1026721
000050 ef fb 8f 3f 23 e6 8e 3f 6c 61 90 3f 17 68 85 3f
       1.1248759 1.1163982 1.1279731 1.0422391
000060 4a 84 9b 3f 00 64 8e 3f 9d 71 a7 3f 48 0e 56 3f
       1.2149746 1.1124268 1.3081547 0.8361554
000070 23 f0 6b 3f 33 46 97 3f fc ef 86 3f a7 61 81 3f
       0.92163295 1.1818298 1.0541987 1.0107926

bn3.bias f4 [32]
000000 db 3a 81 bb b4 cf 03 bd b6 a0 00 bd 9e a8 ec 3c
       -0.0039437837 -0.032180503 -0.031403266 0.028888997
000010 97 fb 2f 3d c0 7d d7 3d fc 45 cd 3d c6 d3 85 3d
       0.042964544 0.10522032 0.10023114 0.06534533
000020 f3 f4 ba 3d f1 c7 f0 3c 26 12 d9 bb b7 79 2c bd
       0.091287516 0.029392214 -0.006624478 -0.042108264
000030 b1 2c 6a bd d8 ff 1b bc 29 c2 27 3d 9e df be 3d
       -0.057171527 -0.009521447 0.04095665 0.09319995
000040 9d cb 7c 3c fe a2 1f 3e e8 94 04 3e 7a 59 69 3d
       0.015429405 0.1558952 0.12947428 0.056970097
000050 39 82 75 3d f2 67 cc 3d 4a 23 52 3b c4 74 77 3c
       0.059938643 0.099807635 0.003206449 0.015103523
000060 ee 24 ca bb 50 e2 ae bd b9 b5 4d be 65 95 32 be
       -0.006168953 -0.085392594 -0.20088853 -0.17439802
000070 82 96 25 3d 86 63 00 3d 50 e2 72 bd 82 21 c6 3d
       0.04042674 0.031344913 -0.05929786 0.0967436

bn3.running_mean f4 [32]
000000 4b 6c 91 40 89 a5 9f 40 54 74 ac 40 aa 4a 8d 40
       4.5444694 4.988957 5.3892 4.4153643
000010 42 4b 28 40 a9 9f 8e 40 9f e2 97 40 74 f3 b2 40
       2.6295934 4.45699 4.7464137 5.5922184
000020 39 0b 8d 40 06 ce 77 40 7c cf 5d 40 20 94 4d 40
       4.40762 3.8719497 3.4657888 3.2121658
000030 a0 42 65 40 5c 1f bf 40 b9 51 82 40 c0 6e cf 40
       3.5821915 5.972578 4.072476 6.4822693
000040 a5 21 ec 3f 38 4f 41 40 6e 37 74 40 3c 73 67 40
       1.8447767 3.0204601 3.8158832 3.6164083
000050 6b 82 6f 40 ae a9 93 40 7b b7 8b 40 d2 78 80 40
       3.742335 4.614463 4.3661475 4.0147486
000060 2f 4d d7 40 ca fe d8 40 58 78 e2 40 cd 39 19 41
       6.728172 6.781102 7.0771904 9.5766115
000070 a1 3e d5 40 6b 2f 16 41 a1 90 11 41 a7 27 c1 40
       6.663895 9.386577 9.09781 6.0360904

bn3.running_var f4 [32]
000000 ac 1b 0e 42 36 78 c0 42 e8 5d f8 42 1d 90 ce 41
       35.527023 96.23479 124.18341 25.820368
000010 22 fa da 40 c1 ba 95 41 73 21 9a 41 e9 6e 08 42
       6.843034 18.716188 19.266333 34.10831
000020 84 db af 42 17 56 73 41 3e 74 92 41 6b d1 97 42
       87.92874 15.208518 18.306759 75.90902
000030 e4 b9 ce 42 10 50 ee 41 a9 e6 1f 42 78 47 9d 42
       103.36307 29.789093 39.975254 78.63959
000040 93 6b 05 41 e7 0b 2e 42 bc b5 20 42 1c 7e 67 41
       8.338763 43.511623 40.177475 14.468288
000050 df 86 91 41 57 f5 cc 41 9d 4b dc 41 c2 a9 72 41
       18.190855 25.619795 27.53692 15.166445
000060 d7 80 4b 42 41 d5 6e 42 61 28 b0 42 75 4f db 42
       50.87582 59.708256 88.078865 109.65519
000070 6f 4d c9 42 3a 96 bd 42 98 cd bc 42 73 d6 95 43
       100.65124 94.79341 94.40155 299.67538

cnn.0.weight f4 [8, 2, 5, 5]
000000 00 33 0d 3e ea b4 76 bc 8a dc 5e bc 6a f9 7f 3d
       0.13788986 -0.015057782 -0.013602385 0.06249372
000010 3b 3e c3 3d d4 e5 a6 bc 1f 82 cb 3d 7f d5 03 3e
       0.09533354 -0.020373262 0.09936928 0.12874411
000020 ff cc af bd e2 b5 55 3e 12 48 95 3d d8 ef 8b bd
       -0.08584022 0.20870164 0.07289137 -0.06832856
000030 7d be 2d be c8 5d e3 bc 0f 30 e1 3d 4c 15 99 bd
       -0.16967197 -0.02775468 0.109954946 -0.07474765
000040 03 b7 32 be bf 12 56 3d 22 e4 79 be f3 de 06 be
       -0.17452626 0.05226397 -0.24403432 -0.13170986
000050 1a be c2 3d b2 4c 33 bd a6 eb 7b 3d f4 81 05 be
       0.09508915 -0.043774314 0.06150403 -0.13037854
000060 ee 64 c8 bc 40 37 37 3e f6 b3 78 bd 30 04 47 3e
       -0.02446219 0.1789217 -0.0607185 0.19435191
000070 46 03 38 3d 76 43 56 3e c5 16 2f 3c 58 67 3c bd
       0.044924997 0.20924172 0.010686581 -0.045996994
000080 9f 44 8d 3d 63 41 f5 bd ed a0 df 3c 6b be fc bd
       0.06897854 -0.11975362 0.027298415 -0.12341007
000090 d0 b4 9c 3d 54 d1 cc bd 52 e0 da bd d0 ba b3 bd
       0.07651675 -0.10000864 -0.10687317 -0.08775866
0000a0 38 ac 0e be bb 2a 8a 3c 1d 6c a1 bd 8c 52 0c be
       -0.13932884 0.016866079 -0.07881949 -0.13703364
0000b0 24 b4 43 be 87 41 1b 3d 21 26 b0 bd 2d ba 8f bd
       -0.19111687 0.03790429 -0.086010225 -0.07017932
0000c0 7f 6d b8 bd 5d d7 c2 bd b7 87 a8 3c d3 36 1e 3e
       -0.0900526 -0.095137335 0.020572526 0.15450601
0000d0 ea c7 fd 3c 81 a2 f1 3d 51 d8 05 3c 11 64 e0 3d
       0.030979116 0.11798573 0.00816925 0.10956586
0000e0 76 ed da bd cb 04 31 3c 67 bb 05 be 97 30 6b bd
       -0.10689823 0.010804365 -0.1305977 -0.057419386
0000f0 75 6b 7d 3d b1 c0 99 bd cd 8a 18 be ce 7b 51 be
       0.061870057 -0.07507456 -0.14896698 -0.20457384
000100 46 72 97 bd 26 d8 0d 3e a4 03 cf bd e5 df b5 bc
       -0.07394843 0.13851985 -0.10108116 -0.022201488
000110 66 6e b6 bd 8a ee cf 3d 4e ae 9a 3d 5a 73 eb 3d
       -0.089077756 0.101529196 0.07552777 0.11496611
000120 0a 79 a6 bb 2b e0 b6 bd 53 08 71 bd 4d 22 0c 3e
       -0.005080347 -0.089294754 -0.05884583 0.1368496
000130 82 bd 63 3e 5e 4e 0c 3e c3 71 a9 3c a5 f9 27 3e
       0.2224026 0.1370177 0.020684129 0.16403826
000140 de 5a 48 bc b8 36 45 bd 0b 17 49 bc 5d ba 2e be
       -0.012228696 -0.048147887 -0.01227356 -0.1706328
000150 4c f6 70 3d ec ab 11 bd 69 16 9b bd 6d 8f 72 bd
       0.058828637 -0.035564348 -0.07572634 -0.059218813
000160 f8 aa 92 bb e3 8d a7 bd a6 39 b3 3d ac 51 fa 3c
       -0.0044759475 -0.081813596 0.0875123 0.030556522
000170 ac 82 e9 bd 5e b8 17 bd 34 86 cc bc 91 fb 5a 3d
       -0.11401877 -0.03704106 -0.024966337 0.05346257
000180 61 96 31 3e 9d 7f 8c 3d f5 df de bd a9 52 23 3d
       0.17342521 0.06860278 -0.1088256 0.039873753
000190 f3 68 7d bc 1d 37 1e be e3 20 97 3d 3c 8e 82 3d
       -0.015466916 -0.15450712 0.073793195 0.06374785
0001a0 0d 3f 98 3d d9 af e9 3c 36 07 a0 39 f4 81 60 3d
       0.07433901 0.028526234 0.0003052295 0.054811433
0001b0 be 4c 69 3d f1 24 47 3e 70 9c 4e 3e 9a b4 c5 3d
       0.056957953 0.19447686 0.20176864 0.09653588
0001c0 02 65 25 3e 19 2d b7 3c 4b 70 07 bd b0 9c ce bb
       0.16151813 0.022360371 -0.033066075 -0.0063052997
0001d0 88 eb 12 3e 7d f2 f8 3d 88 7f 4e 3e fc 3e 23 3d
       0.1434766 0.12155626 0.20165837 0.03985499
0001e0 0c 1c 88 3d b1 52 6b 3d 79 bc d2 bd 85 ea 9b 3d
       0.066459745 0.057451908 -0.102898546 0.076130904
0001f0 81 5e 2c 3e 09 63 85 3c db ef bb 3d 31 87 5d 3d
       0.16832925 0.016282575 0.09176608 0.054084007
000200 c4 2b a4 3d 91 09 fd 3d 09 2c 27 3d 77 d4 d5 3d
       0.0801616 0.1235534 0.04081348 0.10440915
000210 da 5b 1c 3e e9 2d 1f 3e 0c 59 31 3e a8 41 87 bd
       0.15269414 0.15544857 0.17319125 -0.0660432
000220 5a 81 31 3d 0c 17 80 3d 71 d1 2c 3b 61 9c 18 3e
       0.04333625 0.06254396 0.0026369954 0.14903404
000230 bb e3 a2 3d db 7a de 3d 84 2e 32 3e 8d 70 33 3e
       0.079535924 0.108632766 0.17400557 0.17523403
000240 d5 7a 0d 3d ab 35 a1 3d ad a1 f7 bd 1a d8 e8 bd
       0.03454097 0.078715645 -0.12091384 -0.11369343
000250 06 12 03 be cd 36 dd 3d 94 27 5a bd ac ae ad bc
       -0.12799844 0.10801468 -0.0532604 -0.021201454
000260 f6 99 a7 3b 3b 54 bb 3d bd 21 ef bd 21 24 0c be
       0.005114789 0.09146925 -0.11676357 -0.13685657
000270 a6 5a ec 3c 98 d1 03 3e cf fc b2 bd c9 61 e2 3c
       0.028851818 0.12872922 -0.08739626 0.027634518
000280 67 75 63 be d7 23 12 be 38 cf d4 3d 43 3d e9 bd
       -0.22212754 -0.14271484 0.10391086 -0.11388638
000290 11 6d 72 be cb e2 e5 bd 9e 20 c0 bd c1 b7 da 3d
       -0.23674418 -0.11224898 -0.09381221 0.106795795
0002a0 69 f2 6b bd 36 3a 7b 3d 20 56 0e 3e b1 a1 41 3c
       -0.057604227 0.06133481 0.13900042 0.011818335
0002b0 a7 66 5b 3e 84 43 96 3d 73 14 fe 3d d2 4e 32 be
       0.21425878 0.07337096 0.12406244 -0.1741288
0002c0 4d f2 05 3e a7 b5 cf 3d 31 85 fd 3c b7 29 14 bd
       0.13080712 0.10142069 0.0309473 -0.036172595
0002d0 c1 94 07 be 95 80 2e be 05 88 3a 3c 9f 80 c5 bb
       -0.13240339 -0.17041238 0.011384969 -0.0060272957
0002e0 3e 50 ce 3b c4 31 35 be c7 0b 34 be db 25 0e bd
       0.0062961867 -0.17694765 -0.17582618 -0.03470407
0002f0 57 8e bd bd c8 36 30 3d 9a 5c e2 bb 02 e1 c0 3d
       -0.09255665 0.043020993 -0.0069080116 0.09417917
000300 b0 23 ad 3d 76 44 e9 3d 67 8b fd bc 35 1f 17 3e
       0.084540725 0.11390011 -0.030950261 0.14757998
000310 64 60 ee 3c 99 93 df bc 8b ab e8 3d 93 01 67 3c
       0.029098697 -0.02729206 0.11360844 0.014099496
000320 2d 81 df 3d 7d 0e c2 bd fc 64 77 bd 8c a9 df 3d
       0.1091331 -0.0947542 -0.06039904 0.109210104
000330 42 55 92 bd 01 f5 3c be 2b 5f 6e 3d 0c d6 82 bb
       -0.07145168 -0.18452837 0.058196228 -0.0039928015
000340 24 ba 24 bd 38 ef 07 be 7b 0b e0 bd d2 52 b5 bc
       -0.04021658 -0.13274848 -0.1093969 -0.022134218
000350 dd 63 00 3e d0 d0 22 bd ef 8f 8f 3d eb 1f dd bb
       0.12538095 -0.03974992 0.07009875 -0.0067481897
000360 9b 72 5d bd 76 ab bc bd 54 b0 45 be 09 a5 01 be
       -0.054064374 -0.09212391 -0.19305545 -0.12660612
000370 dc 7a f5 3c eb b8 2e be 9c d8 c8 bd cb db 20 be
       0.02996581 -0.17062728 -0.0980694 -0.15708844
000380 ba 57 8c 3c 92 57 cd 3c b6 4a e1 bd 89 af ce 3d
       0.017131675 0.02506617 -0.11000578 0.100920744
000390 f8 02 4a 3d 0f 3c 00 3c 25 be 1d 3d cf 80 f9 bd
       0.049319237 0.007826819 0.038511414 -0.121827714
0003a0 31 c2 e1 3d 30 dc 15 be fe 39 8c 3b 0d ba e7 bd
       0.11023367 -0.14634776 0.004279374 -0.11314783
0003b0 1e 5f fc bd 62 38 c5 3d 35 10 cd 3b a4 99 54 3c
       -0.1232283 0.09629895 0.0062580355 0.012976084
0003c0 b8 34 0b be 4d a7 fc bd 7c 3c 82 3d 62 57 06 be
       -0.1359433 -0.123365976 0.06359193 -0.13119271
0003d0 d0 ab 0b 3d 30 c9 76 be 94 fc 48 bd 59 e4 5b bc
       0.0340994 -0.24100184 -0.049069002 -0.013421142
0003e0 93 7b 42 be b2 a9 ad bd 85 e8 51 be 40 78 b7 bd
       -0.18992452 -0.084796324 -0.20498855 -0.08958483
0003f0 cc 6b 0c 3e a9 37 b1 3d b4 0b 4b bd 7f 6f 65 bc
       0.13712996 0.086531945 -0.049571708 -0.0140036335

cnn.0.bias f4 [8]
000000 75 1a 0e 3c 4d ad da 3d f9 6e 75 3c 5f 08 f9 3d
       0.0086733 0.10677586 0.014980071 0.121598
000010 13 02 9f 3c be 6f 97 3b 01 50 4c bd 33 90 94 bc
       0.019410169 0.004621475 -0.049880985 -0.018135166

cnn.2.weight f4 [8]
000000 bf f0 78 3f d6 51 91 3f b9 66 83 3f 44 70 90 3f
       0.9724235 1.1353099 1.0265723 1.1284261
000010 c8 15 63 3f d1 87 6c 3f 22 3a 7d 3f ec 62 6a 3f
       0.8870511 0.9239474 0.9891683 0.9155719

cnn.2.bias f4 [8]
000000 61 86 80 3d 4c 98 39 3d 55 1a 2a bd 43 05 1f 3d
       0.06275631 0.045311257 -0.04152902 0.038823377
000010 58 9d eb 3d 39 45 35 3d d2 c0 1c bc 5c e6 93 3d
       0.1150462 0.04425547 -0.009567456 0.07221672

cnn.2.running_mean f4 [8]
000000 e9 c2 bf 3e 3f bc 92 3e 96 5d 8d 3f 72 40 a7 3e
       0.37453392 0.28659245 1.1044185 0.32666355
000010 d6 82 3e 3f 1c dc 53 3f bc c1 00 3f 4e d7 8b 3f
       0.7441839 0.82757735 0.50295615 1.0925081

cnn.2.running_var f4 [8]
000000 f7 e3 94 3e 2f 35 19 3e 4a 31 0a 40 83 ba 45 3e
       0.29080173 0.14961694 2.1592584 0.1930943
000010 f5 94 c1 3f 33 27 fe 3f 51 60 03 3f 4f 22 5b 40
       1.5123583 1.9855713 0.5131884 3.423969

cnn.3.weight f4 [32, 8, 5, 5]
000000 6d b2 aa 3b f5 c7 22 3c 86 8c 3b bd e6 2c 33 3d
       0.0052092583 0.009935369 -0.04578831 0.04374399
000010 b2 a4 cf bd 5a 0a 95 bd d1 2d 76 bd d4 3a 01 be
       -0.10138835 -0.07277365 -0.060102288 -0.12620097
000020 93 b4 d3 bd 4c 3b e5 bd d1 ae 7f bd f8 2c b1 39
       -0.10337176 -0.111929506 -0.062422577 0.00033793575
000030 73 4f a5 bd 6b 13 59 3d 74 25 ac bc 78 87 07 3b
       -0.08071794 0.052997034 -0.021013953 0.002068011
000040 0e da ce bd b5 57 0a be 77 2f 66 bc 32 bc 1d be
       -0.101001844 -0.1351002 -0.014049402 -0.15403822
000050 b3 0c ac bc 20 e9 90 bc 0a 6c 9c bd 9d a9 d7 bd
       -0.02100215 -0.017689288 -0.07637794 -0.10530398
000060 ca 03 02 be 39 b1 09 be 2a 86 1f be 4f 68 f1 bd
       -0.12696758 -0.13446511 -0.15578523 -0.117874734
000070 e3 ce f7 bd 82 7a 3b be f5 9d 32 be e7 01 04 be
       -0.121000074 -0.18308452 -0.17443068 -0.1289135
000080 5d e0 39 be 68 43 ec bd eb af df bd ec 81 74 bd
       -0.18151994 -0.11536294 -0.109222256 -0.059694216
000090 2a d8 66 bd 9e 9b 8f bc 8b 5b a4 bc ab 19 e7 bd
       -0.056358494 -0.017530259 -0.020063182 -0.11284193
0000a0 d3 dc 2e bd 47 68 6a bd 9c 31 2c be 51 40 a7 bd
       -0.042691063 -0.057228353 -0.168158 -0.08166564
0000b0 ce 9f 35 be 4f 11 aa 3d a0 6e cb bd 6e 6d 11 3d
       -0.17736742 0.083040826 -0.099332094 0.03550475
0000c0 af 62 2b 3b 8f 28 62 3d e3 78 a4 bd 7e 65 4e 3c
       0.002615135 0.05521446 -0.0803087 0.01259744
0000d0 de e0 0e be d4 d7 13 be 98 ed 1f be b8 71 3f be
       -0.13952968 -0.144378 -0.15617979 -0.18695724
0000e0 a2 5b 8e bd dc 05 d4 bd 34 52 9b bd 5f 69 39 be
       -0.06951071 -0.1035268 -0.075840384 -0.18106602
0000f0 25 f7 f9 bd 13 64 61 bd e3 d0 0e 3d 74 a4 da bb
       -0.12205342 -0.05502708 0.03486718 -0.0066724364
000100 f2 7c 04 be 13 11 d2 bc 0a f2 d0 3d e3 60 8a 3d
       -0.12938288 -0.025642907 0.10202415 0.06756761
000110 03 be ce bc 5f 55 93 bd 6c 72 13 bd c6 c9 b6 3c
       -0.025237089 -0.071940176 -0.035997793 0.02231301
000120 1f 1a 7c 3c 54 43 19 3d 90 56 39 bd 08 64 3c 3c
       0.015387087 0.037417725 -0.045248568 0.011498459
000130 10 f1 52 bc f2 0c 86 3d 00 2d c5 bd 33 a6 c7 bd
       -0.012874857 0.06545438 -0.09627724 -0.09748497
000140 18 e9 d0 3d 39 38 e8 3d 37 c2 ba bc 27 34 4c 3d
       0.10200709 0.113388486 -0.022797687 0.049854424
000150 a6 ab ea bc 65 a4 82 3d 93 76 44 3d 52 3b 7f 3c
       -0.028646301 0.06379012 0.047964644 0.015578108
000160 fe 98 b1 3c 66 59 0e bb 28 2d 59 bd 11 67 b3 bc
       0.021679398 -0.0021720766 -0.05302158 -0.021899732
000170 74 43 c6 bd 17 6b cb bb 22 93 df bd 60 c3 a2 3b
       -0.096808344 -0.0062078345 -0.10916735 0.004967138
000180 f8 d0 bb bc d9 19 06 bd 30 35 57 bd 3c 23 dd bb
       -0.022926793 -0.032739494 -0.052540958 -0.006748585
000190 ad 29 28 be e7 f1 11 be 03 45 14 bd cc 39 29 be
       -0.16422148 -0.14252435 -0.036198627 -0.16525954
0001a0 13 ed aa bd 61 73 12 be 99 c3 2e bc a2 65 be bd
       -0.083459996 -0.14301826 -0.010666751 -0.09296729
0001b0 64 04 1c be be 3f 88 bd 1c b5 bb bd 8c 16 dd bd
       -0.1523605 -0.06652783 -0.09165403 -0.10795316
0001c0 63 ce f1 bd fb ad 27 be 21 0f ea bd db 76 11 be
       -0.11806943 -0.16374962 -0.11428667 -0.14205496
0001d0 60 50 ba bd db 81 f6 bb 3b 88 39 bd 90 f8 15 bd
       -0.090973616 -0.007522804 -0.045295935 -0.036614
0001e0 e4 4d 8d bd 68 29 01 be 32 f8 8b bd 4c bb 02 be
       -0.06899622 -0.12613451 -0.06834449 -0.1276676
0001f0 e8 43 22 bd 07 ac b2 3c d7 8b d7 3c 40 4d 88 3c
       -0.03961554 0.021810545 0.026311798 0.016638398
000200 67 f0 22 bd b3 26 7f 3d 79 04 da 3d 54 97 d8 3c
       -0.039780047 0.062292766 0.10645384 0.026439346
000210 f6 ac 4e 3c 05 ea 5d 3d 69 2b 94 3d 16 81 eb bc
       0.012614479 0.054178257 0.07234842 -0.028748076
000220 86 45 bf 3c fe b8 55 3d e5 f7 20 3d 74 86 7f 3d
       0.023348581 0.052178375 0.03929891 0.062384084
000230 ad 60 48 3d da 85 2c 3d 30 3d e4 3d b7 f3 35 3d
       0.048920322 0.04211984 0.11144483 0.044421878
000240 6f c4 ae bc d8 17 9c 3c 66 ad bb 3d d9 7e 4e 3c
       -0.021333901 0.019054338 0.091639325 0.012603485
000250 2d e8 30 bd 00 da 81 bd d8 9c e3 bc 04 36 30 3b
       -0.04319017 -0.06340408 -0.02778475 0.0026887665
000260 eb 12 64 be 4a ac 55 be 22 6a 0a be 32 67 bb bd
       -0.22272842 -0.20866504 -0.13517049 -0.09150542
000270 45 b2 45 bc 7c f6 74 bd 59 3e fd 3b fb bb 08 bd
       -0.012066429 -0.05980538 0.0077283797 -0.033382397
000280 9d 05 53 be 92 e6 72 bd 24 2c ef bd 5e 3a ee bd
       -0.2060761 -0.05930192 -0.11678341 -0.116322264
000290 58 e5 32 be ca 2c c3 bd 97 9b d2 bd 54 93 ab bd
       -0.174703 -0.09530027 -0.10283583 -0.0837771
0002a0 80 4f 44 bc 16 80 42 bc bc e0 b5 3b aa 85 13 bd
       -0.011981845 -0.011871358 0.005550472 -0.036016144
0002b0 9d d6 53 bd 30 bd ae bd 5f 3b 5d bd bb b0 2c 3c
       -0.051718343 -0.085321784 -0.0540117 0.010540183
0002c0 ba b1 8a 3d e0 64 05 3d 26 97 e6 bc 65 49 75 3d
       0.0677218 0.032566905 -0.028148245 0.059884448
0002d0 a9 3e 32 3d 8b 54 f4 3d 6e 2b ab 3d 58 ff 6e 3d
       0.04351679 0.11930188 0.08357893 0.058348984
0002e0 46 d8 8b 3d 07 d3 f1 3b 95 2c 7d 3d bb d9 0e 3d
       0.0682836 0.0073798927 0.061810095 0.034875613
0002f0 34 27 2f 3d 57 aa 79 bd 1d f3 42 3d 51 ef 55 3d
       0.042761996 -0.060953464 0.047595132 0.052230183
000300 de 75 c5 3d c0 4e 3e 3b ce c1 0a bd 75 b5 96 bd
       0.09641622 0.0029038638 -0.033876233 -0.07358829
000310 63 02 b4 3d 99 81 7a bd 3c fe 81 bc b4 68 82 3c
       0.08789518 -0.06115875 -0.015868299 0.015919067
000320 82 27 96 bc dc 7f 36 bd f9 ef cc 3c d9 e1 b6 bd
       -0.018329386 -0.04455553 0.025016772 -0.08929796
000330 49 b7 ce bd cf 59 26 be 22 e8 61 bd 1f ca 01 bd
       -0.100935526 -0.16245197 -0.05515302 -0.0316869
000340 36 19 22 3b 90 0d c4 bd 86 21 43 bb f0 c9 b4 3c
       0.0024734265 -0.09572899 -0.002977462 0.022068948
000350 56 16 27 3d 78 b0 38 bd 92 c9 14 3c 8a 5c 1d be
       0.040792786 -0.04509017 0.009081261 -0.15367332
000360 5d ba 26 be 0f da b0 bd ab b6 03 be d9 d7 da bd
       -0.1628203 -0.086353414 -0.12862651 -0.10685701
000370 30 98 1f be 43 a5 3a bd 37 6b 44 be 48 1e 24 3c
       -0.15585399 -0.045567762 -0.19181524 0.010016985
000380 4f 69 bd bd 5c c0 36 3c 9a ef 8d bd f3 a1 7e bd
       -0.09248602 0.0111542605 -0.06930466 -0.062166166
000390 e7 aa 99 3d bf 82 87 bd 1d a3 b6 3d 6b 9b 70 3d
       0.075033 -0.06616735 0.0891783 0.058741968
0003a0 70 08 12 bd ad e4 b7 3d c0 bd 33 3d 45 b9 2e bc
       -0.035652578 0.08979163 0.04388213 -0.010664289
0003b0 b0 54 4b 3d 18 a6 a3 bd 9d eb 2e bd c5 7c cb bc
       0.04964131 -0.07990664 -0.042705167 -0.024839768
0003c0 3f d1 eb 3a 4b 76 2e 3d 84 bb e5 bd 5f cc 47 bc
       0.0017991437 0.04259328 -0.112174064 -0.012194722
0003d0 9b f0 c5 bd 30 56 c6 3c 5a 6c 61 3d 68 a4 df 3d
       -0.096650325 0.02421102 0.055034973 0.1092003
0003e0 a4 7a 83 3d 16 60 49 3d 5b 71 89 bd b4 81 f9 3a
       0.06419876 0.0491639 -0.06711074 0.0019035847
0003f0 e0 d0 40 3d 67 50 78 3c e5 88 a7 3b eb ec 1e bd
       0.0470742 0.015155888 0.0051127546 -0.03880016

cnn.3.bias f4 [32]
000000 07 7c 02 be 17 57 3c 3c fb 9b ec bd 9e 90 09 bd
       -0.12742625 0.011495373 -0.115531884 -0.033585183
000010 d4 fb 17 be 12 bf 30 bd b0 69 f6 bc 29 26 1b be
       -0.14842159 -0.04315097 -0.030079693 -0.15151276
000020 b9 7c e5 bc 68 0e 84 bc d0 1b ad bc db c8 d9 bd
       -0.028013574 -0.01612015 -0.021131426 -0.10634013
000030 f9 c1 32 bd ab 46 01 be 44 9b a4 bd b9 33 a7 bd
       -0.043642018 -0.12624614 -0.08037427 -0.08164162
000040 1b 08 75 bd 15 e4 b1 bd b8 92 9c bb 3c a4 61 3d
       -0.059822183 -0.08686081 -0.0047782324 0.055088267
000050 09 a3 10 be 35 da 00 bd 47 32 f8 bb a0 88 5e 3b
       -0.14124693 -0.0314581 -0.007574353 0.0033955947
000060 cd 08 09 3d 88 c9 1b be b9 8c 66 be 14 fa 2d be
       0.03345566 -0.15213597 -0.22514619 -0.16989928
000070 75 ec 9f bd 30 9b 4a be 6b f6 cd bd 5d c1 22 bd
       -0.078087725 -0.19785762 -0.10056766 -0.039735187

cnn.5.weight f4 [32]
000000 4b 9e 84 3f c0 df 83 3f cf 9e 72 3f 58 a0 65 3f
       1.0360807 1.0302658 0.9477357 0.8969779
000010 63 35 79 3f 6d 37 7d 3f 33 96 6c 3f 41 7b 98 3f
       0.97347087 0.989127 0.92416686 1.1912614
000020 3a ad 80 3f 3f 0c 78 3f fc b0 64 3f 85 de 87 3f
       1.0052865 0.96893686 0.89332557 1.0614783
000030 6d 89 8e 3f 09 af 82 3f 27 6d 83 3f c5 c8 78 3f
       1.1135689 1.0209666 1.0267686 0.9718135
000040 5a 20 72 3f 04 75 5f 3f 11 06 77 3f f9 1f 69 3f
       0.94580615 0.87287927 0.9649363 0.9106441
000050 07 60 6b 3f f3 1f 7e 3f 0b f2 68 3f 49 99 80 3f
       0.919434 0.992675 0.9099433 1.0046779
000060 3f 3b 73 3f f3 8b 90 3f 7d 4a 72 3f 91 dd 80 3f
       0.9501228 1.1292709 0.9464491 1.0067617
000070 60 9e 64 3f 20 18 9a 3f c5 66 67 3f 7b aa 71 3f
       0.8930416 1.2038612 0.9039119 0.9440076

cnn.5.bias f4 [32]
000000 09 01 9f bd c4 44 46 be 42 c4 cd bd d8 15 be bd
       -0.07763869 -0.1936217 -0.10047199 -0.0928151
000010 66 ed 63 bc 56 e1 38 bd e8 60 d4 bc a6 c4 b9 3d
       -0.013911581 -0.045136772 -0.025925115 0.09070711
000020 05 0d 15 be de dc 3b be 55 2d df 3d 06 da c4 bb
       -0.14555748 -0.18345973 0.10897318 -0.0060074357
000030 f8 e9 d2 bd ce 1a e5 bd a1 7d c1 bd dc 95 f8 bd
       -0.10298532 -0.11186753 -0.0944779 -0.121379584
000040 4c cd 3d bd 1c 00 2c be 1d 9b 7b bc 15 2a 26 bd
       -0.046338364 -0.16796917 -0.015356806 -0.040567476
000050 c6 12 33 3e 8f 73 68 bd 74 11 06 bd d7 51 d4 bd
       0.1748763 -0.05675083 -0.03273149 -0.10367172
000060 4d d7 9a bc 9d de df bd 13 f2 cb bd 5d 85 83 bd
       -0.018901492 -0.10931132 -0.09958281 -0.064219214
000070 b6 5a 13 be 01 63 9e bd a4 25 49 bd ba de 91 bb
       -0.14390072 -0.07733727 -0.049108163 -0.0044516

cnn.5.running_mean f4 [32]
000000 da b6 48 3f 65 35 01 40 b5 fb 6a 3f 69 bd 1a 40
       0.7840401 2.018884 0.91790324 2.4178107
000010 b5 d3 51 3f d8 e1 12 40 58 bb fb 3f 19 b3 db 3e
       0.81963664 2.2950344 1.9666548 0.42910078
000020 c1 5a ab 3f 45 b6 b5 3f 59 6c d8 3f e0 78 9c 3f
       1.3387071 1.4196249 1.6908065 1.2224388
000030 8f 88 97 3f 6b 58 8e 3f e7 a8 19 3f 4c 6e ab 3f
       1.1838549 1.1120733 0.6002335 1.3393035
000040 07 7b d8 3f 79 43 15 40 36 eb 21 40 57 f5 23 40
       1.6912545 2.3322432 2.5299811 2.5618494
000050 38 55 19 3f 6e 9e 64 3f 96 3d 1f 40 bb b0 6e 3f
       0.5989566 0.89304245 2.488134 0.9323842
000060 3a 9f a3 3f dd d1 20 3f e0 26 94 3f cc 09 20 3f
       1.2782967 0.62820226 1.1574364 0.6251495
000070 a4 be 9c 3f 36 56 3d 3f 3f ad f9 3f 90 eb f6 3f
       1.2245679 0.7395967 1.9505996 1.9290638

cnn.5.running_var f4 [32]
000000 06 dd 85 3f 5d 15 5b 40 e0 e0 ba 3f 51 80 a9 41
       1.0458076 3.423179 1.4599876 21.187654
000010 9b 4b 1c 40 ae a8 35 41 d4 8e 72 41 b6 85 72 3f
       2.4421146 11.353682 15.15987 0.94735277
000020 10 39 4d 40 bc 54 38 40 39 eb 22 41 b9 38 b9 40
       3.2066078 2.8801718 10.182427 5.788174
000030 1d 27 fe 3f 2d 90 53 40 57 80 5c 3f 74 e7 0a 41
       1.9855686 3.3056748 0.8613333 8.681507
000040 b8 e0 3e 40 f4 40 ba 41 5f 25 95 41 1e 87 cb 41
       2.9824657 23.281715 18.643248 25.440975
000050 d7 76 8c 3f 7a 16 92 3f 29 28 7e 41 aa 06 6e 40
       1.0973767 1.1413109 15.884805 3.7191567
000060 80 e2 b8 40 38 25 91 3f f6 d5 ad 40 9b 9e 92 3f
       5.777649 1.1339483 5.4323683 1.1454653
000070 fc 69 55 40 eb e1 19 40 74 7f 54 41 69 45 88 41
       3.3345938 2.404414 13.2811165 17.033892
