models/session_speaker-1.5s.model (torch, 238301 bytes, 78 tensors)

conv1.weight f4 [8, 2, 5, 5]
-0.041155364 0.04275949 -0.14739685 -0.20426096 -0.16576123 -0.038344476 0.07073166 -0.1364171
0.08382822 -0.025994908 0.08803764 0.095752165 -0.017437343 0.0269116 -0.06141831 0.085262135
0.11973149 0.051112443 -0.10593914 -0.070865504 0.06903683 -0.085734665 0.0927525 -0.08445166
0.10100092 -0.10251023 -0.06493184 -0.23732913 -0.1742873 -0.097084284 0.048018273 -0.083190195
-0.048016015 -0.07260298 -0.0759684 -0.06037974 0.061565846 0.014803081 0.024574418 -0.057858374
-0.08984985 0.11395386 0.13466732 -0.03755771 -0.05840055 -0.07810405 -0.12042667 -0.005412647
-0.006966797 0.10973569 0.08815218 -0.0410941 0.0668863 -0.107789315 0.055695496 -0.10569083
-0.06415894 -0.09733545 0.12783493 0.0667237 -0.18545325 -0.0150564285 -0.14583948 -0.122928195
0.11733037 0.055823486 0.0024545079 -0.0962259 0.15090168 0.11489847 0.057670567 0.0043580746
-0.0919161 0.027642295 0.047073472 -0.10206416 0.088240184 -0.08580438 0.10647232 -0.14469369
-0.05140399 -0.123315305 0.020732038 0.087513134 0.056152903 -0.06547462 -0.0205559 0.069965065
-0.055331476 0.09268162 -0.08304901 -0.11204717 0.0379457 0.042522486 -0.07874132 -0.01873793
-0.12055753 0.04824839 0.06971991 -0.09231873 -0.12416366 0.023749465 -0.0026467652 -0.09021816
0.045330256 0.06321189 -0.0641388 -0.00080582075 -0.1338837 -0.08654314 -0.09102633 -0.07790453
-0.13934915 0.032204997 -0.07850169 0.053267013 -0.1074249 0.10834688 -0.009870427 -0.064238146
0.16360585 -0.050804555 0.11344715 0.051844142 0.102231264 0.11981569 -0.049910348 -0.12754202
0.02042807 -0.12133722 0.044590753 0.06339251 0.047305733 -0.1261759 -0.15234087 0.068333134
-0.051946882 -0.14071958 0.06863146 -0.009467239 0.07540191 0.099470384 -0.053299066 0.0359246
-0.08481788 -0.09760647 0.07966267 0.047582302 -0.0025764932 0.0051433956 0.13136958 0.0454705
0.10160804 -0.08734099 -0.024968421 0.085780144 -0.07959343 -0.081700936 0.027496437 -0.10419722
0.15922637 0.10731546 0.135819 0.025692165 0.00788888 -0.0048270016 -0.035696745 -0.062326886
0.041925617 0.15204069 0.0146136945 0.0634588 -0.17067774 -0.025197886 0.09683068 -0.08330274
-0.0096056955 -0.07612073 0.018292723 0.008039063 -0.110894814 -0.087516606 -0.053489182 -0.090371154
-0.03794912 0.0271363 0.087284505 0.12841259 0.03970907 0.040265262 -0.04440208 -0.013306401
-0.061295856 -0.05892519 0.059929147 -0.055391897 0.06756114 -0.012425861 -0.10200539 -0.10145591
0.08161591 -0.020369682 -0.082343146 -0.11969209 -0.11376965 -0.070029035 0.08233175 0.0020507316
-0.019974057 -0.080338605 -0.0014561084 0.023850864 0.044919178 -0.030279513 -0.02495293 0.038345963
0.1416583 0.0088701965 0.13245028 0.017643757 -0.11114022 0.008057798 -0.14167325 0.027406128
0.102139495 0.04390439 0.06614721 0.08827566 0.04113468 -0.08798273 -0.008724027 -0.029226802
-0.05752946 0.03323662 -0.015986182 0.16970234 0.1784558 0.17064048 0.20356499 0.13562508
0.103657804 0.044638846 0.03312925 0.106199734 0.08762856 0.11255964 -0.11319848 0.036265567
-0.13639516 0.076413915 0.010919504 0.12492629 0.027382452 0.022366695 0.0057949494 0.0082000075
00000000: 8792 28bd 9324 2f3d 33ef 16be c929 51be
00000010: 50bd 29be 190f 1dbd c3db 903d edb0 0bbe
00000020: 21ae ab3d 46f3 d4bc 144d b43d b619 c43d
00000030: c2d8 8ebc b775 dc3c c491 7bbd ea9d ae3d
00000040: c935 f53d 485b 513d 9ff6 d8bd ef21 91bd
00000050: 2e63 8d3d a895 afbd 06f5 bd3d fef4 acbd
00000060: 92d9 ce3d e2f0 d1bd fcfa 84bd 6806 73be
00000070: 5f78 32be 20d4 c6bd cfae 443d 9f5f aabd
00000080: 71ac 44bd dfb0 94bd 5295 9bbd bf50 77bd
00000090: 782c 7c3d 9f88 723c 4a50 c93c e7fc 6cbd
000000a0: 3303 b8bd a460 e93d 3be6 093e 1dd6 19bd
000000b0: 6a35 6fbd 04f5 9fbd 42a2 f6bd 935c b1bb
000000c0: bb49 e4bb 1bbd e03d 2189 b43d 4952 28bd
000000d0: affb 883d a5c0 dcbd f620 643d 6f74 d8bd
000000e0: c365 83bd cf57 c7bd 29e7 023e 6fa6 883d
000000f0: 75e7 3dbe 3daf 76bc f256 15be c7c1 fbbd
00000100: e84a f03d 2ba7 643d cfdb 203b 1612 c5bd
00000110: f885 1a3e e44f eb3d f937 6c3d 2ece 8e3b
00000120: 823e bcbd 1872 e23c 1dd0 403d 0407 d1bd
00000130: 45b7 b43d 35ba afbd 290e da3d 952a 14be
00000140: fd8c 52bd bc8c fcbd 3cd6 a93c 163a b33d
00000150: 9600 663d 8f17 86bd d964 a8bc d849 8f3d
00000160: 42a3 62bd dccf bd3d 9915 aabd fd78 e5bd
00000170: f36c 1b3d 0f2c 2e3d 2143 a1bd 4a80 99bc
00000180: dee6 f6bd 1ba0 453d 50c9 8e3d 9a11 bdbd
00000190: 8449 febd 3d8e c23c 5a75 2dbb 4cc4 b8bd
000001a0: 38ac 393d 3c75 813d 345b 83bd b73d 53ba
000001b0: cf18 09be 883d b1bd 036c babd 698c 9fbd
000001c0: 8bb1 0ebe 63e9 033d 7ec5 a0bd 832e 5a3d
000001d0: 9601 dcbd f8e4 dd3d 92b7 21bc 4a8f 83bd
000001e0: 4b88 273e 7018 50bd fb56 e83d 865a 543d
000001f0: a05e d13d ee61 f53d cb6e 4cbd 609a 02be
00000200: c558 a73c a67f f8bd cba4 363d efd3 813d
00000210: a8c3 413d 4134 01be 3fff 1bbe 3ef2 8b3d
00000220: 41c6 54bd cb18 10be a78e 8c3d 7a1c 1bbc
00000230: 516c 9a3d 21b7 cb3d 1f50 5abd ac25 133d
00000240: ffb4 adbd e7e5 c7bd 2f26 a33d a9e5 423d
00000250: 62da 28bb ee89 a83b bf85 063e 463f 3a3d
00000260: e017 d03d d5df b2bd 938a ccbc 80ad af3d
00000270: e101 a3bd d252 a7bd 3540 e13c 5a65 d5bd
00000280: 3d0c 233e 35c8 db3d 2314 0b3e 6078 d23c
00000290: 5c40 013c d32b 9ebb c036 12bd 7a4a 7fbd
000002a0: 32ba 2b3d 8eb0 1b3e 476e 6f3c b0f6 813d
000002b0: 25c6 2ebe cc6b cebc 2a4f c63d a09a aabd
000002c0: 3561 1dbc 2fe5 9bbd 9fda 953c 46b6 033c
000002d0: d21c e3bd e83b b3bd 7917 5bbd 8314 b9bd
000002e0: 8970 1bbd f24c de3c 38c2 b23d 977e 033e
000002f0: faa5 223d 30ed 243d f5de 35bd 1703 5abc
00000300: 5d11 7bbd 8a5b 71bd 4478 753d 9de2 62bd
00000310: 7f5d 8a3d d795 4bbc 34e8 d0bd 1ec8 cfbd
00000320: 3e26 a73d 52de a6bc 86a3 a8bd 2021 f5bd
00000330: 1000 e9bd 626b 8fbd 8c9d a83d 9165 063b
00000340: a2a0 a3bc 9188 a4bd e4da beba e362 c33c
00000350: 2cfd 373d be0c f8bc 166a ccbc a810 1d3d
00000360: e00e 113e 4d54 113c 0ca1 073e a489 903c
00000370: 7c9d e3bd db04 043c cb12 11be d182 e03c
00000380: 832e d13d 17d5 333d 3078 873d dfc9 b43d
00000390: d77c 283d 4a30 b4bd 39ef 0ebc 0c6d efbc
000003a0: 03a4 6bbd 1f23 083d 74f5 82bc 73c6 2d3e
000003b0: 1ebd 363e 61bc 2e3e 5773 503e 4de1 0a3e
000003c0: 8b4a d43d 39d7 363d 89b2 073d 3f7f d93d
000003d0: 9a76 b33d ab85 e63d 9bd4 e7bd 348b 143d
000003e0: 2cab 0bbe e67e 9c3d b8e7 323c 5bd9 ff3d
000003f0: 2a51 e03c 5c3a b73c 8fe3 bd3b 5359 063c

conv1.bias f4 [8]
-0.10221546 -0.14516737 0.056129552 -0.025980331 -0.028885873 -0.13427158 0.017102461 0.18038057
00000000: 5756 d1bd c1a6 14be 1ae8 653d b4d4 d4bc
00000010: 11a2 ecbc 7d7e 09be 761a 8c3c afb5 383e

bn1.weight f4 [8]
0.9395517 0.94580746 1.0257832 0.97151 1.0945959 0.8742169 0.9346024 1.0204967
00000000: 7686 703f 7020 723f dd4c 833f e1b4 783f
00000010: b81b 8c3f aecc 5f3f 1a42 6f3f a39f 823f

bn1.bias f4 [8]
0.032598536 -0.011999059 -0.024430733 0.036007453 -0.008174878 0.042470638 -0.011915014 0.084107004
00000000: 0b86 053d b397 44bc f622 c8bc 8d7c 133d
00000010: ecef 05bc b1f5 2d3d 3137 43bc 4b40 ac3d

bn1.running_mean f4 [8]
0.36855882 0.1823505 0.274543 0.072811946 0.40047827 0.18999632 0.22484334 0.24415033
00000000: beb3 bc3e 17ba 3a3e e690 8c3e 6e1e 953d
00000010: 7d0b cd3e 658e 423e 553d 663e 8b02 7a3e

bn1.running_var f4 [8]
0.42184448 0.1079586 0.15879306 0.018056145 0.3619823 0.110779524 0.11172589 0.0547527
00000000: 00fc d73e 6619 dd3d a69a 223e 7bea 933c
00000010: be55 b93e 60e0 e23d 8bd0 e43d 5e44 603d

conv2.weight f4 [32, 8, 5, 5]
0.04659493 0.08802873 0.011259657 0.03845029 0.03343293 0.044728864 -0.0081831515 0.0011668616
-0.00043554086 0.018948676 -0.009522089 -0.03894336 -0.04010492 -0.053006083 -0.0031690716 0.033597577
-0.028426044 -0.05825801 0.013843748 0.015217246 0.014480103 -0.08894971 -0.009493222 0.006179618
0.01998693 0.04001941 0.05640385 0.04170416 0.07754843 -0.034009613 -0.05265427 0.10010857
-0.0031731108 -0.0058075516 0.0040677427 0.036725517 -0.058136947 0.00018862159 -0.038769737 -0.046429805
0.04923043 -0.08074602 -0.002158781 -0.06332134 -0.032537334 0.07899686 0.007813501 0.04565208
-0.03680492 -0.093775325 0.052587967 0.032826085 0.0389507 -0.040769093 0.07916864 0.09064924
0.0436804 -0.018743545 0.016724156 -0.0016916484 0.04426919 -0.11324701 -0.025951644 0.0042222016
-0.06784186 0.05274959 0.008966795 0.043703392 -0.07063032 0.066616796 0.06327411 -0.021843681
0.045789406 -0.046901565 -0.06474038 0.08748811 0.029185716 0.020094417 -0.00797614 0.046479106
-0.05682096 -0.045809366 0.021916373 -0.02904899 0.0059275078 -0.013841121 -0.029093431 0.013587183
-0.023629356 0.019368893 -0.028502954 -0.05090161 0.013265764 -0.06299213 -0.074982405 -0.04019903
0.071837306 0.064787135 0.032123033 -0.0040543606 -0.08198599 0.04191936 -0.09050143 0.018802848
-0.05816035 -0.005316672 -0.08521501 0.036801364 -0.04947133 -0.016864795 0.008648977 -0.030844953
-0.085788816 -0.04149041 -0.07114452 -0.113417625 -0.13161589 -0.083238535 -0.10867394 -0.15800779
-0.042966392 0.014199292 -0.031516556 -0.005757815 0.010061918 0.031374898 0.07416867 -0.053626686
-0.059680436 0.008202325 -0.0790454 -0.048544582 -0.04478236 -0.06226403 -0.0056336597 -0.018451339
0.021059334 0.026276965 -0.07822956 0.05137287 -0.03327226 -0.063483976 -0.046933845 -0.052843317
-0.015695615 0.0077528507 0.031540122 -0.05110089 0.05069615 0.021158699 0.042371415 -0.025821015
-0.06836493 0.032647967 -0.04183013 0.049424235 0.04314395 -0.026204553 0.019510875 0.03899445
0.032497633 -0.02350493 0.003980514 -0.019355662 -0.05528089 -0.034851328 -0.095221594 -0.047417045
-0.090204775 0.01758669 -0.034429226 -0.054564405 0.021330219 -0.08811757 0.0019613453 0.013178149
0.002794488 -0.017878491 -0.09672332 0.02107365 -0.104109384 -0.089610785 -0.0030838775 -0.10513712
-0.038803753 -0.08771632 -0.0065051 0.02050947 -0.09113498 -0.028283123 0.08566692 0.0067323344
-0.027068393 0.059916135 0.094247885 -0.004139627 0.002678466 -0.019052468 -0.077843614 -0.076467305
-0.07047139 -0.062286403 -0.120861225 -0.051739525 -0.0643611 -0.013409221 -0.054871798 -0.023567442
0.0016222629 -0.02741618 -0.07593993 -0.06757456 -0.03642162 -0.06872503 -0.043132693 0.04913183
0.013705322 0.05201122 0.026610224 -0.0137244845 0.05930925 0.049338274 -0.0835058 -0.025103685
0.028770288 0.023711795 0.038655072 -0.060702767 -0.0205816 0.018273408 -0.0249714 -0.001893918
0.03346473 -0.039946005 0.0141803445 -0.04105301 0.048914243 0.0015273842 0.039498556 -0.005716918
-0.07731948 0.070697226 -0.035985164 -0.029666673 -0.05262664 -0.08979371 0.038188074 -0.07711671
0.033135362 -0.004992542 -0.045033313 -0.011853674 -0.020437518 -0.07654675 -0.08557712 -0.05731339
00000000: 53da 3e3d 6848 b43d 6d7a 383c 0d7e 1d3d
00000010: f8f0 083d 9d35 373d a012 06bc 61f1 983a
00000020: 4e59 e4b9 413a 9b3c 8902 1cbc 1383 1fbd
00000030: 0e45 24bd e81c 59bd 33b0 4fbb 9d9d 093d
00000040: bcdd e8bc f39f 6ebd e3d0 623c c151 793c
00000050: f43d 6d3c 442b b6bd 7689 1bbc 657e ca3b
00000060: a1bb a33c 65eb 233d b907 673d fbd1 2a3d
00000070: b6d1 9e3d aa4d 0bbd 01ac 57bd b905 cd3d
00000080: f7f3 4fbb 464d bebb b34a 853b 7f6d 163d
00000090: 0221 6ebd b9c8 4539 04cd 1ebd 2e2d 3ebd
000000a0: d9a5 493d 2b5e a5bd 567a 0dbb 9eae 81bd
000000b0: de45 05bd 1bc9 a13d 3304 003c adfd 3a3d
000000c0: c1c0 16bd 470d c0bd 7b66 573d a574 063d
000000d0: c58a 1f3d 7efd 26bd 2b23 a23d 4fa6 b93d
000000e0: 38ea 323d 108c 99bc 1901 893c 4dba ddba
000000f0: 9c53 353d 0cee e7bd 8b98 d4bc 655a 8a3b
00000100: acf0 8abd f40f 583d 77e9 123c 5402 333d
00000110: a1a6 90bd 636e 883d db95 813d 85f1 b2bc
00000120: ac8d 3b3d db1b 40bd 9b96 84bd f72c b33d
00000130: e216 ef3c 0c9d a43c 5bae 02bc e060 3e3d
00000140: 18bd 68bd 9aa2 3bbd f789 b33c 26f8 edbc
00000150: 8a3b c23b dfc5 62bc 5955 eebc c79c 5e3c
00000160: 5a92 c1bc 83ab 9e3c 077f e9bc 357e 50bd
00000170: a658 593c 0502 81bd 6090 99bd bda7 24bd
00000180: 701f 933d 1eaf 843d 7193 033d 71da 84bb
00000190: 45e8 a7bd a3b3 2b3d d058 b9bd 6e08 9a3c
000001a0: 8c39 6ebd 7a37 aebb 3585 aebd 07bd 163d
000001b0: 73a2 4abd 0a28 8abc 70b4 0d3c 8eae fcbc
000001c0: 0cb2 afbd d9f1 29bd 38b4 91bd 8047 e8bd
000001d0: 51c6 06be f778 aabd 7190 debd cbcc 21be
000001e0: 87fd 2fbd 26a4 683c 8117 01bd 0eac bcbb
000001f0: beda 243c f782 003d bee5 973d a8a7 5bbd
00000200: 7973 74bd 0b63 063c 8ee2 a1bd afd6 46bd
00000210: b56d 37bd 9108 7fbd 909a b8bb 4327 97bc
00000220: a084 ac3c ca42 d73c d236 a0bd 5c6c 523d
00000230: 7e48 08bd e303 82bd b43d 40bd 3c72 58bd
00000240: 1794 80bc a00b fe3b 3730 013d 2b4f 51bd
00000250: c4a6 4f3d 0255 ad3c a68d 2d3d 9886 d3bc
00000260: ea02 8cbd e0b9 053d 1256 2bbd 1171 4a3d
00000270: b6b7 303d eeaa d6bc 45d5 9f3c a5b8 1f3d
00000280: 3d1c 053d 698d c0bc f96e 823b c48f 9ebc
00000290: 376e 62bd 44c0 0ebd 8a03 c3bd 6038 42bd
000002a0: 48bd b8bd f611 903c a905 0dbd ed7e 5fbd
000002b0: b6bc ae3c fc76 b4bd ea89 003b 2ae9 573c
000002c0: bb23 373b ea75 92bc e016 c6bd a6a2 ac3c
000002d0: 4d37 d5bd dc85 b7bd e11a 4abb 2152 d7bd
000002e0: aff0 1ebd 9da4 b3bd bc28 d5bb 7a03 a83c
000002f0: faa4 babd 02b2 e7bc 2372 af3d ea9a dc3b
00000300: 89be ddbc 9f6a 753d 0905 c13d b5a5 87bb
00000310: 3489 2f3b ec13 9cbc 796c 9fbd e49a 9cbd
00000320: 4e53 90bd 0720 7fbd 1786 f7bd d3ec 53bd
00000330: c1cf 83bd 59b2 5bbc 40c1 60bd 8210 c1bc
00000340: 1ca2 d43a e697 e0bc 6586 9bbd 8864 8abd
00000350: d62e 15bd b5bf 8cbd e8ab 30bd 753e 493d
00000360: 498c 603c b809 553d affd d93c a9dc 60bc
00000370: 42ee 723d ee16 4a3d 1705 abbd 3ea6 cdbc
00000380: abaf eb3c 3d3f c23c c854 1e3d 77a3 78bd
00000390: be9a a8bc 1db2 953c d290 ccbc 583d f8ba
000003a0: 5012 093d 6c9e 23bd ad54 683c 3327 28bd
000003b0: 4d5a 483d 8232 c83a 3dc9 213d fc54 bbbb
000003c0: ad59 9ebd b5c9 903d 2e65 13bd 8607 f3bc
000003d0: 088f 57bd c4e5 b7bd 196b 1c3d 5eef 9dbd
000003e0: f2b8 073d 7a98 a3bb da74 38bd ea35 42bc
000003f0: 956c a7bc 8bc4 9cbd 0f43 afbd 72c1 6abd

conv2.bias f4 [32]
-0.03627579 0.101039924 -0.02217182 -0.07010775 -0.09516505 -0.041517016 -0.094529055 -0.08206417
-0.09181412 -0.055356998 -0.07897696 0.02258565 -0.06026625 0.020318124 -0.05188896 -0.09508672
0.0037087954 0.027699998 0.019386502 0.025103616 -0.053330623 0.0054353 0.020339675 0.01306408
-0.0483398 -0.09379136 0.06330729 -0.1199414 -0.045282993 -0.03622734 -0.012545384 -0.09466432
00000000: ec95 14bd 05ee ce3d ada1 b5bc a794 8fbd
00000010: e5e5 c2bd bf0d 2abd 7398 c1bd 4211 a8bd
00000020: 0b09 bcbd 05be 62bd acbe a1bd 8b05 b93c
00000030: bed9 76bd 3272 a63c 8589 54bd d4bc c2bd
00000040: 430f 733b 1beb e23c 71d0 9e3c 19a6 cd3c
00000050: 3671 5abd 9a1a b23b 649f a63c b90a 563c
00000060: f4ff 45bd af15 c0bd 41a7 813d d6a3 f5bd
00000070: a97a 39bd 1f63 14bd 278b 4dbc 5edf c1bd

bn2.weight f4 [32]
0.96242 1.0767409 0.92660594 0.96474963 1.0642195 0.94584 0.99946874 0.9880511
1.0549129 0.9842151 0.990547 1.0425785 0.9881995 0.9005941 0.96706206 0.9841491
0.98980504 0.9999557 1.0112646 1.0030844 0.9906484 1.118387 0.94856745 1.0121948
0.9677287 0.9696299 0.90039814 0.9023954 0.9567946 1.0180537 0.96852255 0.9945553
00000000: 2861 763f a5d2 893f 0c36 6d3f d5f9 763f
00000010: 5838 883f 9222 723f 2fdd 7f3f ebf0 7c3f
00000020: 6307 873f 85f5 7b3f 7d94 7d3f 3673 853f
00000030: a4fa 7c3f 568d 663f 6191 773f 32f1 7b3f
00000040: dd63 7d3f 19fd 7f3f 1e71 813f 1265 803f
00000050: 229b 7d3f 4e27 8f3f 51d5 723f 998f 813f
00000060: 11bd 773f aa39 783f 7e80 663f 6303 673f
00000070: 7ef0 743f 954f 823f 18f1 773f 2d9b 7e3f

bn2.bias f4 [32]
0.011560873 -0.039184846 -0.020292027 -0.026850676 -0.057823423 -0.053942833 -0.0771736 0.040328
-0.036396615 0.017439134 -0.008396813 -0.026168399 -0.017385405 0.021062028 -0.086317785 -0.033251807
0.035541832 -0.07994376 -0.060367018 -0.08928533 -0.03340793 0.010360869 -0.08405422 -0.05551484
-0.044679362 -0.017232526 -0.024537412 -0.06713303 -0.023287734 -0.053221237 -0.03284246 -0.020043021
00000000: d169 3d3c 4a80 20bd 773b a6bc f3f5 dbbc
00000010: 41d8 6cbd 29f3 5cbd 310d 9ebd f92e 253d
00000020: 9e14 15bd 84dc 8e3c c992 09bc 1c5f d6bc
00000030: d66b 8ebc 468a ac3c 61c7 b0bd 0c33 08bd
00000040: 5094 113d 8eb9 a3bd 6843 77bd 3adb b6bd
00000050: c1d6 08bd a2c0 293c 9e24 acbd 8763 63bd
00000060: b501 37bd 3a2b 8dbc af02 c9bc 0b7d 89bd
00000070: ebc5 bebc 83fe 59bd d185 06bd 4331 a4bc

bn2.running_mean f4 [32]
0.39264962 0.47278497 0.34988314 1.0118196 0.27156088 0.6826432 0.24720287 0.29983613
0.31724486 0.31610483 0.2683063 0.22583124 0.2886347 0.97829527 0.8641607 0.29678595
0.30925283 0.5621724 0.46906546 1.0288546 0.3730837 0.50100404 0.9207489 0.36469993
0.36855248 0.70602477 0.62157893 0.30359915 0.49472302 0.21739082 0.2516924 0.5735513
00000000: 5f09 c93e df10 f23e e223 b33e 4e83 813f
00000010: 070a 8b3e b4c1 2e3f c022 7d3e 1f84 993e
00000020: eb6d a23e 7ed8 a13e 715f 893e 4e40 673e
00000030: edc7 933e 8f71 7a3f a339 5d3f 54f4 973e
00000040: 6356 9e3e 88ea 0f3f 5929 f03e 82b1 833f
00000050: d404 bf3e cd41 003f 33b6 6b3f f3b9 ba3e
00000060: e9b2 bc3e 0abe 343f cc1f 1f3f 5971 9b3e
00000070: 564c fd3e b39b 5e3e d4dd 803e 42d4 123f

bn2.running_var f4 [32]
0.25932893 0.30272713 0.34700847 3.6332066 0.13733417 1.8482946 0.20396562 0.19313897
0.44622862 0.43232727 0.22838095 0.1696056 0.22746061 2.364544 2.6785815 0.25766903
0.20649414 0.4199348 0.37926647 1.281474 0.36118436 0.37557852 0.9390136 0.3610829
0.36914536 1.7488755 0.5247766 0.38129228 1.3497596 0.18956512 0.19689749 1.550618
00000000: c3c6 843e 0dff 9a3e 18ab b13e 7586 6840
00000010: 54a1 0c3e eb94 ec3f 5ddc 503e 39c6 453e
00000020: 1478 e43e 005a dd3e b2dc 693e 17ad 2d3e
00000030: 6feb 683e b054 1740 e16d 2b40 32ed 833e
00000040: 3373 533e b201 d73e 372f c23e 5707 a43f
00000050: 28ed b83e d44b c03e 3263 703f dcdf b83e
00000060: 9f00 bd3e 27db df3f c257 063f be38 c33e
00000070: ecc4 ac3f 5c1d 423e 7f9f 493e a77a c63f

conv3.weight f4 [48, 32, 5, 5]
-0.04788525 0.01689283 -0.03527307 0.037554882 -0.0038253793 0.040608212 -0.0043751397 -0.01678711
-0.05904178 -0.01826844 0.019759877 0.07482168 0.032396007 -0.017827328 0.007687805 0.025095293
-0.025240818 0.005023582 0.0063324696 -0.003608274 -0.0021368451 0.015130529 0.058207948 0.04298754
0.057810027 -0.08793977 -0.08680349 -0.111955434 -0.08130437 -0.05635344 0.043094855 0.06713018
0.023641856 0.04472106 0.07971261 0.059551734 0.060951296 0.011790055 0.01997078 0.025854869
-0.018165587 0.05822928 0.012906427 0.019547801 -0.009602003 -0.0071643563 0.037513822 0.01559189
-0.0069029643 -0.023438107 -0.057331152 -0.028565427 0.0059652035 -0.028447703 0.018080583 -0.06792502
-0.0030519466 -0.029972032 0.010226186 0.012283227 -0.028632887 -0.05308004 0.004602779 -0.03157353
-0.0774656 0.01862825 -0.0151518565 0.07386224 0.049457863 -0.040755544 0.0583647 0.0038261185
-0.044962756 0.00997973 -0.046780095 -0.025900763 -0.00031297648 -0.016228493 0.010665364 0.024133295
0.023631282 0.054524798 0.011398444 0.036939926 0.003132271 0.024561753 -0.0012415026 0.0015476516
0.026999267 0.042377938 -0.01850259 -0.039025374 -0.0029309303 0.0025457635 0.049762342 0.019966925
0.022947023 -0.0025074708 0.062362395 0.077213354 -0.02475999 -0.014011636 -0.05889279 -0.0007862191
-0.042675547 -0.024107967 0.04091553 0.03367641 -0.0116335405 0.0007024042 -0.010451219 0.011577641
-0.03976393 -0.03886301 0.022034032 0.008303237 0.039913103 0.026676608 0.029026562 0.033448298
0.01696862 -0.0055208076 -0.0013007292 0.0051435865 -0.0008967009 -0.011287397 0.030716734 -0.018642303
-4.8744634e-05 -0.020520622 -0.00076059817 -0.018848395 0.006083122 0.029323688 0.03626481 -0.044347208
-0.021438306 0.0060408586 0.01554682 -0.010850916 -0.004222188 0.057906568 0.016842484 -0.017125567
0.023920951 -0.037303172 0.022143884 0.043779388 -0.008761053 0.062210225 0.002576188 -0.010739053
0.0010787392 -0.0023635707 -0.022350824 -0.07936428 0.005727159 -0.083269365 -0.04727939 -0.054728657
-0.06338076 -0.011588553 -0.056680858 -0.017615568 0.0008409205 0.01644836 0.014635795 0.020348381
-0.0068893908 0.006180306 0.01833376 0.039007794 0.052320007 0.024857387 -0.0010848405 0.039051395
0.021017374 0.031228568 -0.029525883 0.036570687 0.0061546727 -0.00764623 0.062271427 0.02416188
-0.03118083 -0.06818551 -0.038274433 -0.10145405 -0.038390163 -0.06828499 0.042478647 0.029864922
0.034357026 0.036352728 0.017807912 0.008432785 0.0696248 -0.0050114514 0.034828216 -0.037166532
-0.021284921 -0.0013765519 -0.038253173 -0.032765195 -0.044474166 0.00028872458 0.021489458 -0.003701422
-0.017684428 -0.002814006 0.026645072 0.053285893 0.055495486 0.06924832 0.03718806 0.0022601543
0.06270251 -0.013400665 0.020165358 0.056349434 -0.029141065 0.016907383 -0.021114927 0.021876823
-0.021955883 -0.09088966 0.0028322823 0.009665435 -0.04049522 -0.016631544 -0.042053014 -0.052981254
-0.0142528415 -0.013711076 -0.029529622 -0.054793626 0.03387578 0.03198195 0.025918722 -0.048377927
-0.013726061 0.025897935 0.01453622 0.031735986 -0.024751166 0.04064571 -0.018570118 0.01951713
0.026890723 0.046853233 0.058767885 0.008364283 0.024650276 0.08456293 0.029666107 -0.04807481
00000000: 5323 44bd d562 8a3c 7f7a 10bd 26d3 193d
00000010: 37b3 7abb cc54 263d 555d 8fbb 1f85 89bc
00000020: cbd5 71bd b2a7 95bc 77df a13c 1c3c 993d
00000030: adb1 043d 9e0a 92bc fce9 fb3b a594 cd3c
00000040: d5c5 cebc dc9c a43b 9b80 cf3b cb78 6cbb
00000050: 500a 0cbb 0ae6 773c 756b 6e3d b413 303d
00000060: 35ca 6c3d c419 b4bd 07c6 b1bd e448 e5bd
00000070: e882 a6bd ddd2 66bd 3b84 303d 8c7b 893d
00000080: 91ac c13c 6e2d 373d 5d40 a33d 85ec 733d
00000090: 11a8 793d 132b 413c c399 a33c 97cd d33c
000000a0: ffcf 94bc d381 6e3d 7a75 533c b622 a03c
000000b0: b851 1dbc fac2 eabb 18a8 193d 2075 7f3c
000000c0: 4332 e2bb 4601 c0bc 12d4 6abd 0b02 eabc
000000d0: c177 c33b 280b e9bc bb1d 943c 461c 8bbd
000000e0: 2b03 48bb e887 f5bc bc8b 273c 973f 493c
000000f0: 848f eabc 756a 59bd e9d2 963b 3f53 01bd
00000100: 49a6 9ebd 469a 983c 7e3f 78bc 1645 973d
00000110: 5494 4a3d 49ef 26bd d30f 6f3d 9ebf 7a3b
00000120: de2a 38bd 0582 233c 7c9c 3fbd d62d d4bc
00000130: fe16 a4b9 9ef1 84bc c7bd 2e3c 30b3 c53c
00000140: 6496 c13c 6555 5f3d 8ac0 3a3c 524e 173d
00000150: ca46 4d3b bb35 c93c eab9 a2ba 92da ca3a
00000160: 912d dd3c 7d94 2d3d be92 97bc 12d9 1fbd
00000170: da14 40bb d3d6 263b 99d3 4b3d ad91 a33c
00000180: 65fb bb3c 6154 24bb b66f 7f3d 0922 9e3d
00000190: 76d5 cabc 1091 65bc 9139 71bd 451a 4eba
000001a0: 8ecc 2ebd 127e c5bc 0b97 273d 46f0 093d
000001b0: 9b9a 3ebc 8c21 383a 973b 2bbc 25b0 3d3c
000001c0: 81df 22bd d22e 1fbd b780 b43c 4d0a 083c
000001d0: ec7b 233d e788 da3c 1dc9 ed3c 1501 093d
000001e0: c601 8b3c e4e7 b4bb 3b7d aaba 888b a83b
000001f0: 9410 6bba c6ee 38bc a9a1 fb3c beb7 98bc
00000200: 2773 4cb8 dd1a a8bc e162 47ba f367 9abc
00000210: ed54 c73b 3b38 f03c 698a 143d 6ba5 35bd
00000220: 639f afbc 65f2 c53b 17b8 7e3c 0ac8 31bc
00000230: 485a 8abb 702f 6d3d 40f9 893c eb4a 8cbc
00000240: dff5 c33c 36cb 18bd 1767 b53c 0452 333d
00000250: 858a 0fbc 26d0 7e3d 43d5 283b daf2 2fbc
00000260: 7b64 8d3a 23e6 1abb 1319 b7bc bd89 a2bd
00000270: e4aa bb3b 2189 aabd 09a8 41bd 282b 60bd
00000280: c6cd 81bd eadd 3dbc 302a 68bd 864e 90bc
00000290: 3871 5c3a b6be 863c f9ca 6f3c a6b1 a63c
000002a0: 66c0 e1bb 2a84 ca3b ae30 963c a3c6 1f3d
000002b0: 814d 563d b8a1 cb3c 3531 8eba 5bf4 1f3d
000002c0: a12c ac3c 0ed3 ff3c 44e0 f1bc 25cb 153d
000002d0: 23ad c93b 3a8d fabb 5310 7f3d 23ef c53c
000002e0: f16e ffbc d8a4 8bbd a7c5 1cbd 24c7 cfbd
000002f0: 013f 1dbd 00d9 8bbd 17fe 2d3d 48a7 f43c
00000300: f4b9 0c3d 99e6 143d e6e1 913c aa29 0a3c
00000310: 7297 8e3d 1a37 a4bb 08a8 0e3d ef3b 18bd
00000320: b75d aebc 6b6d b4ba 5caf 1cbd cc34 06bd
00000330: 8b2a 36bd f55f 9739 a90a b03c 8e93 72bb
00000340: efde 90bc 306b 38bb c446 da3c 4f42 5a3d
00000350: 3c4f 633d 10d2 8d3d 8252 183d 191f 143b
00000360: 2c6a 803d 768e 5bbc d231 a53c aace 663d
00000370: 3eb9 eebc 5a81 8a3c 36f9 acbc 0637 b33c
00000380: d3dc b3bc 5c24 babd d09d 393b c65b 1e3c
00000390: 51de 25bd e03e 88bc c83f 2cbd df02 59bd
000003a0: c084 69bc 6ca4 60bc 1be8 f1bc 486f 60bd
000003b0: 54c1 0a3d 81ff 023d 8053 d43c ef27 46bd
000003c0: 46e3 60bc e827 d43c 5329 6e3c 98fd 013d
000003d0: f5c2 cabc 1e7c 263d 5c20 98bc 63e2 9f3c
000003e0: ef49 dc3c 2de9 3f3d 98b6 703d 580a 093c
000003f0: 60ef c93c 542f ad3d 5606 f33c 18ea 44bd

conv3.bias f4 [48]
0.08527187 0.009975811 0.057706144 0.038887996 0.029861141 0.08515188 0.12754503 0.07619279
0.012038645 0.049355093 0.0053341766 0.06694424 0.061166707 0.079202004 0.07831821 0.019074002
0.123108506 0.017548056 -0.0053561525 0.008544016 0.039574947 0.024940854 0.07931626 0.069985434
0.036419854 0.0784595 0.039622627 0.053842604 0.027039103 0.024359046 0.01997349 -0.02346138
0.11236799 -0.017060371 0.042712882 0.07713354 0.05031484 -0.022762876 0.06917633 0.047690026
-0.008978688 0.026681876 0.047595266 0.015384114 0.02936973 0.043585837 -0.03577545 0.019427897
00000000: 05a3 ae3d 9571 233c 475d 6c3d 0549 1f3d
00000010: 5a9f f43c 1c64 ae3d 2a9b 023e f70a 9c3d
00000020: bd3d 453c 9128 4a3d 51ca ae3b 101a 893d
00000030: f189 7a3d a934 a23d 4c65 a03d 1541 9c3c
00000040: 5020 fc3d f1c0 8f3c aa82 afbb 33fc 0b3c
00000050: 5719 223d c350 cc3c 9070 a23d 8654 8f3d
00000060: fc2c 153d 60af a03d 564b 223d 108a 5c3d
00000070: 1c81 dd3c 9f8c c73c 729f a33c 1432 c0bc
00000080: 3021 e63d 31c2 8bbc b4f3 2e3d 30f8 9d3d
00000090: ef16 4e3d 3679 babc 52ac 8d3d 9e56 433d
000000a0: 591b 13bc f393 da3c 41f3 423d a70d 7c3c
000000b0: ca98 f03c 1087 323d 4789 12bd 4127 9f3c

bn3.weight f4 [48]
1.1072003 1.0498617 1.0833215 0.9986263 1.0407791 1.0156833 1.0115767 1.0197378
1.048298 1.0290546 1.0436172 1.049109 1.0567869 1.0259663 1.0106827 1.0133547
1.0193816 1.0595522 1.0400791 1.0407274 1.0647162 1.0617855 0.9683885 1.035902
1.0956529 1.1402439 1.0322825 1.1123223 1.0433842 1.0763506 1.081766 1.0100416
1.0822134 1.0183295 0.99007636 1.0464954 1.0238879 1.0793537 1.0607173 1.0310352
1.0503719 1.0191704 1.0473021 1.0351735 1.0747174 1.0010542 0.99801004 0.9726285
00000000: bdb8 8d3f de61 863f 47aa 8a3f f9a5 7f3f
00000010: 4038 853f e901 823f 587b 813f c586 823f
00000020: a12e 863f 10b8 833f 4095 853f 3449 863f
00000030: cb44 873f dd52 833f 0d5e 813f 9bb5 813f
00000040: 197b 823f 689f 873f 5021 853f 8e36 853f
00000050: 9f48 883f 96e8 873f 4fe8 773f 7098 843f
00000060: 5b3e 8c3f 83f3 913f d521 843f 9460 8e3f
00000070: 9d8d 853f dbc5 893f 4f77 8a3f 0b49 813f
00000080: f885 8a3f 9f58 823f a575 7d3f 90f3 853f
00000090: c20e 833f 4328 8a3f 96c5 873f f6f8 833f
000000a0: 9672 863f 2d74 823f ff0d 863f 9180 843f
000000b0: 5790 893f 8b22 803f 967d 7f3f 2efe 783f

bn3.bias f4 [48]
-0.0033994492 -0.046376094 -0.044744395 -0.050796106 -0.023452431 -0.021718996 0.0028448259 -0.001566455
-0.003897275 0.005622476 0.03659189 0.026967349 0.015887616 0.04614205 0.020059334 -0.009195501
0.039350107 0.017164636 -0.018834509 0.0029367262 0.038755026 0.0049784034 -0.012446298 -0.0015351756
0.008118213 -0.034865197 -0.06744974 -0.08720763 -0.052585818 -0.014086829 -0.06266565 -0.02633981
-0.051465582 -0.07148971 -0.054658286 -0.034724444 -0.068460934 -0.066406675 -0.067626305 -0.06866181
-0.0067599304 -0.03554282 0.03526112 -0.023779523 -0.011234963 -0.013441242 0.00033410089 0.00041860298
00000000: 4bc9 5ebb dcf4 3dbd e645 37bd 940f 50bd
00000010: 501f c0bc 09ec b1bc 4270 3a3b 8251 cdba
00000020: 6d69 7fbb bf3c b83b 61e1 153d a1ea dc3c
00000030: bf26 823c 72ff 3c3d 7953 a43c baa8 16bc
00000040: 942d 213d da9c 8c3c d44a 9abc 1776 403b
00000050: 97bd 1e3d e021 a33b 8feb 4bbc f237 c9ba
00000060: 4102 053c cfce 0ebd 1723 8abd ea99 b2bd
00000070: 3a64 57bd 71cc 66bc d956 80bd 96c6 d7bc
00000080: 93cd 52bd 3269 92bd 5ee1 5fbd 383b 0ebd
00000090: 3f35 8cbd 3900 88bd a97f 8abd 909e 8cbd
000000a0: 6882 ddbb 5995 11bd f76d 103d 46cd c2bc
000000b0: da12 38bc a838 5cbc 432a af39 f177 db39

bn3.running_mean f4 [48]
1.2105182 1.5521438 1.3366059 1.4109033 1.575215 1.5848085 1.7112086 1.0128661
0.93821394 0.96795475 0.8829623 1.7756115 1.7956008 1.7581756 1.1646824 1.2498456
1.8438005 1.4036486 1.0315913 0.948327 0.92358863 1.8909177 1.2726442 1.869147
1.3831869 1.1282203 1.1858132 1.8297669 1.0204799 1.6605103 1.5586015 1.3906385
1.003728 0.8475412 1.0899292 1.4032031 1.1204923 0.9516042 1.2068676 1.1136042
1.385853 1.716576 1.5132995 1.6401832 1.4464024 1.1650015 1.008008 0.7630472
00000000: 43f2 9a3f a6ac c63f e715 ab3f 7b98 b43f
00000010: a5a0 c93f 01db ca3f e208 db3f 99a5 813f
00000020: ca2e 703f e2cb 773f d109 623f 3d47 e33f
00000030: 3fd6 e53f e60b e13f 5014 953f f1fa 9f3f
00000040: a801 ec3f c2aa b33f 2f0b 843f 8fc5 723f
00000050: 4e70 6c3f 9709 f23f 01e6 a23f 3540 ef3f
00000060: 450c b13f 8669 903f bac8 973f cd35 ea3f
00000070: 169f 823f 9a8b d43f 4180 c73f 7100 b23f
00000080: 297a 803f 76f8 583f cd82 8b3f 299c b33f
00000090: 4b6c 8f3f 559c 733f a37a 9a3f 958a 8e3f
000000a0: a263 b13f c3b8 db3f ccb3 c13f 86f1 d13f
000000b0: b723 b93f c51e 953f 6806 813f 1057 433f

bn3.running_var f4 [48]
2.207354 3.5715387 2.1485 2.1568162 9.896022 2.6220655 3.8165863 1.9901497
1.5799743 1.9602468 1.1471665 3.407295 4.762527 4.177752 2.673435 2.2269237
3.9558299 3.2291696 1.5783812 1.4121127 2.0282812 5.6535087 4.1445403 5.8988023
5.6244307 2.243653 4.629813 5.5115423 1.9892467 7.9383497 4.3498335 5.1817207
2.309154 1.946125 3.355053 3.4743164 3.581781 1.8024467 3.8776114 2.2551396
4.3323073 4.5335917 4.905268 12.252906 8.510833 3.9463372 2.0380487 1.5375952
00000000: 4a45 0d40 1794 6440 0681 0940 4709 0a40
00000010: 1b56 1e41 eccf 2740 f342 7440 3abd fe3f
00000020: 993c ca3f 5ee9 fa3f 5ad6 923f 1f11 5a40
00000030: 9f66 9840 25b0 8540 8f19 2b40 eb85 0e40
00000040: 512c 7d40 b7aa 4e40 6508 ca3f 1cc0 b43f
00000050: 5ccf 0140 8be9 b440 13a0 8440 fdc2 bc40
00000060: 56fb b340 0398 0f40 6e27 9440 8e5e b040
00000070: a39f fe3f f606 fe40 d631 8b40 a8d0 a540
00000080: 2ec9 1340 a01a f93f 30b9 5640 335b 5e40
00000090: e63b 6540 93b6 e63f c92a 7840 3554 1040
000000a0: 43a2 8a40 2f13 9140 f5f7 9c40 e70b 4441
000000b0: 5f2c 0841 ca90 7c40 646f 0240 ebcf c43f

cnn.0.weight f4 [8, 2, 5, 5]
-0.041155364 0.04275949 -0.14739685 -0.20426096 -0.16576123 -0.038344476 0.07073166 -0.1364171
0.08382822 -0.025994908 0.08803764 0.095752165 -0.017437343 0.0269116 -0.06141831 0.085262135
0.11973149 0.051112443 -0.10593914 -0.070865504 0.06903683 -0.085734665 0.0927525 -0.08445166
0.10100092 -0.10251023 -0.06493184 -0.23732913 -0.1742873 -0.097084284 0.048018273 -0.083190195
-0.048016015 -0.07260298 -0.0759684 -0.06037974 0.061565846 0.014803081 0.024574418 -0.057858374
-0.08984985 0.11395386 0.13466732 -0.03755771 -0.05840055 -0.07810405 -0.12042667 -0.005412647
-0.006966797 0.10973569 0.08815218 -0.0410941 0.0668863 -0.107789315 0.055695496 -0.10569083
-0.06415894 -0.09733545 0.12783493 0.0667237 -0.18545325 -0.0150564285 -0.14583948 -0.122928195
0.11733037 0.055823486 0.0024545079 -0.0962259 0.15090168 0.11489847 0.057670567 0.0043580746
-0.0919161 0.027642295 0.047073472 -0.10206416 0.088240184 -0.08580438 0.10647232 -0.14469369
-0.05140399 -0.123315305 0.020732038 0.087513134 0.056152903 -0.06547462 -0.0205559 0.069965065
-0.055331476 0.09268162 -0.08304901 -0.11204717 0.0379457 0.042522486 -0.07874132 -0.01873793
-0.12055753 0.04824839 0.06971991 -0.09231873 -0.12416366 0.023749465 -0.0026467652 -0.09021816
0.045330256 0.06321189 -0.0641388 -0.00080582075 -0.1338837 -0.08654314 -0.09102633 -0.07790453
-0.13934915 0.032204997 -0.07850169 0.053267013 -0.1074249 0.10834688 -0.009870427 -0.064238146
0.16360585 -0.050804555 0.11344715 0.051844142 0.102231264 0.11981569 -0.049910348 -0.12754202
0.02042807 -0.12133722 0.044590753 0.06339251 0.047305733 -0.1261759 -0.15234087 0.068333134
-0.051946882 -0.14071958 0.06863146 -0.009467239 0.07540191 0.099470384 -0.053299066 0.0359246
-0.08481788 -0.09760647 0.07966267 0.047582302 -0.0025764932 0.0051433956 0.13136958 0.0454705
0.10160804 -0.08734099 -0.024968421 0.085780144 -0.07959343 -0.081700936 0.027496437 -0.10419722
0.15922637 0.10731546 0.135819 0.025692165 0.00788888 -0.0048270016 -0.035696745 -0.062326886
0.041925617 0.15204069 0.0146136945 0.0634588 -0.17067774 -0.025197886 0.09683068 -0.08330274
-0.0096056955 -0.07612073 0.018292723 0.008039063 -0.110894814 -0.087516606 -0.053489182 -0.090371154
-0.03794912 0.0271363 0.087284505 0.12841259 0.03970907 0.040265262 -0.04440208 -0.013306401
-0.061295856 -0.05892519 0.059929147 -0.055391897 0.06756114 -0.012425861 -0.10200539 -0.10145591
0.08161591 -0.020369682 -0.082343146 -0.11969209 -0.11376965 -0.070029035 0.08233175 0.0020507316
-0.019974057 -0.080338605 -0.0014561084 0.023850864 0.044919178 -0.030279513 -0.02495293 0.038345963
0.1416583 0.0088701965 0.13245028 0.017643757 -0.11114022 0.008057798 -0.14167325 0.027406128
0.102139495 0.04390439 0.06614721 0.08827566 0.04113468 -0.08798273 -0.008724027 -0.029226802
-0.05752946 0.03323662 -0.015986182 0.16970234 0.1784558 0.17064048 0.20356499 0.13562508
0.103657804 0.044638846 0.03312925 0.106199734 0.08762856 0.11255964 -0.11319848 0.036265567
-0.13639516 0.076413915 0.010919504 0.12492629 0.027382452 0.022366695 0.0057949494 0.0082000075
00000000: 8792 28bd 9324 2f3d 33ef 16be c929 51be
00000010: 50bd 29be 190f 1dbd c3db 903d edb0 0bbe
00000020: 21ae ab3d 46f3 d4bc 144d b43d b619 c43d
00000030: c2d8 8ebc b775 dc3c c491 7bbd ea9d ae3d
00000040: c935 f53d 485b 513d 9ff6 d8bd ef21 91bd
00000050: 2e63 8d3d a895 afbd 06f5 bd3d fef4 acbd
00000060: 92d9 ce3d e2f0 d1bd fcfa 84bd 6806 73be
00000070: 5f78 32be 20d4 c6bd cfae 443d 9f5f aabd
00000080: 71ac 44bd dfb0 94bd 5295 9bbd bf50 77bd
00000090: 782c 7c3d 9f88 723c 4a50 c93c e7fc 6cbd
000000a0: 3303 b8bd a460 e93d 3be6 093e 1dd6 19bd
000000b0: 6a35 6fbd 04f5 9fbd 42a2 f6bd 935c b1bb
000000c0: bb49 e4bb 1bbd e03d 2189 b43d 4952 28bd
000000d0: affb 883d a5c0 dcbd f620 643d 6f74 d8bd
000000e0: c365 83bd cf57 c7bd 29e7 023e 6fa6 883d
000000f0: 75e7 3dbe 3daf 76bc f256 15be c7c1 fbbd
00000100: e84a f03d 2ba7 643d cfdb 203b 1612 c5bd
00000110: f885 1a3e e44f eb3d f937 6c3d 2ece 8e3b
00000120: 823e bcbd 1872 e23c 1dd0 403d 0407 d1bd
00000130: 45b7 b43d 35ba afbd 290e da3d 952a 14be
00000140: fd8c 52bd bc8c fcbd 3cd6 a93c 163a b33d
00000150: 9600 663d 8f17 86bd d964 a8bc d849 8f3d
00000160: 42a3 62bd dccf bd3d 9915 aabd fd78 e5bd
00000170: f36c 1b3d 0f2c 2e3d 2143 a1bd 4a80 99bc
00000180: dee6 f6bd 1ba0 453d 50c9 8e3d 9a11 bdbd
00000190: 8449 febd 3d8e c23c 5a75 2dbb 4cc4 b8bd
000001a0: 38ac 393d 3c75 813d 345b 83bd b73d 53ba
000001b0: cf18 09be 883d b1bd 036c babd 698c 9fbd
000001c0: 8bb1 0ebe 63e9 033d 7ec5 a0bd 832e 5a3d
000001d0: 9601 dcbd f8e4 dd3d 92b7 21bc 4a8f 83bd
000001e0: 4b88 273e 7018 50bd fb56 e83d 865a 543d
000001f0: a05e d13d ee61 f53d cb6e 4cbd 609a 02be
00000200: c558 a73c a67f f8bd cba4 363d efd3 813d
00000210: a8c3 413d 4134 01be 3fff 1bbe 3ef2 8b3d
00000220: 41c6 54bd cb18 10be a78e 8c3d 7a1c 1bbc
00000230: 516c 9a3d 21b7 cb3d 1f50 5abd ac25 133d
00000240: ffb4 adbd e7e5 c7bd 2f26 a33d a9e5 423d
00000250: 62da 28bb ee89 a83b bf85 063e 463f 3a3d
00000260: e017 d03d d5df b2bd 938a ccbc 80ad af3d
00000270: e101 a3bd d252 a7bd 3540 e13c 5a65 d5bd
00000280: 3d0c 233e 35c8 db3d 2314 0b3e 6078 d23c
00000290: 5c40 013c d32b 9ebb c036 12bd 7a4a 7fbd
000002a0: 32ba 2b3d 8eb0 1b3e 476e 6f3c b0f6 813d
000002b0: 25c6 2ebe cc6b cebc 2a4f c63d a09a aabd
000002c0: 3561 1dbc 2fe5 9bbd 9fda 953c 46b6 033c
000002d0: d21c e3bd e83b b3bd 7917 5bbd 8314 b9bd
000002e0: 8970 1bbd f24c de3c 38c2 b23d 977e 033e
000002f0: faa5 223d 30ed 243d f5de 35bd 1703 5abc
00000300: 5d11 7bbd 8a5b 71bd 4478 753d 9de2 62bd
00000310: 7f5d 8a3d d795 4bbc 34e8 d0bd 1ec8 cfbd
00000320: 3e26 a73d 52de a6bc 86a3 a8bd 2021 f5bd
00000330: 1000 e9bd 626b 8fbd 8c9d a83d 9165 063b
00000340: a2a0 a3bc 9188 a4bd e4da beba e362 c33c
00000350: 2cfd 373d be0c f8bc 166a ccbc a810 1d3d
00000360: e00e 113e 4d54 113c 0ca1 073e a489 903c
00000370: 7c9d e3bd db04 043c cb12 11be d182 e03c
00000380: 832e d13d 17d5 333d 3078 873d dfc9 b43d
00000390: d77c 283d 4a30 b4bd 39ef 0ebc 0c6d efbc
000003a0: 03a4 6bbd 1f23 083d 74f5 82bc 73c6 2d3e
000003b0: 1ebd 363e 61bc 2e3e 5773 503e 4de1 0a3e
000003c0: 8b4a d43d 39d7 363d 89b2 073d 3f7f d93d
000003d0: 9a76 b33d ab85 e63d 9bd4 e7bd 348b 143d
000003e0: 2cab 0bbe e67e 9c3d b8e7 323c 5bd9 ff3d
000003f0: 2a51 e03c 5c3a b73c 8fe3 bd3b 5359 063c

cnn.0.bias f4 [8]
-0.10221546 -0.14516737 0.056129552 -0.025980331 -0.028885873 -0.13427158 0.017102461 0.18038057
00000000: 5756 d1bd c1a6 14be 1ae8 653d b4d4 d4bc
00000010: 11a2 ecbc 7d7e 09be 761a 8c3c afb5 383e

cnn.2.weight f4 [8]
0.9395517 0.94580746 1.0257832 0.97151 1.0945959 0.8742169 0.9346024 1.0204967
00000000: 7686 703f 7020 723f dd4c 833f e1b4 783f
00000010: b81b 8c3f aecc 5f3f 1a42 6f3f a39f 823f

cnn.2.bias f4 [8]
0.032598536 -0.011999059 -0.024430733 0.036007453 -0.008174878 0.042470638 -0.011915014 0.084107004
00000000: 0b86 053d b397 44bc f622 c8bc 8d7c 133d
00000010: ecef 05bc b1f5 2d3d 3137 43bc 4b40 ac3d

cnn.2.running_mean f4 [8]
0.36855882 0.1823505 0.274543 0.072811946 0.40047827 0.18999632 0.22484334 0.24415033
00000000: beb3 bc3e 17ba 3a3e e690 8c3e 6e1e 953d
00000010: 7d0b cd3e 658e 423e 553d 663e 8b02 7a3e

cnn.2.running_var f4 [8]
0.42184448 0.1079586 0.15879306 0.018056145 0.3619823 0.110779524 0.11172589 0.0547527
00000000: 00fc d73e 6619 dd3d a69a 223e 7bea 933c
00000010: be55 b93e 60e0 e23d 8bd0 e43d 5e44 603d

cnn.3.weight f4 [32, 8, 5, 5]
0.04659493 0.08802873 0.011259657 0.03845029 0.03343293 0.044728864 -0.0081831515 0.0011668616
-0.00043554086 0.018948676 -0.009522089 -0.03894336 -0.04010492 -0.053006083 -0.0031690716 0.033597577
-0.028426044 -0.05825801 0.013843748 0.015217246 0.014480103 -0.08894971 -0.009493222 0.006179618
0.01998693 0.04001941 0.05640385 0.04170416 0.07754843 -0.034009613 -0.05265427 0.10010857
-0.0031731108 -0.0058075516 0.0040677427 0.036725517 -0.058136947 0.00018862159 -0.038769737 -0.046429805
0.04923043 -0.08074602 -0.002158781 -0.06332134 -0.032537334 0.07899686 0.007813501 0.04565208
-0.03680492 -0.093775325 0.052587967 0.032826085 0.0389507 -0.040769093 0.07916864 0.09064924
0.0436804 -0.018743545 0.016724156 -0.0016916484 0.04426919 -0.11324701 -0.025951644 0.0042222016
-0.06784186 0.05274959 0.008966795 0.043703392 -0.07063032 0.066616796 0.06327411 -0.021843681
0.045789406 -0.046901565 -0.06474038 0.08748811 0.029185716 0.020094417 -0.00797614 0.046479106
-0.05682096 -0.045809366 0.021916373 -0.02904899 0.0059275078 -0.013841121 -0.029093431 0.013587183
-0.023629356 0.019368893 -0.028502954 -0.05090161 0.013265764 -0.06299213 -0.074982405 -0.04019903
0.071837306 0.064787135 0.032123033 -0.0040543606 -0.08198599 0.04191936 -0.09050143 0.018802848
-0.05816035 -0.005316672 -0.08521501 0.036801364 -0.04947133 -0.016864795 0.008648977 -0.030844953
-0.085788816 -0.04149041 -0.07114452 -0.113417625 -0.13161589 -0.083238535 -0.10867394 -0.15800779
-0.042966392 0.014199292 -0.031516556 -0.005757815 0.010061918 0.031374898 0.07416867 -0.053626686
-0.059680436 0.008202325 -0.0790454 -0.048544582 -0.04478236 -0.06226403 -0.0056336597 -0.018451339
0.021059334 0.026276965 -0.07822956 0.05137287 -0.03327226 -0.063483976 -0.046933845 -0.052843317
-0.015695615 0.0077528507 0.031540122 -0.05110089 0.05069615 0.021158699 0.042371415 -0.025821015
-0.06836493 0.032647967 -0.04183013 0.049424235 0.04314395 -0.026204553 0.019510875 0.03899445
0.032497633 -0.02350493 0.003980514 -0.019355662 -0.05528089 -0.034851328 -0.095221594 -0.047417045
-0.090204775 0.01758669 -0.034429226 -0.054564405 0.021330219 -0.08811757 0.0019613453 0.013178149
0.002794488 -0.017878491 -0.09672332 0.02107365 -0.104109384 -0.089610785 -0.0030838775 -0.10513712
-0.038803753 -0.08771632 -0.0065051 0.02050947 -0.09113498 -0.028283123 0.08566692 0.0067323344
-0.027068393 0.059916135 0.094247885 -0.004139627 0.002678466 -0.019052468 -0.077843614 -0.076467305
-0.07047139 -0.062286403 -0.120861225 -0.051739525 -0.0643611 -0.013409221 -0.054871798 -0.023567442
0.0016222629 -0.02741618 -0.07593993 -0.06757456 -0.03642162 -0.06872503 -0.043132693 0.04913183
0.013705322 0.05201122 0.026610224 -0.0137244845 0.05930925 0.049338274 -0.0835058 -0.025103685
0.028770288 0.023711795 0.038655072 -0.060702767 -0.0205816 0.018273408 -0.0249714 -0.001893918
0.03346473 -0.039946005 0.0141803445 -0.04105301 0.048914243 0.0015273842 0.039498556 -0.005716918
-0.07731948 0.070697226 -0.035985164 -0.029666673 -0.05262664 -0.08979371 0.038188074 -0.07711671
0.033135362 -0.004992542 -0.045033313 -0.011853674 -0.020437518 -0.07654675 -0.08557712 -0.05731339
00000000: 53da 3e3d 6848 b43d 6d7a 383c 0d7e 1d3d
00000010: f8f0 083d 9d35 373d a012 06bc 61f1 983a
00000020: 4e59 e4b9 413a 9b3c 8902 1cbc 1383 1fbd
00000030: 0e45 24bd e81c 59bd 33b0 4fbb 9d9d 093d
00000040: bcdd e8bc f39f 6ebd e3d0 623c c151 793c
00000050: f43d 6d3c 442b b6bd 7689 1bbc 657e ca3b
00000060: a1bb a33c 65eb 233d b907 673d fbd1 2a3d
00000070: b6d1 9e3d aa4d 0bbd 01ac 57bd b905 cd3d
00000080: f7f3 4fbb 464d bebb b34a 853b 7f6d 163d
00000090: 0221 6ebd b9c8 4539 04cd 1ebd 2e2d 3ebd
000000a0: d9a5 493d 2b5e a5bd 567a 0dbb 9eae 81bd
000000b0: de45 05bd 1bc9 a13d 3304 003c adfd 3a3d
000000c0: c1c0 16bd 470d c0bd 7b66 573d a574 063d
000000d0: c58a 1f3d 7efd 26bd 2b23 a23d 4fa6 b93d
000000e0: 38ea 323d 108c 99bc 1901 893c 4dba ddba
000000f0: 9c53 353d 0cee e7bd 8b98 d4bc 655a 8a3b
00000100: acf0 8abd f40f 583d 77e9 123c 5402 333d
00000110: a1a6 90bd 636e 883d db95 813d 85f1 b2bc
00000120: ac8d 3b3d db1b 40bd 9b96 84bd f72c b33d
00000130: e216 ef3c 0c9d a43c 5bae 02bc e060 3e3d
00000140: 18bd 68bd 9aa2 3bbd f789 b33c 26f8 edbc
00000150: 8a3b c23b dfc5 62bc 5955 eebc c79c 5e3c
00000160: 5a92 c1bc 83ab 9e3c 077f e9bc 357e 50bd
00000170: a658 593c 0502 81bd 6090 99bd bda7 24bd
00000180: 701f 933d 1eaf 843d 7193 033d 71da 84bb
00000190: 45e8 a7bd a3b3 2b3d d058 b9bd 6e08 9a3c
000001a0: 8c39 6ebd 7a37 aebb 3585 aebd 07bd 163d
000001b0: 73a2 4abd 0a28 8abc 70b4 0d3c 8eae fcbc
000001c0: 0cb2 afbd d9f1 29bd 38b4 91bd 8047 e8bd
000001d0: 51c6 06be f778 aabd 7190 debd cbcc 21be
000001e0: 87fd 2fbd 26a4 683c 8117 01bd 0eac bcbb
000001f0: beda 243c f782 003d bee5 973d a8a7 5bbd
00000200: 7973 74bd 0b63 063c 8ee2 a1bd afd6 46bd
00000210: b56d 37bd 9108 7fbd 909a b8bb 4327 97bc
00000220: a084 ac3c ca42 d73c d236 a0bd 5c6c 523d
00000230: 7e48 08bd e303 82bd b43d 40bd 3c72 58bd
00000240: 1794 80bc a00b fe3b 3730 013d 2b4f 51bd
00000250: c4a6 4f3d 0255 ad3c a68d 2d3d 9886 d3bc
00000260: ea02 8cbd e0b9 053d 1256 2bbd 1171 4a3d
00000270: b6b7 303d eeaa d6bc 45d5 9f3c a5b8 1f3d
00000280: 3d1c 053d 698d c0bc f96e 823b c48f 9ebc
00000290: 376e 62bd 44c0 0ebd 8a03 c3bd 6038 42bd
000002a0: 48bd b8bd f611 903c a905 0dbd ed7e 5fbd
000002b0: b6bc ae3c fc76 b4bd ea89 003b 2ae9 573c
000002c0: bb23 373b ea75 92bc e016 c6bd a6a2 ac3c
000002d0: 4d37 d5bd dc85 b7bd e11a 4abb 2152 d7bd
000002e0: aff0 1ebd 9da4 b3bd bc28 d5bb 7a03 a83c
000002f0: faa4 babd 02b2 e7bc 2372 af3d ea9a dc3b
00000300: 89be ddbc 9f6a 753d 0905 c13d b5a5 87bb
00000310: 3489 2f3b ec13 9cbc 796c 9fbd e49a 9cbd
00000320: 4e53 90bd 0720 7fbd 1786 f7bd d3ec 53bd
00000330: c1cf 83bd 59b2 5bbc 40c1 60bd 8210 c1bc
00000340: 1ca2 d43a e697 e0bc 6586 9bbd 8864 8abd
00000350: d62e 15bd b5bf 8cbd e8ab 30bd 753e 493d
00000360: 498c 603c b809 553d affd d93c a9dc 60bc
00000370: 42ee 723d ee16 4a3d 1705 abbd 3ea6 cdbc
00000380: abaf eb3c 3d3f c23c c854 1e3d 77a3 78bd
00000390: be9a a8bc 1db2 953c d290 ccbc 583d f8ba
000003a0: 5012 093d 6c9e 23bd ad54 683c 3327 28bd
000003b0: 4d5a 483d 8232 c83a 3dc9 213d fc54 bbbb
000003c0: ad59 9ebd b5c9 903d 2e65 13bd 8607 f3bc
000003d0: 088f 57bd c4e5 b7bd 196b 1c3d 5eef 9dbd
000003e0: f2b8 073d 7a98 a3bb da74 38bd ea35 42bc
000003f0: 956c a7bc 8bc4 9cbd 0f43 afbd 72c1 6abd

cnn.3.bias f4 [32]
-0.03627579 0.101039924 -0.02217182 -0.07010775 -0.09516505 -0.041517016 -0.094529055 -0.08206417
-0.09181412 -0.055356998 -0.07897696 0.02258565 -0.06026625 0.020318124 -0.05188896 -0.09508672
0.0037087954 0.027699998 0.019386502 0.025103616 -0.053330623 0.0054353 0.020339675 0.01306408
-0.0483398 -0.09379136 0.06330729 -0.1199414 -0.045282993 -0.03622734 -0.012545384 -0.09466432
00000000: ec95 14bd 05ee ce3d ada1 b5bc a794 8fbd
00000010: e5e5 c2bd bf0d 2abd 7398 c1bd 4211 a8bd
00000020: 0b09 bcbd 05be 62bd acbe a1bd 8b05 b93c
00000030: bed9 76bd 3272 a63c 8589 54bd d4bc c2bd
00000040: 430f 733b 1beb e23c 71d0 9e3c 19a6 cd3c
00000050: 3671 5abd 9a1a b23b 649f a63c b90a 563c
00000060: f4ff 45bd af15 c0bd 41a7 813d d6a3 f5bd
00000070: a97a 39bd 1f63 14bd 278b 4dbc 5edf c1bd

cnn.5.weight f4 [32]
0.96242 1.0767409 0.92660594 0.96474963 1.0642195 0.94584 0.99946874 0.9880511
1.0549129 0.9842151 0.990547 1.0425785 0.9881995 0.9005941 0.96706206 0.9841491
0.98980504 0.9999557 1.0112646 1.0030844 0.9906484 1.118387 0.94856745 1.0121948
0.9677287 0.9696299 0.90039814 0.9023954 0.9567946 1.0180537 0.96852255 0.9945553
00000000: 2861 763f a5d2 893f 0c36 6d3f d5f9 763f
00000010: 5838 883f 9222 723f 2fdd 7f3f ebf0 7c3f
00000020: 6307 873f 85f5 7b3f 7d94 7d3f 3673 853f
00000030: a4fa 7c3f 568d 663f 6191 773f 32f1 7b3f
00000040: dd63 7d3f 19fd 7f3f 1e71 813f 1265 803f
00000050: 229b 7d3f 4e27 8f3f 51d5 723f 998f 813f
00000060: 11bd 773f aa39 783f 7e80 663f 6303 673f
00000070: 7ef0 743f 954f 823f 18f1 773f 2d9b 7e3f

cnn.5.bias f4 [32]
0.011560873 -0.039184846 -0.020292027 -0.026850676 -0.057823423 -0.053942833 -0.0771736 0.040328
-0.036396615 0.017439134 -0.008396813 -0.026168399 -0.017385405 0.021062028 -0.086317785 -0.033251807
0.035541832 -0.07994376 -0.060367018 -0.08928533 -0.03340793 0.010360869 -0.08405422 -0.05551484
-0.044679362 -0.017232526 -0.024537412 -0.06713303 -0.023287734 -0.053221237 -0.03284246 -0.020043021
00000000: d169 3d3c 4a80 20bd 773b a6bc f3f5 dbbc
00000010: 41d8 6cbd 29f3 5cbd 310d 9ebd f92e 253d
00000020: 9e14 15bd 84dc 8e3c c992 09bc 1c5f d6bc
00000030: d66b 8ebc 468a ac3c 61c7 b0bd 0c33 08bd
00000040: 5094 113d 8eb9 a3bd 6843 77bd 3adb b6bd
00000050: c1d6 08bd a2c0 293c 9e24 acbd 8763 63bd
00000060: b501 37bd 3a2b 8dbc af02 c9bc 0b7d 89bd
00000070: ebc5 bebc 83fe 59bd d185 06bd 4331 a4bc

cnn.5.running_mean f4 [32]
0.39264962 0.47278497 0.34988314 1.0118196 0.27156088 0.6826432 0.24720287 0.29983613
0.31724486 0.31610483 0.2683063 0.22583124 0.2886347 0.97829527 0.8641607 0.29678595
0.30925283 0.5621724 0.46906546 1.0288546 0.3730837 0.50100404 0.9207489 0.36469993
0.36855248 0.70602477 0.62157893 0.30359915 0.49472302 0.21739082 0.2516924 0.5735513
00000000: 5f09 c93e df10 f23e e223 b33e 4e83 813f
00000010: 070a 8b3e b4c1 2e3f c022 7d3e 1f84 993e
00000020: eb6d a23e 7ed8 a13e 715f 893e 4e40 673e
00000030: edc7 933e 8f71 7a3f a339 5d3f 54f4 973e
00000040: 6356 9e3e 88ea 0f3f 5929 f03e 82b1 833f
00000050: d404 bf3e cd41 003f 33b6 6b3f f3b9 ba3e
00000060: e9b2 bc3e 0abe 343f cc1f 1f3f 5971 9b3e
00000070: 564c fd3e b39b 5e3e d4dd 803e 42d4 123f

cnn.5.running_var f4 [32]
0.25932893 0.30272713 0.34700847 3.6332066 0.13733417 1.8482946 0.20396562 0.19313897
0.44622862 0.43232727 0.22838095 0.1696056 0.22746061 2.364544 2.6785815 0.25766903
0.20649414 0.4199348 0.37926647 1.281474 0.36118436 0.37557852 0.9390136 0.3610829
0.36914536 1.7488755 0.5247766 0.38129228 1.3497596 0.18956512 0.19689749 1.550618
00000000: c3c6 843e 0dff 9a3e 18ab b13e 7586 6840
00000010: 54a1 0c3e eb94 ec3f 5ddc 503e 39c6 453e
00000020: 1478 e43e 005a dd3e b2dc 693e 17ad 2d3e
00000030: 6feb 683e b054 1740 e16d 2b40 32ed 833e
00000040: 3373 533e b201 d73e 372f c23e 5707 a43f
00000050: 28ed b83e d44b c03e 3263 703f dcdf b83e
00000060: 9f00 bd3e 27db df3f c257 063f be38 c33e
00000070: ecc4 ac3f 5c1d 423e 7f9f 493e a77a c63f
